src/rainbow/results/2019-12-12-01/ddqn-checkpoint.pth (torch_old, 440621 bytes, 11 tensors)

fc1_val.weight f4 [256, 84]
00000000: 6882 013b aecc e63c 580e 2bbd 7fa8 a13d
00000010: 031e 12be a81c 8bbc 152a 28bd ebe6 c13d
00000020: 0990 0d3d 929e d43d c1bc bb3b 1dea 733d
00000030: 28e9 67bc c7d6 683d 6fad a6bd 7a98 0f3d
00000040: b1ba afbd 6b10 b6bc 3f14 ad3d ebb2 e73c
00000050: fe43 ad3d 5ab7 033e 2cd4 623c e52a 3dbd
00000060: d4fe 0d3e 69e9 bf3d 02ca debb f80a a7bd
00000070: 2313 22bd 9d47 05bd 8037 17bd f044 1e3b
00000080: 7a08 4dbd f64d 49bd 535a a6bd a1eb fabd
00000090: 4031 f9bd 76c3 c83d ed89 e0bd b192 23be
000000a0: 329f a1bd e38d 7cbc 6e17 f93c a35f f23d
000000b0: b062 cd3c 5a66 7fbc d162 c1bd 7896 b5bd
000000c0: 01fe d1bc c0db d1bd f517 f0bc 829a f7bc
000000d0: 1ca2 903d 5aa7 e63d 516a 113e a3c5 5cbd
000000e0: 2f5e b7bd 338a a33d c1af a03d f7bb b1bd
000000f0: 5d7c de3c ffad b73d bfcc a4bb a258 8dbd
00000100: d083 483d 4590 753d 2ccd 193d 8358 79bd
00000110: 6943 9bbd d35e 873d faa6 f13d 8e6e 583c
00000120: a0c9 e7bc 064f 88bc 12aa 983c 50e9 93bc
00000130: 0310 e83d 0ff2 ba3c 5d87 f83b 6ec1 2c3e
00000140: d6e1 8dbe 0d29 41bd 3d3c 103c f14d 5f3a
00000150: f44f 04be 8f03 7b3b 1120 803d c031 023e
00000160: 6e6d f83c 06e0 eabc 944a 033e 896d 27bc
00000170: 3f08 b2bd b7af e23d 3bc4 80bb 477d e13d
00000180: f1d5 403d 2922 663c a880 45bd fe94 e23d
00000190: 0d88 013d 0a63 a9bb bff0 9d3d ce06 fe3d
000001a0: e96c e5bc c4b9 983c 4332 1a3e e35a ab3d
000001b0: c40a c73d 78d9 f13a 223b 07bc 5e51 0bbd
000001c0: 446c 16bc ef43 b3bd 1190 293d 79a5 c8bb
000001d0: f013 7d3c 991b a3bd 5b98 57bd 2dd0 a03d
000001e0: aaa3 303d 0038 b9bd 5dc9 2e3d 65fc 5a3d
000001f0: 3312 63bd 34b4 ebbc 2842 ea3d cdf2 8dbc
00000200: f44f 9a3d 10ec 4dbb 14fc 6abc 2753 a6bd
00000210: c0df c3bd 6c47 a2bd 7544 68bb 4dd4 163d
00000220: 2931 873d d66c 0e3d 5603 97bd bc67 e43d
00000230: 5583 d53c d3b1 50bd 985e cc3d 740c a73c
00000240: f6d8 063c 3bf3 c6bd 00c1 78bd bee4 4abd
00000250: 7bff 483d a0b2 ddbc c0b6 3e3d 948e 23bd
00000260: b130 093e ee73 b23c fa1d 033d 14e2 62bd
00000270: da9c 493d 8cde 2e3d abc9 113d 0082 dbbc
00000280: f701 e53d 7ed6 aabd 109b 623d 3722 d23c
00000290: ed86 ffbe 7077 c9bd 46fb a73c 8299 3abe
000002a0: 3d03 0a3c ed58 87bb ad47 003e 2a27 983c
000002b0: d71b 2f3d bbe1 9d3d d4fe 823d 976a 34bd
000002c0: d6ff 8b3d 0b77 d1bd 8afa 1f3d 0fa9 4d3d
000002d0: 5da1 003d 2c52 a3bd 9053 003e e905 973d
000002e0: e116 cabc f4f8 9fbd 9ab4 1b3c 83d0 fa3c
000002f0: 4e0f 87bd 4d72 0a3b 8ea3 ba3d 3905 2ebe
00000300: a037 34be 6b08 82be eed4 75bd 1786 d73d
00000310: 8251 05be d985 32be f662 64bc 68f0 4bbd
00000320: 427c 33be a745 29be 1d1c dc3c e080 11bd
00000330: f657 24bd 33b5 c53d 344b da3d 1931 abbd
00000340: ee05 1e3a 4055 953d 07d3 af3d 6924 05bd
00000350: 1c8f ba3d 0a6a c2bc 7b63 38bd db5d 1ebc
00000360: 0361 d4bd a13c 8a3d f22f 603d 1e38 7a3d
00000370: 36d6 ed3d 04e9 903d df9f 2a3a dd4d 963d
00000380: 7864 8abc d57d 023e 502f a8bd c127 b4bc
00000390: f245 cabd 5f16 b7bc 8e29 71bd ced6 823d
000003a0: f60f d3bd db52 edbd 63b1 d5bd 4eea babc
000003b0: 79b2 97bd b23c 963c 73ee 363c 1559 233d
000003c0: 6796 34bd 5d1c e63c 6a3b c53d f711 d4bd
000003d0: f3e3 b0bc c4cc 81bd 96b9 1c3d d94a c53d
000003e0: 7e0e bebd fd15 463e 86a9 22bd 5b11 9e3d
000003f0: d790 a13d be21 003b 8f9a 37be 2f42 adbd
0.0019761566 0.02817377 -0.041761726 0.07893466 -0.14269261 -0.016981438 -0.041055758 0.09467872
0.03456119 0.103818074 0.0057292883 0.05954944 -0.01415471 0.056845453 -0.081385486 0.035057522
-0.085805304 -0.022224626 0.08451127 0.028283557 0.08460234 0.12862912 0.013844531 -0.046183486
0.1386674 0.09370691 -0.0067989836 -0.08156389 -0.03956903 -0.032539 -0.036918163 0.0024149977
-0.050056912 -0.049146615 -0.08122697 -0.12251974 -0.12167597 0.09802906 -0.10963807 -0.15973927
-0.07891692 -0.015414688 0.03040668 0.118346475 0.025071472 -0.015588367 -0.09442676 -0.0886659
-0.025633814 -0.10246992 -0.029308299 -0.030225042 0.0706217 0.112623885 0.14200713 -0.05389942
-0.08953511 0.07985344 0.078460224 -0.086784296 0.02715891 0.08968734 -0.0050292904 -0.06901671
0.04895383 0.05995204 0.037549183 -0.060875427 -0.07581217 0.06609883 0.117994264 0.013209952
-0.028294384 -0.016639244 0.018635783 -0.018055588 0.11331179 0.0228205 0.007584496 0.16870663
-0.27711362 -0.04715829 0.008803424 0.0008518389 -0.12921125 0.0038301682 0.06256116 0.1271429
0.030325618 -0.028671276 0.12821418 -0.010218986 -0.08692979 0.11068671 -0.0039296425 0.11010223
0.04707903 0.01404623 -0.0482184 0.11063574 0.03162389 -0.005169277 0.07711934 0.12403642
-0.028006034 0.018643267 0.15058236 0.08366945 0.0971885 0.0018451652 -0.008253844 -0.034013145
-0.009181086 -0.08753192 0.041397158 -0.0061232415 0.015446648 -0.07964248 -0.052635532 0.078522064
0.043124832 -0.09043884 0.042672504 0.05346336 -0.055437278 -0.028772451 0.114383996 -0.01732769
0.07534781 -0.0031421222 -0.014342327 -0.08121329 -0.09564161 -0.07923779 -0.0035441194 0.03682356
0.066011734 0.034771763 -0.07373683 0.11152598 0.0260636 -0.050950836 0.0997898 0.02039168
0.008230438 -0.09714361 -0.060730934 -0.04953455 0.04907177 -0.027062714 0.046561003 -0.039930895
0.1339748 0.021783795 0.03201101 -0.055391386 0.04922185 0.042692706 0.035592716 -0.026795387
0.111820154 -0.083416924 0.05532366 0.02565108 -0.49907628 -0.09837234 0.020505559 -0.18222621
0.008423624 -0.004130474 0.12527342 0.018573362 0.04275116 0.0770907 0.06396261 -0.044046964
0.06835906 -0.10227784 0.039057292 0.050210055 0.031403888 -0.079746574 0.12531877 0.07374174
-0.024669113 -0.07811156 0.009503508 0.030617004 -0.06594716 0.0021125257 0.09113227 -0.1699418
-0.17599344 -0.25397047 -0.06001752 0.105236225 -0.13019374 -0.17433871 -0.01393961 -0.049789816
-0.1752787 -0.16530477 0.026868874 -0.035523295 -0.04012295 0.09653702 0.10658875 -0.08358974
0.0006028105 0.07291651 0.08585172 -0.032505427 0.09109327 -0.023732204 -0.045016747 -0.009665932
-0.10370066 0.06749845 0.054733224 0.061088674 0.11613123 0.07075694 0.0006508808 0.0733907
-0.01689361 0.12743314 -0.08212149 -0.021991612 -0.09876622 -0.022349535 -0.05887752 0.06388627
-0.10305779 -0.11588069 -0.104342245 -0.022816803 -0.07407088 0.018339489 0.011165249 0.039879877
-0.044088747 0.028089697 0.09630473 -0.10354989 -0.02159307 -0.06337884 0.038262926 0.09633417
-0.09280108 0.19344325 -0.03971245 0.07718154 0.07888954 0.0019551362 -0.17930053 -0.08459889

fc1_val.bias f4 [256]
00000000: 8080 07bc 9f30 12bc e015 343d 7917 ea3d
00000010: 3e3b 9dbd a6d8 75bb a24f 213d 2648 d23a
00000020: 2410 1f3d dc85 3f3d 1423 84bd bb10 b73c
00000030: 5371 12bd f2c4 89bc 4d0f b93c 2165 4ebd
00000040: 08bc 19be 7157 b4bd 5e4d 3c3d 4a83 debd
00000050: 16d9 08be 02a2 a13c 5715 513b 8c6c 5dbd
00000060: cae1 f83c 0bfb 1c3b d938 023e bf71 6f3d
00000070: fea4 8f3d 17c4 283b 8882 48ba 65c1 73bc
00000080: c4f9 c8bc 6a7e 03bc 6732 51ba ea00 db3d
00000090: 9b79 20bd 5660 bd3d 7f8d 8abc cf24 cdbd
000000a0: 2a72 05be bf9c 24bd 8d2a c63d 2ed9 5ebd
000000b0: 488c c73c 6a69 58bd 5952 4dbc 0329 1abd
000000c0: ac2d 83bd 16c9 9cbc 2bf7 ed3c cc66 5ebb
000000d0: 4436 b1bc 82d1 a0bb bf50 27bc 0a0d 773c
000000e0: f143 b83d be21 edbb 832e ad3d 24b3 e43b
000000f0: f8f0 10bd 1077 4a3d a071 fa3c fff4 273d
00000100: 0f61 c03c 2cc4 dabd d204 d9bb 515d 873b
00000110: cb0d 0b3d 0211 103e 9f2c c3bc b3b2 5cbd
00000120: d6ba 4a3d f854 023c 018f 1fbc 0f8b 7bbd
00000130: ba52 263b 7116 e7bb e514 013c b694 3abd
00000140: 21bf 363d 39d4 da3d 761a a5bc 7593 e0bd
00000150: b842 7dbc 452c d73d e6ed 87bc 9d26 cabc
00000160: 0925 d83b 7fc0 a43c d05e 273e 7aeb cdbd
00000170: 6a95 a2bd ee3f d7bc 9d86 a93b 5bc1 70bd
00000180: 428a 0dbd 9037 9e3d 3806 17bd 058a cc3b
00000190: 0bff 98bd c677 c93d 481c 4fbd 01cc e439
000001a0: 4283 0c3d 6dbe 83bd c25d f33d 60d9 afbd
000001b0: 5312 7e3d 6f2a 063c 7746 ccbc 47de c1bd
000001c0: e7cc 3bbb 2c19 4fbd aec7 453c 5ec5 3abd
000001d0: a93b 39bd ee20 31bd 362d e6bc dc5f fe3c
000001e0: 1862 ae3c 48db d73c 5413 f4bc 1c22 a83b
000001f0: fb82 1e3d 593f b8bc 16cb 67bd 38a3 813c
00000200: e8d6 bbbd 3d07 10bc 5a23 933d 54f4 843c
00000210: 0896 cbbc 9e14 c5bd 41b9 e8bd cb4e 9fbd
00000220: a3e9 43bd cc79 81bc ff17 4b3d e9cb adbc
00000230: b92f 9e3d 07dc 9d3c 30a7 993a 1039 67bc
00000240: 9cdf 08bc fb26 42bc 046c 853c 0138 9a3d
00000250: 0b9e 86bc 86b5 0fbd 2d5f 5dbc 25cf 9a3c
00000260: 53be 9d3d 7018 c13d 7550 cb3c 7ceb 8cbc
00000270: 5c4d 2dbd 5fa3 b3bd 4073 a5bc 4109 01bd
00000280: 30fd c1bc 13b5 babc 1860 4ebd 60c0 a63c
00000290: 6cfa 843d 0955 98bd 669d 0e3b 9573 74bd
000002a0: 5c5d 17bd c0b7 333c 5e2b c73c 3686 833d
000002b0: ead5 c83d 9ddb 223c 9f50 1e3d f44a 9fbc
000002c0: a67b 8cbd 9b84 19bd a1e6 cbbc 0c26 b13c
000002d0: 368f 763d b562 e7bb c744 7c3d 60f4 4c3d
000002e0: d835 933d 0ec3 933d ce1f 1fbb f908 78bc
000002f0: 9b3b e1bd 17a5 44ba 15f1 53bd bdb3 843d
00000300: 67cf fcbc 1195 583d 97e9 b1bc dd1e 36bd
00000310: 174c 1d3d 0236 acbd a5bb 1f3d ba07 463d
00000320: 1acc 09be 4e23 cbbd ecf0 ae3d 9c93 7ebd
00000330: 9c35 dd3b 08e3 57bd 2491 863d cc4b ac3d
00000340: 5476 a9bb 4c32 8dbd 2772 8b3d aa0d 843a
00000350: 46ee c3bc 75dd 953d 65c7 153d f624 87bb
00000360: a5eb 7bbd 0477 f0bb 10fa 7a3d 4d43 21bc
00000370: 06d1 4b3d 5fb2 953d 2ef6 04bb eaa9 263a
00000380: 01c5 00be 3b1b 0ebd 4882 2abd 3224 9b3d
00000390: 751b c53c 34da 723d 8715 d63d e888 6c3d
000003a0: 9e7b e2bc b1de 5fba 19eb 903d e2ce ae3d
000003b0: f490 cf3c 4415 cc3c 1fbb e63c 59b8 5dbd
000003c0: e7b0 c0bd 3ca7 2d3d 31de 7d3c 1042 ba3d
000003d0: 9afd d73d fe4b 89bc d0e6 dcbc 379e e9bc
000003e0: dc70 423c e210 82bc 6348 95bd f33c dbbc
000003f0: 8015 e53d 5a3d a2bd 926a ac3d 4abd b03d
-0.008270383 -0.008922725 0.043966174 0.11430258 -0.07677315 -0.0037513166 0.039382584 0.001604323
0.038833752 0.046758518 -0.06452003 0.022346845 -0.035752606 -0.016817544 0.022590304 -0.050389413
-0.15013134 -0.088057406 0.04597222 -0.10864885 -0.13364062 0.019730572 0.0031903589 -0.054058596
0.030381102 0.0023953344 0.12716998 0.058458086 0.07013892 0.0025751644 -0.0007648845 -0.014877652
-0.02453316 -0.008025745 -0.0007980228 0.10693534 -0.039178472 0.0924689 -0.016913174 -0.10016786
-0.13031831 -0.040188547 0.09676085 -0.054406337 0.024358884 -0.052834906 -0.01253184 -0.037636768
-0.064051956 -0.019138854 0.029048523 -0.0033935783 -0.021632321 -0.004907788 -0.010212122 0.015078792
0.08997334 -0.0072366884 0.08456137 0.006979363 -0.035386056 0.049429953 0.030571759 0.04100513
0.023483781 -0.10681948 -0.006622889 0.004130997 0.0339487 0.14068988 -0.023824988 -0.05388136
0.049494587 0.007954828 -0.009738685 -0.061411913 0.0025378899 -0.007052236 0.007878517 -0.045551978
0.04461587 0.106850095 -0.02015422 -0.10965625 -0.0154578015 0.105064906 -0.016592931 -0.024676615
0.006596212 0.02011132 0.16344762 -0.10054679 -0.07938655 -0.026275601 0.005173518 -0.05877815
-0.03455568 0.077254415 -0.036871165 0.006242039 -0.074705206 0.09837298 -0.05056408 0.00043639544
0.034304865 -0.06432805 0.11883117 -0.08586383 0.062029194 0.008188828 -0.024935944 -0.09466224
-0.0028656067 -0.050561115 0.012071533 -0.04559838 -0.045222912 -0.043244295 -0.02809773 0.031051569
0.02128701 0.026349679 -0.029794373 0.0051310193 0.03869913 -0.022491144 -0.056590162 0.0158249
-0.091718495 -0.008790788 0.07184477 0.016229786 -0.024851814 -0.09623073 -0.113634594 -0.077787004
-0.047830235 -0.015805148 0.04958343 -0.021215396 0.07723946 0.019269956 0.0011722799 -0.014112726
-0.008354094 -0.011850114 0.016286857 0.07530213 -0.016432783 -0.035085224 -0.013511461 0.018897602
0.07702317 0.09428489 0.024818638 -0.017202131 -0.042310104 -0.08771395 -0.020196557 -0.031502966
-0.0236803 -0.022791421 -0.05038461 0.020355403 0.06493077 -0.07438094 0.0021761297 -0.05968054
-0.03695427 0.010969102 0.024312671 0.06422083 0.09806426 0.009940055 0.038651105 -0.01944492
-0.068595216 -0.037479978 -0.024890246 0.021624587 0.06019517 -0.0070613273 0.06158903 0.05003774
0.07188004 0.07214938 -0.0024280432 -0.015138858 -0.10997697 -0.0007501407 -0.051743586 0.06479595
-0.030860616 0.052876536 -0.02171783 -0.044463027 0.038402643 -0.08408739 0.03899731 0.048347212
-0.13456765 -0.09918843 0.08542046 -0.06215249 0.0067507755 -0.05270675 0.06570652 0.084128946
-0.0051715765 -0.06894359 0.06808882 0.0010074873 -0.023917329 0.0731763 0.03656711 -0.004124279
-0.061504025 -0.0073384065 0.061273634 -0.009842706 0.049759887 0.07309412 -0.0020288336 0.00063577166
-0.12575151 -0.034693938 -0.041628152 0.07575263 0.024060944 0.059290126 0.10453325 0.05774775
-0.027646836 -0.00085399585 0.07076091 0.085355535 0.025337674 0.024912484 0.028165398 -0.054130886
-0.094087414 0.042395815 0.015494869 0.09094632 0.105464175 -0.016759869 -0.026965529 -0.028517826
0.011867728 -0.015877191 -0.07289197 -0.026762461 0.111857414 -0.07921858 0.08418764 0.08629854

fc2_val.weight f4 [128, 256]
00000000: b8ef 35bd 0ebe 11be debe 12bb 7578 21bd
00000010: 3988 01be e555 023d ca64 663d ba7b 923d
00000020: 8343 263d 5666 2f3d 334b 7abd 6c59 6dbd
00000030: b865 373d 095e 36bd ae81 083e c545 48bd
00000040: 7bfe 2fbc 0fcb f7bd e331 493c 3289 93bd
00000050: de6b 103d 9279 d23c b682 023e 654f c5bc
00000060: 36d0 5c3c 7fbb 353d 60bc be3b dca8 6a3d
00000070: 405f 41bd d942 9cbd 92e8 883d 303b a1bd
00000080: 39f9 cebd 4524 50bd 54da 763d 12ee cebb
00000090: 0102 92bd 1797 473d 046e e1bb 29a9 98bc
000000a0: 7fd3 123d de2d 67bd 2062 00bd 75ff 9c3d
000000b0: f37d b53d 39c8 08bd 991b 2fbd f85a 2ebb
000000c0: 613d 6cbd 47e9 d03c a365 983d 9bf1 98bd
000000d0: ece8 8bba 9df3 f3bc 2083 a5bd 25f6 bc3c
000000e0: 4756 8abd c9dc 4c3d 269a 34bd fdab 32bc
000000f0: b089 37bc d291 a03d 151e 2abd 76b6 fa3c
00000100: 1c56 333d 53c9 e7bd 9db4 7dbd 7e6a 8f3d
00000110: a725 5abd 2652 fe3c 4b3b 18bb b411 bfbc
00000120: 7428 853d 4d1e 723d f914 ebbd 156d ca3d
00000130: fffd 763a 3864 38bb 9e48 4e3d 81e9 c8bc
00000140: 481e 1fbd 9715 903c b815 80bd 0964 84bd
00000150: 5a49 e1bb 135e 2abc 5473 a6bd 93e4 03bd
00000160: 15a8 c2bc e4b2 203a 5fae afbb 3137 d43c
00000170: 97f3 79bd 6ad9 4d3d f4fc 37bd 39b1 5ebd
00000180: daec 87bd 57cd d4bd 0a96 05be b39d 7bbd
00000190: 7e26 70be 87d6 a33d 749a 87bd e6f2 7a3d
000001a0: b0ef 863d c614 bb3d 4e66 943c 3dbd 81bd
000001b0: ebab e43c ffbe 583d f9a6 cc3c 342a 923d
000001c0: bf2e 32bd 2739 90bd 394e 3dbe af46 22bd
000001d0: fa74 5e3d c789 a63d 2957 ff3d 537b cdbc
000001e0: e9b1 c9bc 6eee d23b 0133 75bd 2d31 acbd
000001f0: eac3 b03c cf80 9b3c 26a2 173d 998e 5bbd
00000200: 938b ef3b 461e 373d dce7 ed3b fbdf 903c
00000210: a787 d3bd 3392 993d 3679 8d3c fe54 773d
00000220: e9da 193c 12db 9ebc 1943 30bd c0a2 b63d
00000230: 3e8c 30bd 3c6d a9bb c16a 3a3c a857 8bbc
00000240: d618 8abd c780 02bc 5bc6 7a3c a29b 393d
00000250: dc53 663d e7eb ce3c 1a48 ab3d 66a8 3f3d
00000260: 78e8 80bc 46d0 0a3c 297c e53d 0539 093b
00000270: 2402 023d d67e ca3d 4d2b bebd afd8 c4bd
00000280: d577 aabd 574e 0e3d 3906 e03d f511 a03d
00000290: bfed 0a3d a9cd f9bc 942d 8dbc dcdf 11bd
000002a0: 411c 0fba df40 65bc 0528 123d 1c89 003e
000002b0: dded 61bd c384 313d fbea 8abc cb51 f8bc
000002c0: 4e9d c63c 21f4 5abd d2eb 03be b26b d53d
000002d0: ff3c 203d 8542 cfbd 587b 64bc 12ef 8f3c
000002e0: 85dc 983d 497c f63c 3995 c0bc b09d a5bd
000002f0: 2430 14be 98b4 703d 2bd6 b7bd b7d0 2bbd
00000300: a2b4 89bd 7a25 86bc 4317 573c 4143 f1bc
00000310: 06aa a53d 3953 6ebd f967 8fbc f520 c9bc
00000320: acc7 b63d 1453 483d 3bb8 593d 6e48 ac3c
00000330: 06b1 a5bd 7857 883d f5a2 6abc e6be 003d
00000340: fbb7 53bc 490e 4c3d 8d36 c4bd 911d 5cbd
00000350: 04c5 023d 79f8 6f3d 6aee 823c 46be 283c
00000360: 0d95 6dbc 0c2c 82bd baef b33b f95e 91bb
00000370: d505 7a3d 0d74 403d b3c1 273c bc25 73bd
00000380: 1bad a8bd 4b24 bb3d dbc8 613d b82e a73c
00000390: 9d90 cf3c d4ed 0ebd d859 6f3d 2151 453d
000003a0: dedb a93c 622a f7bd 0b96 99bc a72f 79bc
000003b0: a9e8 45bb 6777 a7bc 00de 1fbc 3cbc 1fba
000003c0: 5100 673c 1aca 72bc da49 24bd a87e 4c3b
000003d0: 2459 cb3d b7de 653c bfe7 1bbd ca5e 743c
000003e0: 1627 173c 2ee7 80bd f2e9 5fbc 8dc3 bb3d
000003f0: cc33 773c a3d3 eb3c a297 753c 3970 2b3d
-0.044418067 -0.14232656 -0.0022391598 -0.039421517 -0.12649621 0.031820197 0.056248464 0.07152505
0.040591728 0.042822205 -0.06110687 -0.057946607 0.04477474 -0.044523273 0.13330719 -0.048894662
-0.010741825 -0.12099277 0.01227996 -0.07203902 0.03525912 0.025692735 0.12745175 -0.02408571
0.013477376 0.044368263 0.005820796 0.057289943 -0.047209978 -0.07629938 0.06684984 -0.07872617
-0.10106129 -0.05081584 0.060266808 -0.0063150013 -0.071292885 0.048728075 -0.00687957 -0.01863535
0.03584623 -0.056440227 -0.03134358 0.07665912 0.088619135 -0.033394072 -0.04275093 -0.0026604515
-0.057675723 0.02550186 0.07441261 -0.074679576 -0.0010674275 -0.02977925 -0.08081651 0.02306659
-0.06754737 0.050015245 -0.04409232 -0.010905263 -0.011202261 0.07840313 -0.041532595 0.030604582
0.043783292 -0.113176964 -0.061939824 0.07002734 -0.053258564 0.03104503 -0.00232287 -0.023323871
0.065018564 0.05911093 -0.114786096 0.09884087 0.00094220036 -0.0028135907 0.050362222 -0.024525406
-0.038847238 0.01758842 -0.062541425 -0.06464393 -0.0068751993 -0.010398406 -0.08127466 -0.032200407
-0.023761788 0.00061301724 -0.005361363 0.025905224 -0.06102332 0.05025617 -0.04491897 -0.05436823
-0.06636973 -0.10390728 -0.13045517 -0.06142969 -0.23452184 0.07999902 -0.066212565 0.061266802
0.065886855 0.091348216 0.018115189 -0.063349225 0.027914008 0.052916523 0.024981963 0.07136956
-0.04350161 -0.07042151 -0.18486871 -0.03961819 0.054310776 0.08131748 0.12467796 -0.02508322
-0.024620967 0.0064371144 -0.059863094 -0.08407817 0.021577794 0.01898232 0.03701987 -0.05360279
0.0073103397 0.044706605 0.007260306 0.017684927 -0.10328608 0.074985884 0.017269712 0.06038379
0.009390571 -0.01939157 -0.04303274 0.08917761 -0.043102495 -0.0051704925 0.011377991 -0.017009571
-0.06743018 -0.007965273 0.015306081 0.04531444 0.05623232 0.025258971 0.08363362 0.046791457
-0.01573585 0.008472508 0.11205322 0.0020938527 0.031740323 0.09887473 -0.09285603 -0.096116416
-0.083236374 0.03474268 0.10938687 0.07815925 0.03391814 -0.030493574 -0.017233647 -0.03561388
-0.0005459227 -0.013992517 0.035682697 0.12552303 -0.055158485 0.043339502 -0.01695775 -0.03031244
0.02424493 -0.053455476 -0.12882927 0.10420932 0.03912067 -0.101201095 -0.013945423 0.017570052
0.07463936 0.03008856 -0.023508655 -0.08086717 -0.14471489 0.058765978 -0.08976396 -0.041947093
-0.06723906 -0.016375292 0.013128105 -0.029451014 0.0808907 -0.058184836 -0.017505633 -0.024551848
0.08924803 0.048907354 0.05315421 0.02103063 -0.08090405 0.06657308 -0.014321079 0.031432055
-0.012922282 0.04981831 -0.09580717 -0.053739134 0.03192617 0.05858657 0.015982825 0.010299271
-0.0145008685 -0.063560575 0.005491224 -0.0044363705 0.061040718 0.046985675 0.010239053 -0.05936216
-0.08236142 0.09137782 0.05512319 0.02040802 0.025337512 -0.03489478 0.05843529 0.048173074
0.020734724 -0.12068631 -0.018748304 -0.015209115 -0.003019849 -0.020442678 -0.009757519 -0.0006093418
0.0140991965 -0.014818693 -0.040109493 0.0031203423 0.099291116 0.01403015 -0.038062807 0.014915178
0.009225627 -0.06294094 -0.013666617 0.09168158 0.015088033 0.02878744 0.014989765 0.04185507

fc2_val.bias f4 [128]
00000000: dbb6 a53d fdb4 9cbc ccee 303d b15e 013d
00000010: 8c1d 593d 0338 743a 956c 503d 5ed6 25bc
00000020: b059 8b3d 45ee b5bd 6909 0dbd 2c40 dbbc
00000030: cc6a 023c 72a5 8abd 7378 6a3d bb64 fa3c
00000040: 9120 98bc 9699 fbbc f855 3ebc a909 f5bb
00000050: a6d9 5dbd 56f0 66bd 5027 853d 96bd d2bc
00000060: ee01 d43b f05d 853d 5faa 9a3d 38de 33bd
00000070: a64a 643d 781f 3bbc 3b13 cabc 0a9c 2c3a
00000080: c6fe 873d 6335 a43c 30f8 243d 30b3 84bc
00000090: 7301 da3c 7e50 d03c aed2 413c 81ec 313d
000000a0: 309b c33c 708d 743d edd4 803d e0cb abbc
000000b0: 69b3 3d3d e479 b83c 8340 763d 2dd8 6abd
000000c0: 6bc3 493c eaeb b9bc 5090 92bd 4a17 e2ba
000000d0: 36ca a83c 6cd1 95bd 8979 55bc 1153 343d
000000e0: 1b6a 88bb 3627 98ba f812 2dbd eabf ca3c
000000f0: 492c 03bc e8a0 54bd ae74 8fbd f9f4 863d
00000100: 6f73 1a3b d4df d3bb 2acd bbbd 92e3 893c
00000110: b675 5abd 340f a33d 1633 893d 3fb2 3dbd
00000120: 2f73 0abd d37f d93c 0b24 16bd 56f8 dfbc
00000130: 179b 70bc 48a7 6bbd 8468 cebc 1a66 2f3d
00000140: 79b9 203d 8af4 603d f79a 393d 6c13 733c
00000150: 0dac 79bc 7e4b 43bd 843a b0bb ea82 21bd
00000160: ebc9 343d 9dfb 38bd d2f0 edbc ebf1 16bc
00000170: 5778 403d 4f34 453d ac42 5e3d 7b24 ca3b
00000180: 0ea7 33bd 7d93 5f3d a0af f8bc 1ad3 573d
00000190: 789c 493d 1636 ee3c 5888 c63c cdd2 073d
000001a0: 838f 403d ab88 59bd 99a6 853d 05a4 cbbb
000001b0: 89dd 89bc ecdb 03bd fc6f bcbc f438 3b3d
000001c0: 99ce 2abd 8cc2 21bc efce 843d d091 d6bc
000001d0: f46b 16bc 62f2 1b3d 02cd d6bb 699c 37bd
000001e0: 7b93 a13d 6a9a bd3d 6e09 603d 0efc 1e3d
000001f0: e276 16bc baca a9bc 474e 77bd 056a 05bd
0.080915175 -0.01912927 0.043196484 0.031584445 0.053006694 0.0009316208 0.050884802 -0.01012191
0.06804216 -0.08883337 -0.034432802 -0.026763998 0.007960033 -0.067698374 0.057243776 0.03056561
-0.018570216 -0.030712884 -0.011617176 -0.007477958 -0.054162644 -0.056381546 0.06501639 -0.025725167
0.0064699566 0.06512058 0.07552027 -0.043913096 0.055735253 -0.011421077 -0.024667373 0.0006584531
0.06640391 0.020044988 0.040275753 -0.016198725 0.02661202 0.025429007 0.011830015 0.04343844
0.02387771 0.059705198 0.06290612 -0.020971239 0.046313677 0.02251906 0.060120117 -0.057335068
0.012314658 -0.0226955 -0.07156432 -0.0017249372 0.020604234 -0.07315335 -0.0130294645 0.04402453
-0.0041630394 -0.0011608365 -0.042254418 0.024749715 -0.008006164 -0.051911265 -0.07004677 0.065896936
0.002356734 -0.0064658914 -0.09169991 0.016832147 -0.053334914 0.07961884 0.06699197 -0.046312567
-0.033801254 0.02655021 -0.036655467 -0.027340095 -0.014685414 -0.05753258 -0.025196321 0.04282198
0.03923938 0.05492071 0.0453138 0.0148361735 -0.015238774 -0.047679417 -0.0053780694 -0.03943149
0.044137876 -0.045161832 -0.029045496 -0.009212951 0.046989765 0.04814559 0.054262802 0.0061688996
-0.043860488 0.054584015 -0.030357182 0.052691557 0.049221486 0.029078525 0.024234936 0.03316002
0.047011863 -0.053108852 0.065259166 -0.006214621 -0.016829269 -0.032192156 -0.023002617 0.04570861
-0.041700933 -0.009873044 0.06484782 -0.026192576 -0.0091810115 0.03807295 -0.0065552006 -0.0448269
0.07889458 0.09257968 0.054696493 0.038814597 -0.009183617 -0.02072655 -0.060377385 -0.03257181

fc3_val.weight f4 [1, 128]
00000000: c7b1 a73d 8cea 1cbe f0b6 1b3e 5437 c5bd
00000010: fe2c 0fbe 2116 6e3f 4d69 363e 111f afbd
00000020: 0452 0f3e bf13 0a3f e009 3e3e 52d1 c13e
00000030: 6d2f 293e 9a83 623e b9db 95bd c27c 953e
00000040: 822e 1abe 7996 a23e fb18 0cbf 282c 553e
00000050: c1a3 27bf 15af a83e 8442 e4bd 0287 853e
00000060: 4ab9 1b3e 71a4 2d3e 1234 ca3d 6123 883e
00000070: 7324 a33e 32f0 4c3e f13c 973e ced5 fabd
00000080: e3ba 6c3e fec2 b8bd dc01 78bd 3055 a93e
00000090: 4683 0abe 560e 963e 7a13 753e 3bd3 183e
000000a0: 58e9 05be f348 fa3e 5554 eebd 4d79 81bd
000000b0: 7275 d0bd 97c5 123e 8538 543e 2d43 d4be
000000c0: 8c81 8e3f 212e a93e 2cc5 603e 88b7 bb3e
000000d0: bc5c 183e cf62 2abf 29ea 873e b594 13be
000000e0: 91b4 10be 9929 3c3e bd43 333e 5ef4 ffbd
000000f0: 33f5 bbbd 1be4 8f3e a140 d23e 8790 d8bd
00000100: 1079 743e e796 4b3f 387a cc3e be25 47be
00000110: 6ca3 413e 856d 383e c50b ab3d 6607 e9bd
00000120: e173 b13e 3e54 f5bd 4bb4 99bd fd8e bc3e
00000130: 862f f23e baab 1dbf 1237 44bf 256f e73d
00000140: 3f11 663e fd41 e1bd 9dbf d1bd 6756 453e
00000150: a6ad e0bd 5b3a 543e 68cc ab3e 3296 82be
00000160: a6a6 6c3e 02e5 2f3e 7b32 d2bd f364 f5bd
00000170: f6e4 a2bd e45e 08be 5423 173e 5101 adbd
00000180: 727b 0c3f 859d 0d3e f947 fd3c 0564 b2bd
00000190: 2fa2 a83e 35c1 aebd 112c 653e 82ef c23d
000001a0: bd7c b9bd 084c b6be ab0d 333e 021b 6e3e
000001b0: d4be 943e a51f dabd f31b 1ebe 31ec eebd
000001c0: f2cf d4bd f52f 943e 9cfb ae3e 5917 6d3e
000001d0: 19b9 d13e 42a6 6b3e d417 85bd d772 b93e
000001e0: 0911 0e3e bec3 0b3e ad4a 8fbd 3ba9 a23e
000001f0: e354 003e f345 03be 74de 0bbf ec8d 5abe
0.08188205 -0.15323848 0.15206504 -0.096296936 -0.13982007 0.93002516 0.17813607 -0.08550847
0.1399613 0.5393638 0.18558455 0.3785501 0.16521998 0.22120515 -0.073172994 0.29196745
-0.15056804 0.31755427 -0.5472562 0.20817626 -0.65484244 0.32946077 -0.11145499 0.26079565
0.15207401 0.1695726 0.09873213 0.26589492 0.31863746 0.20013502 0.29538682 -0.12247811
0.23118167 -0.09021567 -0.06054865 0.33072805 -0.1352664 0.29307812 0.23933211 0.14924328
-0.13077295 0.4888378 -0.11637179 -0.063219644 -0.10178651 0.14333187 0.20724685 -0.414575
1.1133285 0.33043006 0.21950215 0.3666346 0.14879125 -0.6655702 0.26545838 -0.14412196
-0.1413138 0.18375243 0.17506309 -0.12497781 -0.091776274 0.28103718 0.41064933 -0.105744414
0.23874307 0.79527134 0.39936996 -0.19447991 0.18909997 0.18010528 0.08351854 -0.11378364
0.3465872 -0.119789585 -0.07505091 0.3682784 0.47301883 -0.6159016 -0.7664653 0.11300496
0.22467516 -0.109989144 -0.102416255 0.19271241 -0.10970621 0.20725386 0.33554387 -0.25505215
0.23110446 0.17177203 -0.10263535 -0.11982145 -0.07953827 -0.13317448 0.1475957 -0.08447517
0.5487586 0.1382962 0.030918108 -0.087104835 0.32936236 -0.08532945 0.22380091 0.09518339
-0.09056995 -0.35604882 0.17485683 0.2325249 0.2905184 -0.10650567 -0.1544035 -0.11666144
-0.10391225 0.28942838 0.34176338 0.23153438 0.4096153 0.23012641 -0.064986855 0.36220428
0.13873686 0.13648888 -0.06996665 0.31769738 0.12532382 -0.12819652 -0.5463631 -0.21343201

fc1_adv.weight f4 [256, 84]
00000000: 49fa fcbc 8d50 6ebc 8fdd 323d 8491 e23d
00000010: 5b48 6dbc b31d f3bb 1696 7fbd f0a3 a6bd
00000020: 4f69 0fbd 6a7e 55bd 533c 7cbd 5c0c d13d
00000030: 61a4 d73d 6ff3 8ebd 2e60 b6bd 15ef dd3c
00000040: 58f2 22bd b079 b4ba 99a1 a1be f341 bd3b
00000050: fcff 08be 65c8 d3bc e5d8 debd a690 fd3d
00000060: 7300 f8bc ed65 bd3d bad3 003e a2ad ca3c
00000070: 0ea0 893d d967 843d f143 e33d 067b 9c3c
00000080: 64a6 b23d 33c3 a8bd 8387 5abd 1684 d1bd
00000090: 402b 63bd bb17 973d d371 2c3e 1038 d43b
000000a0: 89b8 a83c 87db 5d3d 2379 34b8 63d3 10be
000000b0: 25f5 0b3d 0556 a1bd ce14 463d 806a 30bc
000000c0: e17e 2f3d f8d7 d3bc 7d3c e5bc f101 b93b
000000d0: 966f d1bd 6444 b53d 9a30 93bd 3ddd f4bc
000000e0: 862b 24be 8cf9 a9bd 1a82 a0bd 4470 abbd
000000f0: 5f7a 3f3d 4b55 85bd 5621 0d3d e9d5 1f3d
00000100: 839d 67bd 324d b63d 3450 863c e5fd 6cbd
00000110: 243c 84b8 d232 17bd f6be c73c c708 fcbd
00000120: a657 093d 7818 17bd cfcb bf3d 90d5 c53d
00000130: 3e94 e63c 93ba b53c 9816 bbbc 7670 a1bd
00000140: a297 61be 37cb d13d 360b c73d 521f 503d
00000150: ba5d 663c 9a8f 96bb 76bd 9d3d a110 77bc
00000160: 16a5 02bd 4a82 0dbc cb03 8d3c 2120 663b
00000170: fa23 b73d 8840 feba c461 ad3d 0221 73bd
00000180: b46c 90bd dfe7 97bd 5c0d 8f3d 695a ec3d
00000190: ce19 a73d 6b3b a8bd f5e8 193c 3b3a b23d
000001a0: 7d99 7cbd e2ac 7d3d 436b ea3d 6b8e 4ebc
000001b0: dd2a 923c 4194 f0bc fbec 49bd 6c7a 5dbd
000001c0: fb95 b1bb 730b 693d d761 86bd 2c71 d13d
000001d0: 46d2 9c3d 5265 81bd 6185 ce3c 32dc 3d3d
000001e0: 55f4 08bd bb5d 1bbc 1179 9a3b 5476 da3d
000001f0: 85e6 ac3c b3d6 a93c 9d7b c4bd 73e9 033c
00000200: 12fd 2bbc 7523 8a3d f097 91bd 252f 083c
00000210: 1000 a73d 5b49 0d3d 2d26 7e3d 4ea1 da3c
00000220: f36f 9bbd 80fe 41bd cb11 b23b 3976 6e3c
00000230: 8ff4 0e3d bf6e 5ebb b3b7 a13d 1104 813d
00000240: 61ac 443c ae15 653c 8405 643b e0ea 243d
00000250: 8dc8 b83c 5715 ce3d d649 9e3c 48ad 19bd
00000260: c042 23be 05f8 003d f751 6e3d 90ed 8d3d
00000270: 8766 833d 9292 5abc 056d c33d 8d5a a13d
00000280: 3e19 efbd ccb6 673c fd7a 153d 80bc a53c
00000290: eb67 223f 4e7d 933e 0400 bfbd ac3e bcbd
000002a0: 6ff4 3f3d c60f 0e3d c1ab 90bb 7ee7 423d
000002b0: 9a87 c73d acaf 72bd f91c c13d 0891 76bd
000002c0: 1898 a73d efe3 c0bc 255e d83d c25a 8b3d
000002d0: a8a8 e03c 6f93 663d 480f 34bd 9d1a b03d
000002e0: fce8 8d3d ce2d 463d 00f1 c03d b32c 603d
000002f0: 049a 913d 1666 cf3d 47fd 70bd feb0 b23b
00000300: edee 6f3c d76c 40bd 0999 a23d 9fb3 54bd
00000310: 07ca 683d 42ae 8e3d 6687 92bc 5e09 bebd
00000320: 3b70 073e 3af7 a83d f516 9a3d 6488 973d
00000330: 79d0 a7bd 8d66 04bd 771f 7bbc 7ce1 95bd
00000340: a30a e9bd f188 33bd a943 75bd 1259 fcbd
00000350: 96bf ab3d 5ef7 383d 40a6 b83d f9a2 d13c
00000360: 4f8a 453d 23a9 3b3d 38a5 e4bd b7b1 4ebb
00000370: 4ee5 84bd 0e00 4c3d 94a5 213d 0842 17bd
00000380: 8480 283d 7a13 f4bd 28ef 973d e160 853c
00000390: 545b 26bd e0e0 f93d 2b26 5ebc 949e 08bd
000003a0: 8dc2 ae3b 6104 b6bc 82f0 3b3d 0224 cabd
000003b0: ad44 403d 8307 03be 7049 abbc 0143 01be
000003c0: 9dec 9bbd 3c15 66bd 3441 27bd c159 86bd
000003d0: dd9f 94bd 146e b33c de8e 303e 211e 943d
000003e0: afdd 4cbf f510 7bbd 8785 453d fc89 87bd
000003f0: b044 0eba bb13 abbd 2f2e be3c feb2 423d
-0.030881064 -0.014545572 0.043668326 0.11062911 -0.014482583 -0.007419312 -0.062398992 -0.08136737
-0.03501254 -0.05212251 -0.061580967 0.102074355 0.105294 -0.06980025 -0.089050636 0.027091542
-0.0397819 -0.0013769176 -0.31568602 0.005775684 -0.133789 -0.025852391 -0.10881213 0.12381105
-0.030273652 0.092479564 0.12580767 0.024740998 0.06719981 0.0646512 0.11096943 0.01910163
0.08723143 -0.08240356 -0.05335189 -0.102302715 -0.05546117 0.07377573 0.16840295 0.0064764097
0.020595806 0.054164436 -4.302816e-05 -0.14143138 0.034169335 -0.07877735 0.048359685 -0.010767579
0.04284561 -0.025859818 -0.027982945 0.0056459834 -0.102263615 0.08850935 -0.071870044 -0.02989065
-0.16032228 -0.082995504 -0.07837315 -0.08371022 0.04674756 -0.06510409 0.03445562 0.03902236
-0.0565467 0.089014426 0.016395666 -0.05785932 -6.3054526e-05 -0.0369137 0.02438305 -0.12306362
0.033530854 -0.03688857 0.09365045 0.096598744 0.02814686 0.022183692 -0.022837922 -0.07882778
-0.220305 0.10243838 0.09718935 0.05081112 0.014060432 -0.0045947554 0.077021524 -0.015079648
-0.03189572 -0.00863702 0.017213723 0.0035114365 0.08942409 -0.0019397894 0.08465913 -0.05935765
-0.070519835 -0.07417273 0.0698497 0.11540682 0.08159219 -0.08214458 0.00939392 0.08702513
-0.061669815 0.061932452 0.1144624 -0.012607197 0.017842704 -0.029367568 -0.049298268 -0.05407183
-0.0054194904 0.056895684 -0.0656163 0.10226664 0.07657294 -0.063181534 0.025210084 0.046352573
-0.03343614 -0.009482796 0.0047141393 0.106671005 0.021106014 0.02073226 -0.0959389 0.008051264
-0.010497348 0.06745044 -0.07109058 0.008312021 0.08154309 0.034493785 0.062048126 0.026688244
-0.07589712 -0.04736185 0.00543425 0.014554554 0.034901198 -0.0033940522 0.07896366 0.06299604
0.012003989 0.01398222 0.0034793327 0.040263057 0.022556568 0.10062664 0.019322317 -0.03751877
-0.15943432 0.03148653 0.058183637 0.06930077 0.0641604 -0.013340609 0.09542278 0.07878599
-0.116747364 0.014142703 0.036494244 0.020231485 0.63439816 0.28806537 -0.09326175 -0.09191641
0.04686397 0.03468301 -0.004415006 0.04758405 0.09742661 -0.059249565 0.09429354 -0.060196906
0.081833065 -0.023546187 0.10564832 0.0680442 0.027424172 0.056292947 -0.043959886 0.08598826
0.06929204 0.048383527 0.09420967 0.05473013 0.07109454 0.10126893 -0.058835294 0.005453228
0.014644367 -0.046978798 0.079393454 -0.051929113 0.056833293 0.06966831 -0.017886829 -0.092791304
0.13226406 0.0825028 0.0752391 0.07399061 -0.0819406 -0.032324363 -0.015327326 -0.07318398
-0.11378982 -0.04383177 -0.05987898 -0.12321676 0.083861515 0.045157783 0.09016085 0.025590407
0.048227604 0.0458156 -0.111643255 -0.0031539032 -0.06489049 0.04980474 0.03946455 -0.036928207
0.041138187 -0.11917777 0.07418662 0.016281547 -0.04061444 0.122010946 -0.013558905 -0.033354357
0.005333251 -0.022218885 0.045883663 -0.09870149 0.046940494 -0.12795834 -0.020909041 -0.12623216
-0.0761349 -0.056172594 -0.040833667 -0.06560088 -0.07257054 0.021903075 0.17242 0.07232309
-0.8002576 -0.06129547 0.048223045 -0.06618115 -0.00054271054 -0.08353373 0.023215381 0.04753398

fc1_adv.bias f4 [256]
00000000: d191 28bd 85c2 30be 3418 c23d ab78 983d
00000010: 320b 5bbe cd8c cebc 633a 503d 87de 0f3d
00000020: ec6f 90bc 7c89 253c cfde c53d fffd 523c
00000030: f974 13bd dae2 533d dd80 0abd 2942 6dbd
00000040: 683e a93d 9e8d 38bc cef7 2c3d 0bae a7bc
00000050: 66aa e3bb 3275 3bbd 5f35 ddbd 25a6 9f3d
00000060: e2a2 b13d 182c f53d 326f cf3d e039 d23d
00000070: a7b3 88bc 8ecb 283c 5ba5 7cbc fde7 003e
00000080: 4c2b 053d 8249 a93d 57ac adbb 8c01 6dbd
00000090: 45f3 163e 6fef 3dbd 4a65 83bd 6c5e 2bbd
000000a0: 3baf 64bd 84a9 b6bd 7d3d 55bd 06e7 913d
000000b0: 2453 85bd 947b 8bbd c6e5 74bd c93a 0b3c
000000c0: 380f 95bc b139 ca3c f37e b93d 0169 f2bc
000000d0: 23c4 58bd b3a2 6d3d 32f0 b5bd ac82 973d
000000e0: 170f 78bd e9fc 933d 0083 95bc a58e 813b
000000f0: d34d 61bd 650c 5cbd 8bc4 67bd e3ad 6ebc
00000100: 7e97 0fbd 886e 813d 83d0 a1bd ec4a 1d3d
00000110: d51b c1ba 7a92 d73d 2daa b33c 0712 c9bc
00000120: 14a4 a0bc d603 a5bc 1819 b0bb 607c 3cbd
00000130: f5d3 d5bd d6d5 af3c a0db 17bd cd73 fcbd
00000140: eb2b 573c fa31 203d 64de 2a3d 83fc 6fbc
00000150: 65c5 813d 8698 e03d 11b8 233d b43e f4bd
00000160: 8eaf 693c 031c 8bbc 9254 9c3c d25d 9bbc
00000170: 15be ab3d 66c4 bb3d 5c78 9cbb 4936 b6bc
00000180: 6125 313c cfc7 4d3b e67b d0bc a2c6 86bd
00000190: 9fed cbbd 6e5a fc3b fa78 9d3d bb4c b43c
000001a0: b7c9 f33c 72ba bd3d aca1 95bd 7555 44bd
000001b0: 041d d5bd fc58 05bd 7de2 a8bd 4f93 473d
000001c0: acf2 a73c 3387 a9bc 7226 dbbd 7efa 47bd
000001d0: f856 9f3d c198 333e f357 b83c 464d 54bd
000001e0: b0eb 38bd f6d3 70bd c0a7 3abd db58 e03b
000001f0: aa04 1bbd f083 be3d e3ee 03be d55e 38bc
00000200: eda0 b73d dc94 4f3d 06e7 843c f83d 7fbc
00000210: dbaa 4bbc 5896 4cbc cd14 5a3c fb87 a5bd
00000220: 11d9 cebd ce63 843c c8d5 09bd 3066 273a
00000230: f99e 353b 3005 0dbe 40cc 33be dece 9e3d
00000240: ea1b 85bd 8b4d 92bd 4591 7a3d 1d36 893d
00000250: 0ea8 80bc f36c 8c3c 12a9 893d 20a8 d43d
00000260: e3f5 103e 4ab9 523e cb80 6cb8 65a7 603d
00000270: 6c7f 11bd 0ac6 79bc c304 b43b 54ec babc
00000280: 0284 f53d a64a bebc 5ac1 903c 81c8 143e
00000290: ed2e 9bbc 1dcc 0e3c 665f 0b3e 9515 143e
000002a0: 17fd dfbd 6639 d13d bf73 d9bc 5b1c 273c
000002b0: 0677 5b3d e848 fa3c 7f6f cebd 1ef6 183e
000002c0: fa7c 023e 4e4f d9bd 51d2 33bc 801d 54bd
000002d0: 233d 523d 79fe 4e3e 2da9 793d 42a1 893c
000002e0: ac75 a73d 5092 2cbe 372c 79bd 1d26 eb3d
000002f0: 5b92 64bc ad7f 9fbd 0aab 09be 75f4 823c
00000300: d539 0cbd 7285 d23d 79af d53a 0a68 f7bd
00000310: 6a59 17be 1ae2 eebd 7ba5 fabb 10b8 9d3c
00000320: d679 06be 2c21 29be c56c 13be 74e9 91bd
00000330: dc74 9e3d 09ae 043e 2369 79bc ff27 113d
00000340: 675b d9bc d537 9c3c 4d41 4abd e4fb 9cbc
00000350: 339f 113d 5b90 073d 14d7 88bc a068 1d3e
00000360: 75ac ac3d 52dd eabd f275 e53c bd88 da3d
00000370: 8221 0f3d 2545 8cbd 30aa 3b3d d55c 04bd
00000380: 74cf afbc ed83 a639 50ec 893d c967 cebd
00000390: 9987 d0bd c17e a83b 2d7b 763c 4661 7d3d
000003a0: 70be 3b3e e023 3ebd 442d d6bd 91d6 3dbd
000003b0: 6ed6 493c 2533 153e 0f03 953c 8f6b 543d
000003c0: 4795 e2bd b376 093e d71b 24bd 8cde 01bc
000003d0: 3c56 933e d294 46bc 3627 0bbb b3c4 b2bd
000003e0: f967 f03d aedc ec3c cccb d03b 7abb 57bc
000003f0: cab2 67bd 58da ccbc 3e64 d6bd 8e36 36bd
-0.041154686 -0.17261703 0.09477273 0.074448906 -0.2139099 -0.025213623 0.050836932 0.035124328
-0.017631494 0.01010358 0.09661638 0.01287794 -0.036000226 0.051730014 -0.0338143 -0.057924423
0.08263856 -0.011264233 0.042228512 -0.020468732 -0.0069478033 -0.045766063 -0.10801195 0.077953614
0.086736456 0.11971301 0.10128631 0.10264945 -0.016687227 0.0103024375 -0.015420283 0.12588497
0.032511994 0.08265974 -0.0053000855 -0.057862803 0.14741237 -0.04637092 -0.06415804 -0.041838095
-0.055831175 -0.08919051 -0.052060593 0.07124142 -0.065099984 -0.0681068 -0.05978944 0.008497902
-0.018195733 0.024685713 0.09057417 -0.029591085 -0.052921426 0.05801649 -0.08883704 0.073979706
-0.060561266 0.07225973 -0.018250942 0.003953772 -0.05500586 -0.053722758 -0.056583922 -0.014567825
-0.035056584 0.0631991 -0.079010986 0.03840153 -0.0014733026 0.10525985 0.021931732 -0.024544729
-0.019609489 -0.02014343 -0.005374085 -0.04601705 -0.10440818 0.02146427 -0.037074685 -0.12326775
0.013133029 0.03911016 0.041715994 -0.014647606 0.06336478 0.109665915 0.03997046 -0.11926022
0.014263047 -0.01698113 0.019083295 -0.018965635 0.08385865 0.091683194 -0.00477509 -0.022242682
0.0108121345 0.0031399613 -0.025449704 -0.06580855 -0.09957432 0.0077012097 0.0768909 0.022009244
0.029759271 0.09264077 -0.07306227 -0.04793306 -0.10405925 -0.032555565 -0.08246324 0.04872447
0.020501457 -0.02069435 -0.10700692 -0.048822872 0.0778026 0.1753874 0.022502875 -0.051831506
-0.045146644 -0.05879589 -0.045570135 0.00684653 -0.037846245 0.09302509 -0.12884097 -0.0112530785
0.08966241 0.050679073 0.016223442 -0.015578739 -0.012430872 -0.012487017 0.013310623 -0.08082577
-0.10099996 0.016160872 -0.033651143 0.00063857716 0.0027713163 -0.1377151 -0.17558384 0.077543005
-0.06499465 -0.071436964 0.061173696 0.066997744 -0.015705135 0.017141795 0.06721701 0.1038363
0.14156298 0.20578495 -5.6386732e-05 0.05484714 -0.03552191 -0.01524497 0.0054937317 -0.022817768
0.11988069 -0.023228955 0.017670322 0.14529611 -0.018943274 0.008715657 0.1361061 0.14461358
-0.10936945 0.10216026 -0.02654445 0.010199632 0.053580306 0.030552343 -0.1007986 0.14937636
0.12742987 -0.10610829 -0.010975436 -0.051785946 0.051327836 0.20214261 0.060952354 0.016800527
0.08176741 -0.16852689 -0.060833182 0.11481879 -0.0139509095 -0.07788024 -0.13444152 0.015985707
-0.03423484 0.10279359 0.0016302905 -0.12080391 -0.14780203 -0.11664219 -0.0076491213 0.019252807
-0.13132414 -0.1651656 -0.14396961 -0.07124606 0.07737133 0.12957014 -0.01522282 0.035438534
-0.026532842 0.019069592 -0.049378682 -0.01916308 0.035552215 0.033096652 -0.01670412 0.15371943
0.08431331 -0.11467995 0.028010342 0.10670612 0.034944065 -0.06849126 0.0458166 -0.032315094
-0.021461226 0.0003176028 0.06734526 -0.10078389 -0.10182113 0.0051420634 0.015044016 0.061860345
0.18334365 -0.04642093 -0.104578525 -0.046347205 0.01231919 0.14570291 0.018189935 0.05186039
-0.11063629 0.13424186 -0.040065613 -0.0079265945 0.2877673 -0.012120442 -0.0021233088 -0.08728924
0.11738581 0.028913822 0.0063719507 -0.0131672565 -0.05656699 -0.025006458 -0.104683384 -0.04448562

fc2_adv.weight f4 [128, 256]
00000000: dc02 25bd a00f dbbd 2350 b13d 03e5 f5bc
00000010: bedd 29be 149d 2abc 9b0c ab3d 57de c23d
00000020: dbae 9f3c c2ca 923b f70a 9fbc a860 f53c
00000030: 46bb 9fbd 94df 1e3d 8497 72be 54b0 de3d
00000040: bdea 303c ed4a 1fbd 9543 8dbd 6ba2 68bc
00000050: a6f1 703d eb46 903d 199f e8bb a644 9a3d
00000060: e135 043c aee2 6c3d 2d23 61bc c2e3 553c
00000070: a1a5 113e 8bfa 89bc 6317 48bd 2f6e 463c
00000080: 8e6d cd3d 4e15 023d 147c 3dbc 13d7 3b3d
00000090: 491e cd3d 89fe ca3c a033 4dbd bce3 5b3d
000000a0: d780 02bd e6f1 ff3c ed26 4c3d 1908 3fbd
000000b0: 90c1 a3bc cec1 cebd d947 6cbd 596b a13d
000000c0: 546b d03d 32d3 343d cac2 76bd ce4d 15be
000000d0: 7395 de3c b8b9 cf3d 964e db3c 556c 9838
000000e0: 9992 5d3e 8bcc a63d 51a9 0c3d 410b 0b3e
000000f0: ccb3 8f3d 6858 ee3c d057 283d d6f5 42bd
00000100: 5019 66bb 8fac e93d ab67 bd3d 04bb de3d
00000110: 9ba9 203e 3f93 90bb 47c7 833d 3c4b 43bd
00000120: 5c82 0a3d 371c 4e3d 055d ba3c 4a46 7a3d
00000130: de58 bdbd b803 c6bd 9a70 0ebe 1a15 43be
00000140: 92cf 89be 8526 643c 8d8a 983d 7e08 7fbd
00000150: cb8b 8c3e fce0 56bc 4916 09bd 6312 9ebd
00000160: fc7e bb3d cf96 45bd cf08 9c3d 38b5 03bd
00000170: b0c1 09bd c80e 063c 50ed 673d d115 0fbd
00000180: 6816 9d3c 02a9 8b3d 35cf b7bc fa7b 5f3b
00000190: ceed b4bd d267 98bc 0d2a 10bd 0696 5d3d
000001a0: 73e3 0f3e c0af 233e 748f 563d ece8 a73d
000001b0: 49eb 0e3c 47f6 923d e81a 1cbd 396f c53b
000001c0: c970 243d 349e 52bd 5063 d5bd 0f9e 323d
000001d0: 98fd 4f3e 5e16 e53c 1eba 53be cd3c 213e
000001e0: 8d4c 963d 30fe f13c 3967 9d3c a392 1abe
000001f0: 5ed2 a8bd 8181 3b3d d567 823d ccae 1cbe
00000200: f6c6 0e3e 9bad ba3d e16b c2bd d5b8 6fba
00000210: e01a 01bd f5f5 873d e1a9 df3b 031a 3c3c
00000220: f179 b4bd 3462 8fbd 9d44 99bd 8d14 5fbc
00000230: 86ee a63d 0843 5ebd c994 313e 354f 07be
00000240: d142 adbb 2c0e 1a3d a207 c23d 08d9 813d
00000250: 8467 92bd fe50 73bd 7df6 dcbc 2f3f e13c
00000260: ec14 f5bc 9528 4a3d 921e c13c 9ef8 993d
00000270: da1e 5ebd 7dc6 bcbc 8bda ca3c 2bbb e6bc
00000280: bcfb 253c 3754 b83b b2d6 2c3e a64d 86bd
00000290: a505 da3d d26c 04be 6696 1cbd 4bba 7d3b
000002a0: 5c25 8cbd 1576 983d bc73 2a3d 9d14 103e
000002b0: f460 873d 062f 5dbd c034 74bd b4de 973d
000002c0: 2b12 d7bc e61f e73d 7054 77bd 8c18 233d
000002d0: ad0c 87bd 4ae6 0bbd f2d8 ecbc 3c79 8d3d
000002e0: 41f7 5ebc 9a53 963d 0514 92bd 92c6 cabd
000002f0: 92cf cc3d 1863 033e 5b3d 873d c85c 493e
00000300: 8506 21bc df70 923d 67c2 113e 973b cf3d
00000310: 007d f53d 4543 56bd 0ed4 5e3e d2f8 dc3d
00000320: 7907 05be de5c debd 5a38 b0bd 47d4 823d
00000330: 30a0 ad3d 8d56 713d f956 793d b5cd 9bbd
00000340: f63c 233d f6ef 443c c5a5 a1bd 3e27 943d
00000350: 00fc aa3d 75ca 82bd a773 293d 8f0c 90bd
00000360: bcfd 0c3d 91f6 56bd bbce 0e3e 322a 0ebd
00000370: 893c f9bd 3685 4eba 7fa2 8a3d d867 773d
00000380: 7dd0 4d3b 03ca 6bbd bb6e 4dbd 3b4d a6bc
00000390: 466e 50bd eb1a 863d 84c0 71bc a960 97b9
000003a0: 45c8 323c 6289 343d a572 f5bb 125b a93c
000003b0: 0872 bb3d 681a 643c 6560 533d 1cf5 d93c
000003c0: 298a e1bd dc76 013e 2335 83bd 35e1 f63c
000003d0: c4a2 1a3c 3262 41bc 3ed0 403d 7345 ecbc
000003e0: 4a5a 89bc 3063 b83c fd48 1dbb b84e 4bbd
000003f0: 3c75 1dbe 26ed 66bb 51d5 823b caad e7bd
-0.04028593 -0.106963396 0.08657863 -0.030016428 -0.16588494 -0.010413427 0.08352014 0.09515064
0.019492557 0.004479737 -0.019414408 0.029953316 -0.077993914 0.03878744 -0.23690611 0.10873476
0.0107981535 -0.038889814 -0.06897656 -0.01419888 0.058824204 0.070447765 -0.007099044 0.07532625
0.008069486 0.057833366 -0.013741297 0.01305479 0.14223339 -0.016843101 -0.04885043 0.012111231
0.100306615 0.0317586 -0.011565227 0.045859408 0.10015542 0.024779575 -0.05009806 0.05368398
-0.031861152 0.031243276 0.04984181 -0.046638582 -0.019989759 -0.10095559 -0.057685707 0.07881803
0.10176721 0.044146724 -0.06024436 -0.14580461 0.027170872 0.10142845 0.026770871 7.268103e-05
0.21637954 0.08144482 0.03434116 0.13578512 0.070167154 0.02909489 0.04109937 -0.04759773
-0.0035110302 0.11409866 0.09248289 0.10875514 0.156897 -0.0044120844 0.064344935 -0.04767917
0.033815727 0.050319877 0.022749433 0.06110219 -0.09245466 -0.09668678 -0.13910142 -0.19051018
-0.26916176 0.013925199 0.074483015 -0.06226396 0.27450404 -0.013115164 -0.03346852 -0.07718351
0.0915508 -0.048239525 0.076188676 -0.032155246 -0.03363198 0.008182235 0.056622803 -0.034932915
0.019175723 0.06819345 -0.022437671 0.0034100995 -0.0883442 -0.018604193 -0.035196353 0.05409815
0.14051609 0.15985012 0.0523829 0.08198723 0.008723089 0.0717588 -0.038111597 0.0060252217
0.040146623 -0.051420406 -0.10419333 0.043607768 0.20311582 0.027964767 -0.20676467 0.1574585
0.0733882 0.029540151 0.01921426 -0.15095 -0.08243249 0.0457778 0.06367461 -0.15301055
0.13943085 0.09115144 -0.094932325 -0.00091446686 -0.03151977 0.066387095 0.006825671 0.011480811
-0.08812321 -0.07001153 -0.0748379 -0.0136157395 0.081509635 -0.054263145 0.17341913 -0.13213809
-0.005287506 0.03761117 0.09474112 0.063402236 -0.0714865 -0.059403412 -0.026973004 0.027495949
-0.029917203 0.04935511 0.023574147 0.07518123 -0.05422864 -0.023043865 0.024762413 -0.02816542
0.010130819 0.0056252736 0.16878775 -0.06557779 0.10645608 -0.12932137 -0.03822937 0.0038715776
-0.06843063 0.07444397 0.04161428 0.14070363 0.06610289 -0.053999923 -0.05962062 0.07415524
-0.02625378 0.11285381 -0.06038326 0.03981833 -0.065942146 -0.034155168 -0.028912041 0.06907889
-0.013608755 0.073401645 -0.07132725 -0.099011555 0.100005284 0.1283077 0.066034995 0.196643
-0.0098282145 0.07150435 0.14234315 0.10118788 0.119867325 -0.052310247 0.2176058 0.10789646
-0.12991132 -0.10857557 -0.08604498 0.06388145 0.08477819 0.058920432 0.06087396 -0.07607595
0.03985306 0.012020102 -0.07892946 0.07234047 0.083488464 -0.06386272 0.04137006 -0.07033645
0.034421667 -0.052481238 0.13946049 -0.03470821 -0.12169749 -0.00078781263 0.06769275 0.060401767
0.0031404786 -0.0575657 -0.05015443 -0.020300498 -0.050886415 0.06548103 -0.014755372 -0.00028872982
0.010912006 0.04407633 -0.0074904733 0.020673309 0.09152609 0.013922311 0.0516056 0.026606135
-0.1101268 0.12642998 -0.064066194 0.030136684 0.00943822 -0.011803197 0.047073595 -0.02884171
-0.016766686 0.022508234 -0.0023999803 -0.04963562 -0.15376753 -0.0035236566 0.0039927145 -0.113124445

fc2_adv.bias f4 [128]
00000000: 3b54 823d 7c77 d03b 39a3 72bc f004 2fbc
00000010: 418a a0bd 5d26 fdbb fbe0 ad3c 6bbb ae3d
00000020: b573 413d f22f 2fbd df2b 7bbc 1a51 a6bd
00000030: 3b0d 5f3d 52d4 18bd a6c6 843c 5874 723c
00000040: c022 783c 08a0 1a3d 7da4 adbc 8e72 0d3d
00000050: 7f63 ca3d b5e8 953c b50c 84bd 7b23 26bb
00000060: 5a34 07bd 475f 21bb ea87 9bbb bc36 6f3d
00000070: 5a1b 083d 341a 64bd d0d4 53bd e693 5ebd
00000080: 08ac 243d be1f 9f3c 75dd acbc da88 8d3d
00000090: 3be8 b73c a29a 7ebd 3fa5 b3bc d290 32bd
000000a0: e7ac 273d 2983 273d 830b 43bd 4e7d 96bc
000000b0: db10 d1bd 6725 55bd f73b 6cbd be31 52bd
000000c0: 03e7 8a3c 46ee b23d 98ca b8bc a788 013d
000000d0: eef1 703d 5db0 7bbd 46f9 c8bc 7e71 59bd
000000e0: 6e1a cb3b 2295 f13b 4432 c8bc 4661 b7bb
000000f0: 4611 2dbb ec4e 59bd f372 b4bc b793 ccbd
00000100: 8c89 b73d c684 b9bb 94f5 fabc ba8a ec3c
00000110: 1759 833d 8dc2 f93c 5c6d 94ba 7de2 22bd
00000120: 6785 16bd 68f6 ac3c 6205 3abd fa39 6a3d
00000130: 845c 8cbd b5f8 99bc 4026 113b 1fbd c23c
00000140: 9ac8 9dbd 5ef8 8bbb 3fbf 83bc 3bbb 8b3d
00000150: c54d d5bb 5e63 343d 665b 363d 4728 2abd
00000160: 9ec7 cdbc bf1a 1fbd 75c9 1bbd 19e6 5b3c
00000170: e67f 923d b75a c7bb 2e88 b0bc 0507 10bd
00000180: 8e1b 02bd 9eb5 a63c 005d 0b3c fdd8 54bd
00000190: 6793 59bd f587 a43d 9e70 34bb 42a2 3c3d
000001a0: f4e5 543d 633d 133d a324 b23b ea93 0ebc
000001b0: 8847 0f3c 777a 3f3d bf42 763c b8fe d7bc
000001c0: 8240 f93c 56a3 70bd 568b fcbc 87de 2abd
000001d0: ba17 953b bf20 dcbc 9c78 8f3c 0104 48bd
000001e0: bbf4 513c 9f1c ec3c 13d1 c6bc 2151 5b3c
000001f0: d5cd 743c b9cd 6abd c0c4 cd3b 7107 303d
0.06363722 0.0063619 -0.014809423 -0.01068233 -0.0783887 -0.0077255205 0.021225443 0.08531841
0.047229487 -0.042770334 -0.015330284 -0.08120938 0.054455977 -0.03731186 0.016208004 0.014798246
0.015145004 0.037750274 -0.021196598 0.034533076 0.098822586 0.01829944 -0.06447736 -0.0025350738
-0.03300891 -0.002462344 -0.004746427 0.05840181 0.03322921 -0.05568905 -0.051716626 -0.054340266
0.040203124 0.019424316 -0.021101693 0.06910868 0.022449603 -0.062159188 -0.021929381 -0.043595143
0.040936377 0.04089657 -0.0476184 -0.018370297 -0.10208293 -0.052037623 -0.057674374 -0.05131697
0.016955858 0.08736853 -0.022557542 0.031624462 0.058824472 -0.06144749 -0.024532925 -0.05308675
0.006198219 0.0073725143 -0.024438031 -0.0055963127 -0.0026408 -0.05305378 -0.022027468 -0.09989112
0.08961782 -0.00566158 -0.030634679 0.028874744 0.06413477 0.030488277 -0.0011324096 -0.039766777
-0.036748316 0.02111359 -0.04541529 0.057184197 -0.068535835 -0.01879535 0.0022148043 0.02377182
-0.07704277 -0.004271551 -0.016082404 0.06822821 -0.006509515 0.044040076 0.044520758 -0.041542318
-0.025119599 -0.038843866 -0.03803392 0.013421559 0.07153301 -0.006083812 -0.02154931 -0.035162944
-0.03176456 0.020350274 0.00850606 -0.05196475 -0.05311909 0.08033744 -0.0027532945 0.04605318
0.051977113 0.035947215 0.0054364963 -0.008702258 0.008745082 0.04674765 0.015030562 -0.026366577
0.030426268 -0.05874952 -0.03082816 -0.041716125 0.0045499476 -0.026871083 0.017513566 -0.048831943
0.012814696 0.028822241 -0.024269616 0.013386042 0.014941652 -0.0573251 0.006279558 0.042975847
