fc_graphobs/nets/avoid_checkpoint100.pth (torch_old, 170275 bytes, 11 tensors)

fc1_val.weight f4 [128, 33]
0.1568062 0.063930735 0.1331811 -0.004475164 -0.029409885 0.15735516 0.056919407 0.1891567
-0.019986589 0.13739423 0.047700398 -0.1553201 0.1430397 -0.02402018 0.14143123 0.12904489
0.021486668 -3.6487312e-05 -0.13933867 0.046178345 0.013560732 0.029394995 0.047140725 -0.14229518
-0.027551055 -0.06866697 0.070940085 0.12857294 0.06374373 -0.13927445 0.1312374 -0.017814733
-0.03896459 -0.13142143 -0.07379586 0.15011574 0.16479187 0.15664262 0.011225114 0.017699227
-0.106716886 -0.028162504 -0.06134362 -0.10139648 0.11594175 -0.012179522 0.17675175 0.10009123
0.1197745 -0.033926636 -0.11596634 0.046826746 0.1168435 0.12930165 0.0013862267 -0.08670784
-0.032778695 -0.034081038 -0.038532756 0.046420995 -0.03876273 -0.08681096 -0.117368236 0.19258496
0.08637099 -0.15953054 -0.15854037 0.041852746 0.14934206 -0.14512272 0.054448914 0.044363573
-0.09397002 0.10446252 -0.12688485 -0.060114373 0.06750913 0.16420348 -0.060066286 0.07577586
-0.053213697 0.104209565 0.067736365 -0.07976271 0.03387277 0.14154689 0.102088146 0.07987766
-0.11723908 0.10940669 0.07769887 -0.17183845 0.13675834 0.053671528 0.16732354 0.049384832
0.15262266 -0.13800602 0.14607383 0.16283634 -0.20293576 0.07103751 0.014212887 0.10958037
0.023225676 -0.12875266 -0.015892006 0.10031732 -0.03686545 -0.064006485 -0.005453786 0.13455072
-0.13825935 0.08924082 -0.076344684 -0.03960749 -0.09437036 -0.1359918 -0.039715037 0.07214942
0.08819819 0.061564937 -0.17062598 -0.012434041 0.07936712 0.12695433 0.08691157 -0.020583529
-0.06188436 -0.4364413 0.16404141 0.11540013 -0.15315941 -0.22083932 -0.051107954 -0.06741586
-0.16673015 0.10384957 -0.03892671 0.17147624 0.010524788 0.1195186 -0.0874107 0.015451318
0.15524065 0.14521407 -0.16869628 -0.07911976 -0.003251607 0.042059615 0.15115203 -0.10093404
0.045421004 -0.036972065 -0.18006922 0.18381952 -0.063960016 0.10023722 0.04300436 -0.075788565
0.06275258 0.08173901 -0.21170023 -0.16566686 -0.15018907 -0.030924931 -0.16490582 0.10515713
-0.028753914 0.08489911 0.03813948 -0.115472674 0.059275746 0.022077495 0.0034907789 -0.10302421
0.011977542 -0.02125337 0.001135749 0.043974105 -0.12259335 0.04156433 -0.09051339 0.15167089
-0.10722475 0.014066432 0.120822676 0.08788559 -0.08631945 -0.113895014 -0.09920613 0.1068458
-0.048768133 -0.008131656 0.052745312 0.18595976 -0.051271416 0.13986994 -0.10888787 -0.19750328
0.18266732 0.01367918 -0.04482588 0.0828255 -0.17041329 0.022050587 0.057484746 0.013564477
-0.03493344 0.011143645 0.07749865 0.030682625 -0.16398695 -0.11339813 -0.00010565628 -0.14423423
0.04321026 -0.10267178 -0.13648385 -0.08280392 -0.015529118 0.14466488 -0.09408434 0.049510513
-0.043000747 -0.06200377 0.042896148 -0.030776978 -0.24419475 0.08159569 0.0009269579 0.012817949
-0.09218373 0.09122575 -0.06758896 0.13851474 -0.03294845 -0.04879298 -0.057017308 0.14453906
0.010586047 -0.028689725 -0.08629949 0.024966221 0.070695214 -0.005967733 -0.039971177 -0.0037665933
0.056334395 -0.037686888 -0.030050997 0.07682269 -0.007231457 0.002778316 -0.065956496 -0.008193471
00000000: ce91 203e 1eee 823d a060 083e 66a4 92bb
00000010: 00ed f0bc b621 213e 5324 693d 4bb2 413e
00000020: eaba a3bc 13b1 0c3e 7e61 433d 3b0c 1fbe
00000030: 0079 123e f8c5 c4bc 59d3 103e 5824 043e
00000040: cf04 b03c f409 19b8 ccae 0ebe 8125 3d3d
00000050: d52d 5e3c c6cd f03c a216 413d d4b5 11be
00000060: c0b2 e1bc 45a1 8cbd 0949 913d a0a8 033e
00000070: 138c 823d f69d 0ebe 1963 063e 34f0 91bc
00000080: 5599 1fbd 5793 06be 4922 97bd f1b7 193e
00000090: 33bf 283e ec66 203e 8ae9 373c f8fd 903c
000000a0: 628e dabd 0db5 e6bc 7343 7bbd f5a8 cfbd
000000b0: de72 ed3d 9e8c 47bc 69fe 343e a1fc cc3d
000000c0: 554c f53d a8f6 0abd c37f edbd 67cd 3f3d
000000d0: a54b ef3d a767 043e 0db2 b53a e193 b1bd
000000e0: f442 06bd 8f98 0bbd 86d4 1dbd f123 3e3d
000000f0: abc5 1ebd f2c9 b1bd c25e f0bd fe34 453e
00000100: 46e3 b03d f95b 23be 6858 22be c96d 2b3d
00000110: 20ed 183e 0d9b 14be d305 5f3d 94b6 353d
00000120: 5b73 c0bd 72f0 d53d 1aee 01be 7d3a 76bd
00000130: 3a42 8a3d f524 283e 1108 76bd 6030 9b3d
00000140: 9bf6 59bd d36b d53d 5db9 8a3d a25a a3bd
00000150: 2cbe 0a3d abf1 103e 9713 d13d e696 a33d
00000160: 0b1b f0bd 9d10 e03d 9620 9f3d 6bf6 2fbe
00000170: 610a 0c3e add6 5b3d dd56 2b3e c047 4a3d
00000180: 1d49 1c3e 7351 0dbe 6194 153e 92be 263e
00000190: 64ce 4fbe 1d7c 913d 2bdd 683c ac6b e03d
000001a0: c643 be3c bdd7 03be f42f 82bc 2b73 cd3d
000001b0: 3a00 17bd d515 83bd acb5 b2bb aac7 093e
000001c0: dc93 0dbe e4c3 b63d 9a5a 9cbd 773b 22bd
000001d0: 3f45 c1bd 6f41 0bbe 3cac 22bd 13c3 933d
000001e0: 41a1 b43d 842b 7c3d 94b8 2ebe 26b8 4bbc
000001f0: 3b8b a23d 5100 023e b1fe b13d ca9e a8bc
00000200: 747a 7dbd 3c75 dfbe 79fa 273e e756 ec3d
00000210: d2d5 1cbe b423 62be 9356 51bd 5411 8abd
00000220: 4fbb 2abe 15af d43d 9d71 1fbd 7897 2f3e
00000230: 2970 2c3c 2bc6 f43d 6204 b3bd 8627 7d3c
00000240: 68f7 1e3e ffb2 143e b8be 2cbe 8a09 a2bd
00000250: ea18 55bb b446 2c3d 99c7 1a3e 82b6 cebd
00000260: 600b 3a3d 0570 17bd 1164 38be 2f3b 3c3e
00000270: 78fd 82bd 2c49 cd3d 5725 303d 0937 9bbd
00000280: 6d84 803d c866 a73d f2c7 58be 93a4 29be
00000290: 2acb 19be 4856 fdbc 12dd 28be 9f5c d73d
000002a0: 548d ebbc 96df ad3d 2538 1c3d f07c ecbd
000002b0: 20cb 723d dddb b43c 8dc5 643b 5bfe d2bd
000002c0: 743d 443c 8c1b aebc 6add 943a 311e 343d
000002d0: 3912 fbbd 5c3f 2a3d 165f b9bd 9d4f 1b3e
000002e0: a698 dbbd e476 663c e171 f73d 5cfd b33d
000002f0: 40c8 b0bd ca41 e9bd 952c cbbd f9d1 da3d
00000300: 18c1 47bd a33a 05bc 780b 583d 3c6c 3e3e
00000310: fa01 52bd 113a 0f3e 9b00 dfbd 4d3e 4abe
00000320: 240d 3b3e a41e 603c 589b 37bd 6aa0 a93d
00000330: d280 2ebe 6fa3 b43c 2075 6b3d 8a3d 5e3c
00000340: 5e16 0fbd d693 363c 9db7 9e3d 215a fb3c
00000350: 32ec 27be 473d e8bd c993 ddb8 23b2 13be
00000360: 3efd 303d 9545 d2bd 6cc2 0bbe 1a95 a9bd
00000370: d76d 7ebc 0823 143e 4aaf c0bd 89cb 4a3d
00000380: 8d21 30bd aaf7 7dbd dfb3 2f3d 0020 fcbc
00000390: 300e 7abe a41b a73d 17ff 723a 6002 523c
000003a0: d3ca bcbd 91d4 ba3d 156c 8abd cfd6 0d3e
000003b0: f4f4 06bd 26db 47bd fb8a 69bd 0c02 143e
000003c0: 1971 2d3c b706 ebbc c9bd b0bd f685 cc3c
000003d0: a7c8 903d f98c c3bb d1b8 23bd f3d8 76bb
000003e0: e5be 663d 915d 1abd 822d f6bc 3755 9d3d
000003f0: dcf5 ecbb 6814 363b 3314 87bd e83d 06bc

fc1_val.bias f4 [128]
0.12748379 0.20866735 -0.09663959 -0.067292325 0.010571155 0.16019611 -0.008225977 -0.0075822882
0.06287089 0.04561088 0.14028826 -0.12179405 0.12791628 -0.11849099 -0.17427632 -0.12248139
0.16881071 -0.08936512 -0.09328176 0.19243616 0.08518818 0.116358854 0.19030571 0.080451
0.07813183 0.14191113 0.009673127 -0.0495868 -0.036596995 -0.10887742 0.029899074 -0.04439771
-0.028535178 0.124464974 0.07348691 0.12436996 0.08158413 0.0005804331 -0.09090998 0.04438974
-0.025752524 0.03728143 -0.10331254 0.10604204 0.14572397 -0.025290962 0.02480996 -0.14258474
0.0359766 -0.17469141 0.0019824752 -0.12266034 -0.030871786 0.038709205 0.19008897 0.08791618
0.16763423 0.1499624 0.0543993 0.037282415 -0.060539763 0.01483145 -0.117360346 -0.016825464
-0.017344901 -0.03589329 0.022831518 -0.01001027 -0.049055234 0.12845246 0.104845874 0.020596622
-0.03526822 0.19679801 0.19611661 0.039425448 -0.047035072 0.035908844 0.015625406 0.07865557
-0.05672871 0.015855288 0.021103874 -0.08573272 0.22829874 0.17209472 -0.032975297 0.17954266
0.013015783 -0.043844678 0.05550138 -0.13863915 0.18750662 0.11683682 0.036472015 -0.05838508
0.21200916 0.060833212 0.16748488 0.081681244 0.21043052 0.05732101 -0.06475096 -0.12502246
-0.063696645 -0.032807425 -0.06285826 0.04513621 0.06475723 -0.110702105 0.0045826826 0.03209576
-0.17111976 -0.15359797 0.070328556 -0.05486132 -0.0040887767 0.002386157 -0.04541179 0.13713363
0.038207505 0.07257321 -0.07772761 -0.06779651 0.045159403 0.038231835 -0.07787094 -0.094450295
00000000: 1c8b 023e e5ac 553e faea c5bd 8fd0 89bd
00000010: a332 2d3c 730a 243e 40c6 06bc d874 f8bb
00000020: 74c2 803d 79d2 3a3d baa7 0f3e 296f f9bd
00000030: 7cfc 023e 67ab f2bd 7e75 32be 86d7 fabd
00000040: b7dc 2c3e 0f05 b7bd 820a bfbd fc0d 453e
00000050: 2477 ae3d 8d4d ee3d 80df 423e 7ec3 a43d
00000060: 9503 a03d 2751 113e 097c 1e3c 871b 4bbd
00000070: bbe6 15bd 20fb debd e7ee f43c 60da 35bd
00000080: 9bc2 e9bc 7ee7 fe3d 4e80 963d adb5 fe3d
00000090: 9515 a73d 3528 183a 032f babd 04d2 353d
000000a0: f5f6 d2bc 6ab4 183d 8695 d3bd 922c d93d
000000b0: aa38 153e fe2e cfbc 423e cb3c bc01 12be
000000c0: 335c 133d 4ee2 32be 6aec 013b 5835 fbbd
000000d0: d4e6 fcbc 8b8d 1e3d afa6 423e 660d b43d
000000e0: 4fa8 2b3e be8f 193e cdd1 5e3d 72b5 183d
000000f0: 8bf8 77bd 9cff 723c 9f5a f0bd 8ed5 89bc
00000100: e516 8ebc d804 13bd 2a09 bb3c 1e02 24bc
00000110: 24ee 48bd 0b89 033e 6fb9 d63d 3fba a83c
00000120: 6975 10bd 6b85 493e cbd2 483e 947c 213d
00000130: d9a7 40bd 2715 133d da00 803c 2c16 a13d
00000140: 5d5c 68bd f3e2 813c 08e2 ac3c a394 afbd
00000150: 25c7 693e 9939 303e 1b11 07bd 08da 373e
00000160: 2740 553c 7a96 33bd 6a55 633d 6cf7 0dbe
00000170: bc01 403e 2548 ef3d ae63 153d 3225 6fbd
00000180: ee18 593e 3f2c 793d 2881 2b3e 7f48 a73d
00000190: 197b 573e 6fc9 6a3d 279c 84bd e305 00be
000001a0: 6373 82bd 1461 06bd d5bb 80bd bfe0 383d
000001b0: 709f 843d c9b7 e2bd 542a 963b d876 033d
000001c0: 053a 2fbe c948 1dbe 6b08 903d 43b6 60bd
000001d0: 25fb 85bb 1261 1c3b b701 3abd c26c 0c3e
000001e0: 797f 1c3d 43a1 943d a72f 9fbd e6d8 8abd
000001f0: 11f9 383d fc98 1c3d cd7a 9fbd 286f c1bd

fc2_val.weight f4 [128, 128]
-0.048175205 0.035466056 -0.060580682 0.06452609 0.020160247 0.08730806 0.086136736 0.028797016
0.12084294 0.084749214 -0.014853393 0.008195543 0.07328619 -0.016958704 -0.049038474 0.03893437
0.08836587 0.08046789 0.042788453 0.01561569 0.05602534 0.033442196 0.12671567 0.026464676
0.011297965 -0.012597507 0.013885503 -0.09634954 0.10176427 -0.05176723 0.12620465 0.073554836
0.03614622 0.08533304 0.11367991 -0.048088703 0.11635415 0.052645266 0.0716487 0.0471558
0.008164021 -0.044575937 0.041070174 -0.0035547446 0.054078132 -0.009608899 0.022965902 -0.019048708
-0.04146676 -0.005912197 -0.088208355 -0.1205207 0.08192847 -0.045318455 0.021335965 0.020125192
0.09991705 -0.023248252 0.1435043 0.05083715 -0.010518019 -0.012789089 -0.08417218 0.032554664
0.04286161 0.11763718 0.022342097 0.053916473 0.083635904 0.045655534 0.010667585 -0.049232364
0.13302937 0.030374242 0.12063759 -0.044283364 0.24261795 -0.08437898 0.08953037 0.014215556
0.010963401 0.09172136 0.07580428 0.0865732 0.077903986 -0.046603862 0.09255435 0.024296422
0.1146494 0.010316992 -0.0048728124 0.07939519 0.11873785 0.000794793 0.09084479 0.071574
0.01064154 0.109553896 0.10026079 0.16678785 -0.0070442767 0.15819643 -0.12811774 0.005652052
0.08287771 0.045509633 0.06692936 0.047431484 -0.0050208606 0.0035407317 0.007396259 -0.053522296
-0.061110016 0.0374366 -0.03176597 0.017867018 -0.054817647 -0.03046295 0.07142308 0.03819427
-0.03211257 0.03538264 0.06734064 0.16046454 0.039437845 -4.637888e-06 0.11894867 0.07318388
-0.069343165 0.024656747 -0.035500374 0.08009997 0.09702274 -0.14146064 0.08154911 -0.11147716
-0.056939043 -0.049559105 0.0026761794 0.064327255 0.086583644 0.073410064 -0.029956605 0.0039220955
-0.03955662 -0.063094355 0.09327699 -0.00034283235 0.014921691 -0.012464903 -0.0854697 -0.07288316
0.090706624 0.050958388 0.09475288 0.08119189 -0.013420895 0.06574678 0.0069992803 0.009127682
0.012313005 0.13340335 -0.0040649297 -0.019275172 -0.009404356 -0.0075467722 -0.05666686 0.111445725
0.024541304 -0.04073863 0.054551683 0.09158052 -0.0048590484 0.055660557 -0.06636536 0.10456691
0.06276313 0.121019214 0.024824891 0.03519732 0.059164464 -0.085397266 -0.056255553 -0.028217115
-0.030910647 0.047382522 0.00711743 0.07072212 0.022467459 -0.029695258 0.17350303 0.022634631
-0.009897368 0.025162643 -0.082541026 0.0734061 0.054600675 -0.034209393 0.051754538 -0.007920702
-0.052972645 -0.034264605 -0.022685004 -0.022271875 0.0783849 0.018688437 0.10582505 0.067219555
0.088173606 0.07662527 -0.12908646 0.09937027 -0.09313453 -0.06545251 0.020829435 0.07718581
0.008587531 -0.014453739 -0.04804617 0.048732087 -0.074178554 0.032867473 -0.07043728 -0.0388094
-0.027058654 0.097869724 -0.14903548 -0.068140686 -0.058598895 -0.08061302 0.012637832 -0.07992586
0.02063662 -0.050450582 -0.10062512 -0.024588693 0.004633967 0.005799677 -0.061176576 0.05121532
0.085706785 0.00030544045 -0.003948226 -0.046567336 0.15000717 0.107164524 0.16560823 -0.03392783
0.05942662 0.073453695 -0.036849294 -0.12426561 -0.07924836 0.09530249 -0.08332801 -0.0025553443
00000000: 5d53 45bd db44 113d 7323 78bd 4126 843d
00000010: 1a27 a53c 91ce b23d 7568 b03d b8e7 eb3c
00000020: 817c f73d ff90 ad3d a55b 73bc 9946 063c
00000030: 1217 963d fbec 8abc 91dc 48bd a579 1f3d
00000040: 2af9 b43d 59cc a43d f242 2f3d f3d8 7f3c
00000050: d47a 653d affa 083d c1c1 013e 73cc d83c
00000060: 1a1b 393c c665 4ebc 0580 633c e852 c5bd
00000070: c969 d03d e009 54bd cb3b 013e eba3 963d
00000080: 0f0e 143d 17c3 ae3d 03d1 e83d a9f8 44bd
00000090: 164b ee3d 90a2 573d 8ebc 923d 7126 413d
000000a0: 63c2 053c 4295 36bd 3339 283d b8f6 68bb
000000b0: 0881 5d3d a56e 1dbc fd22 bc3c 090c 9cbc
000000c0: 0dd9 29bd 1abb c1bb 95a6 b4bd 8fd3 f6bd
000000d0: 1dca a73d d89f 39bd c3c8 ae3c 96dd a43c
000000e0: 4fa1 cc3d 1e73 bebc cbf2 123e 9e3a 503d
000000f0: c553 2cbc 5489 51bc 7762 acbd 0a58 053d
00000100: a88f 2f3d c3eb f03d c606 b73c 85d7 5c3d
00000110: 4d49 ab3d 4c01 3b3d 18c7 2e3c e0a7 49bd
00000120: da38 083e 67d3 f83c d710 f73d 7962 35bd
00000130: d770 783e e3ce acbd b35b b73d 5de8 683c
00000140: d69f 333c 69d8 bb3d 463f 9b3d 4a4d b13d
00000150: 208c 9f3d b1e3 3ebd 238d bd3d 4a09 c73c
00000160: 4ecd ea3d 9a08 293c 1dac 9fbb f299 a23d
00000170: d42c f33d a859 503a d50c ba3d 6495 923d
00000180: db59 2e3c cb5d e03d 8755 cd3d 6fca 2a3e
00000190: add3 e6bb 3ffe 213e 4c31 03be d934 b93b
000001a0: cabb a93d 4f68 3a3d 4312 893d 8447 423d
000001b0: 0886 a4bb 9f0b 683b 515c f23b 323a 5bbd
000001c0: 7f4e 7abd 1f57 193d 091d 02bd da5d 923c
000001d0: 7888 60bd 708d f9bc 4446 923d 9871 1c3d
000001e0: 7888 03bd 63ed 103d e4e9 893d d150 243e
000001f0: 9489 213d 289f 9bb6 5c9b f33d 6ee1 953d
00000200: ca03 8ebd f2fc c93c d768 11bd 740b a43d
00000210: dcb3 c63d 0fdb 10be 3803 a73d 234e e4bd
00000220: ea38 69bd 7dfe 4abd d762 2f3b 02be 833d
00000230: c452 b13d 0458 963d 8e67 f5bc ec84 803b
00000240: 1f06 22bd 9d37 81bd 0208 bf3d 2ebe b3b9
00000250: 1c7a 743c 9839 4cbc bd0a afbd c443 95bd
00000260: 65c4 b93d beb9 503d cc0d c23d ef47 a63d
00000270: 50e3 5bbc 3fa6 863d 385a e53b 468c 153c
00000280: 7cbc 493c e39a 083e 1a33 85bb f7e6 9dbc
00000290: ba14 1abc ea4a f7bb 821b 68bd a83d e43d
000002a0: d80a c93c 8ddd 26bd 9671 5f3d 918e bb3d
000002b0: a738 9fbb 53fc 633d 90ea 87bd 2d27 d63d
000002c0: f589 803d ecd8 f73d 925d cb3c 112b 103d
000002d0: 7056 723d c3e4 aebd 396c 66bd 9427 e7bc
000002e0: 5338 fdbc 2d14 423d 5539 e93b c2d6 903d
000002f0: ad0d b83c 7843 f3bc c7aa 313e 436c b93c
00000300: 9228 22bc e321 ce3c 450b a9bd f055 963d
00000310: f5a4 5f3d 261f 0cbd 91fc 533d d5c5 01bc
00000320: d8f9 58bd 0b59 0cbd e7d5 b9bc 8273 b6bc
00000330: 4388 a03d 7e18 993c ceba d83d 68aa 893d
00000340: 5d94 b43d b6ed 9c3d 3e2f 04be a482 cb3d
00000350: 51bd bebd f70b 86bd 7ea2 aa3c 9813 9e3d
00000360: b7b2 0c3c 60cf 6cbc 10cc 44bd 4c9b 473d
00000370: edea 97bd 0ba0 063d 6c41 90bd 9bf6 1ebd
00000380: 1caa ddbc ec6f c83d c29c 18be 588d 8bbd
00000390: 6505 70bd 7018 a5bd e90e 4f3c 2bb0 a3bd
000003a0: 210e a93c 45a5 4ebd 8b14 cebd 3a6e c9bc
000003b0: 88d8 973b 380b be3b 4a94 7abd 28c7 513d
000003c0: 0a87 af3d 8623 a039 1f60 81bb 64bd 3ebd
000003d0: 7b9b 193e 1379 db3d 3495 293e e9f7 0abd
000003e0: 5469 733d e46e 963d 49ef 16bd f87e febd
000003f0: f74c a2bd f42d c33d e0a7 aabd 9077 27bb

fc2_val.bias f4 [128]
0.074422725 -0.10550067 0.020113083 0.09947905 -0.06731983 0.003091538 0.05505605 0.0088042375
0.10224459 0.008080877 0.10708378 0.028859638 0.022520214 -0.032320447 -0.06583931 -0.009595643
0.07284723 -0.027759744 0.018963624 -0.0071423166 -0.060166754 0.045268223 -0.012487098 0.1176569
0.07405085 0.0069354223 -0.08970362 0.10570452 0.017785206 0.11241099 -0.08985941 0.108783156
-0.0052447156 -0.043763336 -0.006891291 0.011001898 0.015530047 0.027288858 0.052248385 0.09364423
-0.056278724 0.06973161 -0.055815566 0.0088640405 0.108810365 0.061362367 -0.121290736 0.11707748
0.09554023 0.035061035 0.06617398 -0.04336544 -0.0350249 0.10380946 0.10578092 0.021578893
0.077257745 0.00358739 -0.08061032 0.065642335 0.041577253 0.014980588 0.061528496 0.09648433
0.078558184 0.058669213 -0.015393272 -0.007069622 0.09657596 -0.018793568 0.048543498 0.110144064
0.076993346 0.07432082 0.0757015 0.02956678 0.036992066 -0.01887152 0.037871517 -0.114474595
0.015403138 -0.010749413 0.064462565 0.009773913 -0.08366688 0.057470147 -0.065895915 0.0015330545
0.08157521 0.12878035 -0.012368428 0.07414743 -0.004129762 0.05230716 0.0040814574 0.004188064
0.12001166 -0.039888557 0.06770133 0.08991345 0.018035827 0.015674995 -0.010480876 0.049951516
-0.014569477 0.045877624 -0.028445153 0.047402155 0.047186114 0.043262847 0.07083445 -0.001459342
-0.05004104 -0.07049078 -0.12082833 0.075099945 -0.099504605 0.022871919 0.050833058 -0.026773347
0.08699092 0.011579637 -0.018116536 0.02562118 0.09231661 0.019824948 0.066897385 -0.026111906
00000000: f16a 983d bc10 d8bd 31c4 a43c acbb cb3d
00000010: fbde 89bd 679b 4a3b 7482 613d a63f 103c
00000020: 9d65 d13d a865 043c be4e db3d 0c6b ec3c
00000030: 507c b83c 7262 04bd c3d6 86bd 0b37 1dbc
00000040: ee30 953d 6768 e3bc 9a59 9b3c 180a eabb
00000050: 6a71 76bd 2c6b 393d af96 4cbc 1af6 f03d
00000060: f9a7 973d 8a42 e33b 88b6 b7bd 9d7b d83d
00000070: 48b2 913c bc37 e63d 3608 b8bd b4c9 de3d
00000080: dddb abbb 2f41 33bd 57d0 e1bb 4e41 343c
00000090: bd71 7e3c e28c df3c 6702 563d 8cc8 bf3d
000000a0: 8584 66bd 72cf 8e3d dd9e 64bd 7b3a 113c
000000b0: f8d7 de3d 1b57 7b3d 4767 f8bd 51c6 ef3d
000000c0: 99aa c33d 299c 0f3d 3986 873d f69f 31bd
000000d0: 4576 0fbd 0e9a d43d aba3 d83d 38c6 b03c
000000e0: 4f39 9e3d 6b1a 6b3b 0617 a5bd 7d6f 863d
000000f0: e94c 2a3d 2471 753c 4e05 7c3d 9499 c53d
00000100: 1de3 a03d 214f 703d 1034 7cbc 4aa8 e7bb
00000110: 9ec9 c53d f8f4 99bc 8cd5 463d 3693 e13d
00000120: b0ae 9d3d 8435 983d 6309 9b3d 0836 f23c
00000130: fe84 173d 7298 9abc 2a1f 1b3d a871 eabd
00000140: 715d 7c3c 4e1e 30bc f304 843d c322 203c
00000150: 8b59 abbd d165 6b3d 70f4 86bd c6f0 c83a
00000160: e710 a73d ffde 033e f2a4 4abc 9cda 973d
00000170: f452 87bb 0840 563d bfbd 853b 073c 893b
00000180: acc8 f53d 2f62 23bd ffa6 8a3d 8b24 b83d
00000190: dfbf 933c d968 803c fbb7 2bbc f699 4c3d
000001a0: d1b4 6ebc 2dea 3b3d cf05 e9bc c328 423d
000001b0: 3a46 413d 6234 313d a711 913d 6447 bfba
000001c0: d5f7 4cbd 785d 90bd d874 f7bd 00ce 993d
000001d0: 12c9 cbbd e45d bb3c 5336 503d c753 dbbc
000001e0: 4c28 b23d 85b8 3d3c 2169 94bc 82e3 d13c
000001f0: 7e10 bd3d ee67 a23c 7f01 893d a3e8 d5bc

fc3_val.weight f4 [1, 128]
-0.08805576 0.17826627 -0.11877325 -0.050086264 0.07192036 0.1693652 -0.119303696 -0.09048652
-0.048026826 -0.14911121 -0.08513463 0.10176844 0.10824097 0.11844503 0.021948911 -0.11442251
-0.054463737 0.14390442 -0.1286022 -0.15536818 0.04856843 -0.052297197 -0.14436686 -0.08724379
0.11500568 -0.08230579 0.12336861 -0.12618792 0.1487483 -0.11290673 0.20891748 -0.08356214
0.16487046 -0.10336196 -0.15499565 0.060846426 0.08893447 0.09017004 0.020930933 -0.11575942
0.19089888 -0.12185032 0.11970034 -0.099315494 -0.102477774 0.043498624 0.08264503 -0.072232135
-0.09824929 -0.0544537 -0.07969951 0.20798658 0.17572312 -0.09990088 -0.12997977 -0.06991964
-0.092156306 -0.0033770609 0.10759392 -0.1347066 0.1656984 -0.15827096 -0.07958748 -0.10841708
0.07336172 -0.113927715 -0.07901064 0.090642385 -0.12534462 -0.09698131 -0.12607202 -0.098470256
-0.12156565 -0.10606408 0.10760076 -0.11833184 -0.08742553 0.13914406 0.21845667 0.24591756
-0.1474652 -0.11033361 -0.120655455 -0.19426377 0.12114692 0.14129852 0.16071032 -0.088921554
-0.11510253 -0.077614315 0.14121938 0.13106789 -0.13357487 0.109573305 -0.103857175 0.05599387
-0.14015186 -0.1406795 -0.051384762 -0.051289413 0.12003284 0.060028024 0.10641803 -0.23999168
-0.09399366 -0.121943764 -0.12276119 0.079433486 0.13049756 0.14919308 0.12641998 0.1589098
0.10414382 0.142915 0.05138219 -0.10581778 0.24900591 0.11236954 -0.051375985 -0.13132651
-0.076226376 0.08434696 0.19595632 -0.14218736 -0.105390966 0.026360419 -0.08884793 -0.08044459
00000000: 9456 b4bd 6f8b 363e 643f f3bd 4127 4dbd
00000010: fb4a 933d 126e 2d3e 7f55 f4bd ff50 b9bd
00000020: c7b7 44bd 9cb0 18be 115b aebd f96b d03d
00000030: 71ad dd3d 4f93 f23d 34ce b33c 5956 eabd
00000040: 5e15 5fbd ae5b 133e 4cb0 03be d618 1fbe
00000050: b1ef 463d 9635 56bd e8d4 13be dfac b2bd
00000060: 1988 eb3d f08f a8bd afa8 fc3d 6837 01be
00000070: 7951 183e a53b e7bd 77ee 553e a122 abbd
00000080: cdd3 283e 6faf d3bd 2eb7 1ebe 1a3a 793d
00000090: 4723 b63d 12ab b83d 5977 ab3c 4613 edbd
000000a0: ff7a 433e a98c f9bd 7425 f53d ec65 cbbd
000000b0: dedf d1bd 9d2b 323d cc41 a93d 71ee 93bd
000000c0: ec36 c9bd d80a 5fbd 7f39 a3bd 6ffa 543e
000000d0: c3f0 333e d598 ccbd 6b19 05be 0732 8fbd
000000e0: 72bc bcbd ae51 5dbb 335a dc3d 87f0 09be
000000f0: d7ac 293e c811 22be c3fe a2bd c609 debd
00000100: ab3e 963d ef52 e9bd 55d0 a1bd b7a2 b93d
00000110: 575a 00be 239e c6bd 0619 01be c6aa c9bd
00000120: 69f7 f8bd 2038 d9bd ca5d dc3d f757 f2bd
00000130: 280c b3bd c87b 0e3e 1bb3 5f3e d0d1 7b3e
00000140: 1e01 17be 96f6 e1bd 351a f7bd 15ed 46be
00000150: e01b f83d 8fb0 103e 3f91 243e 811c b6bd
00000160: e0ba ebbd 41f4 9ebd d09b 103e a936 063e
00000170: dac7 08be f867 e03d 12b3 d4bd d459 653d
00000180: f883 0fbe 490e 10be d478 52bd d914 52bd
00000190: c7d3 f53d f2df 753d b2f1 d93d 61c0 75be
000001a0: bf7f c0bd a7bd f9bd 386a fbbd 06ae a23d
000001b0: 27a1 053e 12c6 183e 3d74 013e 40b9 223e
000001c0: 5b49 d53d 4f58 123e 2276 523d feb6 d8bd
000001d0: 68fb 7e3e 0022 e63d a06f 52bd 757a 06be
000001e0: 931c 9cbd 19be ac3d c6a8 483e 9099 11be
000001f0: 38d7 d7bd cef1 d73c e7f5 b5bd 22c0 a4bd

fc1_adv.weight f4 [128, 33]
-0.096675724 -0.18461438 -0.12769729 -0.057380144 0.13852866 0.091198534 0.059128575 0.07767436
0.123914875 0.20057705 0.11667629 0.18846054 0.14069304 -0.14820196 -0.08417766 0.015505551
0.106879495 -0.14195015 -0.10384911 -0.007411977 -0.08741847 -0.16832529 -0.13346143 -0.11520707
0.034256533 0.11843536 0.100270584 0.12643795 -0.009212182 0.023122638 0.055705767 0.05561417
0.14683928 0.010268599 0.17392372 0.10648618 0.15479806 0.035091385 -0.038359076 0.14726089
0.026551934 -0.06572038 -0.041238338 0.075458705 -0.12549275 -0.11901666 0.17656551 0.07697928
-0.078676544 0.052479688 -0.077679284 0.074785806 0.15087572 -0.047115315 0.0069364095 -0.08972188
0.039265357 -0.15888855 -0.08100591 0.11900676 -0.1473382 -0.13139263 0.077248156 0.1777833
-0.1345081 0.06623355 -0.14602286 -0.052475736 0.13172871 0.075140946 0.04899056 0.0057247956
0.13740517 -0.069990955 0.12513694 0.12603495 0.101538986 0.1048818 0.08792484 -0.04397488
0.0811498 0.17356491 0.064195156 0.19247982 -0.010483201 0.06099618 0.08552681 -0.027894862
0.019085208 0.21036339 -0.08352292 -0.12383438 0.08307057 -0.04474907 0.08669081 0.14693955
-0.32210416 0.15433876 0.070378296 -0.050194748 -0.025664609 0.14693509 0.015068906 0.123481095
-0.18564455 0.069822125 -0.0017404185 -0.04129683 -0.003790531 -0.09791517 -0.105515435 0.1462822
0.097193085 -0.0072320406 -0.07115996 0.1538413 0.056807123 -0.07561561 0.081767276 -0.1182047
-0.016551465 0.1777158 0.10052574 0.032610804 -0.04517458 0.13147126 -0.17764187 -0.18539442
-0.08933318 -0.04328236 0.040398754 -0.06348501 -0.1533639 -0.11385343 -0.019946977 0.14643307
0.22329931 0.08411986 -0.14042793 0.087966464 0.054796595 0.18372801 0.04809884 0.11397279
-0.1076772 0.0025069648 0.1616598 0.12957074 0.097460404 -0.13112657 -0.13454562 -0.023428041
-0.1337764 0.15863517 -0.11788777 -0.09666142 0.076083355 0.08768727 0.14146402 0.14394303
-0.018113509 0.05244322 -0.19061153 0.0864702 -0.012940188 -0.061475217 0.050176915 0.046701815
0.09574576 0.19838947 -0.07993139 -0.041032825 -0.058831703 0.18779676 -0.008286843 0.15111893
-0.09791448 -0.10246148 -0.021838779 0.1262654 0.17329824 0.1832828 0.029193854 0.14642613
-0.031828046 -0.11097161 0.18222514 0.0037168271 -0.102290764 0.14534199 0.033048842 0.027303156
-0.056672458 0.06077624 -0.1491633 -0.1776852 0.04622013 0.035812184 -0.15140487 0.099847734
0.18042378 0.13907841 0.08423325 0.10061646 0.050861597 -0.2047532 -0.18329674 -0.04857994
-0.19249445 -0.0024660893 -0.033027153 -0.121697895 0.09285281 -0.081695706 0.003046727 0.0925375
0.054146975 0.015286696 0.00793223 -0.1126872 0.0688517 0.016429711 -0.0013436263 -0.06604253
-0.11985246 -0.043188028 -0.1548069 0.13126925 0.08397779 0.15181245 0.041950896 -0.114483744
-0.07766333 0.09865569 -0.1307916 -0.030783564 0.106461264 -0.040010598 -0.1059899 0.18037593
-0.032209072 0.019233463 0.13868192 0.033669375 -0.09598087 0.056963783 0.1246467 0.094124496
-0.042252157 0.16545711 0.07967532 0.15132318 0.04019129 0.01192145 -0.106868155 0.1161651
00000000: ecfd c5bd 8d0b 3dbe 14c3 02be 7107 6bbd
00000010: 75da 0d3e 4cc6 ba3d ce30 723d bc13 9f3d
00000020: 15c7 fd3d 1264 4d3e fbf3 ee3d cdfb 403e
00000030: d611 103e 41c2 17be 5665 acbd ff0a 7e3c
00000040: a3e3 da3d 615b 11be d8ae d4bd 2be0 f2bb
00000050: 7408 b3bd 775d 2cbe 1daa 08be aff1 ebbd
00000060: 9450 0c3d 3d8e f23d aa5a cd3d f378 013e
00000070: b1ee 16bc b06b bd3c bb2b 643d afcb 633d
00000080: 095d 163e a03d 283c 0f19 323e 6d15 da3d
00000090: 6283 1e3e fcbb 0f3d 681e 1dbd 8fcb 163e
000000a0: 7183 d93c 6898 86bd 88e9 28bd 188a 9a3d
000000b0: 2c81 00be 02bf f3bd 97cd 343e 50a7 9d3d
000000c0: 2b21 a1bd f1f4 563d 5116 9fbd 4d29 993d
000000d0: 2a7f 1a3e fdfb 40bd d24a e33b 1bc0 b7bd
000000e0: b6d4 203d aeb3 22be 6de6 a5bd d1b9 f33d
000000f0: d3df 16be ca8b 06be 4834 9e3d d30c 363e
00000100: 7ebc 09be 75a5 873d 0487 15be ccf0 56bd
00000110: e4e3 063e 7fe3 993d 53aa 483d 1197 bb3b
00000120: f1b3 0c3e 6b57 8fbd e623 003e 4e0f 013e
00000130: acf3 cf3d 45cc d63d f011 b43d 011f 34bd
00000140: de31 a63d 00bb 313e c078 833d 6e19 453e
00000150: bbc1 2bbc 21d7 793d ae28 af3d c483 e4bc
00000160: 9558 9c3c 8069 573e 110e abbd e19c fdbd
00000170: e720 aa3d cd4a 37bd f48a b13d 5277 163e
00000180: d6ea a4be fb0a 1e3e 7f22 903d 0299 4dbd
00000190: 963e d2bc 2776 163e 93e3 763c a8e3 fc3d
000001a0: 9b19 3ebe e7fe 8e3d c11e e4ba dd26 29bd
000001b0: 8f6a 78bb c087 c8bd 7a18 d8bd 00cb 153e
000001c0: 2b0d c73d c1fa ecbb 50bc 91bd 9388 1d3e
000001d0: 96ae 683d 5bdc 9abd 9a75 a73d 4e15 f2bd
000001e0: f096 87bc 21fb 353e 70e0 cd3d e892 053d
000001f0: fb08 39bd 67a0 063e c0e7 35be 09d8 3dbe
00000200: 50f4 b6bd d848 31bd 2a79 253d 6e04 82bd
00000210: 6d0b 1dbe fd2b e9bd d867 a3bc 8df2 153e
00000220: 93a8 643e 0847 ac3d 57cc 0fbe c327 b43d
00000230: 6572 603d 3223 3c3e 4a03 453d 916a e93d
00000240: dd85 dcbd e44b 243b 268a 253e 31ae 043e
00000250: 5299 c73d 0b46 06be 54c6 09be 2aec bfbc
00000260: aefc 08be 4271 223e 256f f1bd 6cf6 c5bd
00000270: 97d1 9b3d 6295 b33d f2db 103e cd65 133e
00000280: c862 94bc b4ce 563d ab2f 43be 4a17 b13d
00000290: 1503 54bc 70cd 7bbd 4f86 4d3d 674a 3f3d
000002a0: 5a16 c43d 9c26 4b3e 12b3 a3bd 0912 28bd
000002b0: 83f9 70bd cb4d 403e 8ac5 07bc ecbe 1a3e
000002c0: 6387 c8bd 53d7 d1bd 3de7 b2bc b84b 013e
000002d0: 1875 313e 7cae 3b3e f327 ef3c bbf0 153e
000002e0: 205e 02bd 1545 e3bd 3a99 3a3e 0396 733b
000002f0: d27d d1bd 88d4 143e 395e 073d deaa df3c
00000300: 6121 68bd 82f0 783d 44be 18be 1cf3 35be
00000310: 5251 3d3d ccaf 123d e109 1bbe f87c cc3d
00000320: 03c1 383e 926a 0e3e 7b82 ac3d 0110 ce3d
00000330: 4054 503d d3aa 51be 24b2 3bbe c2fb 46bd
00000340: 441d 45be 1d9e 21bb 7b47 07bd bf3c f9bd
00000350: 9d29 be3d 1450 a7bd 99ab 473b 4d84 bd3d
00000360: 38c9 5d3d 0d75 7a3c 2ff6 013c 8cc8 e6bd
00000370: 1f02 8d3d 9a97 863c 9e1c b0ba 4e41 87bd
00000380: 3575 f5bd eee5 30bd b385 1ebe 726b 063e
00000390: 8cfc ab3d b974 1b3e b4d4 2b3d 7476 eabd
000003a0: f40d 9fbd ff0b ca3d 3cee 05be d02d fcbc
000003b0: 5d08 da3d 27e2 23bd 3c11 d9bd 78b4 383e
000003c0: a9ed 03bd 7f8f 9d3c a202 0e3e e6e8 093d
000003d0: 9e91 c4bd db52 693d c546 ff3d 58c4 c03d
000003e0: 9910 2dbd 976d 293e d02c a33d 77f4 1a3e
000003f0: 9f9f 243d 2f52 433c b1dd dabd f8e7 ed3d

fc1_adv.bias f4 [128]
0.12865846 -0.039515644 0.043076117 -0.014610532 -0.05274402 0.12922634 0.10863797 -0.036504526
-0.12729974 -0.08251949 0.14037596 -0.030749789 0.10895624 0.07578375 -0.08191888 0.20530668
-0.06830685 0.09440586 0.0038156763 -0.10295828 0.18580255 0.19412723 0.1334625 0.21018896
0.16157557 0.072476 0.19555321 0.14272368 0.1473356 0.16690756 0.08354603 -0.036899783
0.23458555 0.16716139 -0.09835946 -0.017453087 -0.06834519 0.15181838 0.17517774 0.17551808
-0.00084482075 0.14599378 0.15394478 0.20907634 0.011384958 0.03574577 0.2506015 0.038444452
0.025374403 0.06775027 0.05119873 -0.13199058 -0.12999706 -0.056259148 0.0336258 -0.11286922
0.1660755 0.11897571 0.18164924 -0.047984485 0.1185096 0.14859565 0.065436095 0.110279076
0.01769124 0.13491683 -0.044016745 -0.025936218 0.25853235 0.07434565 0.071382225 0.0039359173
-0.043567795 0.04673664 0.05164262 0.058339663 -0.0063744485 0.056344487 -0.0018069095 0.14217241
0.19739215 -0.10645584 0.09977817 -0.11118042 -0.11669556 0.19368367 -0.028300276 0.15047446
0.14238314 0.24513924 0.21010529 -0.15554382 0.14855456 -0.056164153 0.10532495 -0.07127444
0.2216144 -0.06923029 0.023478646 0.0211722 -0.027328094 -0.033147443 -0.12120621 -0.06400269
-0.13210455 -0.110591985 0.13631976 -0.029868945 0.053212974 -0.047583032 0.15591635 0.17211322
-0.0030520505 -0.034685027 0.14528939 0.10205649 0.035878994 -0.15709916 0.15361851 -0.055289704
-0.029448198 -0.0794857 0.09232466 -0.142291 0.067392096 -0.060225192 0.15881369 0.07991518
00000000: 0bbf 033e 28db 21bd 9570 303d 0361 6fbc
00000010: 1d0a 58bd e953 043e 967d de3d c585 15bd
00000020: dd5a 02be faff a8bd b7be 0f3e fbe6 fbbc
00000030: 7324 df3d 8334 9b3d 16c5 a7bd ea3b 523e
00000040: 76e4 8bbd dc57 c13d 6d10 7a3b cadb d2bd
00000050: 0643 3e3e 4ac9 463e 65aa 083e c63b 573e
00000060: 1174 253e 4c6e 943d 1a3f 483e 2826 123e
00000070: 25df 163e d1e9 2a3e 2e1a ab3d 3a24 17bd
00000080: 3237 703e 5b2c 2b3e af70 c9bd c7f9 8ebc
00000090: 90f8 8bbd 4776 1b3e cb61 333e 03bb 333e
000000a0: f676 5dba 657f 153e b3a3 1d3e 1c18 563e
000000b0: fa87 3a3c 286a 123d d74e 803e ee77 1d3d
000000c0: fbdd cf3c a7c0 8a3d c2b5 513d 8a28 07be
000000d0: f31d 05be fe6f 66bd 35bb 093d fa27 e7bd
000000e0: b20f 2a3e 89a9 f33d 4202 3a3e 618b 44bd
000000f0: 29b5 f23d 7529 183e 5c03 863d ffd9 e13d
00000100: 38ed 903c a327 0a3e e74a 34bd 3178 d4bc
00000110: 5a5e 843e 8842 983d d830 923d def8 803b
00000120: 2574 32bd eb6e 3f3d 3687 533d 92f5 6e3d
00000130: c0e0 d0bb 7ac9 663d d2d5 ecba a595 113e
00000140: 2b21 4a3e 8505 dabd 7f58 cc3d 8fb2 e3bd
00000150: 15fe eebd 0355 463e fbd5 e7bc fa15 1a3e
00000160: e3cc 113e c805 7b3e d725 573e e146 1fbe
00000170: b01e 183e 620c 66bd 9bb4 d73d 55f8 91bd
00000180: e3ee 623e 9cc8 8dbd 4a56 c03c 5271 ad3c
00000190: 2bdf dfbc 9dc5 07bd f63a f8bd d813 83bd
000001a0: 6a46 07be 0d7e e2bd 6897 0b3e b8af f4bc
000001b0: d9f5 593d 6de6 42bd 89a8 1f3e 733e 303e
000001c0: e904 48bb e311 0ebd bec6 143e fe02 d13d
000001d0: daf5 123d 9ade 20be 2c4e 1d3e 7577 62bd
000001e0: 593d f1bc 66c9 a2bd b614 bd3d bbb4 11be
000001f0: de04 8a3d b1ae 76bd 0ea0 223e 92aa a33d

fc2_adv.weight f4 [128, 128]
0.068923205 -0.035886317 -0.04089934 0.067723 0.085389085 -0.006055051 0.0032233284 -0.07290399
-0.046216268 0.14668946 -0.071805425 -0.072399125 -0.32054836 0.059801944 0.06271213 0.06598771
0.06740333 -0.013083845 0.047515303 -0.04736108 -0.03246731 0.052949186 0.03128281 0.03835402
0.06470224 0.009095141 0.100534916 0.09163856 0.022991909 0.09978716 0.05893442 0.083729185
-0.03595839 0.0074970652 0.12645046 0.105375364 -0.06926105 -0.008440922 0.053104702 0.08532941
0.0639649 -0.10350738 -0.012502357 -0.025882654 -0.08368934 0.08123331 0.070362896 0.05484044
-0.040394306 0.069372736 -0.02186627 0.06899145 -0.031621855 -0.08375212 0.114363514 0.097615786
0.025714006 0.032612495 0.03403563 -0.05933636 0.13212997 0.07950533 0.042713705 -0.04760631
0.032024488 -0.02528289 0.010038925 0.05289268 0.10097291 -0.008604813 0.014978198 0.09412791
-0.14429379 0.07528991 -0.0038199474 0.020678742 -0.06878515 4.197916e-05 -0.018942505 0.11490275
0.008241002 -0.027614886 -0.0004216141 0.07958974 0.066922426 0.056853116 -0.05744676 0.06074033
0.09800566 -0.043589827 -0.038360525 0.0440455 -0.0048972694 0.030925317 -0.03492087 0.033147212
-0.02398035 0.00033369014 0.0045403666 0.089132875 -0.00046497007 0.064562194 -0.08934396 0.009922836
0.07943222 0.013790488 -0.048611965 0.024914477 0.03184984 -0.018675748 0.08440584 -0.074966215
0.07699567 0.08747572 0.053993408 0.111716755 0.033047646 0.048830975 0.084978506 -0.030464312
-0.037605092 0.08959666 0.12323833 0.10845803 -0.035622455 0.10116305 -0.00876443 0.10550958
0.05608826 0.06351412 0.048624698 -0.090386264 0.014093451 -0.039019186 0.07496656 -0.006654145
0.08241298 -0.18887351 0.10050202 -0.057464983 0.38023737 -0.047082648 -0.1439136 -0.06873114
0.05634588 0.055728946 -0.033759084 -0.021682475 -0.046287283 0.081825465 -0.075666435 -0.018611018
-0.1228928 0.121703975 -0.0672126 -0.011848569 -0.1427207 0.048295837 0.09961061 -0.090379536
0.017573621 0.048067063 -0.060774878 -0.10535092 -0.03145541 0.057716284 -0.0062223542 -0.0265096
0.014594001 -0.0064125424 -0.01229792 0.08179542 0.015474119 -0.038666658 -0.07037319 -0.08582606
-0.07852338 -0.037714988 -0.017273264 -0.061686415 0.03271556 0.07852393 -0.17896327 0.01586655
0.047011163 0.04844926 0.006367893 -0.05295411 -0.012617338 -0.0020437052 -0.012244894 0.11622801
-0.06619375 0.0070295176 0.03422127 0.019794352 -0.058020536 -0.02728935 -0.01866369 0.03765582
0.05726548 0.0073423116 0.10255526 0.011600262 0.043224756 0.08697088 0.05793505 0.016451325
-0.08441791 -0.10873638 -0.12677482 -0.074753955 -0.006584605 0.040342346 0.08277897 0.028741244
0.09693409 0.048819356 0.068840735 -0.0017298174 -0.05322285 0.070331566 0.06426768 0.16138527
0.027988158 -0.06606838 -0.03543961 0.023972943 -0.04392987 -0.0021600681 0.15392984 0.09803715
-0.07110049 -0.00864921 -0.029317409 -0.09479046 0.055792626 0.03607777 -0.08535976 0.029258497
-0.08872945 0.04902148 0.022556644 -0.039708596 -0.08144903 -0.2015215 -0.020450702 0.15777877
-0.054761425 -0.012134687 -0.060235046 -0.1361674 -0.030130837 -0.053319022 -0.055842962 -0.1044776
00000000: 9c27 8d3d 88fd 12bd 1186 27bd 5bb2 8a3d
00000010: 79e0 ae3d 7369 c6bb 7a3e 533b b04e 95bd
00000020: 454d 3dbd c335 163e b90e 93bd fe45 94bd
00000030: ea1e a4be e2f2 743d 386f 803d 9124 873d
00000040: c20a 8a3d a05d 56bc 689f 423d b1fd 41bd
00000050: 71fc 04bd 3fe1 583d 6722 003d 1b19 1d3d
00000060: 9c82 843d c903 153c 40e5 cd3d ffac bb3d
00000070: 8759 bc3c 365d cc3d 3865 713d 357a ab3d
00000080: 1b49 13bd f1a9 f53b 3b7c 013e 0acf d73d
00000090: bdd8 8dbd cb4b 0abc 5184 593d 30c1 ae3d
000000a0: 0800 833d adfb d3bd b0d6 4cbc dc07 d4bc
000000b0: 5165 abbd a65d a63d 6c1a 903d 5fa0 603d
000000c0: 8074 25bd 4b13 8e3d e420 b3bc 644b 8d3d
000000d0: eb85 01bd 3b86 abbd 6b37 ea3d c9ea c73d
000000e0: 2ea6 d23c ae94 053d f268 0b3d af0a 73bd
000000f0: 144d 073e b1d3 a23d 91f4 2e3d d6fe 42bd
00000100: 1c2c 033d 101e cfbc 4e7a 243c ffa5 583d
00000110: e3ca ce3d 34fb 0cbc 1e67 753c 22c6 c03d
00000120: c0c1 13be 9931 9a3d 1558 7abb 7766 a93c
00000130: 3bdf 8cbd c812 3038 502d 9bbc 2252 eb3d
00000140: 4505 073c 9d38 e2bc 160c ddb9 f2ff a23d
00000150: a00e 893d d0de 683d 4b4d 6bbd daca 783d
00000160: 31b7 c83d 3f8b 32bd ed1f 1dbd 0e69 343d
00000170: 4679 a0bb 1757 fd3c 3009 0fbd 5fc5 073d
00000180: 7072 c4bc 22f3 ae39 5bc7 943b 4c8b b63d
00000190: 3ac7 f3b9 2f39 843d f7f9 b6bd 6493 223c
000001a0: 5cad a23d 80f1 613c 571d 47bd 7219 cc3c
000001b0: fa74 023d e2fd 98bc f8dc ac3d e387 99bd
000001c0: e8af 9d3d 7826 b33d 3128 5d3d c1cb e43d
000001d0: f85c 073d fd02 483d 3609 ae3d 4b90 f9bc
000001e0: cc07 1abd 747e b73d 6164 fc3d 3e1f de3d
000001f0: dae8 11bd 932e cf3d af98 0fbc 6815 d83d
00000200: cebc 653d b113 823d b12a 473d 6f1c b9bd
00000210: 38e8 663c 95d2 1fbd 1188 993d 040b dabb
00000220: 23c8 a83d 0f68 41be 01d4 cd3d 6760 6bbd
00000230: 79ae c23e bcd9 40bd 165e 13be e9c2 8cbd
00000240: f0ca 663d 0944 643d f746 0abd 729f b1bc
00000250: bc97 3dbd 1c94 a73d 01f7 9abd 2276 98bc
00000260: 38af fbbd ef3f f93d c2a6 89bd 8020 42bc
00000270: 6025 12be dbd1 453d a600 cc3d e818 b9bd
00000280: 8ef6 8f3c f8e1 443d 14ef 78bd 39c2 d7bd
00000290: 63d7 00bd e967 6c3d e4e4 cbbb a92a d9bc
000002a0: ad1b 6f3c 4e20 d2bb 377d 49bc 5b84 a73d
000002b0: 2987 7d3c ee60 1ebd d21f 90bd 93c5 afbd
000002c0: ded0 a0bd 087b 1abd a980 8dbc e5aa 7cbd
000002d0: c000 063d 27d1 a03d 2642 37be 91fa 813c
000002e0: c78e 403d bb72 463d c2a9 d03b 69e6 58bd
000002f0: f4b8 4ebc afef 05bb cf9e 48bc f308 ee3d
00000300: 9790 87bd de57 e63b 9a2b 0c3d c427 a23c
00000310: f1a6 6dbd ea8d dfbc 98e4 98bc fd3c 1a3d
00000320: 358f 6a3d c697 f03b 7e08 d23d 060f 3e3c
00000330: 710c 313d ca1d b23d 4e4d 6d3d eec4 863c
00000340: 4ce3 acbd 2eb1 debd 42d1 01be 9a18 99bd
00000350: acc3 d7bb 043e 253d 0588 a93d c272 eb3c
00000360: 6185 c63d cef6 473d 5ffc 8c3d 0abb e2ba
00000370: 3400 5abd ff09 903d c69e 833d 2e42 253e
00000380: 6c47 e53c dc4e 87bd 2029 11bd e862 c43c
00000390: cfef 33bd ee8f 0dbb c99f 1d3e b4c7 c83d
000003a0: 229d 91bd 6bb5 0dbc 102b f0bc 8021 c2bd
000003b0: cf86 643d 49c6 133d 19d1 aebd 84af ef3c
000003c0: c9b7 b5bd bfca 483d b6c8 b83c 7ba5 22bd
000003d0: c0ce a6bd a75b 4ebe 3b88 a7bc c290 213e
000003e0: 844d 60bd 91d0 46bc 06b9 76bd 786f 0bbe
000003f0: f2d4 f6bc 0c65 5abd 97bb 64bd 5af8 d5bd

fc2_adv.bias f4 [128]
-0.041648682 0.07389464 -0.025167365 0.0315309 0.0010250282 -0.07388252 -0.006813434 0.04475416
0.026493024 0.06487729 -0.02340533 -0.0011163685 0.057214923 -0.02187797 0.052996036 -0.038065128
0.031742513 -0.026743231 -0.071597435 0.013852838 0.07340343 0.043064665 -0.025939755 0.03054186
-0.032459226 -0.0036324083 0.03813063 -0.04501011 0.036932673 0.022365032 0.050487526 -0.05499524
0.061835352 0.04716585 0.045540698 -0.0056027174 -0.042583242 -0.035364743 0.06563841 0.048397914
-0.05237844 -0.023624992 0.08134087 -0.053571444 0.05314894 0.07974249 0.05513567 0.07918383
-0.030214908 -0.013620062 -0.081492 -0.02792716 0.07671754 0.02895079 0.030778697 -0.028850913
0.10492854 0.042405296 -0.07049388 0.023946375 -0.01670599 0.031920068 0.13829187 -0.018579865
0.005914499 -0.004906598 -0.0041017635 0.0065239277 -0.09843959 -0.09862335 0.00018103125 -0.063766256
-0.04562338 -0.03266179 0.07762237 0.058531962 0.0038952006 0.08621685 0.094456054 0.14210947
-0.008495759 0.057320274 -0.04847076 -0.035401784 -0.010118529 0.06704916 -0.030445922 0.00018141938
0.07612995 -0.017772017 0.022608548 -0.052979365 0.041295256 -0.048483543 -0.0056637344 -0.015743736
0.063233346 -0.09949259 -0.04462591 -0.01754117 -0.07971405 -0.00932216 0.033240777 -0.07986951
-0.020202713 -0.07933527 -0.062685445 0.07559957 0.022045942 0.0074153426 0.097130865 0.0113615235
-0.007927555 0.061423372 0.06467544 0.09651764 -0.0011094427 0.017537028 -0.04994564 0.014932036
0.031065559 0.018313957 -0.044193767 0.052401047 0.020739892 -0.06593764 -0.032270633 0.005261636
00000000: cf97 2abd 1356 973d ca2b cebc 8c26 013d
00000010: 3d5a 863a b84f 97bd 3a43 dfbb 2350 373d
00000020: e607 d93c 62de 843d 89bc bfbc 1c53 92ba
00000030: 325a 6a3d 6e39 b3bc 5f12 593d 2eea 1bbd
00000040: 7004 023d 9f14 dbbc ada1 92bd 04f7 623c
00000050: 8a54 963d 9364 303d 9c7f d4bc ec32 fa3c
00000060: f7f3 04bd b30d 6ebb dd2e 1c3d 855c 38bd
00000070: b746 173d df36 b73c 02cc 4e3d b042 61bd
00000080: 1147 7d3d fa30 413d e288 3a3d 0097 b7bb
00000090: c46b 2ebd 9fda 10bd 6e6d 863d e43c 463d
000000a0: c68a 56bd 3389 c1bc 0b96 a63d bb6d 5bbd
000000b0: b4b2 593d 0850 a33d f1d5 613d 222b a23d
000000c0: 4185 f7bc ae26 5fbc 47e5 a6bd 80c7 e4bc
000000d0: 161e 9d3d 352a ed3c 9b23 fc3c c058 ecbc
000000e0: c6e4 d63d 2db1 2d3d 185f 90bd 302b c43c
000000f0: 00db 88bc 9ebe 023d 629c 0d3e cd34 98bc
00000100: 6ace c13b 87c7 a0bb 1668 86bb acc6 d53b
00000110: b29a c9bd 0afb c9bd 35d3 3d39 e297 82bd
00000120: 95df 3abd 5ec8 05bd 7af8 9e3d 36bf 6f3d
00000130: 9f46 7f3b 7692 b03d 2d72 c13d 2585 113e
00000140: cc31 0bbc aac8 6a3d 4789 46bd 7601 11bd
00000150: 30c8 25bc 1251 893d ba69 f9bc 653b 3e39
00000160: 05ea 9b3d 9f96 91bc 9035 b93c e400 59bd
00000170: 3725 293d ae96 46bd d996 b9bb 02f9 80bc
00000180: 7c80 813d c5c2 cbbd a9c9 36bd 80b2 8fbc
00000190: 1f41 a3bd f9bb 18bc 7b27 083d a092 a3bd
000001a0: 2980 a5bc 887a a2bd 3a61 80bd f3d3 9a3d
000001b0: b199 b43c 67fc f23b 8cec c63d af25 3a3c
000001c0: 93e2 01bc 1397 7b3d 8f74 843d 0aab c53d
000001d0: b86a 91ba d0a9 8f3c cd93 4cbd 80a5 743c
000001e0: 337d fe3c 2707 963c 8604 35bd 7ba2 563d
000001f0: b5e6 a93c 500a 87bd 362e 04bd cd69 ac3b

fc3_adv.weight f4 [2, 128]
0.14788929 -0.17664695 -0.35440686 -0.13210043 0.015636189 -0.11623132 0.12843487 -0.11677928
-0.13235708 0.009480097 0.04030986 0.115158364 -0.098155245 0.09408902 -0.17393216 0.13181487
0.114145204 -0.10698185 -0.011512459 0.1138469 0.040814597 0.08888282 0.20677556 0.025861822
0.06941078 0.06433678 -0.11334472 0.112208106 -0.12987947 -0.2179872 0.11989692 -0.036279798
-0.038732003 0.13675499 0.062241483 0.17690544 0.058565535 -0.15927972 0.13391691 0.0564128
0.14254339 -0.027671315 0.017118553 0.008506776 -0.07806796 -0.10239369 0.1380708 0.047376018
-0.14601928 -0.06462404 -0.13315314 0.18191639 0.12390253 -0.15092629 -0.19368336 -0.021413945
-0.08617186 0.12847735 -0.18786712 -0.2843252 -0.14513107 -0.101283684 -0.09157067 0.06741753
0.15245101 -0.097593606 0.11781351 0.119307145 0.12416888 -0.12831713 -0.1110044 0.13661075
-0.1400717 0.113506876 0.042463336 -0.23618506 0.17455404 -0.1748632 0.11007068 -0.389532
0.11943521 -0.12739888 0.08645447 -0.17376444 0.14115094 -0.044528402 -0.21496782 -0.012134377
0.001578239 0.029114194 -0.14760062 -0.08472771 -0.011067925 -0.08427331 0.13069175 -0.095074944
-0.15691152 0.1336676 0.21203522 0.13596465 -0.12713121 0.09881367 0.10573885 0.19989334
0.18058214 -0.19170476 -0.07724481 -0.14510657 0.11846806 0.14290424 -0.09858595 0.14880468
-0.11950867 -0.10978665 0.04033674 -0.10896293 0.10425731 -0.17110392 -0.0979827 -0.067924395
0.0010841123 -0.17279662 0.06454572 0.13278283 -0.16282082 0.29018134 -0.15296213 0.036895823
0.037131418 -0.10536666 -0.20912386 -0.117509805 0.08738935 -0.109769 0.12363288 0.05069289
-0.15496963 0.10133526 -0.11195179 0.09424684 -0.09031821 0.16927849 -0.15144265 0.10256343
0.1356603 -0.24606282 0.082826324 0.073462516 -0.1305804 0.06378104 0.09380966 0.11695086
0.13248515 0.14341402 -0.110231444 0.109673664 -0.12490149 -0.14589505 0.10947357 0.043850474
0.07637727 0.14485507 0.122993566 0.06800845 0.12693442 -0.17320621 0.14428501 0.08542909
0.15029854 -0.06122566 0.09920246 0.12055297 -0.14649445 -0.09380341 0.057575762 -0.12286123
-0.09031753 0.08879368 -0.029315924 0.14989068 0.097354144 -0.16172056 -0.117342696 -0.019049205
-0.15553193 -0.0013512146 -0.13885637 -0.34334356 0.018560464 -0.14274362 -0.09002662 -0.041107636
0.0035994458 -0.20473087 0.1018287 0.04586232 0.16332626 -0.099498935 -0.21681067 0.010135345
0.0011949054 0.03395434 -0.076337904 -0.34087545 0.034098372 -0.09300207 0.10488905 -0.33352992
0.06478354 -0.18454385 0.08645062 -0.18798682 0.077190496 -0.16190355 -0.21348454 0.12944233
-0.102337435 0.105967596 -0.048229855 -0.16741875 -0.03341234 -0.052459374 0.037193354 -0.12526931
-0.042101096 0.057115227 0.048148267 0.097036146 0.014797489 0.04031283 0.04150733 0.14686997
0.24662468 -0.12077823 0.0013871421 -0.09615997 0.07270161 -0.094232775 -0.07534379 0.13107534
-0.057935864 -0.028699135 0.1185471 -0.008487256 -0.0086642 -0.12044782 -0.04508438 -0.14279321
0.092840776 -0.10822373 0.09775508 0.10456788 -0.22987041 0.21294664 -0.24709037 0.11595659
00000000: 4a70 173e f0e2 34be d174 b5be 5645 07be
00000010: 7717 803c b00a eebd 6e84 033e fa29 efbd
00000020: 9d88 07be 6952 1b3c f41b 253d 26d8 eb3d
00000030: 9e05 c9bd beb1 c03d 461b 32be 7afa 063e
00000040: f6c4 e93d 4d19 dbbd c19e 3cbc 9028 e93d
00000050: 352d 273d 3208 b63d f9bc 533e 2cdc d33c
00000060: 3d27 8e3d 00c3 833d 4721 e8bd 5dcd e53d
00000070: 20ff 04be 0938 5fbe 848c f53d 209a 14bd
00000080: 73a5 1ebd 8009 0c3e edf0 7e3d b326 353e
00000090: 6ae2 6f3d 391a 23be 8421 093e 1c11 673d
000000a0: e5f6 113e f4ae e2bc 353c 8c3c 0160 0b3c
000000b0: 18e2 9fbd c8b3 d1bd 6f62 0d3e 5b0d 423d
000000c0: 1486 15be 9c59 84bd 4c59 08be 4a48 3a3e
000000d0: 9cc0 fd3d 6c8c 1abe ee54 46be 4c6c afbc
000000e0: df7a b0bd 918f 033e 3d60 40be 1393 91be
000000f0: 3d9d 14be d26d cfbd 6789 bbbd 3412 8a3d
00000100: 1e1c 1c3e 28df c7bd 3648 f13d 4e57 f43d
00000110: 414c fe3d 9165 03be 4656 e3bd b0e3 0b3e
00000120: f56e 0fbe 4b76 e83d 09ee 2d3d 7fda 71be
00000130: 4bbe 323e 570f 33be bd6c e13d bd70 c7be
00000140: 739a f43d da74 02be 0b0f b13d 4eef 31be
00000150: df89 103e 6a63 36bd 8620 5cbe 44cf 46bc
00000160: eadc ce3a e480 ee3c 9e24 17be b985 adbd
00000170: 3e56 35bc 7c97 acbd 0fd4 053e a7b6 c2bd
00000180: 6aad 20be 29e0 083e c31f 593e 513a 0b3e
00000190: af2e 02be d25e ca3d 9c8d d83d d7b0 4c3e
000001a0: 86ea 383e 414e 44be 8732 9ebd d196 14be
000001b0: 629f f23d 7d55 123e 6ee7 c9bd 4160 183e
000001c0: f6c0 f4bd d3d7 e0bd 2338 253d f527 dfbd
000001d0: db84 d53d de35 2fbe 27ab c8bd f21b 8bbd
000001e0: c618 8e3a 99f1 30be 8c30 843d 39f8 073e
000001f0: 80ba 26be a692 943e 1ba2 1cbe 1320 173d
00000200: 1d17 183d 7aca d7bd 9124 56be fba8 f0bd
00000210: 30f9 b23d 92ce e0bd 3c33 fd3d 59a3 4f3d
00000220: 5cb0 1ebe dc88 cf3d fb46 e5bd 7d04 c13d
00000230: c1f8 b8bd 5757 2d3e c813 1bbe c70c d23d
00000240: 89ea 0a3e e4f7 7bbe d9a0 a93d 8473 963d
00000250: deb6 05be a29f 823d 471f c03d ef83 ef3d
00000260: 30aa 073e 20db 123e 06c1 e1bd 969c e03d
00000270: 5acc ffbd 8365 15be ae33 e03d 8e9c 333d
00000280: b06b 9c3d e354 143e 0de4 fb3d 0448 8b3d
00000290: 19fb 013e f85c 31be 73bf 133e 72f5 ae3d
000002a0: dce7 193e c2c7 7abd a92a cb3d 7ae4 f63d
000002b0: a402 16be 011c c0bd 90d4 6b3d ab9e fbbd
000002c0: 66f8 b8bd 76d9 b53d f327 f0bc f17c 193e
000002d0: 9c61 c73d 139a 25be 5e51 f0bd 140d 9cbc
000002e0: c343 1fbe 3d1b b1ba 5d30 0ebe baca afbe
000002f0: 1d0c 983c 622b 12be e05f b8bd 7b60 28bd
00000300: aee4 6b3b f8a4 51be 918b d03d 21da 3b3d
00000310: 003f 273e 19c6 cbbd 9e03 5ebe b80e 263c
00000320: 5f9e 9c3a b513 0b3d 0c57 9cbd 3a87 aebe
00000330: bcaa 0b3d df77 bebd 12d0 d63d 6fc4 aabe
00000340: 3cad 843d 10f9 3cbe 060d b13d 9e7f 40be
00000350: 0d16 9e3d 0bca 25be b19b 5abe 888c 043e
00000360: 4a96 d1bd 8a05 d93d ab8c 45bd d26f 2bbe
00000370: 61db 08bd a4df 56bd 0f58 183d 9946 00be
00000380: 3372 2cbd a8f1 693d 1e37 453d e3ba c63d
00000390: 2b71 723c 111f 253d 9703 2a3d 1565 163e
000003a0: 2e8b 7c3e 945a f7bd c4d0 b53a 85ef c4bd
000003b0: 95e4 943d 1dfd c0bd d84d 9abd 9d38 063e
000003c0: 284e 6dbd 731a ebbc d2c8 f23d 220e 0bbc
000003d0: 4af4 0dbc 59ad f6bd 66aa 38bd 6238 12be
000003e0: 4e23 be3d 67a4 ddbd d133 c83d af27 d63d
000003f0: 2663 6bbe af0e 5a3e 4205 7dbe a67a ed3d

fc3_adv.bias f4 [2]
-0.065580815 -0.059052315
00000000: 3c4f 86bd d7e0 71bd
