src/nets/avoid_checkpoint100NEW.pth (torch_old, 180515 bytes, 11 tensors)

fc1_val.weight f4 [128, 43]
000000 9b 0b 43 3b b3 07 5d 3e 09 87 88 be 08 57 61 3e
       0.0029761556 0.21584968 -0.26665524 0.22005856
000010 5c 52 8c bd b1 bf 41 3e 6c 24 ec bd dc d6 c2 3d
       -0.06851646 0.1892078 -0.115303844 0.095136374
000020 76 7d 07 3d 97 3c dd 3d 98 87 5d bd 2a 66 ae bc
       0.033078633 0.10802572 -0.05408439 -0.02128895
000030 6c 5d 89 3d 5c 11 1a 3d db c5 06 3d 6c ea 57 3d
       0.06707272 0.03761421 0.032903533 0.052713796
000040 1e 08 1a bd d4 24 d3 3c 2c 56 58 3d 7e 1e 4e bd
       -0.037605397 0.025774397 0.052816555 -0.05032205
000050 5f 69 fa 3c 47 19 82 bd 2d ad 43 bb 39 08 42 3d
       0.030567823 -0.063524775 -0.002985786 0.047371123
000060 92 cf 83 bd e9 50 a6 3d 90 1c b3 bc c8 a9 6f 3d
       -0.06436075 0.08120901 -0.021864206 0.058511525
000070 74 65 a2 bc ef ee 08 bc 20 f4 50 bc 3b ff 4c 3d
       -0.019823767 -0.008357747 -0.012753516 0.050048094
000080 6b d6 1f bd 0e 16 9a bd 0c db eb bd f2 1f 2a bc
       -0.039022844 -0.07523738 -0.11516389 -0.010383593
000090 7a 73 50 3d ce 51 57 3c 23 de d9 3c 1d 7c 10 3d
       0.050891377 0.013142062 0.02659518 0.035274614
0000a0 83 b5 01 3f a2 1c c0 3c b8 6e 22 3c 51 ef 14 3e
       0.5066759 0.023451153 0.009914093 0.14544417
0000b0 4e 9e 54 be e8 8c 75 3e 73 1f 62 bd f8 02 58 3d
       -0.20763513 0.23979533 -0.055205774 0.052737206
0000c0 b6 61 51 3d 1f 9f 11 be 85 e3 d7 bd 49 b9 76 bd
       0.051118575 -0.14220856 -0.10541443 -0.060235295
0000d0 fd 93 4c 3d e9 93 71 3d 46 f4 7b bb 3e ed d3 3d
       0.04994582 0.05897895 -0.003844516 0.10347985
0000e0 14 de 11 bd ad 49 26 bd 18 3f 90 bc 11 c4 1e 3d
       -0.03561218 -0.040597606 -0.01760821 0.038761202
0000f0 7b 3e b7 bd 4e 4e 6b 3d 83 53 ce bd 73 ea f6 3d
       -0.08947464 0.057447724 -0.10074522 0.120564364
000100 69 c8 d6 bd 9f 4c 92 bd 2f 32 0b bc 24 c2 5d 3d
       -0.10487444 -0.071435206 -0.008495851 0.054140225
000110 75 f5 31 bd ab d0 92 bd ca 34 ca 3d 67 81 e4 bc
       -0.043446977 -0.071687065 0.0987335 -0.027893735
000120 41 f8 7a bc 55 67 60 3c ac 3e 29 bd e1 8a f7 bc
       -0.015317977 0.013696511 -0.041319534 -0.03021759
000130 c3 b3 ae 3d d5 44 d7 bd 74 19 7d 3d 70 f8 a3 bd
       0.085303806 -0.105111755 0.061791852 -0.0800637
000140 3b 0b e7 3d 1f c0 2b bd 86 90 5e 3d 9d 12 ec 3e
       0.11281439 -0.041931268 0.054337047 0.4610795
000150 3e 26 9b bc 7a 57 86 3c eb c8 29 be c7 65 6c 3d
       -0.018939134 0.016399134 -0.1658055 0.05771425
000160 ca c5 e4 bd fe 68 1a 3e 9f 4a a0 bd 73 19 17 3e
       -0.11170538 0.15079114 -0.07826733 0.14755802
000170 d7 81 84 3c f7 18 11 3e 32 91 c7 3d 17 b6 03 bd
       0.016175194 0.1416968 0.09744491 -0.032156076
000180 0f c4 a5 3c 3d 5e e2 bc 14 b8 f9 3d 1c 5f 8a 3d
       0.02023509 -0.027632827 0.12193313 0.06756422
000190 e0 d3 05 be cc b5 ae ba 23 3f f1 bc 89 11 6d bd
       -0.13069105 -0.0013329326 -0.029449051 -0.05787805
0001a0 60 8d f7 bd 01 98 cb 3c 8f 93 2d be b0 f4 4f bd
       -0.12087512 0.024852755 -0.1695082 -0.05077046
0001b0 55 57 2f 3e 71 2c 8a 3e f3 ce 45 3d e6 a5 58 3d
       0.17123158 0.2698703 0.048293065 0.052892588
0001c0 ec 6a 97 bd 51 9a 8d 3d d8 4a 1f 3d 30 91 ad 3c
       -0.073934406 0.06914199 0.038889736 0.021187395
0001d0 5f 22 29 3c a2 75 5a bd c2 3b 11 3e 74 49 b1 3d
       0.010323136 -0.05333484 0.14182952 0.08656588
0001e0 fd 1f b6 3d ab 75 87 3d 43 d6 ae 3d 45 48 8b 3d
       0.0889282 0.0661424 0.08536961 0.06800894
0001f0 27 86 27 be 89 fc b3 3d 69 60 a3 bd c1 8a 14 3d
       -0.16359769 0.08788402 -0.07977373 0.03626514
000200 f0 47 d0 bd df e9 31 bd 9a a8 02 be 8c 66 6e 3d
       -0.10169971 -0.043435927 -0.12759629 0.058203265
000210 59 d7 1b 3e 45 d1 86 bd eb ff f3 bd 43 6e a2 3d
       0.15218867 -0.06582884 -0.11914047 0.07931187
000220 b5 de d5 3c 07 b4 8a bd 04 af c5 3d ba af 28 3d
       0.026107172 -0.06772619 0.09652522 0.04118321
000230 e5 09 3c 3e 72 09 a9 3d 2f 55 db bd a8 76 89 3d
       0.1836315 0.08253755 -0.10709607 0.06712085
000240 a8 86 fa 3d b2 56 3d 3e 2f fe 05 3e 08 d1 5b 3d
       0.12232715 0.18490103 0.13085245 0.053666145
000250 4c 1e 79 3d 84 6c 0b bd 09 90 44 3e dd 6f e6 3d
       0.06081991 -0.034039035 0.1919557 0.11251805
000260 05 53 14 3d 91 39 ef 3d 20 d5 2a 3d 7f 6d 55 3e
       0.036211986 0.11680902 0.041707158 0.2084255
000270 7d 16 b6 3c 4f 3e cf bc da bd 81 3d 2e c2 29 3d
       0.02222752 -0.025298266 0.063350394 0.04144495
000280 ee 5c 15 3e cb 55 fb bc a7 90 07 bd dd 37 c7 bc
       0.14586231 -0.030680558 -0.033096936 -0.02431863
000290 74 07 8a bd 38 2a 0e 3e bf 63 e4 bd a3 a1 0a bd
       -0.06739703 0.13883293 -0.111518376 -0.033845555
0002a0 92 5a 2d bd 82 bb 5f be 24 45 3f bd 2e c9 2b 3d
       -0.042322703 -0.21848872 -0.046696797 0.041939907
0002b0 f4 c4 33 be 91 df 5e 3e 3d ed 7d be bc 79 44 3e
       -0.175556 0.21764971 -0.2479753 0.19187063
0002c0 fc ed cb be 73 b9 fd 3c f6 91 2b 3d 3e be 09 be
       -0.39830005 0.030972218 0.041887246 -0.13451478
0002d0 e9 7a bd bc 6e 37 63 3d c1 f5 28 be b8 13 db 3b
       -0.023129897 0.055472784 -0.16499998 0.0066857003
0002e0 49 12 a3 be b1 02 9b be d2 97 76 be a3 bd 33 bd
       -0.31849888 -0.3027549 -0.24081352 -0.043882024
0002f0 6a 71 55 bd 6d 6e 61 3d e2 66 10 bd 06 04 a6 bd
       -0.052110113 0.05503695 -0.035254367 -0.08106236
000300 bf 0c 29 3b 0c f0 37 bd 85 08 d1 3d 0b 13 12 bd
       0.002579495 -0.04490666 0.10206703 -0.035662692
000310 fe bc 5d 3d bf a4 d4 bd b9 f8 11 3e 5a 53 96 ba
       0.054135315 -0.10382985 0.14255036 -0.0011468932
000320 80 fd 05 bd a2 e9 26 bd 3b e7 8a bd 32 75 bc 3d
       -0.03271246 -0.040750153 -0.06782385 0.09202041
000330 fd 85 5b 3d 94 10 f4 3c a2 92 da 3c 6a e2 c2 bb
       0.053594578 0.029793061 0.026681248 -0.005947401
000340 32 99 f4 bc 5d 0c c6 3c 18 94 26 bd 0a 54 00 3d
       -0.029858205 0.024175817 -0.040668577 0.031330146
000350 2e 5a 76 be 1c 10 1e bd 55 bf ea bd 55 2d 81 3d
       -0.24057838 -0.03858958 -0.11462275 0.063074745
000360 b0 9e 44 3e f9 90 99 be 7b 8a 92 3e 55 0b 34 3e
       0.1920116 -0.29993418 0.28621277 0.17582448
000370 e6 44 a1 bd 66 9f 1c 3e 02 09 e6 bd b3 92 a3 3c
       -0.078744695 0.1529518 -0.11232187 0.019967413
000380 6f 68 80 be b8 0f a1 3e f9 88 07 3e 17 13 1a be
       -0.25079677 0.31457305 0.13235845 -0.15046345
000390 4d d2 9d bd c2 3e 8e 3c bb 6e 7b bb 04 c0 aa 3d
       -0.07706127 0.01736391 -0.003836556 0.08337405
0003a0 83 11 62 bd b1 6e 96 bd 92 3f a2 3d 11 a1 f9 3c
       -0.05519248 -0.073453315 0.07922281 0.03047231
0003b0 16 02 c6 bd 45 59 10 be 8e 0f 29 bd 29 d7 04 3e
       -0.096683666 -0.14096554 -0.0412746 0.12972702
0003c0 e3 c9 12 be 65 2f 18 be 50 58 17 be 84 61 4d bd
       -0.14334826 -0.1486183 -0.14779782 -0.050141826
0003d0 2b 4c c2 bd 8f 1f 81 3c 68 4c e4 bd 9d 87 0f 3d
       -0.09487184 0.015762119 -0.11147386 0.03504144
0003e0 8b 7b 8d 3d 22 e6 b3 bd 83 a6 0f 3d 93 7f bc bd
       0.069083296 -0.08784129 0.035070907 -0.0920402
0003f0 4b dc f7 3d 67 ab 44 be a4 70 a4 bd 85 6c 86 be
       0.121025644 -0.1920601 -0.08029297 -0.2625467

fc1_val.bias f4 [128]
000000 e1 fc d3 bc 6b 08 3c 3d 2c 65 a2 3e 9d 88 28 be
       -0.025877418 0.045906466 0.31717813 -0.16458364
000010 9f ca 7e 3c 79 6e 9a 3c db 84 94 3d 74 8f 81 3e
       0.015551238 0.018851506 0.07251903 0.2530476
000020 3b 73 d9 bc 1a fb 55 3e d6 f5 60 3c 5c ec 4b 3d
       -0.026544204 0.20896569 0.013730487 0.049785957
000030 ba 3d b7 bd fc 8e 89 3d 0a 3f 3f 3d fa c1 a4 3e
       -0.0894732 0.06716725 0.046690978 0.32179242
000040 8a fb f9 3d 46 2c a6 3e fd 7b d5 3c 4d e9 bb 3d
       0.122061804 0.32455653 0.026060099 0.09175358
000050 58 62 6a 3d d1 d2 af bc b7 fe 8f 3e e9 dd 9f 3e
       0.057222694 -0.02146283 0.2812402 0.31223992
000060 5e 63 d2 3e 61 5a a6 3e 74 2c 97 3d a2 bb 89 3e
       0.41091436 0.3249083 0.07381526 0.26900965
000070 c6 55 8a bd 8f 28 a8 3d 96 92 97 3e 1f eb 65 be
       -0.06754641 0.08210861 0.29604024 -0.22452973
000080 82 a4 35 3e d0 ba 74 3e 8f 10 c6 bc 01 74 b6 3d
       0.17738536 0.23899388 -0.024177818 0.08908845
000090 f0 e7 2f 3e 90 ba 28 3e 1a ce b5 bd 6a 17 56 3e
       0.17178321 0.16477418 -0.088772014 0.2090737
0000a0 33 3a 21 3e 3d 7f b9 3d 49 f2 a8 3e 37 e5 22 3e
       0.15744857 0.09057472 0.3299735 0.15907751
0000b0 e4 8d a2 3e f1 83 42 3e c2 80 f2 3d 73 4f af 3e
       0.3174888 0.18995644 0.11840965 0.34240302
0000c0 00 1e 25 3e c4 4a 46 bd 8f 44 4e 3e 57 c2 92 3e
       0.16124725 -0.048411146 0.2014334 0.28663895
0000d0 69 de 6b 3e 7b f5 cb 3e 39 2c 45 3c c4 b0 8d be
       0.23034061 0.39835724 0.012034469 -0.27673924
0000e0 56 13 59 3c a9 8f 65 3e a0 54 95 3e fa 0c f3 3d
       0.013249239 0.22418083 0.29166126 0.118677095
0000f0 e5 52 99 3e 4c ef 51 3e be 23 b2 3c 0e ff a9 3e
       0.29946056 0.20501441 0.021745559 0.33202404
000100 c7 de 96 3e 4b e6 4e 3e 83 db 8d 3d 0b 6f aa 3e
       0.2946684 0.20205037 0.06926634 0.33287844
000110 83 b9 ea 3d 26 7f b6 bc b1 95 b2 3d 38 ef 11 3e
       0.11461165 -0.022277426 0.087199576 0.14251411
000120 1e 2b 48 3e eb cb 87 3e 4f ca 98 3e b8 22 05 3e
       0.19547698 0.26522765 0.2984185 0.13001525
000130 21 f3 42 3e 09 5c f9 bc 17 d0 cf 3b f1 b1 01 3e
       0.19038059 -0.030439394 0.006341945 0.12665536
000140 3c 47 23 3e 51 f5 86 3d 8b c9 8c 3e 90 2f a3 3d
       0.15945143 0.06589759 0.27497515 0.07968056
000150 b5 18 79 3e fd c6 29 3d c7 f1 e3 3c bc c4 da 3b
       0.24325831 0.041449536 0.02782525 0.0066762846
000160 98 40 bd 38 48 af 75 3e e2 ab 06 bd 60 a4 86 3e
       9.024254e-05 0.23992646 -0.032878764 0.26297283
000170 7a 63 f1 3d 73 bb bc 3e e1 53 72 be ac ee f4 3d
       0.11786552 0.36861762 -0.2366481 0.119595855
000180 7d d2 a2 3e f8 3f a0 3d 69 4d 18 3d 23 70 09 3d
       0.31801215 0.07824701 0.0371832 0.033554208
000190 65 1b 84 3e fe cd 90 3e cb 49 5d 3e f1 f7 e6 bd
       0.2580215 0.2828216 0.21610181 -0.1127776
0001a0 15 46 21 3e 1c d1 bf 3c ad 01 de bc a8 fd 3f 3e
       0.1574939 0.02341514 -0.027100408 0.18749106
0001b0 d2 87 ac 3e 22 c4 66 be 8d a7 0a 3d 7b f6 24 3e
       0.33697373 -0.22535756 0.033851195 0.1610965
0001c0 da a0 d8 3d c5 0d 1b 3d de bf 8b 3e 02 15 9f 3e
       0.10577555 0.03785493 0.2729482 0.31070715
0001d0 e1 aa eb 3d f0 4f 82 3e 70 3c 09 3e 88 bd d3 3d
       0.11507202 0.25451612 0.13401961 0.103388846
0001e0 44 85 6b be 6c fe 66 3e 52 83 d7 3c 53 66 6d 3e
       -0.23000056 0.22557992 0.026307736 0.23183565
0001f0 0d e2 4d be 0c 19 80 3e f5 37 c4 3e 99 07 89 3e
       -0.20105763 0.2501911 0.38323942 0.2676361

fc2_val.weight f4 [128, 128]
000000 40 1b cb 3d 4f 23 9a be 24 36 9d 3e 19 5a ec 3e
       0.09917307 -0.30105063 0.3070537 0.4616249
000010 fc a7 48 3f 63 1e 16 3f 4a 47 41 be 10 27 38 be
       0.78381324 0.58640116 -0.18874851 -0.17983651
000020 be 7c b3 be 3c 3b 1c 3e 49 80 a8 be 4c 48 50 3d
       -0.35056108 0.15256971 -0.32910374 0.050850198
000030 d5 7a 17 bf 10 b6 00 be fe 13 23 3f 1b 54 75 3d
       -0.591718 -0.12569451 0.6370238 0.059894662
000040 ef 56 27 3e 1e 72 05 3f 96 d4 96 3e d3 48 91 3c
       0.16341756 0.52127254 0.29459065 0.01773492
000050 95 59 bb 3f 7f 99 12 3f 59 21 88 be af 4a 65 3d
       1.4636713 0.57265466 -0.26587942 0.055979427
000060 c5 eb 24 be fa 3f 8e bd 53 44 da be 5c 55 3e be
       -0.16105564 -0.06945796 -0.42630252 -0.1858725
000070 a3 26 53 3f f4 12 17 3f 5b 2b b8 be 66 3b a7 be
       0.8248083 0.59013295 -0.35970578 -0.32662505
000080 48 ca 64 3f 66 ae b3 be 26 5d ce bd 5b 38 84 be
       0.89371157 -0.35093993 -0.100763604 -0.25824246
000090 f8 7c 3f bf c3 7e 2e 3e a2 09 92 be 10 cd 40 be
       -0.7480006 0.17040543 -0.28522974 -0.18828225
0000a0 e5 a0 50 be ef 96 a9 3e 26 59 1a be 55 0e 35 3e
       -0.20373876 0.33122966 -0.1507307 0.17681248
0000b0 5e 2c c3 bc 0f 34 01 be 6e ab bb 3e 1c 6d 19 be
       -0.023824867 -0.12617515 0.36654228 -0.14983028
0000c0 d8 67 bc be f0 88 82 3f 05 4f 5e be 75 e5 ab bc
       -0.36797976 1.019804 -0.21709831 -0.020983437
0000d0 50 5c 76 be 4c 4e 17 3e 8c d0 49 be d0 8c 1d be
       -0.24058652 0.14775962 -0.1970846 -0.15385747
0000e0 60 59 21 bf b6 89 83 3e 79 db 0e ba 9b 33 e2 be
       -0.63027 0.25691003 -0.0005449574 -0.44179997
0000f0 53 0f 90 3d f8 cf 08 3d 41 95 ea bc d6 e0 4f 3d
       0.07034173 0.03340146 -0.028635623 0.05075153
000100 9d 9d 83 bd 1b ac 3e be bc c5 e7 3d 31 3a 3c be
       -0.06426547 -0.1862034 0.11317012 -0.18381573
000110 fa 7c 06 bf 0d 4f 41 3e 5e 16 03 3d fc 01 71 be
       -0.5253445 0.18877812 0.032003753 -0.23535913
000120 10 41 5f 3d ab bb 8b be 35 be 25 3e 2a e7 90 be
       0.054505408 -0.27291617 0.1618584 -0.28301364
000130 0d bc 91 be 07 a9 32 3d de f9 82 be 3e 24 56 3e
       -0.28463784 0.04361823 -0.2558126 0.20912263
000140 93 86 02 be 0b 0f 83 be 84 90 a6 3e 79 ee 60 bd
       -0.12746648 -0.25597414 0.32532132 -0.054914925
000150 c9 1b 53 be 3b 9f b4 3e ab 50 63 be bb 9d 08 bd
       -0.20616068 0.35277733 -0.22198741 -0.03335355
000160 97 47 d8 3d 95 b8 93 3e a3 05 05 bf 8b 49 55 be
       0.1056053 0.28851762 -0.51961726 -0.20828836
000170 ea e8 5a be cd 59 87 3d 8a c8 eb be ec a9 1b 3f
       -0.21377912 0.06608925 -0.46051437 0.60806155
000180 8a 5b 14 be 94 72 b6 3e 95 f5 7d 3e c5 e0 16 bf
       -0.14488044 0.3563429 0.24800713 -0.5893672
000190 81 bd 54 bd ff 31 bf bd 5d 05 7b be 18 12 21 bf
       -0.051938538 -0.09335708 -0.24513765 -0.62918234
0001a0 81 f3 43 3d 96 d8 87 3e 94 3c 83 be f8 de 9f be
       0.047839645 0.2653243 -0.25632155 -0.312248
0001b0 aa a4 47 be 58 20 8e bd 72 eb 02 be 47 57 41 be
       -0.19496408 -0.06939763 -0.12785128 -0.1888095
0001c0 f8 ab 53 be fb 3d b4 3d 1b 8c 49 be c9 e3 01 bd
       -0.2067107 0.08800884 -0.19682352 -0.031711373
0001d0 27 7e 63 3e 2e 2d 2e be 84 5c 48 be a2 54 1a be
       0.22216092 -0.17009422 -0.19566542 -0.15071347
0001e0 b0 09 ec be f1 b9 6f be 67 4f 7b bd f2 ef 2f be
       -0.4610114 -0.23410775 -0.06135502 -0.17181376
0001f0 6a 6d 7d 3e 73 40 7a 3e aa 3c f2 3b 9b 65 84 be
       0.2474877 0.24438648 0.0073924856 -0.2585877
000200 5a dd 3f 3e ce 8f 4a 3e 4e b2 b0 3b 08 12 12 bd
       0.18736783 0.1978142 0.0053923493 -0.035661727
000210 e3 c5 72 3e 56 b3 aa 3d a1 a1 46 3e ec 67 1e 3e
       0.237083 0.08334987 0.19397594 0.1546933
000220 45 21 60 bc e4 6f 28 3e eb 2d 7e 3e e4 d8 00 3e
       -0.013679807 0.16448933 0.24822204 0.12582737
000230 14 48 cd 3d 86 00 79 3d a3 3d 07 3f 57 c5 13 3e
       0.100235134 0.060791515 0.52828425 0.14430748
000240 49 44 d1 3d cd bd e0 3d 05 48 c4 3d 69 1e c8 3b
       0.102181025 0.109737016 0.09584049 0.006107141
000250 e2 bc 4f 3f 03 3e f9 3d d3 57 52 3e b2 e9 07 3e
       0.8114759 0.12170031 0.20541315 0.13272741
000260 a8 6c 02 3e 1e 25 05 3e 3a f3 81 3d 0e ad 17 3e
       0.12736762 0.1300244 0.0634522 0.14812109
000270 3b 7b 1b 3d cd 80 aa 3d 98 47 0a 3e e5 13 83 bd
       0.03795932 0.08325348 0.13503873 -0.06400279
000280 97 f2 a4 3e 99 2f 0a 3e eb c3 1e 3d 04 fa 90 bd
       0.3221633 0.1349472 0.03876106 -0.07078937
000290 82 b5 81 3e 0d a2 71 3d c7 65 97 3c a6 25 4d bc
       0.25333792 0.058992434 0.018481148 -0.012521183
0002a0 e5 d0 d8 3d 2a 33 fb 3c 39 97 4c 3c 0c 6b 98 3c
       0.105867185 0.030664045 0.012487226 0.018605731
0002b0 38 26 c0 3d a7 a0 1e 3c fc ef 89 3c bc 98 13 3e
       0.0938229 0.009681857 0.016838066 0.14413732
0002c0 0e ce 9d 3e 84 55 54 3e 06 c6 2c 3e 19 e8 51 3d
       0.3082127 0.20735747 0.16872415 0.051246736
0002d0 34 d7 b9 3d c8 f8 19 3e a8 32 be 3e 57 b2 ff bd
       0.0907425 0.15036309 0.37148023 -0.124851875
0002e0 35 6e 84 3e b5 16 c2 3d 58 8f 07 3d 3f 14 39 3e
       0.2586533 0.09476987 0.033095688 0.1807413
0002f0 ac 24 92 3c f7 32 fe 3d 81 3c 92 3d 6c d3 db 3c
       0.017839752 0.124120645 0.071404465 0.026834212
000300 ac e2 55 3e 63 83 22 3e fb 22 ba 3d c0 8f a6 3c
       0.2088725 0.15870433 0.09088703 0.020332217
000310 10 bf 33 3e 1f ff 28 3d 8f 8a f1 3c 77 e0 ed 3d
       0.17553353 0.041258927 0.029485015 0.11615079
000320 ef 30 78 3d 86 dc e4 3d 03 48 f5 3d e7 10 37 3d
       0.06059354 0.11174874 0.11976626 0.044693854
000330 ed fc 06 3d 3c d1 bb 3d a1 8d 42 3e cc 4f 19 3e
       0.032956053 0.09170768 0.1899934 0.14971846
000340 7a c6 41 3d 12 1b 34 3e cc a9 57 bc 69 b0 28 3e
       0.047308423 0.17588452 -0.013163041 0.16473545
000350 f9 e0 c0 3d d9 05 c7 3d 22 26 7e 3e ac d0 f1 3d
       0.0941791 0.09717912 0.24819234 0.11807379
000360 ef f1 1d 3d 31 9c a8 3c 4e af e7 3e 14 f9 08 3e
       0.038560804 0.02058229 0.45250934 0.13376266
000370 36 75 b1 3d 19 5f 2c 3e 93 c0 bb 3c 0f 01 ed 3d
       0.08664934 0.16833152 0.022918975 0.115724675
000380 1a 8e d6 3d 6f 7d 03 3e 47 2a 2b 3e c4 d2 24 bd
       0.104763225 0.12840818 0.16715346 -0.040240064
000390 e2 54 32 3e 1d 53 82 bb f9 f3 a3 3d 02 e8 d8 3d
       0.17415193 -0.003977193 0.080055185 0.10591127
0003a0 38 db f3 3d 43 5e 0a 3e 0e bb 27 3e 2a a3 d2 3d
       0.11907047 0.1351252 0.1637995 0.10285027
0003b0 54 87 68 3d c9 7e 79 bd 80 ac 4b 3d fb 60 3e 3c
       0.056769684 -0.060911927 0.049725056 0.011619802
0003c0 b1 c1 66 3d 56 e4 46 3e c0 fd 7f 3e 4a 59 09 bc
       0.056337062 0.19423041 0.24999142 -0.008383105
0003d0 1a 34 72 3d d7 1f 83 3d 24 00 3c 3c a8 35 62 3d
       0.05913172 0.06402557 0.011474643 0.05522695
0003e0 67 3e cb bd 04 89 e8 3c e3 10 f9 3d 92 9e dd 3d
       -0.09924012 0.028385647 0.12161424 0.108212605
0003f0 ca fc 02 be 64 29 19 3d f6 c9 8b 3c 6b 3c 3f 3e
       -0.12791744 0.03739299 0.017064076 0.18675391

fc2_val.bias f4 [128]
000000 30 38 37 3e f9 41 51 3e 2c 2e 7b 3e 4d 50 a0 3d
       0.17892528 0.20435323 0.24529332 0.07827816
000010 78 85 03 3e c5 b3 3e 3e e6 36 41 3e 27 e6 3f 3e
       0.12843883 0.18623264 0.18868598 0.1874014
000020 46 1d 30 bc 02 38 36 bd f9 82 8a 3d f1 8d ff 3d
       -0.010749167 -0.044487007 0.06763262 0.12478245
000030 9f 1f 3d bd df d6 46 3c 3e 66 63 3e 22 65 1b 3e
       -0.046172734 0.01213619 0.22206971 0.15175298
000040 69 5a 5e 3e 7f 2a 1a be 59 5e 70 bc d4 03 c9 bd
       0.21714176 -0.15055273 -0.014670932 -0.09815183
000050 97 c1 a4 bd 9b 09 36 bd a4 79 60 3d 38 76 7c 3e
       -0.08044737 -0.044442754 0.054803506 0.24654472
000060 1b 31 4a 3c 77 fc 54 3e 21 e2 9b bd 2e b9 75 3e
       0.012340809 0.20799433 -0.0761149 0.23996422
000070 5b cf 83 3e 78 2e 1d bd e6 b1 36 3e a4 da 20 be
       0.25744137 -0.038374394 0.178413 -0.15708405
000080 bd 27 6a bd 4b b1 4b 3e ea a2 13 3e 25 e6 02 be
       -0.057166804 0.1989185 0.14417616 -0.12783106
000090 e5 72 8f bd 52 12 85 3e 8c 1c 34 3e 0d 4c 23 3e
       -0.07004336 0.2599054 0.17589015 0.1594698
0000a0 10 0a fd 3d a7 b5 d2 bc e9 6e 1b 3e d5 57 88 3e
       0.12355435 -0.025721384 0.15179028 0.2662951
0000b0 d6 ed 84 bd c4 f0 e3 3d 75 3f 8a 3e 1c c0 0b 3e
       -0.06490676 0.11129907 0.2700154 0.13647503
0000c0 10 de 77 3e 4d e9 c4 bb 28 33 0d 3e 31 cc 06 bd
       0.24205804 -0.006009257 0.13789046 -0.032909576
0000d0 95 90 f5 3d 87 96 3e 3e 37 2d 16 3e a7 4c 86 bb
       0.119904675 0.18612109 0.14665686 -0.004098493
0000e0 af c4 24 3d 94 bb 33 3d 86 bc 52 3e 9f fd 44 3b
       0.040226635 0.04388006 0.20579728 0.0030058397
0000f0 a1 74 7a 3e 86 09 40 3c 3e 96 3b bc 77 04 17 3e
       0.24458553 0.011721021 -0.011449395 0.14747797
000100 ba 4b 6e 3e c8 bc 3b 3e 4c 49 2a 3e 20 1e 69 3e
       0.23271075 0.18333733 0.16629523 0.22765398
000110 6b 4f 26 3e 1a 65 72 3e 2c 69 9e 3b 38 71 7c 3e
       0.16241233 0.2367138 0.004834315 0.24652565
000120 62 32 a3 3c 35 eb 7a 3e a2 0d 1f bd c9 4c 1b bd
       0.019921485 0.24503787 -0.03883136 -0.037915025
000130 24 70 59 3e bc 19 ff bd fe ca 14 3e 76 ed 85 3e
       0.21234185 -0.1245608 0.1453056 0.2615773
000140 55 c4 68 3e 8c fe eb 3c 21 3a b2 3d 2d 9d 48 3d
       0.22731145 0.0288079 0.087024935 0.04897802
000150 5d 19 2a 3c ca 59 de 3c 3a e2 01 3d 64 76 10 3e
       0.010382024 0.027142424 0.031709887 0.14107662
000160 ab 8e fd 3d 47 76 9d bd 5e 56 1d 3e 8e b9 36 3e
       0.123807274 -0.07688575 0.15364978 0.17844221
000170 40 b5 fb 3d 0b 2e 3e 3e 95 03 c6 3d 66 e5 7a 3e
       0.1229043 0.18572251 0.09668652 0.24501571
000180 fa 6d 49 3e 01 e8 33 3d 7f 64 84 3d b3 59 2c 3e
       0.19670859 0.043922428 0.064644806 0.16831093
000190 ef cb 17 bc 5c da cb bd b7 f8 86 3e d8 4d 13 3d
       -0.00926493 -0.09953758 0.2636163 0.03596291
0001a0 7f 91 a0 bd af 61 2c 3e 35 97 fb bd 11 3b 75 3e
       -0.07840251 0.16834138 -0.122847 0.23948313
0001b0 c8 ee c8 bc 68 7c a1 bd d9 f9 1a 3e 99 05 c6 bb
       -0.024527922 -0.07885057 0.15134372 -0.0060431478
0001c0 5d d4 c1 bd 77 7e 2d 3e d6 2d 6b 3e 71 8c 86 3e
       -0.09464333 0.16942774 0.22966704 0.26279023
0001d0 d5 30 9c bc f9 10 52 3c ef 09 83 3e b1 78 41 3e
       -0.019066254 0.012821429 0.25593516 0.18893696
0001e0 e1 5e f1 3d 23 d1 c2 bd ff 26 61 bd 93 97 a0 3d
       0.11785675 -0.09512546 -0.05496883 0.078414105
0001f0 d1 52 62 3e 43 95 5f 3e 5d dc f3 bd e5 e2 be bd
       0.22101904 0.21834283 -0.11907265 -0.093206204

fc3_val.weight f4 [1, 128]
000000 ad d4 15 c0 60 98 1a be a3 99 66 be db 72 21 3f
       -2.3411057 -0.15097189 -0.22519545 0.6306588
000010 a8 25 1b be c6 1d 2f be 17 03 44 be b4 1d 4a be
       -0.15151083 -0.17101201 -0.19141804 -0.19737893
000020 3f 4f 79 3f 4a 8b 8f 3e a0 3d 94 be 41 9b 84 3f
       0.97386545 0.28035957 -0.28953266 1.035988
000030 83 f0 c3 3e 7d 88 22 3f 7a 0e 4a be 63 96 3d be
       0.38269433 0.63489515 -0.19732085 -0.18514399
000040 36 9f 2f be 81 9b 77 3e 9e 8a 88 3e ad 56 7b 3e
       -0.17150578 0.24180414 0.26668257 0.24544783
000050 7e 92 7a 3d 71 c1 bc 3e 7f 49 6d be 79 3b 0d be
       0.061174862 0.36866334 -0.23172568 -0.13792218
000060 f5 72 b5 3e 38 07 2a be 2e 1c 10 3d f6 ae 1a be
       0.35439268 -0.16604316 0.035183124 -0.15105805
000070 49 8c 47 be 82 86 65 3e 17 df 70 be 34 b0 6e 3e
       -0.19487108 0.22414592 -0.23522602 0.23309404
000080 7f 9f e4 3e 9b c4 2d be 36 d7 34 be e4 95 a5 3e
       0.44652936 -0.1696953 -0.17660221 0.3234092
000090 0b 68 3a 3e 92 fb 5f be fc 7f 1a be 0a 19 73 be
       0.18203752 -0.2187331 -0.15087885 -0.2374002
0000a0 c3 9a 2b be ab 56 2a 3f 83 3a 5a be 23 fb 3c be
       -0.16758256 0.66538495 -0.21311383 -0.18455176
0000b0 95 d1 58 3e 61 ac 48 3f 83 f8 23 be cf 4c 6d be
       0.21173699 0.7838803 -0.16012768 -0.23173831
0000c0 d8 26 ea bd db d0 01 3f 26 9c 37 be aa 12 07 3f
       -0.1143319 0.50709313 -0.1793066 0.52762854
0000d0 33 9d 99 3f 24 e1 51 be af 09 10 be 42 a8 29 3f
       1.2001098 -0.2049604 -0.14066194 0.66272366
0000e0 46 77 8b 3e 07 b5 c3 3e 40 e5 1c be 62 b9 30 3f
       0.27239436 0.3822405 -0.15321827 0.6903287
0000f0 cf 3f 30 be e7 ee 91 3e 07 72 4b 3f 21 4b 9e 3f
       -0.17211841 0.2850258 0.79470867 1.2366678
000100 82 f4 29 be ce 83 38 be d8 43 1d be 50 3b 9c 3f
       -0.16597179 -0.1801903 -0.15357912 1.2205601
000110 3f 6b 38 be 6f fa 36 be 6e eb f2 3e 71 39 6c be
       -0.18009661 -0.1786897 0.47445244 -0.23068787
000120 8b b9 e5 b9 e3 ad 5e be 45 31 40 3f 13 c1 90 3e
       -0.00043816524 -0.2174602 0.7507518 0.28272304
000130 fa a5 25 be 93 de 0b 3f 93 58 f0 bd a3 3b 7a be
       -0.16176596 0.54636496 -0.11735644 -0.24436812
000140 5f 2b 28 be 53 ec 8b 3e 22 98 59 be a5 1a 4f 3f
       -0.16422795 0.2732874 -0.2124944 0.8090003
000150 4e a3 c4 3e 9f 89 5f 3e 5f 03 89 3f 60 9b 57 3f
       0.38405842 0.21829842 1.0704154 0.8422146
000160 ea 97 f4 3e 2c 41 b1 3e f6 b6 94 3f ec 60 6c be
       0.4777215 0.34620035 1.1618335 -0.23083848
000170 04 40 8a 3f 8d 21 f5 bd 54 6b 26 3f 6c 99 3f be
       1.0800786 -0.1196929 0.6500752 -0.1871087
000180 d1 e6 53 be 76 a5 81 3e 55 92 af 3e 1f cb 1a be
       -0.20693518 0.2532155 0.3429133 -0.15116547
000190 0b 05 45 3e f6 a3 05 3f c6 77 45 be 6f 56 8c 3e
       0.19240205 0.5220331 -0.19283971 0.27409694
0001a0 b8 13 92 3e af 50 89 3f 07 03 b2 3e 26 01 0c be
       0.2853067 1.0727748 0.34767935 -0.13672313
0001b0 4c a0 2e 3f d2 43 99 3e 12 f5 37 be b8 b0 b1 3e
       0.68213344 0.29934555 -0.1796458 0.34705138
0001c0 4c 94 06 3f 4e 04 2e be 97 91 0d be c7 47 63 be
       0.52570033 -0.1699383 -0.1382507 -0.2219535
0001d0 e6 3c 67 3e 39 9b be 3e fc a4 4d be 9d e6 4c be
       0.22581825 0.372278 -0.20082468 -0.20009847
0001e0 af fe 86 3f 02 4b 8e 3e e9 33 ad 3e 51 a1 f8 3e
       1.0546473 0.277916 0.33828667 0.48560575
0001f0 bd 8e f3 bd 7d c6 1f be b5 17 ed 3e 26 97 da 3e
       -0.118924595 -0.15603061 0.4630715 0.42693442

fc1_adv.weight f4 [128, 43]
000000 99 57 68 3c 47 78 04 bd 51 01 05 be ed 9c f2 3d
       0.014181041 -0.032341268 -0.12988783 0.118463375
000010 c0 fd 30 3e 40 f9 fe bb fb 56 be 3d d2 c0 37 3d
       0.17284298 -0.0077811778 0.09293934 0.044861622
000020 07 cc 8c bc 74 a2 b0 bc 3d fd 9f 3d 2c 62 1a 3e
       -0.017187132 -0.021561839 0.07811973 0.15076512
000030 fe 25 24 3e f3 99 86 3d 55 a2 80 3c 56 14 c4 bc
       0.16030118 0.06572332 0.015702406 -0.023935478
000040 7b 30 c8 be 8c 7f 8b 3c 37 b7 80 3d 31 b7 33 3d
       -0.39099488 0.017028593 0.062849455 0.043875877
000050 f9 67 04 bd fb 30 a7 bd 3c 89 1d 3d 98 eb 12 3c
       -0.03232572 -0.08163639 0.038460955 0.008967303
000060 75 52 80 3c 58 59 07 3e 84 bb 8e 3d 9d 2f c3 3d
       0.015664319 0.13217676 0.069693595 0.09530566
000070 09 dc 6f bd 1d 21 43 3d 51 ae 60 3b 7d 56 c1 3d
       -0.05855945 0.047639 0.0034283588 0.094403245
000080 2d b9 b4 3c b4 9e 4c bd cb 53 e2 bd 80 ce 97 bd
       0.022060955 -0.04995604 -0.110511385 -0.074124336
000090 4e 47 ea 3d 26 7c 46 3d 0b 9b c4 bd e3 ba d6 3d
       0.114393815 0.04845824 -0.095998846 0.104848646
0000a0 7f b0 03 bf 68 da be 3c 39 a6 50 be 0b c0 3f 3d
       -0.51441187 0.023297504 -0.20375909 0.046814006
0000b0 9d 3c 4f be 27 26 1b be 82 18 01 3e 49 b0 9b bd
       -0.20237966 -0.15151273 0.12607005 -0.07601983
0000c0 1d ed a5 3b 04 2e fe bd 45 5f 9c bd 29 d5 b2 3d
       0.0050636665 -0.124111205 -0.07635359 0.08732063
0000d0 fb 4e 18 3d 68 9c 3b 3d 01 09 80 3d 9d 23 c4 3d
       0.037184697 0.045803457 0.06251717 0.09577105
0000e0 e9 4e 21 3d 7a 8c ec 3c 6e b3 bb 3b 59 f2 af bc
       0.039381895 0.028875578 0.005728177 -0.021477865
0000f0 4b 52 70 bc e8 3d 5c bd 94 70 ed 3d 8e 8f dc 3d
       -0.014668058 -0.053769976 0.11593738 0.107695684
000100 1d 71 43 3d 5b 00 cd 3b 9d 7d cd 3a 0b d4 93 bb
       0.047715295 0.006256146 0.0015677694 -0.0045113615
000110 bf 47 d4 bd 17 60 f2 3d f3 da 9a bd 24 8c 8f 3d
       -0.10365247 0.11834734 -0.075612925 0.070091516
000120 05 c5 b9 3d 27 ee d0 3d 14 8d 3b 3d a4 f6 42 bd
       0.090707816 0.10201674 0.04578884 -0.047598496
000130 d0 9a d1 3d 23 43 19 bc 65 01 26 3d 0d 89 57 3d
       0.10234606 -0.009354386 0.040528674 0.052620936
000140 b6 cb 6e bd f9 3a a1 3c f5 9e e4 3d 8c 11 42 3f
       -0.058299743 0.01968144 0.11163131 0.75808024
000150 4e 54 b8 3d 8f a3 73 3c 11 82 c7 3e 82 6b 85 be
       0.09000455 0.014870538 0.3896642 -0.26058584
000160 91 06 90 be 08 6d 5d bd 54 17 56 bd 77 1b 01 be
       -0.2813001 -0.05405906 -0.05226834 -0.12608133
000170 50 af d5 bd 52 2a f1 be 0a 46 d2 bd 70 df 2e 3e
       -0.10433829 -0.471026 -0.10267265 0.17077422
000180 be 23 76 3e 3a 17 d8 3d 96 28 f1 bc c6 c2 86 bd
       0.24037072 0.10551305 -0.029438298 -0.06580119
000190 10 23 e6 bd 09 d4 8e bd 23 87 a5 3e e8 29 b0 b8
       -0.112371564 -0.06974036 0.32329664 -8.4001396e-05
0001a0 74 23 eb 3d 02 6e 35 3e 2d 80 87 3d 7a cb c2 3d
       0.114813715 0.17717746 0.066162445 0.09511466
0001b0 59 29 c4 3b dc 4a 98 bc 57 66 90 3d c1 cd 4e 3d
       0.0059863743 -0.018590383 0.0705077 0.05048919
0001c0 2f 04 da bd 1a 01 33 3d 6b ad ba 3c 43 5c 93 3e
       -0.10645329 0.043702222 0.02278777 0.28781328
0001d0 4d 15 f0 3d 2f 53 7a 3e 4d 1a 66 3d ec 54 f6 3d
       0.11722813 0.24445795 0.056177426 0.12027916
0001e0 6a f9 c4 3d 8e 82 0b 3e 85 7b 19 bd 61 ee f8 bd
       0.096178845 0.13624021 -0.037471313 -0.12154842
0001f0 86 b5 57 3d 9a d3 29 3e c6 45 3d 3f d2 95 b2 3b
       0.05266335 0.16584626 0.7393459 0.005449989
000200 63 5e 99 bc 35 06 98 be 6f e1 4e 3c 1a 05 67 3d
       -0.018721765 -0.29692236 0.01262699 0.05640135
000210 a1 65 e7 3d f8 14 e5 bc ca 19 7d bd e8 21 e4 3d
       0.11298681 -0.0279641 -0.061792172 0.111392796
000220 21 b1 5d bb d2 69 bb 3d 02 d2 ae 3d 4d 2d 99 bc
       -0.00338275 0.09151043 0.085361496 -0.018698359
000230 e1 ab eb bd 28 87 49 be 4c ba 67 be e0 b0 53 be
       -0.11507393 -0.19680464 -0.2262966 -0.20672941
000240 73 e4 96 bd 33 a5 2b 3e 80 5d b6 3d f0 e0 5d 3d
       -0.07367792 0.16762237 0.089045525 0.054169595
000250 3f 3b 5b 3c 93 96 15 3d 30 81 cc 3d 3d d9 c2 3d
       0.013380825 0.036520552 0.09985578 0.09514091
000260 d0 d8 f6 3d fa ef 17 bd cc 70 12 be ab 70 f8 bc
       0.120530725 -0.037094094 -0.14300841 -0.030327162
000270 5b c8 d6 3d 8e d6 b1 3c 11 8d 54 be c6 f6 98 3d
       0.104874335 0.021708753 -0.20756938 0.07468943
000280 5a 0d 3e bd d3 8c ab 3c 9a 6b 37 3d e3 7e 9f 3d
       -0.04639945 0.020941174 0.04478035 0.077878736
000290 bc 92 a8 3d 4d d2 8f 3d f3 82 0e be 5f df 31 bd
       0.08231112 0.070225336 -0.1391714 -0.043425914
0002a0 da c6 b7 3d ac 55 8b 3f 26 15 a2 3d 6f 70 01 3e
       0.08973475 1.088552 0.0791419 0.12640546
0002b0 58 d8 ac be 2d d6 fd bd 47 25 5f 3e a6 fb 3d be
       -0.33758807 -0.123943664 0.21791564 -0.18553028
0002c0 47 32 bc be c4 eb 3d be 99 75 5c 3d 4d aa 98 3c
       -0.3675711 -0.18546969 0.053823087 0.018635893
0002d0 e5 f1 35 3e c5 aa 6c 3b a7 a2 78 bc a4 cc 3e bc
       0.17768057 0.0036112529 -0.015175498 -0.01164547
0002e0 10 18 87 3d 38 b6 3b 3e 35 45 0a 3e 84 51 fa 3c
       0.065963864 0.1833123 0.13502963 0.030556448
0002f0 3a 8c 25 bd 63 b2 4c bd 35 61 85 bc 99 6d a5 bd
       -0.040416934 -0.04997481 -0.016281703 -0.08077545
000300 90 2b 70 bd f8 92 23 be 45 dc e0 bd ff 01 00 bc
       -0.058635294 -0.15974033 -0.10979513 -0.007812976
000310 2d 6d 92 3c 2f 20 b4 bc 6a 3a 33 3d a8 06 0c 3c
       0.017874325 -0.021988003 0.04375688 0.008546509
000320 46 b0 c3 3b 23 fa 7e 3d 6d 4d 1c 3e af 70 96 bc
       0.005971941 0.062250268 0.1526391 -0.018364279
000330 7b c8 50 bd 19 58 3c be f0 00 c2 bd 5e de 71 bd
       -0.050972443 -0.18392982 -0.09472835 -0.059049957
000340 1f b0 e4 bd 74 79 4a 3d 76 15 40 3b 10 87 97 3d
       -0.11166405 0.049432233 0.0029309667 0.07398808
000350 d8 5e 5d be 49 44 10 3d ef 6c b2 bb de c4 0c be
       -0.21618211 0.03522137 -0.005445115 -0.13746974
000360 58 d4 ea be 82 5f 6b be 98 b7 d9 bc 74 12 00 3e
       -0.4586513 -0.22985652 -0.026576802 0.1250704
000370 e6 7c f4 bd 0e 5e c9 3d 72 c4 ff 3d 79 b2 88 3d
       -0.11937885 0.09832393 0.12488641 0.06674666
000380 86 1f d3 3d ac bb 4e 3e 7c 9e 20 3e 57 1e 51 3d
       0.10308747 0.20188779 0.15685457 0.051054325
000390 09 c7 0f be 8e 37 bb 3b 7c 47 3d 3d 2a ae 7d 3e
       -0.1404077 0.0057134097 0.04621075 0.2477347
0003a0 31 1f 8c bb 37 5f 8c 3e 25 9b 1e 3e 73 cf ae 3d
       -0.0042761792 0.27416393 0.1548887 0.085356615
0003b0 7a 74 78 3c ff b8 a1 3d 42 97 61 3e 1d 37 d1 3d
       0.015164489 0.07896613 0.22030357 0.1021559
0003c0 f8 08 47 3e 50 bb 32 bd 96 84 a9 bd e5 3d 73 3d
       0.19437015 -0.043635666 -0.08277242 0.0593852
0003d0 d6 4f b9 bd fd 68 d0 bc 53 c9 bc bd ee f8 29 3e
       -0.090484306 -0.025440687 -0.09218087 0.16598865
0003e0 fb ed 35 3e ee ad 07 3e 83 44 0f 3d eb 03 f5 3d
       0.17766564 0.13249943 0.034977447 0.11963638
0003f0 52 9e c2 3d 0f 13 09 3e 53 64 4b 3e 1b d5 97 3f
       0.095028535 0.13386177 0.1986249 1.186191

fc1_adv.bias f4 [128]
000000 22 aa 86 3e ea bc 20 3e 60 be e0 3d de c1 8b bd
       0.26301676 0.15697065 0.10973811 -0.068240866
000010 9c 67 5f 3e ae 31 b0 3d 52 5f 31 3e 43 7f 93 bd
       0.21816868 0.08603226 0.17321518 -0.072020076
000020 37 06 43 3e 93 1d 1f 3e cc 1d 2f be c3 43 8e bb
       0.1904534 0.15538625 -0.1710121 -0.004341574
000030 9d 11 83 be cb b9 b5 3e 7b 5e 7f be 28 54 25 be
       -0.25599375 0.3549331 -0.24938385 -0.16145384
000040 8e 7f c4 bc 41 86 9b be a4 9f 22 be 06 c4 26 be
       -0.023986604 -0.30375865 -0.1588121 -0.16285715
000050 3d 9a db 3e 21 20 a8 3e c7 94 97 bc 50 83 e8 3e
       0.42891112 0.32837012 -0.01850356 0.45412683
000060 f1 dc 21 3e 21 62 5b 3e a6 c2 ce 3e 4e 93 0c 3d
       0.15806939 0.21424152 0.4038288 0.03432017
000070 c8 81 97 3d 69 ea eb 3e c1 a1 61 be 89 07 10 be
       0.07397801 0.46077278 -0.2203436 -0.14065374
000080 e8 19 f8 bb e1 ff 2f 3d 04 c1 08 3e 84 c0 a2 3e
       -0.0075714476 0.042968635 0.1335488 0.31787503
000090 2b b3 85 3e df c5 7a bd 6f f6 b8 3e c9 f4 db 3d
       0.26113257 -0.06122386 0.36125514 0.107400484
0000a0 54 6b b0 bd 81 c5 97 be 73 50 fe bd 81 25 e6 bb
       -0.08614221 -0.2964287 -0.12417688 -0.007023514
0000b0 f5 cc 63 3c 8d 0a bd bc ed 18 73 3e 14 6f c6 bd
       0.013903846 -0.02307632 0.23739977 -0.09689155
0000c0 ee 7c fa 3d 6f bb 93 3d de 7a 80 3d 67 72 13 3d
       0.1223086 0.072134845 0.06273435 0.035997774
0000d0 c8 0a a4 bb e6 fc 10 be 86 fe 88 3e 51 b2 82 3d
       -0.005006168 -0.14158973 0.26756686 0.063816674
0000e0 a9 d2 61 be 21 00 35 be 93 43 f2 3e 11 32 6c be
       -0.22053017 -0.1767583 0.4731718 -0.23065974
0000f0 60 b3 45 3e 09 7a df 3e 3f c4 72 3e 4e fa 0c 3e
       0.19306707 0.43647793 0.23707674 0.13767359
000100 ad 55 f2 3e 3e 54 84 bd c5 b0 37 3e 74 77 e9 bd
       0.4733099 -0.064613804 0.17938526 -0.11399737
000110 20 e1 c5 bc fc 30 a2 3b 6a 6b 1e bd 19 aa 3d be
       -0.0241552 0.004949687 -0.038676657 -0.18521918
000120 33 c3 4f be 20 8a be 3e ac 0b c4 3e 95 a1 b5 3e
       -0.20289306 0.37214756 0.38290155 0.3547484
000130 ba e3 12 bd 28 e9 af 3e 2b 9c aa 3d 6c 2c 8f bd
       -0.03586171 0.34357572 0.08330568 -0.06990895
000140 8d 4d 9e be f5 9e 81 bd 94 d8 97 bd d0 83 f4 bc
       -0.30918542 -0.06329147 -0.07414356 -0.02984801
000150 62 9e 14 3e dd 44 19 3d b1 30 3c 3e 55 c1 bd 3e
       0.14513543 0.03741919 0.1837795 0.37061563
000160 a9 16 d6 bd 25 8c bf 3e 3e 6a 5a 3e 27 74 90 be
       -0.10453541 0.3741161 0.2132959 -0.28213617
000170 3c 30 74 3d 71 6d 91 bc a7 a5 51 3d 3f 8f 7d bd
       0.059616312 -0.017752381 0.05118337 -0.06190419
000180 ca ce 98 3c a1 c4 c8 3e 48 c6 04 3c ae ee dd bd
       0.018653292 0.39212516 0.008103915 -0.1083654
000190 15 df 43 bd ae cd d9 bd 4c 6b 27 be 1f 48 83 3d
       -0.04782017 -0.106349334 -0.16349524 0.064102404
0001a0 e7 50 b1 3d f5 c9 f9 3e f3 22 b5 3b 64 4a 8a 3e
       0.08658009 0.48786893 0.005527848 0.2700988
0001b0 b3 8d b8 bd 64 d3 2f 3d 55 72 2d bd bc 44 1b 3e
       -0.09011402 0.042926207 -0.042345364 0.15162939
0001c0 10 1e b3 3c 99 9f 93 3e 86 92 0e 3e 4b f7 63 be
       0.02186492 0.288327 0.13923082 -0.22262304
0001d0 a0 e3 3d be 3c 6f 84 3d 72 69 cf 3d bf 60 f8 bd
       -0.18543863 0.06466529 0.10127534 -0.12127828
0001e0 4b 1e d8 bc fe 81 91 3d 44 a5 c0 3e e4 7b 49 3e
       -0.026381632 0.07104872 0.37626088 0.19676167
0001f0 fb c3 c7 3c f4 76 2c bd 27 11 0a be 75 42 7d 3e
       0.024385443 -0.04210563 -0.13483106 0.24732383

fc2_adv.weight f4 [128, 128]
000000 00 39 dd bd 52 57 2f 3e 40 56 26 3e 56 c9 91 3d
       -0.108018875 0.17123154 0.1624384 0.0711848
000010 b5 4c 9d 3d a5 09 d2 3d ac 56 c2 3c 92 61 cf 3d
       0.07680646 0.10255746 0.023722969 0.10126032
000020 f2 a3 68 3e 21 ac 34 bd 3e 1c c1 3d f8 42 8b 3d
       0.2271879 -0.044109467 0.09429215 0.06799883
000030 ae 62 52 3c 07 9a b0 3d dc 09 5d 3e 28 cd f3 3d
       0.01284091 0.086231284 0.21585792 0.11904365
000040 2c 33 2d 3d 18 65 35 3e 6a 9d 22 3e 85 1b c2 3d
       0.04228513 0.17714345 0.15880361 0.09477905
000050 b4 48 9b bc 88 c4 bb bd 45 3c 1d 3c 94 f9 5d bd
       -0.018955566 -0.09168345 0.009596889 -0.054193094
000060 55 8c 31 bd 4f fb c7 3d d0 b6 8e 3d 7b 5f 33 bc
       -0.04334672 0.0976473 0.069684625 -0.010948057
000070 b4 35 23 3e d7 9f 84 3d ec cb 3c 3e d2 60 fe 3c
       0.15938455 0.064757995 0.18437165 0.031052027
000080 8b 55 36 3d 7a 89 06 3e 45 a5 91 be c8 78 3c 3d
       0.044515174 0.1313838 -0.28446403 0.046013623
000090 09 84 75 bd 7e f8 2b 3e 0f 2c 24 bd 80 e1 c3 bc
       -0.05994037 0.16794011 -0.04008108 -0.023911238
0000a0 95 f8 57 3e 42 dc 24 3e 2a e0 45 b9 cd 1a 9f bd
       0.2109092 0.16099647 -0.00018870892 -0.07768784
0000b0 ac e4 f7 bd 87 83 97 3d 47 54 ea 3d 03 63 ca 3d
       -0.121041626 0.07398134 0.11441856 0.09882166
0000c0 80 ff b9 be 50 8e a5 3d 13 9f 06 be 5c 35 e4 3c
       -0.36327744 0.080837846 -0.1314662 0.027857475
0000d0 b7 1b b2 3c fd db 19 3d cb 85 da 3d c8 76 1a be
       0.021741731 0.037563313 0.1067005 -0.15084374
0000e0 79 92 26 3e 28 fb a4 bd ff 2b 49 3b 5e 2f f9 3d
       0.16266812 -0.08055717 0.003069639 0.12167238
0000f0 3e 69 19 bd 86 49 94 bd 6e 64 5f 3d 87 95 70 bc
       -0.037453882 -0.07240586 0.054539137 -0.014684088
000100 e4 47 57 bd d2 c6 66 be 58 a5 43 be 68 23 9a 3d
       -0.052558795 -0.22536781 -0.19106042 0.075262845
000110 e6 b1 66 3d a2 25 27 3c 35 f4 e1 3d 78 ec 1e 3e
       0.056322 0.010201843 0.11032907 0.15519893
000120 e4 22 39 bd 59 85 29 3c f3 03 be bc f1 ee 5e bc
       -0.04519929 0.010346734 -0.023195243 -0.013606773
000130 41 ce 97 3b 39 b4 2a be b8 f1 05 3e a2 e6 c5 3d
       0.0046327417 -0.16670312 0.1308049 0.0966313
000140 40 a7 2b 3e 45 8a b4 bd e5 db 5d be ec 3c d2 3d
       0.1676302 -0.08815435 -0.21665914 0.10265526
000150 b3 49 d1 3d 00 dd 1d bd 99 89 5f 3d 0e c7 07 be
       0.10219135 -0.03854084 0.054574583 -0.13259527
000160 aa 75 6a 3d 7d b8 a4 3b 48 6d a2 3d 6e 6c cf 3d
       0.05724112 0.0050268755 0.07931 0.10128103
000170 29 53 af bd 57 bb 10 3e 6a 3c aa bd 61 fe 05 be
       -0.085607834 0.14133964 -0.08312304 -0.13085319
000180 56 71 23 be 6a 78 91 bd 58 4f 3d 3e e2 5e d2 3d
       -0.15961203 -0.07103045 0.18487298 0.10272004
000190 b4 2a 46 3e 63 28 2a 3e 93 d2 0f 3e 9b f6 4d bd
       0.19352227 0.16616969 0.14045171 -0.05028401
0001a0 03 c6 69 be 46 f6 9b bd 82 5f 25 be 78 03 11 3d
       -0.22829442 -0.07615332 -0.16149715 0.0354037
0001b0 1f 7b 33 3e 18 8f bc 3c 08 c6 a1 bd b4 82 81 bd
       0.17527436 0.023017451 -0.078990996 -0.06323758
0001c0 a6 00 2d be cc 2a 20 3d ba 4f d0 bb 5f 8d 07 3e
       -0.16894779 0.039103314 -0.0063571604 0.13237523
0001d0 f2 78 b9 3d 7c dd 9d bd c6 77 a1 3d c8 76 38 3c
       0.090562716 -0.077082604 0.07884173 0.011258788
0001e0 6a 08 32 3e a1 e8 e0 3c dc 07 cf bd 40 19 ce bd
       0.17386022 0.027454676 -0.10108921 -0.1006341
0001f0 3f d8 30 3e ca f1 14 3e 26 f3 2b 3e 7e cf 62 3d
       0.17269991 0.1454536 0.16791973 0.05537366
000200 a8 5e ff bd 54 7a 2c 3e 08 86 90 3d 47 e5 66 3d
       -0.12469226 0.1684354 0.070568144 0.056371
000210 c9 0e d6 bd 86 e9 04 3e de 13 02 be ce 17 a6 3d
       -0.10452039 0.12979707 -0.12702891 0.08110009
000220 34 38 b6 3b c1 27 83 bd 38 a3 80 3d eb 3c da 3d
       0.005560899 -0.06404067 0.062811315 0.106561504
000230 30 fa 39 3c d6 98 db 3c 67 64 fe 3d 7c e7 9e 3d
       0.011351153 0.026806276 0.12421494 0.07758996
000240 65 a2 79 3e ab ed a9 3d 8e 30 e0 bc f9 7b 89 bd
       0.24378355 0.08297285 -0.027366903 -0.06713099
000250 2b 1b 27 be 8b 3d 4e be 4d 26 10 3e b7 b5 0b be
       -0.16318958 -0.20140664 0.1407711 -0.13643537
000260 d1 d0 21 bd 18 35 48 be ed 7e 0b be 95 cc c2 3c
       -0.039505783 -0.19551504 -0.13622637 0.023779193
000270 f2 03 5f 3e c9 b5 0a be cd fd b5 3d 70 70 d9 3d
       0.21778849 -0.13545908 0.08886299 0.10617149
000280 13 24 96 3e e4 92 61 3d 74 75 76 be ca c7 a5 bc
       0.29324397 0.055071726 -0.24068242 -0.020236868
000290 85 e9 b9 bc 5f 73 18 3e 65 b9 50 bd b6 e8 9f bd
       -0.022694359 0.1488776 -0.050958056 -0.07808058
0002a0 4b f4 f9 3d 58 41 9a 3d a0 ce 16 bd f6 7f 73 be
       0.12204798 0.075319946 -0.036818147 -0.23779282
0002b0 a5 7d 35 be 9f da 58 bd 5e 89 31 3d f5 84 c3 bd
       -0.17723711 -0.05294287 0.043343894 -0.09546844
0002c0 78 bb a5 be 62 a6 99 3e ad 3d 62 3d c8 90 28 3c
       -0.3236959 0.30009753 0.0552346 0.010288425
0002d0 ac 09 b7 3e e3 57 eb 3d 1c 2c 3c bc fd 78 73 be
       0.35749567 0.114913724 -0.011485126 -0.23776622
0002e0 3e ab db 3d 76 a8 34 3e 96 d6 0a be 8c 62 b7 bc
       0.10726021 0.17642388 -0.1355842 -0.022385858
0002f0 00 65 9b bd 6f 7b 9b be da 1b 11 be 13 1c ed bd
       -0.075876236 -0.3036761 -0.14170781 -0.1157762
000300 b4 9e c0 bc 16 58 53 3e 3b 20 8f be 13 53 35 bd
       -0.023513176 0.20639071 -0.27954277 -0.04426868
000310 19 a7 51 bc 4a f2 84 3d 7e 05 76 3e f7 b1 12 3e
       -0.012796187 0.064915255 0.24025533 0.143257
000320 63 47 a0 bc dc f3 16 be c6 e8 19 be 99 a0 a5 bd
       -0.01956529 -0.14741462 -0.15030202 -0.08087272
000330 a0 3c 6e 3d 86 f3 3e be d3 db 3d 3e a4 df aa bc
       0.058163285 -0.18647584 0.18540888 -0.020858593
000340 98 cf 1e 3e b7 91 1d 3e 57 d7 89 3e d7 7b 09 3d
       0.15508878 0.15387617 0.26922104 0.03356537
000350 f8 87 22 3e 29 75 19 be f7 ae 8b bd 23 d9 e7 bd
       0.1587218 -0.149861 -0.06820481 -0.113207124
000360 42 3f 43 3e 64 24 3f be 75 1d 0b be 3f d0 05 3e
       0.190671 -0.18666226 -0.13585456 0.13067721
000370 b7 91 fb bd 57 5e e0 3c b6 36 01 3e 53 98 8a 3d
       -0.12283652 0.027388735 0.12618527 0.06767335
000380 a9 7e 45 3e 7a bb 0f bd 8f 38 39 3e 94 de 58 3e
       0.19286598 -0.0350909 0.18087982 0.21178657
000390 3c ae 14 3e 42 1b 4d bd fa 5e 15 3e 1b ad 49 bd
       0.1451959 -0.050074823 0.14587012 -0.049237352
0003a0 fd c0 f3 bd 06 48 19 be 98 bd 2c 3e 62 b8 81 bc
       -0.11902044 -0.14968881 0.168692 -0.01583499
0003b0 cd e8 75 bd c5 2e 24 be 4b 81 c1 3d bc 8d 28 bd
       -0.06003647 -0.16033466 0.09448489 -0.041150793
0003c0 ce b1 ee be a9 b6 2d be 3e 5d 3c bc 2d da 59 bd
       -0.4662003 -0.1696421 -0.01149684 -0.053186584
0003d0 22 eb 1b 3e 78 49 ad 3d 1a 04 f6 3c 2c 78 67 3d
       0.15226415 0.08461279 0.030031253 0.05651109
0003e0 28 ed 7f 3e 1b 7e 03 be 78 d5 29 be 56 9f 6d bd
       0.24992812 -0.12841074 -0.16585338 -0.058013283
0003f0 7a 04 09 3e 29 c2 dd 3d f2 94 48 3c 3d 7e d1 bd
       0.13380614 0.10828049 0.012242543 -0.10229156

fc2_adv.bias f4 [128]
000000 3a e2 39 be 93 a4 ba bd 2e 5d 05 3e 51 32 16 3e
       -0.18152705 -0.09113421 0.13023826 0.14667632
000010 bd c5 b8 3d 21 52 80 bd aa f4 28 bd 95 97 db 3d
       0.090220906 -0.06265665 -0.041248955 0.10722271
000020 61 b0 d2 bd b6 8f 1c 3d 9d b2 a2 bc fb 49 66 3e
       -0.10287548 0.03822299 -0.01986056 0.22489159
000030 5d 5d 4e bd bc 3b 1b be 9d 6d b3 bd 40 ab e4 bd
       -0.050382007 -0.15159506 -0.087611414 -0.11165476
000040 83 9f 05 3e 7c b3 b9 bd d6 a2 0c bb a5 a3 4a be
       0.1304913 -0.09067437 -0.0021459362 -0.19788988
000050 84 64 3c 3e 86 25 bf bd 6d 15 3b bd 1d 87 32 3e
       0.18397719 -0.09333329 -0.04567473 0.17434354
000060 3d e8 4c bc 53 fa 06 bd e0 01 94 3d ff 9b f5 bc
       -0.012506542 -0.03295357 0.0722692 -0.029981611
000070 45 36 bd 3d 02 52 57 3d 0c 37 5e 3d 1c 7d 02 3e
       0.09238867 0.052568443 0.054251716 0.12743038
000080 25 f6 97 bd e5 3e 72 bd 1c 23 a5 bd 4c 96 bd 3c
       -0.07419995 -0.059142012 -0.08063337 0.023142956
000090 21 b1 07 be b8 33 dd bc b6 a1 86 3e 30 61 c4 3d
       -0.13251163 -0.0270022 0.2629525 0.095888495
0000a0 98 a2 08 3d f6 52 09 be 75 cc b5 3d f8 2d 87 bd
       0.033358186 -0.13410553 0.08876888 -0.06600565
0000b0 a7 32 f1 bd 86 fb 89 3d f7 a0 a0 3e b6 16 8e 3e
       -0.11777239 0.067374274 0.31372806 0.27751702
0000c0 3e 61 08 3d cc 28 92 bd c8 68 ec bd 55 e9 8c 3e
       0.033295862 -0.07136688 -0.11543423 0.27521768
0000d0 f7 f2 c2 bd 0a 84 26 3c ba c6 9d 39 f5 fd b8 3d
       -0.09518998 0.0101633165 0.00030093436 0.090328135
0000e0 10 9d 85 bd e3 f9 71 3e c1 32 0c 3e a0 17 3e bd
       -0.06524098 0.2363048 0.13691236 -0.04640925
0000f0 67 25 be 3d a2 f8 a8 3d 4f 54 44 3e f9 23 9a bd
       0.09284478 0.08250548 0.19172786 -0.075263925
000100 0e 9a b5 bd 61 5a 81 bd c1 67 2b bd 2c 96 5e be
       -0.08867274 -0.063160665 -0.041846994 -0.21736974
000110 3c ae 8c bd b7 dc c8 bc 31 71 59 3d 12 c8 75 3d
       -0.0686917 -0.024519308 0.053086463 0.060005255
000120 36 f8 13 be 99 f1 75 3d c4 cc 98 3c a9 04 96 3d
       -0.14450154 0.06004486 0.018652327 0.073251076
000130 e0 c5 18 3e f4 5d 88 bd 4a 54 ae 3e 71 51 1d be
       0.14919233 -0.06658545 0.34048682 -0.15363099
000140 68 93 f6 bc 73 3b c7 bc 4d 5e 4d bd 0b 29 8c 3d
       -0.030099586 -0.02432034 -0.05013876 0.06843766
000150 97 a4 81 3d 80 cd da 3c 5d f4 fb 3c dc ad 88 3e
       0.06330221 0.026709318 0.03075617 0.26695144
000160 1b 07 c9 3c 84 ee 84 3a bd b5 6e 3e ba 7c 82 3d
       0.024539521 0.0010141884 0.23311515 0.06371446
000170 e5 82 67 3d 8c d9 aa bd 34 46 1c be 94 4c 28 3e
       0.056521315 -0.08342275 -0.15261155 0.16435462
000180 cd b4 d7 3d c8 f8 a8 bc 48 c0 06 3d f6 8c 7f 3c
       0.10532532 -0.02062644 0.032898217 0.015597573
000190 28 80 8a 3d 53 25 19 3d 51 e8 cd 3d 44 54 a3 3d
       0.06762725 0.03738911 0.100540765 0.07975057
0001a0 f7 02 c9 3d d2 bf c8 bd 2a cb 07 be 30 9e 6e 3e
       0.098150186 -0.09802212 -0.13261095 0.23302531
0001b0 fe ee d9 bd 1d c5 66 bd 2d a5 47 be aa 85 fd bd
       -0.10641287 -0.056340326 -0.19496603 -0.1237901
0001c0 d3 ed 2f be 4b f9 a5 bc 90 d4 1b be 37 10 1d bd
       -0.17180566 -0.020260474 -0.15217805 -0.03834554
0001d0 43 7c ee bd 10 0b 3e 3e f2 b6 82 3d 4f cc 5b 3e
       -0.11644795 0.18558908 0.0638255 0.21464656
0001e0 51 d4 0e bd ee 07 fa 3d cd 20 fe bd 09 06 5a be
       -0.03487045 0.12208544 -0.124086 -0.21291365
0001f0 53 87 43 bd c0 bf 96 bd 85 fb 17 3e f8 e3 a1 bd
       -0.047736477 -0.07360792 0.14842041 -0.0790481
