src/nets/avoid_checkpoint200.pth (torch_old, 180515 bytes, 11 tensors)

fc1_val.weight f4 [128, 43]
000000 5c 43 40 3d 6c 27 82 3e 9e 57 9a 3d d7 f1 9d 3d
       0.04693924 0.25420702 0.07536243 0.07712143
000010 ac 31 b4 3d e9 05 91 3d 41 06 fe 3d 72 7e 2a be
       0.08798537 0.070812054 0.124035366 -0.16649798
000020 0b 72 35 be 5f ce ec 3c 35 7a a0 3d f7 0d 9c bd
       -0.17719285 0.028907 0.07835809 -0.07619851
000030 34 57 16 3e 0d 2d d8 bd 3e 53 92 bd 7a dd 02 bd
       0.14681703 -0.10555468 -0.071447834 -0.031949498
000040 ee 27 dc 3b f0 b8 e5 3d 7b 62 c1 3b cb 76 60 3d
       0.006718627 0.11216915 0.0059016324 0.05480079
000050 aa a2 af 3d 9d 9e 5f bd 3e 8c 77 3d a1 10 92 3d
       0.085759476 -0.054594625 0.06043648 0.07132078
000060 de ef 6b 3d c8 49 b3 bd 32 dc 06 3e 1c 96 10 be
       0.057601802 -0.08754307 0.13169935 -0.14119762
000070 d4 f2 a3 bd 09 e7 5a bd ac 82 3f bc fb b5 c4 bd
       -0.080053 -0.05344299 -0.011688869 -0.096050225
000080 f7 ca 03 3e 72 21 e7 bd 27 bb 00 be de b1 0a bd
       0.12870394 -0.11285676 -0.12571393 -0.033861034
000090 a5 cb 12 3e 87 58 0d 3d a0 c8 b7 bc b8 0a 9e 3d
       0.14335497 0.034508254 -0.022434533 0.07716888
0000a0 17 c3 69 3e c8 74 42 3e fa a3 d6 bc ee e2 42 3d
       0.22828327 0.18989861 -0.026201237 0.0475797
0000b0 2b 65 5f 3d b0 d1 6c bd 75 2f 16 3e 79 74 c9 bc
       0.05453984 -0.05781716 0.14666541 -0.024591671
0000c0 a8 db 64 bd 31 49 d6 3d e2 55 03 be ed 8f 01 3e
       -0.055873543 0.10463179 -0.1282573 0.1265256
0000d0 f2 3d a7 bd 70 cd 80 3b fd ab 18 3e 41 a9 e1 bd
       -0.08166112 0.00393074 0.14909358 -0.11018611
0000e0 64 dd 32 3d ac 59 93 3d f6 45 f1 bc 82 f9 99 3c
       0.043668166 0.07194838 -0.029452305 0.018795732
0000f0 63 c5 79 bd fa a0 82 bd 2e 29 04 3e 77 c2 3c 3e
       -0.06097926 -0.0637836 0.12906334 0.18433557
000100 2e 8b 77 3d 43 58 4b 3c c1 01 0f bd 7e 8a 27 be
       0.060435466 0.01241118 -0.034913782 -0.16361424
000110 99 9f 20 be 47 7a dd bb 3b 48 f4 bd c5 01 52 3d
       -0.15685882 -0.0067589614 -0.11927839 0.05127122
000120 30 50 07 be d9 d4 27 3e 08 8c 46 bd 9d a2 ef 3d
       -0.13214183 0.16389789 -0.048473388 0.11700938
000130 26 df 9c bd 66 23 0b 3e da a3 22 3d da 20 67 bd
       -0.0765975 0.13587722 0.039707042 -0.056427814
000140 f7 63 19 bd b0 59 10 3e 98 cb 6a 3d af ce 90 3d
       -0.03744885 0.14096713 0.05732307 0.07070672
000150 fb 64 56 be 1b 58 a5 bd 4d 07 20 be ad 40 54 3c
       -0.20936958 -0.080734454 -0.15627785 0.012954873
000160 d9 58 99 bd c3 e7 25 bd 01 cc 8d bd 71 cd b9 3c
       -0.074876495 -0.04050423 -0.06923676 0.02268097
000170 dd 11 16 3e 0c 6c c8 bd 6b 6b 18 be 65 18 8f bd
       0.14655252 -0.09786233 -0.14884727 -0.06987075
000180 f6 cc f9 3d c8 c0 9f be be e6 28 3c c2 a1 0c 3e
       0.12197296 -0.31201768 0.0103089195 0.1373358
000190 9c db 20 be 57 0a b0 ba 32 23 0a 3e 01 e5 07 bd
       -0.15708774 -0.0013430816 0.13489988 -0.03317738
0001a0 6b 8c a9 bd 04 42 f9 bb 44 3c 98 bd cb 7e a3 bd
       -0.08278736 -0.0076067466 -0.0743337 -0.07983168
0001b0 d9 a4 7c be 8f 3f f9 3c a2 69 11 be 3a 8c c8 3c
       -0.2467226 0.030425815 -0.14200452 0.024480928
0001c0 71 bd a5 bd 01 89 2d be 18 9a bb bd 0e 1e 4f be
       -0.08092774 -0.16946794 -0.091602504 -0.20226309
0001d0 30 ef cc 3a 90 4c 98 3c dc 60 e7 3d e4 60 30 3d
       0.0015635248 0.018591195 0.11297771 0.043061152
0001e0 94 d4 39 3e 9f ca 00 be f7 f7 9a bd 44 ec bf bd
       0.18147498 -0.12577294 -0.07566827 -0.09371236
0001f0 fc d7 09 3e 7a 52 5a 3e c0 e2 a6 3d 9e 9c 9e 3d
       0.13461298 0.21320525 0.08148718 0.07744716
000200 76 14 d9 3d ca 3b 80 3d 95 06 15 3e 9a b5 23 be
       0.10599606 0.06261404 0.14553292 -0.15987244
000210 ea 36 8c 3d 08 fe e0 3d ed 19 35 bd 50 56 3f 3d
       0.068464115 0.109859526 -0.044214178 0.046713173
000220 f1 54 b0 bd 72 11 95 3c ff 90 e9 bc ea 87 41 bc
       -0.08609951 0.018196795 -0.028511522 -0.01181219
000230 6e 8a 01 3e 21 50 2a bd 2f 49 3e 3d 13 bf f0 bd
       0.12650463 -0.041580323 0.046456512 -0.117551945
000240 fb 9f 75 3d 8d 76 a7 bd b3 ed 22 bc 18 5b 40 3c
       0.059967022 -0.08176909 -0.009944367 0.011740468
000250 23 cb f3 3d ac 31 d8 3d 44 ce 25 3e d6 52 1b be
       0.1190398 0.10556349 0.16191965 -0.15168318
000260 78 d7 ae bd c4 60 4d 3c 3f 43 00 3e 25 08 8f 3d
       -0.08537191 0.012535278 0.12525652 0.06983975
000270 42 12 dd bc e7 ba b2 3d 7b 3b c1 3c 3e 4b 28 3e
       -0.026986245 0.08727055 0.023587933 0.16434953
000280 af 83 d4 bd e7 13 aa 3d 55 18 dd bd c6 31 1d be
       -0.10376679 0.08304577 -0.107956566 -0.15351018
000290 d0 21 13 be 71 2e b5 3d 25 4a 8d 3d 75 b0 8c 3d
       -0.14368367 0.088467486 0.068989076 0.06869594
0002a0 9e ab 61 3d 74 83 82 3e da e0 09 bd 4c 76 14 3c
       0.055095308 0.25490916 -0.0336617 0.009061407
0002b0 f2 21 70 bd c4 d1 6b 3e f3 1c 96 3d 9c be 47 3e
       -0.058626123 0.23029238 0.073297404 0.19506305
0002c0 8b 8d e9 3c a4 72 1d 3e 81 ae f0 3d c5 e7 1e 3e
       0.028509876 0.15375763 0.11752034 0.155181
0002d0 82 15 dd 3d ec ff 0e be 8c 30 3a 3e 39 35 ac 3d
       0.10795118 -0.13964814 0.18182582 0.08408589
0002e0 7c 40 0a bb 13 9f de bc 66 ef d7 bd 12 33 fd bc
       -0.0021095565 -0.027175462 -0.105437085 -0.030908141
0002f0 55 4d 6c bd 9d c8 42 3d 00 07 28 3e f7 04 bc bd
       -0.057690937 0.0475546 0.1640892 -0.091806345
000300 b3 c7 17 3a 3e 2b 8d bd 57 b1 09 be 1f 4e 84 bc
       0.00057899504 -0.068930134 -0.13446556 -0.016150532
000310 97 25 1d 3c 0d a0 8d 3d 57 a3 e9 3d a5 42 cd 3d
       0.009591482 0.06915293 0.11408108 0.10022477
000320 d9 ee 82 bc 06 19 c4 3d 69 3c 16 3d e5 61 40 bd
       -0.015983032 0.09575085 0.036678705 -0.04696836
000330 0d c2 15 bd 90 28 fb 3d 20 7f e5 bd cd ec e4 3d
       -0.036562014 0.12263596 -0.11205888 0.11177979
000340 1a af 10 be f6 9a 0a be b2 74 6f bd 70 b6 0d 3e
       -0.14129296 -0.13535675 -0.0584609 0.13839126
000350 81 1e 21 3d b6 62 b3 bc 69 2f d8 bd 33 ba 18 3e
       0.03933573 -0.021897655 -0.10555918 0.1491478
000360 08 59 16 3e 12 b4 19 be 62 71 41 3d 23 00 89 bd
       0.146824 -0.15010098 0.04722727 -0.06689479
000370 31 b1 bb 3d 64 27 f4 bc d7 38 a7 bd 3f 5e 5e 3d
       0.09164656 -0.02980394 -0.08165138 0.0542891
000380 97 ba fc bd c6 b2 b1 3c 50 a0 69 3d af be cf bd
       -0.12340277 0.021691691 0.05703765 -0.10143792
000390 5a 49 92 bc cd 48 66 3d a2 4b d4 bd b3 d2 ae bd
       -0.017857242 0.056221772 -0.10365988 -0.085362814
0003a0 42 f8 c6 bd 1e 67 c5 3d e5 0e f1 3b 8d f4 f1 bd
       -0.0971532 0.09638809 0.007356512 -0.118142225
0003b0 7f 94 ba 3d 46 a3 b9 3d 8f cc bb 3d 49 7d 41 bd
       0.09110355 0.09064345 0.09169876 -0.04723862
0003c0 8b 2a 87 3d a3 db 07 bd 81 d1 3c 3d 45 16 a8 3d
       0.06599911 -0.033168446 0.046098236 0.082073726
0003d0 17 a2 03 be ac 01 08 3d cf 45 ef 3d 30 c5 7e bc
       -0.12854801 0.03320472 0.11683237 -0.015549943
0003e0 da d4 47 3d 37 bc 84 bd 3a de 3e bc 2e 9b 9d 3d
       0.048786975 -0.06481212 -0.011649663 0.07695614
0003f0 d0 6f 05 bc 8a d6 32 bc a3 33 33 bd a6 15 78 3e
       -0.008144334 -0.010915408 -0.043750416 0.24227008

fc1_val.bias f4 [128]
000000 cc c5 10 3e 90 7d 73 3d e3 ce e1 bd 14 3e 7a 3d
       0.14137954 0.059445918 -0.11025789 0.06109436
000010 62 a3 59 3e 1c 92 e0 3c b9 9b 14 3e 3a 08 4c 3e
       0.21253732 0.02741342 0.14512528 0.19925013
000020 7a 19 e8 bd ab 92 97 3d 50 1a 42 be 41 fc 51 3d
       -0.11332984 0.074010216 -0.1895535 0.05126596
000030 8d 6e 20 3e 29 b3 06 be 51 5e 73 3b 13 a4 2e be
       0.15667172 -0.13154282 0.0037135074 -0.17054777
000040 ed 87 71 3e 04 fc 56 3d 71 3a 6b 3e 20 2d e5 3c
       0.23587008 0.052486435 0.22971512 0.027975619
000050 be 79 0d 3e 24 ad e5 bc 60 3c 42 bd 08 17 cf 3d
       0.13815972 -0.028036661 -0.04742086 0.10111815
000060 52 17 5a 3e 2a d6 2e 3e 4b 47 a4 bd 59 dc 23 3e
       0.21297958 0.17073885 -0.080214106 0.16002025
000070 cd 78 5e 3e ce c1 23 3d be 0c 59 3b 6c 61 00 3e
       0.2172577 0.03997975 0.0033119167 0.12537163
000080 ea a2 0b 3c a4 94 3c 3e d8 45 df 3c 04 f6 d2 3d
       0.008522728 0.18416077 0.027254984 0.1030083
000090 59 77 76 ba d3 99 fe 3c b6 8b 26 ba b7 67 00 3e
       -0.00094019395 0.031079208 -0.0006353216 0.12539564
0000a0 ef e7 a3 3a 4b 07 47 3d 45 ed 11 3e dc 71 5c 3e
       0.0012505035 0.04859094 0.14250667 0.21527809
0000b0 61 90 ba 3d ab e7 3b bc 53 ff e2 bd 50 c6 25 3d
       0.09109569 -0.011468808 -0.110838555 0.04047233
0000c0 2c 32 65 3e 9e 4e 89 3e 9a 74 16 3e 12 7b d9 3c
       0.2238242 0.26817793 0.14692917 0.026547942
0000d0 93 df 4e 3e e7 e8 52 3e 25 c1 59 3e 2b 9c f0 bd
       0.20202474 0.20596658 0.21265085 -0.11748537
0000e0 7c d2 d2 3d 73 4d 22 3d 0e 8a 19 3d 2b 8d ce bd
       0.10294053 0.039624643 0.037485175 -0.100855194
0000f0 41 d1 95 3c 98 f1 ba bd 8d 18 de 3c 33 17 44 3e
       0.018288257 -0.091281116 0.027111316 0.19149475
000100 23 e8 26 3c a7 16 3f 3e 4d 8d 58 3e 82 fb 75 3e
       0.010187182 0.18660985 0.21147652 0.24021724
000110 e4 d2 55 3e a9 28 90 3c 4e 99 ea 3c 5d 74 18 3d
       0.2088123 0.017597513 0.028637554 0.037220348
000120 f7 e3 5b 3e 45 cb 3d bc e6 ff 80 3e 14 f0 13 3e
       0.2147368 -0.011584108 0.25195235 0.14447051
000130 c0 f9 11 3e 9f c8 39 be 4e e9 a2 3d 97 68 8c 3e
       0.14255428 -0.18142937 0.079546556 0.27423546
000140 f8 ec 1f bc ac e5 94 3d 65 66 44 3e 7c 4b c9 bd
       -0.009761088 0.07270369 0.19179685 -0.098288506
000150 6d 96 25 bd 7f b6 f8 3d 5c 83 49 3e 7c 2f 88 3e
       -0.04042666 0.12144183 0.19679016 0.26598728
000160 da 6f 12 3d d6 a9 5c 3e 1d 52 2d 3e 30 cd 00 bb
       0.0357512 0.21549162 0.16925855 -0.0019653551
000170 c7 73 2e bd 52 e1 4d 3e ba 4a 50 3d 27 4e a9 bd
       -0.042590883 0.20105484 0.050852515 -0.082668595
000180 de 75 d8 3d de 14 5f 3c 70 4b 10 3e b6 7a f6 3d
       0.105693564 0.013615815 0.14091277 0.12035124
000190 ff db 06 3e 67 e1 28 3d 34 f7 1b be ca 25 4a 3e
       0.1316986 0.041230585 -0.1523102 0.19740978
0001a0 dc f0 e2 3d 79 28 0b bd 10 ce f1 3d 2c c1 24 3d
       0.110810965 -0.033974145 0.118068814 0.040223286
0001b0 3c dc f0 3c 19 0a 17 3e fc 37 3e 3e 25 81 ce 3d
       0.029401891 0.14749946 0.18576044 0.10083226
0001c0 85 62 5c 3e 30 58 60 3e 84 6e 0f bc 82 60 80 3e
       0.21521957 0.21908641 -0.008754376 0.2507363
0001d0 b6 78 32 3c 6b 5e 30 3e 5a 2e 5a 3e 65 42 14 3e
       0.010893038 0.17223518 0.21306744 0.14478453
0001e0 3a 5b e4 bd 8b 82 3b 3e 1c 9c 2b 3e ac e4 06 3e
       -0.111502126 0.18311517 0.1675877 0.13173169
0001f0 7e b6 ab bc 36 b8 ff 3b d3 d1 36 3c 13 92 b8 3d
       -0.020961042 0.007803942 0.011158424 0.090122364

fc2_val.weight f4 [128, 128]
000000 9e 3a 3d 3e 5e aa ab 3d dc 53 59 bb f2 3d 2b 3e
       0.18479392 0.08382104 -0.0033161556 0.16722849
000010 e4 e5 da 3d 95 49 3c 3e f0 0f 02 3e a3 1b fb 3d
       0.106883794 0.18387444 0.12701392 0.12261131
000020 27 6c 4e be f6 84 d8 3d ba 6c 96 bd e3 39 de 3d
       -0.20158444 0.10572235 -0.07344957 0.10850885
000030 7c ef 5f 3d bb 7b 29 3e 05 6f ea 3d b6 b1 83 bd
       0.05467175 0.16551106 0.114469565 -0.0643038
000040 c8 b9 38 3e 88 9a d5 3d 56 26 a7 3d 49 c9 2d 3e
       0.1803962 0.10429865 0.08161609 0.16971315
000050 d8 8e 52 3e 72 fe 1e 3e 74 65 33 3e b8 99 92 3d
       0.20562303 0.1552675 0.1751917 0.07158226
000060 fd fb b8 3d 6a 99 64 3d 95 ca 07 be 9b 3c 15 3e
       0.09032438 0.05581037 -0.13260873 0.145739
000070 99 00 25 3e 58 6b 0f 3e 45 50 f8 3d 5f 48 49 3e
       0.16113509 0.14005792 0.12124685 0.19656514
000080 6e 8e cc 3d cb 53 c9 3d 2e a6 0a 3e 44 83 36 3e
       0.09988104 0.09830435 0.13539955 0.17823511
000090 d0 e5 1b 3a 8c af cf bd 43 d5 1e 3e 8f 95 3c 3e
       0.00059470255 -0.10140905 0.1551104 0.18416427
0000a0 f8 ef 7a 3e 66 58 f7 3d 6e e9 96 3e fa af 17 3e
       0.24505603 0.120774075 0.29474968 0.14813223
0000b0 d9 27 5b 3d f1 10 74 3e 79 ec a3 3d 7c 3d 1f 3e
       0.0535048 0.23834588 0.08004088 0.15550798
0000c0 39 9f 29 3e 19 44 9d 3d c4 e6 6b 3d 26 bb 16 3e
       0.16564645 0.07679004 0.057593122 0.14719829
0000d0 0f 0f f1 3d a8 72 cd 3c 5e d5 a8 3c 59 56 50 bd
       0.1177045 0.025079086 0.020609554 -0.050863598
0000e0 b3 90 59 3e f4 43 d0 3d e2 81 e7 3d 0f 61 41 3e
       0.21246605 0.10169211 0.1130407 0.18884681
0000f0 3b 4b f9 bd 12 e8 fc bc ca 1a 2d 3d 33 53 21 3d
       -0.12172552 -0.030872378 0.042261876 0.039385986
000100 72 b4 38 3e e8 db 1c 3e 1b b5 e7 3d ff f4 9e 3d
       0.18037584 0.15318263 0.1131384 0.07761573
000110 c2 e7 3d 3d 13 ef c6 3c 21 dd 34 bd 81 49 a8 3c
       0.0463636 0.024283921 -0.044156197 0.020542862
000120 55 7b f2 3d ed 87 30 3e 34 33 2a 3f f0 99 21 3e
       0.1183993 0.17239352 0.6648438 0.15781379
000130 21 30 fe 3d f5 45 17 be 62 33 68 3e ca 30 9b 3c
       0.124115236 -0.1477278 0.22675851 0.018944163
000140 70 c4 b7 3d 20 7d 62 3d aa 31 01 3e 15 e2 cc bd
       0.08973014 0.05529511 0.12616602 -0.10004059
000150 0e 42 35 3e 28 ad e8 3c 9f ef 1d 3e 2b 15 fd 3d
       0.17700979 0.02840288 0.1542344 0.12357553
000160 e9 b8 3f be 95 2c 23 3e bb bb 25 3e 67 13 18 3e
       -0.18722881 0.15934975 0.16184895 0.14851151
000170 c9 a7 05 3e aa ce 28 3e a7 40 30 bd ee a1 fa bd
       0.13052286 0.16485086 -0.043030407 -0.12237917
000180 15 d2 2d 3e 33 de 3c 3e 9e 0a 19 3d f7 f7 a5 3d
       0.16974671 0.18444137 0.03736364 0.08103936
000190 be dc 08 3d 00 11 83 3d 59 b5 1b bc c8 8e cf 3d
       0.03341364 0.06399727 -0.009503686 0.10134655
0001a0 53 6a d7 3b 3a 98 57 3d ac df cb 3b fb c8 15 3e
       0.006573954 0.05263541 0.006221732 0.14627449
0001b0 6a d9 a8 3e 18 aa f6 3d 5c eb 03 3e d0 5c cf 3e
       0.32978374 0.120441616 0.12882751 0.40500498
0001c0 79 4a cb 3c 13 88 4f 3e cf b7 a7 3d f6 f8 1d 3d
       0.024815785 0.20266752 0.081893556 0.038567506
0001d0 6c 44 23 3e 8b 55 51 3d 5a 20 95 3d e6 12 d9 3d
       0.1594407 0.05110697 0.07281561 0.10599308
0001e0 13 12 62 3e 56 21 9a 3d c5 37 d6 3d f0 42 ca 3d
       0.22077207 0.075258896 0.10459856 0.098760486
0001f0 fc 8e fa 3c 01 13 3a 3e c8 a3 1c 3f 7c c1 4c 3c
       0.030585758 0.18171312 0.6118741 0.012497302
000200 7a 0b 81 3d d9 5e da 3d 19 ee e4 3d b1 a9 95 3d
       0.06301017 0.10662622 0.11178226 0.07307757
000210 d2 3a f3 3d 09 5b e1 3d 3e 1c 37 3d 64 e6 10 3d
       0.118764535 0.11003692 0.04470467 0.035375968
000220 c1 e4 2b be 5a b8 c7 3d 09 c3 92 bd d6 5e 2f 3e
       -0.16786481 0.09751959 -0.07166106 0.17126021
000230 25 f9 cb 3b 0d a5 70 3e 29 ec 10 3e 71 89 16 bd
       0.0062247687 0.23500462 0.14152588 -0.036752168
000240 7b 2f c6 3d bf c9 a8 3d a3 1c 21 3d b4 c8 d4 3c
       0.09677025 0.08241605 0.03933395 0.025974609
000250 a2 7e da 3d 29 42 30 3e 5b 39 3c 3e 23 63 a8 3c
       0.106686845 0.17212738 0.18381254 0.020555085
000260 e0 54 0e 3e b4 d3 25 3e 68 6a a9 bc c6 11 06 3e
       0.13899565 0.1619404 -0.020680621 0.13092718
000270 c2 32 a4 3d 6b f8 ce 3d a6 f0 cf 3d 74 fc 59 3e
       0.08017494 0.10105976 0.10153322 0.2128771
000280 02 36 11 3e 12 f7 2d 3e bc a7 00 3e 8d 11 10 3e
       0.14180759 0.16988781 0.12563986 0.14069195
000290 3a 96 9c 3d a5 a8 48 be b7 80 46 3e 4b 05 a4 3c
       0.07645841 -0.19595583 0.19385038 0.020022055
0002a0 6b 4b 31 3e 46 7a 5b 3e 4f 8d 9e 3e d1 20 26 3e
       0.17313926 0.21433362 0.30967185 0.16223456
0002b0 f5 ad 79 3d 85 14 78 3e 3b 17 64 3d 77 8e f9 3d
       0.060956914 0.24226578 0.055686217 0.12185376
0002c0 b6 d0 1e 3e cf 52 cf 3d a7 e5 07 3e e7 35 46 3b
       0.15509304 0.10123216 0.13271199 0.003024453
0002d0 dc 93 99 3d 8d 5f df bb 66 7e 16 3e 01 c6 c0 bd
       0.07498905 -0.0068168105 0.14696655 -0.09412766
0002e0 c8 f4 21 3e 98 ec 17 3d 8f 13 50 3e 4c e2 54 3e
       0.15816033 0.037090868 0.20319961 0.2078945
0002f0 ac e9 09 be 13 3e a1 3d 76 90 94 3d 63 8c 21 3e
       -0.13468045 0.07873168 0.07254116 0.1577621
000300 3d 9b 1c 3d b3 95 0d 3e be be 07 3e ec 2d d3 3d
       0.038233984 0.13826637 0.13256356 0.10311493
000310 4b 4f 29 3d e0 11 c1 3d 50 f5 39 3c 84 82 de 3d
       0.041335385 0.094272375 0.011349991 0.10864738
000320 3f a7 21 3e 22 93 d8 3d aa b7 32 3f cd 6e 94 3d
       0.15786456 0.10574938 0.698115 0.07247696
000330 25 23 4e 3d a9 a5 51 be 26 f9 37 3e 28 27 1e 3c
       0.050326485 -0.2047335 0.17966136 0.00965289
000340 4b 95 9d 3d f9 9c b9 3d 19 39 a0 3b ac fc 02 be
       0.07694491 0.09063143 0.004889619 -0.12791699
000350 e3 d2 1d 3e fe 14 c3 3d 2f 4c 58 3d 31 75 93 3d
       0.15412478 0.09525488 0.05280703 0.07200087
000360 7c c8 bf bd 52 09 ca 3d b3 be 04 3d f1 08 15 3d
       -0.09364411 0.09865059 0.032408427 0.03638548
000370 07 9f 06 3e 1e 26 54 3e 31 fb da bd e8 47 bd bd
       0.13146602 0.20717666 -0.10692442 -0.09242231
000380 89 36 9f 3d 80 2c 68 3e 39 ac b3 3d f0 da 8c 3d
       0.07774074 0.22673225 0.08773083 0.068776965
000390 8c 2c 11 3e ea 67 26 3e db dc b5 bc a2 f3 ea 3d
       0.1417715 0.16250578 -0.022200039 0.114722505
0003a0 82 7e 27 3d fd 97 8c 3d 47 21 c8 3d 30 b9 0a 3e
       0.04089213 0.06864927 0.09771972 0.13547206
0003b0 59 b3 ae 3e 21 dd 2c 3e 68 d8 cd 3d 5d 3e fc 3e
       0.34121206 0.16881229 0.10051042 0.4926633
0003c0 39 25 99 3d 76 f0 0d 3e a9 b2 95 3d 29 f9 b7 3d
       0.07477803 0.1386126 0.07309467 0.089830704
0003d0 bd 85 36 3d cf e7 ec 3d 36 c2 42 3e 2d d1 9c 3d
       0.044561137 0.115676515 0.19019398 0.076570846
0003e0 48 d3 80 3d e7 ab 85 3c f5 f0 e5 3d 63 1c 11 3e
       0.06290299 0.016317321 0.112275995 0.14170985
0003f0 30 06 e7 ba f1 b2 d3 3d 47 27 fa 3e 71 93 21 3e
       -0.0017625745 0.10336865 0.4885809 0.157789

fc2_val.bias f4 [128]
000000 da b9 c1 3d 69 7d 27 3e c1 e0 f5 3d 40 9b 64 3c
       0.094592765 0.16356434 0.12005759 0.01395303
000010 50 65 d1 3c e2 8c 19 3e 9a 5d f3 3d 65 d6 41 3d
       0.025561005 0.14995149 0.118830875 0.047323603
000020 eb 6d 5f 3d f1 ac 94 3c e4 87 4d 3e 1c 3d 82 3d
       0.054548185 0.018148871 0.2007137 0.06359312
000030 b4 18 92 3d d3 a6 a1 bc 02 64 96 bd 84 ed 9d bd
       0.07133618 -0.019732868 -0.07343294 -0.07711318
000040 13 27 39 3e 06 cd 5d bd 5c 90 d2 3d 04 d1 10 3d
       0.18081312 -0.054150604 0.102814406 0.035355583
000050 6e ee 11 3e 3d 62 09 3e c3 fb 61 3d 03 33 fa bc
       0.1425111 0.13416381 0.05517174 -0.030541902
000060 a3 ff f7 3d dc 8d 93 3b 55 51 8e 3d 21 c7 4b bb
       0.12109306 0.004502995 0.069491066 -0.0031094032
000070 50 32 1c 3e d4 fb 7d 3c ea e4 f7 3d 3f a4 d4 bc
       0.15253568 0.015501935 0.12104209 -0.025957225
000080 7c 94 9c 3d fe ea 23 3e b4 1a a2 3d 81 88 02 bc
       0.07645509 0.16007611 0.079152495 -0.007967115
000090 ea ed e2 3d 99 4b 9c 3d 6c 16 80 bc 04 bf d6 bc
       0.11080535 0.076316066 -0.015635692 -0.02621413
0000a0 c6 8e 06 3e 9c c7 77 3d f4 5d 3d 3e 9b 77 aa 3d
       0.13140401 0.060493097 0.18492872 0.08323594
0000b0 37 6b 8d 3b 85 ab 3b 3e 44 1e 5d bd 77 4c 3e 3d
       0.0043157595 0.18327148 -0.05398394 0.04645964
0000c0 c3 f2 5e bd 62 1d c9 3b d7 48 b3 3b 69 67 ee 3d
       -0.054430734 0.006137536 0.0054713297 0.11640818
0000d0 20 bb a3 bc 88 25 8a 3d c1 63 2f 3e 75 d0 14 3e
       -0.01998669 0.0674544 0.17127897 0.14532645
0000e0 6b 26 0a 3c 8f f3 11 3e fd 93 a9 bd 7d 41 21 3d
       0.008432011 0.14253066 -0.0828018 0.039369095
0000f0 bd a4 b7 3d 97 e7 a0 3d a3 0e a8 bd e7 b5 ac 3d
       0.08966968 0.07856672 -0.08205917 0.084331326
000100 5c 7a 3c 3d fe 6b 0f 3e 8b 03 04 3e 0a 77 bd 3d
       0.04601513 0.1400604 0.12891977 0.092512205
000110 28 ef 27 3e a0 cf f6 bb d8 59 bd bb 7a 79 c1 3d
       0.16399825 -0.007532075 -0.0057785325 0.09446998
000120 b1 de 76 3d a9 e6 4e 3d c6 12 57 3d c6 8a 64 3d
       0.06027097 0.050512943 0.052508138 0.055796407
000130 a1 55 2d 3e c2 50 1a bd 21 cd 2d 3c b5 56 a9 bd
       0.16927196 -0.037674673 0.010607989 -0.08268491
000140 f1 87 88 bd d9 c8 0e bd cb 3c c9 3d 76 8e 15 3d
       -0.06666554 -0.034859512 0.098260485 0.036512814
000150 59 ed af 3d 7b a8 08 bd f8 e9 85 3d 7b 1c 18 3e
       0.08590192 -0.0333638 0.065387666 0.14854614
000160 28 01 6a bd 6d b2 92 bb 17 7b 83 3d 6d 02 84 3d
       -0.05713001 -0.0044768364 0.06419962 0.06445775
000170 81 e3 95 3d b3 6e 64 3d f4 ea 65 bc 1b 01 88 3d
       0.073187836 0.055769634 -0.014033068 0.06640836
000180 b7 13 26 3e aa 10 07 bd fd 9b 17 3d 3e 70 d0 3d
       0.16218458 -0.032974876 0.037013996 0.101776585
000190 29 d8 fb 3d 4b 2f 19 3e 26 c4 3c 3e 01 98 10 3e
       0.12297089 0.14959447 0.184342 0.14120485
0001a0 4b 27 64 3d 4d 0f b7 3b ba 0f 07 3e ba c4 ad 3d
       0.055701535 0.005586541 0.13189593 0.08484788
0001b0 13 03 03 3e bd fd de 3d 1f 7b cd 3d df 1b bc bd
       0.12794141 0.108882405 0.10033249 -0.091850035
0001c0 dc da 28 3e b2 66 75 bd 17 ec 61 3d 68 1c 8c bd
       0.16489738 -0.05991239 0.055156793 -0.068413556
0001d0 9f f3 44 3e ea bd c0 bc 82 09 fa 3d b2 cc fa 3d
       0.19233559 -0.023528058 0.12208845 0.12246074
0001e0 bd b6 9a 3c f6 21 99 bd ba 42 c5 bc f7 e0 29 bd
       0.018885965 -0.07477181 -0.02407967 -0.04147431
0001f0 af 7a 06 bd 1a 6f 4f 3d b6 88 12 3d d1 c2 3d 3d
       -0.032831844 0.050643064 0.03577491 0.04632837

fc3_val.weight f4 [1, 128]
000000 65 98 11 be 03 d1 0e be 8e c5 2b be 4b 6e 2b be
       -0.1421829 -0.13946919 -0.1677458 -0.16741292
000010 80 b3 22 3e 3d 28 42 be bc b3 0d be 3c f6 a5 3e
       0.15888786 -0.18960662 -0.13838094 0.32414424
000020 17 9e 48 3e 97 a5 b4 3e 9e 76 0d be 8d 82 8b 3e
       0.19591556 0.35282585 -0.1381478 0.2724804
000030 80 33 36 be 75 b3 f2 bb c6 32 80 be c9 83 96 3e
       -0.17793083 -0.007406647 -0.25038737 0.2939742
000040 f7 06 56 be a8 d3 9e 3e 98 05 17 be ad 2f 6f 3e
       -0.20901094 0.31020856 -0.14748228 0.2335803
000050 e3 8f 44 be 90 ce 65 be 49 b1 e7 bd 64 a8 a5 3e
       -0.19195513 -0.22442079 -0.11313111 0.32355034
000060 eb bd 45 be 69 0e 63 3e ae fb 70 be c5 f2 8a 3e
       -0.19310729 0.22173466 -0.23533508 0.27138343
000070 85 2f 42 be 22 eb d9 3e 15 e9 51 be 62 98 ed 3e
       -0.1896344 0.42562205 -0.2049907 0.4640532
000080 50 58 28 be 39 46 11 be 07 38 3d be f3 d1 a3 3e
       -0.16439939 -0.14186944 -0.18478404 0.31996116
000090 60 96 2b be 11 64 18 be 37 f6 9b 3e bc 86 d2 3e
       -0.16756582 -0.14881922 0.30461285 0.4111842
0000a0 07 2f 2b be e6 92 6b 3e 31 39 32 be ef a7 2e 3e
       -0.16717158 0.23005256 -0.1740463 0.17056249
0000b0 e1 9e a6 3e af 44 3d be f8 1e 94 3e 5c 5c 5e 3e
       0.3254309 -0.18483232 0.28929877 0.2171492
0000c0 d6 3c 94 3e a4 31 91 3e d3 af 27 bd bf cf 3a be
       0.28952664 0.28358185 -0.040939163 -0.18243311
0000d0 ae bf 93 3e 52 2d 32 be 53 81 3f be e3 54 7a be
       0.28857177 -0.17400101 -0.18701677 -0.24446444
0000e0 93 ee c2 3e 9c 6f 63 be 1f fb b9 3e ba 17 74 3e
       0.38072643 -0.22210544 0.36324403 0.23837176
0000f0 09 91 46 be 6a 71 2e be 04 f3 9a 3e 72 6c 76 be
       -0.19391264 -0.17035452 0.3026353 -0.24064806
000100 88 0e a8 3e a5 bc 55 be 87 76 5a be ad b3 95 3e
       0.32823586 -0.20872743 -0.21334277 0.29238644
000110 95 e7 16 be 57 88 a8 3e 1d 71 fd 3e 33 df 2d be
       -0.14736779 0.3291652 0.4950036 -0.16979675
000120 38 7d 7e be 93 a6 6e be 70 ab 79 3e 66 59 92 3e
       -0.24852455 -0.2330573 0.24381804 0.2858383
000130 e9 38 1d be 87 e2 af 3e 6f 08 c2 3e ff 36 be 3e
       -0.15353741 0.34352514 0.3789706 0.37151334
000140 df 49 9b 3e 97 77 a6 3e 02 24 50 be 04 25 f7 3e
       0.30329797 0.32513115 -0.20326236 0.48270428
000150 aa c6 5d be 11 b3 4d 3e 3c 55 b2 3e 10 ef 4b be
       -0.21657816 0.2008784 0.34830654 -0.19915414
000160 1f d6 38 3d 88 b3 c1 3e 83 2a 48 be 2e cf bb 3e
       0.045126077 0.37832284 -0.19547467 0.36681503
000170 de aa 7f 3e 75 1a 11 be 38 c9 98 3e 89 63 41 be
       0.24967524 -0.14170249 0.29841018 -0.18885626
000180 af e6 3a be 99 1b c2 3e 3e d3 21 be d6 68 60 be
       -0.18252061 0.3791168 -0.15803239 -0.21914992
000190 cc b6 28 be f4 b1 23 be 62 6a 11 be dc 0c 35 be
       -0.16475981 -0.15985852 -0.14200738 -0.17680687
0001a0 a5 c1 50 be 92 93 83 3e ec dd 1d be 70 9f 15 be
       -0.2038637 0.25698525 -0.15416688 -0.14611602
0001b0 b4 bf 41 be 69 a0 41 be fa 72 60 be 92 3e 9a 3e
       -0.18920785 -0.18908848 -0.2191886 0.30125862
0001c0 0e ea 1d be 3c 6b eb 3e 80 6c b2 3e 43 1e 23 3f
       -0.15421316 0.4598025 0.34848404 0.6371805
0001d0 e7 11 5c be d1 da cd 3e 25 af c9 3e 3c 81 39 be
       -0.21491204 0.40206006 0.39391437 -0.18115705
0001e0 96 93 90 3e 7c 01 c3 3e f7 2d 97 3e 22 b8 a4 3e
       0.282376 0.3808707 0.29527256 0.32171732
0001f0 e3 b7 a9 3e ca 60 43 be 5d 26 4c be ff f7 9d 3e
       0.33148107 -0.19079891 -0.1993651 0.30853269

fc1_adv.weight f4 [128, 43]
000000 cf 98 1f bb e8 b0 8f 3d 18 e1 cd 3a 05 81 be 3c
       -0.0024352556 0.07016164 0.0015707342 0.02325488
000010 ec 92 9c bd e1 21 ec bc c6 57 05 bd bf bb ed 3c
       -0.076452106 -0.028824748 -0.03255441 0.029020188
000020 03 09 be bc 8d ae 02 be 66 f1 ba bd 25 64 e9 bd
       -0.023197656 -0.12761898 -0.09128074 -0.11396054
000030 21 78 dd bd 27 c7 00 be 72 ba b7 bd fe 72 c4 bd
       -0.108139284 -0.1257597 -0.089711085 -0.095922455
000040 46 87 4c 3d 23 c1 3d bc ea 6d 18 3e fd 8e 8b bd
       0.049933694 -0.011581692 0.14885679 -0.06814382
000050 df 13 1d bc 26 79 6a bd 0d e5 ce 3d b3 79 4a bd
       -0.009587257 -0.057244442 0.10102282 -0.049432468
000060 42 d7 3e be ec ff 83 bd b3 2e 14 bd 6a 92 4e ba
       -0.18636802 -0.064452976 -0.03617735 -0.0007880094
000070 67 dc fc 3d 62 6e b2 bd ce 39 b2 bd d1 c2 81 bd
       0.12346726 -0.0871246 -0.087024316 -0.063359864
000080 1a 9c 1f be 44 41 70 bd 7a c8 49 be 4d 40 83 3b
       -0.15586892 -0.058655992 -0.19705382 0.004005468
000090 e7 3b 28 3d d9 ac de 3d 60 ec 4f 3d ec 73 cd bd
       0.041072752 0.10872812 0.050762534 -0.10031876
0000a0 ed e8 53 be 82 0f 72 3b a6 66 12 3e 4a a0 41 3d
       -0.20694323 0.0036935513 0.1429697 0.047272004
0000b0 77 ce ad 3d 66 e1 9e 3d 83 e9 1e 3d 01 39 34 3e
       0.08486646 0.07757835 0.038796913 0.1759987
0000c0 40 73 29 3e 3f 9e 42 bd 99 51 e1 ba de e0 a2 bd
       0.1654787 -0.047514196 -0.0017190456 -0.07953046
0000d0 f7 63 70 bd 74 ab b7 3d af 6f d3 3d 68 ef 86 3d
       -0.058689084 0.08968249 0.10324036 0.06588632
0000e0 67 80 e2 3b 62 de 13 3d 99 8e cc 3d 55 79 4e 3d
       0.0069122794 0.036100753 0.09988136 0.05040868
0000f0 cc d5 83 bc 62 88 ef 3c 5a c3 16 bb 4c 09 9d b9
       -0.016093157 0.029239837 -0.0023004622 -0.000299523
000100 f3 75 cc 3b ad 54 55 3d 00 f2 9c 3d e1 74 75 3d
       0.0062396466 0.052082706 0.07663345 0.059925918
000110 05 f0 9b 3c aa 9f e5 bc 95 7d 51 3d 49 1f 17 3e
       0.019035349 -0.028030235 0.051145155 0.14758028
000120 a9 6a 18 3e e2 58 0e 3d e1 03 e3 3d 6f 81 05 3d
       0.14884438 0.034752734 0.11084724 0.03259414
000130 5a 5e 4b 3d 5d 98 9e 3b eb b4 33 3e 4d d1 0e 3d
       0.049650528 0.0048399405 0.17549483 0.034867574
000140 11 c4 27 bc d3 41 b4 3d b0 7f 8f bd 6c 00 30 3f
       -0.010239617 0.088016175 -0.07006776 0.68750644
000150 bc 75 32 be f2 65 37 3c 14 bc 21 bd 8a 5a aa bd
       -0.17427725 0.011193739 -0.039486006 -0.0831805
000160 aa 46 84 3d f0 e0 03 be 3b ef 64 3d da d7 d8 3d
       0.064587906 -0.12878776 0.05589221 0.105880454
000170 19 bf be bd 7b 9e e6 bd 3b eb eb 3b c4 44 36 bd
       -0.09313793 -0.112606965 0.0071996725 -0.044499174
000180 32 d4 b1 bd c8 5e 69 3d 9a 49 39 3b af 2f 1d bd
       -0.08683051 0.056975156 0.002827263 -0.038375553
000190 53 79 89 3d 85 3c 6a bd a8 c3 37 3e 46 66 07 be
       0.06712594 -0.057186622 0.1794573 -0.13222608
0001a0 d0 24 1e be 37 c0 f3 3d a4 2d 09 be 2f 90 96 3b
       -0.1544373 0.119018964 -0.13396317 0.0045948247
0001b0 dd 67 c6 bb c6 8f 39 3e 0e 72 49 bd 1d ec 40 3e
       -0.006054862 0.18121251 -0.049181037 0.1884007
0001c0 e0 5c 2e 3e b9 09 9a bb 65 cd 45 bd 6c 7b e5 bd
       0.17027617 -0.004700866 -0.048291583 -0.112051815
0001d0 f8 b7 dc 3d 73 76 83 bd a3 a9 f3 3c 44 51 c1 3d
       0.10777277 -0.06419077 0.029743975 0.09439328
0001e0 c5 0c 06 be f8 45 81 bc 1e 2c 2c 3e 0b 73 37 3e
       -0.13090809 -0.015780434 0.16813704 0.17914979
0001f0 9a bf 7b 3e 3d 4e 08 3e a8 0f de 3c 44 39 87 bd
       0.24584809 0.13311096 0.027107075 -0.066027194
000200 76 8e ad bd c5 dd 55 be 7f 0e a9 be fe c3 2f be
       -0.08474438 -0.2088538 -0.33018872 -0.17164609
000210 d8 eb eb 3d 87 03 a3 bd ba 90 54 bd 18 98 b0 3d
       0.11519593 -0.07959657 -0.051895835 0.086227596
000220 9f 9a 14 3e b6 15 15 3e 74 7c c5 3c 31 f6 83 bd
       0.14512108 0.14559063 0.024107195 -0.06443442
000230 a6 c3 8b bd 2e 7b 1f 3e 48 44 59 bc 20 d3 e2 bd
       -0.06824426 0.15574333 -0.013260908 -0.11075425
000240 c2 e0 5c 3d 8f 6e 8c 3d 24 12 5b ba e1 00 b2 bc
       0.053925283 0.06857025 -0.000835689 -0.021728935
000250 62 22 d3 bd 15 e2 f4 3d 41 61 23 3e 8e 74 ac 3d
       -0.103092924 0.11957184 0.15955068 0.084206685
000260 b6 f9 1b be 8c 27 f1 3c ab 62 78 bc 05 1a 87 bd
       -0.15231976 0.029437803 -0.015160243 -0.0659676
000270 20 ef 3a 3d e2 45 40 3d 68 7a 8b 3d 8c 04 92 bd
       0.045638204 0.046941645 0.068104565 -0.071297735
000280 57 d3 36 3e ff a7 8a 3d 21 79 32 3d 74 f4 0b 3d
       0.17854057 0.06770324 0.04357255 0.034168676
000290 7f f5 80 bb 4f d7 d7 3d 06 c1 0b 3a 95 a9 f7 3c
       -0.0039355154 0.10539114 0.0005331192 0.03023223
0002a0 77 af 2b be 05 1e 0d be 4d c0 cf 3c 70 90 57 bc
       -0.16766153 -0.13780983 0.02536025 -0.013156995
0002b0 9c d8 b5 3c 41 05 e1 3d 86 bd 3d 3e dd 2b 38 3e
       0.022198014 0.1098733 0.18529329 0.17985483
0002c0 81 3b 48 3e 91 35 ee bc c7 de 37 3e 92 d3 2b 3d
       0.19553949 -0.029078277 0.17956077 0.041949816
0002d0 30 90 cd bc e3 44 af 3d 98 f2 fb bc ce 86 4f bd
       -0.025093168 0.08558061 -0.030755326 -0.05066567
0002e0 b9 2f bf 3d ce 39 0d 3c 50 cc 06 3e f2 e6 e8 bd
       0.09335274 0.008619739 0.13163877 -0.11372174
0002f0 54 e0 a9 bd 6c 41 4d 3d 01 08 ab bd 9f 44 22 3e
       -0.0829474 0.05011122 -0.08351136 0.1584649
000300 47 80 93 bb 26 b9 e4 3b a7 cb 13 3e b2 9b 5f bd
       -0.004501376 0.006980079 0.14433156 -0.054591842
000310 93 88 f3 bc 71 fa 15 3d 72 3a ff 3d d2 f5 79 3b
       -0.02972821 0.036615793 0.124623194 0.0038140905
000320 9e f4 61 3d 76 6e 8d 3d fa 29 ca 3d a9 6e dc 3b
       0.055164926 0.069058344 0.09871288 0.006727059
000330 bd c7 fc bd 33 f7 c3 3a 69 8f bf 3c 40 a8 f6 3c
       -0.123427846 0.001495099 0.023383813 0.030109525
000340 5c 7a a2 bc 14 78 13 3e 0d 3c eb bd 2a 23 e9 3d
       -0.019833736 0.14401275 -0.11486063 0.1138366
000350 f2 10 01 be 6f 4b 4a 3e f8 27 b8 3b be af 81 bd
       -0.1260412 0.19755338 0.005619999 -0.06332348
000360 3b cf 3f be 97 de 07 bd ca 61 35 3d de cf bd 3d
       -0.18731396 -0.033171263 0.044282712 0.09268163
000370 ad e2 b6 bd a0 54 63 bd 66 d4 2b bd 08 2f 52 bd
       -0.08929954 -0.055500627 -0.041950606 -0.051314384
000380 cd f4 1d bd 43 39 d0 3d 55 08 8f bc a5 b6 fa bb
       -0.03856354 0.10167172 -0.017460028 -0.0076511675
000390 d1 3e 9b bd b9 3e ed 3d 98 33 a9 bb 98 d1 83 3d
       -0.07580341 0.11584229 -0.005163621 0.06436461
0003a0 26 ba 75 bc c0 0c 82 bd 85 5c a5 bd 71 6d 4b 3d
       -0.0149979945 -0.06350088 -0.08074287 0.04966492
0003b0 9e 19 a5 3d 2a 00 ff 3d e6 eb 55 bc b3 53 42 3d
       0.08061527 0.12451203 -0.013056731 0.047443103
0003c0 65 e2 e8 bb d2 56 5f 3d ae 32 ba bd b3 93 57 3d
       -0.0071070665 0.054526158 -0.09091698 0.05263109
0003d0 68 3f 8d bc 22 a8 16 bc 63 b2 3a 3c 01 57 d5 bd
       -0.017242149 -0.009195359 0.01139507 -0.10416985
0003e0 2b d6 08 3e e1 9e d0 3d fc ec d5 3d 7b e9 c6 bc
       0.13362949 0.10186554 0.10445592 -0.024281254
0003f0 2f 40 a8 bb a3 5a 13 3c 5b 33 bb bd 04 55 af 3e
       -0.0051346044 0.008993777 -0.09140655 0.3424455

fc1_adv.bias f4 [128]
000000 3e 89 9f 3e 73 1d 6c 3d 62 c6 a2 bd d0 78 6d 3e
       0.31159395 0.057645272 -0.07947995 0.23190618
000010 a2 4f 81 3e e4 47 b0 3d 1e ec 9e 3d ea 83 da bd
       0.25256068 0.08607462 0.077598795 -0.10669692
000020 9c 75 79 be 96 7f 0b bd 46 0e 05 be 2a 45 a1 bd
       -0.2436127 -0.034057222 -0.12993726 -0.0787452
000030 3e ae 3d 3e 26 7f b7 bd 50 6f a9 b9 34 73 61 3e
       0.185235 -0.089597985 -0.00032317126 0.22016603
000040 c7 db 83 3c ca 6c ab 3d 41 9a 86 be fe dc 84 bd
       0.016096009 0.08370359 -0.2628956 -0.064874634
000050 11 16 3e 3d 60 3d 88 3d 06 3c 5c 3d eb b0 a4 bd
       0.046407763 0.06652331 0.05376818 -0.08041557
000060 84 bb 49 3e ad c3 11 be 84 f9 aa bc 0f 1f 1e 3e
       0.19700438 -0.142348 -0.020870931 0.15441535
000070 47 19 0a 3e 72 93 eb bd ed 44 82 be b0 94 dd 3d
       0.13486205 -0.11502732 -0.2544321 0.108193755
000080 e5 60 a9 3d dd 7a 3a bd 44 7e 2d 3e 14 fa 9b bd
       0.08270434 -0.045527328 0.16942698 -0.07616058
000090 e4 d4 88 bd 11 42 53 be 09 97 96 3a 84 d7 64 3c
       -0.06681231 -0.20630671 0.0011489104 0.013967399
0000a0 d0 8a e4 3c 7d f8 af 3e 80 7f 03 be e3 28 ad 3e
       0.027898222 0.3436927 -0.12841606 0.33820257
0000b0 53 fb be bc f0 44 ff bd 97 65 9d 3e 5b ce f6 bd
       -0.0233132 -0.12464321 0.3074157 -0.12051078
0000c0 d7 8d 72 bd 3e 60 e9 3d d8 43 35 3d 8c 24 04 be
       -0.0592173 0.1139531 0.044254154 -0.12904567
0000d0 38 d6 12 3e 99 55 ae bd 27 9c 12 3d 3a 45 30 3e
       0.1433953 -0.0851242 0.03579345 0.17213908
0000e0 a6 3b 04 be 5b 0a 7c 3d c1 01 f9 bc 22 d1 08 be
       -0.12913379 0.061533313 -0.030396344 -0.13361028
0000f0 dc 5a f9 bd 11 4e fd 3d 29 2b 07 3c 8a 69 3c be
       -0.12175533 0.123684056 0.008250036 -0.18399635
000100 92 ee 95 3d ed e8 f7 3c 23 93 b2 bd 1e a7 92 bd
       0.07320894 0.030262435 -0.0871947 -0.07160781
000110 9f 64 8f bd 2d 94 7d 3d 4c 3e a6 3d a9 be f1 3c
       -0.07001614 0.06190889 0.08117351 0.02950986
000120 fe 76 57 3e 56 ea 38 be 36 8e 7b 3c d8 64 df 3c
       0.21041486 -0.18058142 0.01535373 0.027269766
000130 66 e6 48 3e 0c 39 92 3e d2 6d c3 3c 96 b1 8d 3d
       0.1961914 0.28559148 0.023856077 0.069186375
000140 4a 5c 6d 3d ff df 85 bd 09 50 f2 bd ab 76 28 be
       0.05794934 -0.065368645 -0.11831672 -0.16451518
000150 2a 69 61 3e 6e 03 9c 3d b1 ca 9c 3d 06 9b 9e 3d
       0.22012773 0.07617842 0.07655848 0.07744412
000160 dd 8c 86 be 65 6d 16 3e 56 9e b2 bd 2f 20 41 3d
       -0.26279345 0.14690168 -0.087216064 0.047149833
000170 6d 5a bc 3d b6 0b 0d be dd 0f 1d 3e f1 c4 a5 3c
       0.09196935 -0.13773999 0.15338083 0.02023551
000180 96 a4 8f 3e 1e 52 9f 3d 86 cf 9e 3e 9c 06 ff bd
       0.28055257 0.077793345 0.31017703 -0.124524325
000190 05 68 5b 3d bb 0f 8b be dc 79 74 3e 04 6c 0d 3d
       0.053565998 -0.2716044 0.2387461 0.03452684
0001a0 f2 4a 43 be 59 d3 2d 3e cf d0 92 bd 7d a5 9b 3c
       -0.19071558 0.16975154 -0.07168733 0.01899981
0001b0 d0 6f ef 3d 25 8e 7d 3d 6d cf 80 3e 28 0e 93 bd
       0.116912484 0.061903138 0.25158253 -0.071804345
0001c0 d3 d7 9a bb 02 f2 e6 bd f5 76 87 3e 59 51 94 3e
       -0.0047254353 -0.11276628 0.26457945 0.28968313
0001d0 f9 15 4a 3d 10 77 b4 3e 00 71 35 be 2b 41 14 be
       0.04933736 0.35247087 -0.17718887 -0.14477985
0001e0 48 28 0b be 12 88 a2 bd dd 84 98 bd 84 90 75 bc
       -0.13589585 -0.079361096 -0.07447217 -0.0149880685
0001f0 2b 7c b1 bd c0 ef ab 3e 56 e9 c7 3d 72 fb 17 be
       -0.08666261 0.33581352 0.09761302 -0.14842013

fc2_adv.weight f4 [128, 128]
000000 58 79 00 bd 65 ed 1f bc ed b4 ab 3d e7 a3 66 be
       -0.031365722 -0.009761189 0.08384118 -0.22523461
000010 24 a6 6e 3d 94 24 2c be a7 ee 5b 3d ec 7e 08 3e
       0.058263913 -0.16810828 0.053694393 0.13329667
000020 ae 40 17 3e b4 76 59 3d ef 2e 9d 3d 96 a8 34 3d
       0.14770767 0.05309172 0.076749675 0.04410609
000030 66 d6 a8 bd d7 2b 10 be 01 bc 44 3e e2 ea 02 bd
       -0.08244018 -0.14079224 0.19212343 -0.031962283
000040 a2 f4 b7 bd bb 29 bf bb 64 bd 0f 3e ba 91 be 3d
       -0.08982207 -0.005833832 0.1403709 0.09305139
000050 26 4c d3 3d 06 0c 22 3d 50 e7 68 3c e8 b0 fa 3d
       0.103172585 0.039562248 0.014215305 0.122407734
000060 11 fe a3 3d 78 6a 81 3c 3d 52 1e 3e ff 47 35 bd
       0.08007444 0.015797839 0.15461059 -0.044258114
000070 22 71 0f 3d 28 6a 1b 3e ed 76 88 3e f5 14 d1 be
       0.03502 0.15177214 0.26653233 -0.408363
000080 e3 f4 ab 3d 09 cd b7 bd 7a d6 02 3d 35 41 0f 3e
       0.08396318 -0.08974654 0.031942822 0.13989718
000090 64 68 8f bd 35 ff 80 3d 69 38 a3 3d 95 1e f7 3b
       -0.07002333 0.06298677 0.07969744 0.0075414875
0000a0 e9 d8 81 bd 87 95 e0 3d 2e dc 0c bc 76 df 03 bd
       -0.063402005 0.1096602 -0.008597417 -0.03219553
0000b0 db cb ea bd 27 57 33 3e 68 f7 fb bb d8 7f 94 be
       -0.114646636 0.17513715 -0.007689405 -0.29003787
0000c0 af 1f 5b be 4a 30 e3 3d a6 77 37 3c bb 7d c0 bd
       -0.21398805 0.11093195 0.01119796 -0.09398981
0000d0 15 4a 37 be 3f f3 84 3d 0e 0f 0e 3d 2a 77 2a 3d
       -0.17899354 0.06491708 0.034682326 0.04161755
0000e0 9a ad 4b 3e a7 f4 8e 3d a2 f7 bf bc c4 5b d5 3d
       0.19890442 0.069802575 -0.02343351 0.104178935
0000f0 ff 35 32 3e 10 4d 10 3d 62 28 b4 bc df 41 1d 3e
       0.1740341 0.035229743 -0.021991912 0.15357159
000100 91 7b 32 be 32 9c 19 bd 44 ae c7 bc d5 75 28 bd
       -0.1742995 -0.037502475 -0.024375089 -0.041128
000110 58 58 33 3e af 96 af 3d 08 a9 94 3d 7d 68 af bd
       0.17514169 0.085736625 0.07258803 -0.085648514
000120 a3 af 77 bd f9 c6 7f 3c f1 c7 1d 3e 3e 5b aa 3d
       -0.060470235 0.015611404 0.15408303 0.08318184
000130 dc 04 70 3e 8d e1 4b bc c5 47 b5 bd b4 ce 34 bc
       0.23439354 -0.012443912 -0.088515796 -0.01103561
000140 e0 2a f2 3d b2 e9 1c 3b be 80 f9 3b 11 6a c9 3d
       0.11824584 0.0023943004 0.007614224 0.09834684
000150 9e 90 b4 bc a6 a4 1a be ed 3e a2 3c a6 90 e4 3d
       -0.022041615 -0.15101871 0.019805396 0.11160402
000160 88 f6 20 3e 28 43 83 bc 18 12 ec 3d 3f 95 17 bd
       0.15719044 -0.016023234 0.115268886 -0.037007567
000170 b0 29 4f 3c 22 e6 15 be 72 b2 40 3e c3 50 59 bc
       0.012644216 -0.1463857 0.18818071 -0.013263884
000180 be 1b 25 bd da fa 9a 3d ee 08 39 3d cd 6e 63 3d
       -0.04030966 0.075673774 0.04517453 0.05552559
000190 e0 9c 27 be 93 62 31 3e 02 47 24 bc 88 bd 9b bd
       -0.16368437 0.1732276 -0.010026695 -0.076045096
0001a0 c3 d7 a9 3d ea 28 9a bd ab ba 3b bd b1 9c a4 bd
       0.082931064 -0.07527335 -0.045832317 -0.08037699
0001b0 e1 4a 08 3e bc 2d 21 bc 32 01 d0 be c8 a4 89 bd
       0.13309814 -0.009837564 -0.40625912 -0.06720883
0001c0 ba d4 e5 3d 62 09 3b 3e b3 28 83 bd 51 f3 56 3d
       0.11222215 0.18265298 -0.06404247 0.05247814
0001d0 cd ac 8f bd 87 06 74 3d 7e 68 9c 3d 11 42 86 3e
       -0.07015381 0.059576537 0.07637118 0.2622228
0001e0 30 65 0e 3d 8b a9 f6 3c d2 55 b7 bd 86 eb d7 bb
       0.03476447 0.030110141 -0.08951916 -0.006589356
0001f0 0b ce e1 3d 47 76 ae bd d1 77 90 bd 0c 6a e8 3d
       0.11025628 -0.08518653 -0.07054103 0.11348352
000200 47 4c 8a bd 95 6f fb 3c c9 c1 3f 3d 0f 31 0d bb
       -0.0675283 0.030692855 0.046815667 -0.0021544134
000210 80 7e 7a 3c 15 a3 65 bb 7e 7a 8d bd d9 05 b9 3c
       0.015288949 -0.0035039831 -0.06908129 0.022585796
000220 25 77 6c 3d ee e7 06 3e ab 1f 0e 3d 84 b9 f8 bd
       0.057730813 0.13174412 0.03469817 -0.12144759
000230 68 33 24 be b2 b1 17 3e 5a 37 f9 bd 17 23 c1 bd
       -0.16035235 0.14813879 -0.121687606 -0.09430521
000240 1c 91 db 3d f0 58 ed 3d 0a 1c a6 3d ff d5 32 3c
       0.10721037 0.11589229 0.08110817 0.010915278
000250 81 4d d8 3c 99 5b 9b 3d fb 86 fc bd 8c d9 36 3d
       0.026404144 0.0758583 -0.12330433 0.044641063
000260 ec fe 85 bd 8a 77 2f 3d e1 4c fe 3b 0f 04 81 bd
       -0.06542763 0.04283861 0.0077606295 -0.06299602
000270 19 24 02 3d 07 88 35 bd 8c 0c 29 3e dc 3b a3 bd
       0.031772707 -0.04431918 0.16508693 -0.07970402
000280 b9 e0 49 bd 2c 96 88 3d 82 13 0b be 0d 21 9d 3d
       -0.049286578 0.06669268 -0.1358166 0.076723196
000290 b1 f0 c1 bd ff 74 ae 3c 05 ca 16 3d 07 05 dc 3c
       -0.09469736 0.021296022 0.036813755 0.026857866
0002a0 e1 04 e9 bc 08 aa a0 bc d0 c1 5f 3d ce f7 28 3c
       -0.02844471 -0.019612327 0.054628193 0.0103129875
0002b0 a9 d8 fc 3d 6c 46 61 3d 51 c6 f5 bc ba 8f 20 3e
       0.12346012 0.0549988 -0.030001791 0.15679827
0002c0 f8 06 de 3d 40 d3 03 bc 2b 8a 3a 3c 22 ba df 3d
       0.10841173 -0.008045971 0.011385481 0.10924174
0002d0 ba 18 67 be f6 5f df bc 94 d6 5a bd 6e 8c fc bc
       -0.22568026 -0.027267437 -0.053427294 -0.03082868
0002e0 9a 8a c1 bc bd c7 ad bd 17 34 ba 3d 18 52 9f 3d
       -0.02362566 -0.08485363 0.090919666 0.0777933
0002f0 90 12 e1 38 0d 1a 40 3d c6 0a 87 3d 39 c2 e6 3d
       0.000107322936 0.046899844 0.06593852 0.11267514
000300 ad 30 e8 3c 8b 81 44 bc 3e 84 72 3d a6 24 df 3b
       0.028343523 -0.011993776 0.059208147 0.0068097888
000310 80 0d 62 3d 48 b1 7b 3c 52 2d 7f bd 54 09 8b 3d
       0.055188656 0.015362091 -0.06229908 0.067888886
000320 e3 94 c4 3d 1c af 05 3e b2 bc 88 3b 28 e7 df 3d
       0.095987104 0.1305508 0.004172885 0.109327614
000330 ea d1 2f bd 25 44 a8 bd 0a 9b 45 3d ba cf d0 3d
       -0.0429248 -0.082161225 0.04824356 0.10195871
000340 4b bd c3 bc 0e 68 06 3d 5f 18 ae 3d 33 7d ef 3d
       -0.023893973 0.032814078 0.08500742 0.11693802
000350 d7 cb 71 bd 86 36 a7 3d 19 5a 2d be cf ed 10 bd
       -0.059032287 0.081646964 -0.16928901 -0.035383042
000360 c3 64 b4 3c a2 6d af bd 10 ea 47 3d 2c 0c 8e bd
       0.022020703 -0.08565833 0.048807204 -0.06935915
000370 e3 76 8b 3d d0 22 85 3d 7b 40 be bc a2 48 03 3e
       0.06809785 0.065007806 -0.023224106 0.12820676
000380 4a 30 8a bd bd 3f c9 ba 41 ba e8 bc 26 d3 19 3e
       -0.06747492 -0.0015354078 -0.028409125 0.15021953
000390 ee 94 68 be 28 3e b3 3b 33 5c b5 bc 87 c2 a6 3d
       -0.22713062 0.005470056 -0.02213869 0.08142572
0003a0 1b 61 17 3d 27 a7 e1 3c e4 b8 ac 3d 8b c4 f0 3b
       0.03695784 0.027545525 0.084337026 0.0073476485
0003b0 6a a2 a6 3d 0a 91 a5 3c 2c 50 f3 be 15 e4 0b 3e
       0.08136447 0.020210762 -0.47522104 0.13661225
0003c0 b1 1a 91 3d 39 3f c8 bc 12 05 70 bb 31 41 0b be
       0.07085169 -0.02444421 -0.0036624116 -0.13599087
0003d0 f5 dd bb 3d 85 59 dc bd 46 65 1c 3d da bc ed 3d
       0.09173194 -0.10759262 0.03818252 0.11608286
0003e0 88 06 22 3e 88 10 61 3d b4 4e e7 3d ac 7f 3a 3d
       0.15822804 0.054947406 0.11294308 0.045531914
0003f0 22 9e 04 3e 6f 80 1e be f7 b2 30 3d 87 34 0f 3c
       0.12950948 -0.15478681 0.043139424 0.008740551

fc2_adv.bias f4 [128]
000000 c0 a7 84 bd 6d 66 9b 3b 0f 09 87 bc 10 11 12 3d
       -0.06477308 0.0047424347 -0.016483812 0.035660803
000010 a4 1b 0f 3c 8b 8d 5e 3d 92 49 d9 3d e5 e1 ec 3d
       0.008734617 0.054334205 0.106097355 0.115665235
000020 f3 21 6d 3c d4 b5 d5 bc a5 92 87 3c c1 62 50 bd
       0.014473426 -0.026087679 0.016549418 -0.05087543
000030 12 76 b2 3d a9 5f bf bd 35 cb 32 be a3 e5 91 bd
       0.087139264 -0.093444176 -0.1746033 -0.07123878
000040 4c d9 9c 3d 42 db e6 3b f7 fc 41 be dd 40 80 3d
       0.076586336 0.0070451805 -0.18944155 0.06262372
000050 d3 99 38 3e c7 34 fb 3c 9a e4 a3 bd 39 03 80 bd
       0.1802743 0.030664815 -0.08002587 -0.06250615
000060 f8 f6 88 3d c3 0b 9a 3d 7c 94 82 3c 39 c7 a5 3e
       0.066877306 0.075217746 0.015939943 0.32378557
000070 f8 b1 4e 3c 43 bb b7 3d be 6a 11 be dc 04 8b 3d
       0.012615673 0.08971264 -0.14200875 0.06788036
000080 6a bd 11 be 46 37 c3 3d 81 85 96 3c eb 89 8a 3a
       -0.14232412 0.09532027 0.018374206 0.0010569667
000090 87 96 85 3d 23 be 6e ba 53 b7 3a 3d 39 4f 37 3d
       0.065228514 -0.0009107312 0.045584988 0.044753287
0000a0 10 e7 95 bd 8b 5d 75 bd 54 1a f5 3d 66 76 d0 3d
       -0.07319462 -0.059903663 0.11967912 0.10178833
0000b0 f1 f0 de bc e6 55 cf bc 19 75 92 3d df 82 8b 3d
       -0.0272145 -0.025309514 0.07151241 0.06812071
0000c0 01 32 70 bd 9c ed cd 3b 7d 95 c0 3c 7e f7 84 3d
       -0.058641437 0.0062844288 0.023508782 0.06492518
0000d0 ce b7 e6 3d f1 3a fa bd 3f 1f bf bd f2 58 f3 bc
       0.11265527 -0.122182734 -0.093321316 -0.029705498
0000e0 b8 e2 19 3e d9 14 0c be 51 79 ad 3b 7d c9 dc 3d
       0.15027893 -0.13679828 0.005294003 0.10780618
0000f0 80 74 20 bc 8d 74 66 3d 98 49 9e bd 0e 45 1b 3c
       -0.009793401 0.056263495 -0.07728881 0.009476913
000100 0c 28 eb bd 34 72 ac bd 50 d6 5c 3d d3 a4 8c 3d
       -0.11482248 -0.0842022 0.05391532 0.06867375
000110 4a 8b 6e bd f3 a6 c9 bc 67 d4 2f bb fc 4a 61 3d
       -0.058238305 -0.02461574 -0.0026829483 0.05500315
000120 5a 75 92 3e 62 bd f5 3d 96 b5 01 3d ef e6 00 3e
       0.28605157 0.119990125 0.031667314 0.12588094
000130 d7 3a 81 bd 6a b2 02 be f2 97 85 3d 97 d8 35 3d
       -0.06310051 -0.12763372 0.06523122 0.04439601
000140 ba ad 65 3d 07 6b 06 3d 88 41 64 3e a7 94 24 3d
       0.05607388 0.032816913 0.22290623 0.04018083
000150 f6 e2 d4 3c 0c b1 78 3d 30 76 17 bd 2f 35 77 3d
       0.02598713 0.06071572 -0.036977947 0.060353454
000160 0d 3a 85 3e e3 fe 96 3d d7 a0 e5 bd f1 ce c3 bd
       0.26020852 0.073728345 -0.112123184 -0.09560955
000170 ee b7 2b 3e ed 9f 3a ba 79 f9 52 3d db 1b c0 bc
       0.16769382 -0.0007119168 0.051507447 -0.023450783
000180 00 66 3f 3d 14 56 b8 3c ef 4e 6b bb a8 90 8e bd
       0.046728134 0.022501983 -0.0035905202 -0.06961185
000190 a9 3d f1 bd ec be 5d bd 9f 21 5f 3d 02 c1 ac 3d
       -0.11779339 -0.054137155 0.054475423 0.08435251
0001a0 00 63 fa bd 1a 3b 87 3d 0f 21 c2 3d 0f 9c 18 bd
       -0.12225914 0.066030696 0.09478962 -0.037258204
0001b0 cd b7 e8 bc eb 8f f2 bd 04 48 bf 3c cf 16 fb bc
       -0.028407956 -0.118438564 0.02334977 -0.030650524
0001c0 30 22 99 3d 6e 2c e4 3c 81 38 41 bb 8f 82 cb 3d
       0.07477224 0.027853217 -0.0029483142 0.099370115
0001d0 b6 75 94 bd 25 67 ad 3d 49 31 24 bc ba 3d 17 be
       -0.07249014 0.08466939 -0.010021516 -0.1476964
0001e0 0e 2c 8e bd 4a d5 41 3c 9d 23 06 be e1 14 6a bc
       -0.069419965 0.011830637 -0.13099523 -0.0142872045
0001f0 6e fe 8b bd b7 18 11 bc 27 d0 00 be 1c d1 a7 3d
       -0.06835638 -0.00885599 -0.12579404 0.08194181
