src/nets/avoid_checkpoint100.pth (torch_old, 180515 bytes, 11 tensors)

fc1_val.weight f4 [128, 43]
0.054224916 0.23541069 0.057975873 0.072575 0.08860778 0.07119292 0.12109893 -0.15237945
-0.1583285 0.04565675 0.07646051 -0.0632243 0.147676 -0.09482909 -0.065789424 -0.028831482
0.021414382 0.11523352 0.006663271 0.05900745 0.09162272 -0.05878571 0.067854166 0.07688239
0.06087446 -0.082892984 0.13538541 -0.13414334 -0.08148772 -0.051305074 -0.01277292 -0.10252851
0.12021361 -0.12953973 -0.13095328 -0.047543425 0.14481746 0.027377626 -0.01904646 0.07943775
0.215832 0.18832561 -0.016899686 0.04399257 0.040119186 -0.060762346 0.14000998 -0.03890356
-0.06967989 0.08229687 -0.13599955 0.102085195 -0.09489712 -0.0029737735 0.14344639 -0.100545704
0.0665675 0.1030218 -0.028730558 -0.004635895 -0.13494034 -0.11302087 0.12729757 0.17613344
0.038274594 -0.020087458 -0.075787276 -0.1992938 -0.16711247 -0.017496899 -0.1260022 0.08007027
-0.14247474 0.16404833 -0.051023196 0.10410749 -0.09401722 0.12629703 0.041164115 -0.049081072
-0.030690221 0.1593806 0.078544006 0.05735251 -0.15334168 -0.10782294 -0.11632096 -0.06566301
-0.13123704 -0.005350502 -0.1147858 0.030736871 0.12789468 -0.13975972 -0.119763054 -0.020423552
0.14701594 -0.13425241 0.06144851 0.10840559 -0.15124694 -0.06860327 0.099869214 -0.08045297
-0.07524931 0.041869015 -0.11542934 -0.06922509 -0.22304453 0.048871834 -0.08319174 -0.04756197
-0.10550436 -0.16783912 -0.048543263 -0.21000835 0.029611481 -0.0063520567 0.058016196 0.057786085
0.14499111 -0.08835057 -0.05749007 -0.048237257 0.19157317 0.17782386 0.06649479 0.043284655
0.11774312 0.0606448 0.10640396 -0.14081945 0.055877592 0.11683113 -0.04815278 0.037855435
-0.091357216 0.026969206 -0.04426127 -0.010612885 0.14894861 -0.053331867 0.030889453 -0.12607907
0.056529075 -0.07757604 -0.00339041 0.014224148 0.12470887 0.10908059 0.15767352 -0.1500312
-0.09026523 0.036412075 0.13127345 0.07054574 -0.025825052 0.07705484 0.020625414 0.16197285
-0.100943804 0.091130234 -0.10153461 -0.13453622 -0.13248816 0.124969 0.054513585 0.06362082
0.057089925 0.22906928 -0.029813588 0.019296566 -0.050323807 0.21274954 0.061389226 0.191845
0.02826422 0.15106829 0.11944107 0.16051124 0.11669679 -0.13791125 0.16738288 0.091947585
-0.011742351 -0.033242647 -0.14329794 -0.028110797 -0.05155368 0.049935844 0.1658418 -0.08528598
0.016713759 -0.08752158 -0.13414304 -0.039494593 0.0046280543 0.07477515 0.11681529 0.10915454
-0.014837685 0.10154878 0.044458754 -0.043543477 -0.025080899 0.12299248 -0.10238828 0.12061726
-0.13597357 -0.1480057 -0.042677533 0.14655703 0.028812412 -0.021247942 -0.09100241 0.14814083
0.13758454 -0.12483202 0.0110273175 -0.08059618 0.094560616 -0.014371975 -0.050444108 0.069396615
-0.12459584 0.025772505 0.06667323 -0.1020116 -0.013358952 0.05243737 -0.10910736 -0.07496639
-0.10186098 0.08527385 -0.009271733 -0.11254881 0.09855381 0.10329727 0.09686535 -0.031340104
0.083088204 -0.035277743 0.056882445 0.086426355 -0.13540164 0.030486716 0.1179903 -0.026465889
0.031973194 -0.08714301 -0.030148428 0.07689119 -0.021281103 -0.020757092 -0.04830434 0.21238312
00000000: f21a 5e3d 800f 713e 1c78 6d3d 34a2 943d
00000010: ff77 b53d 98cd 913d b702 f83d 5c09 1cbe
00000020: de20 22be 9302 3b3d 5497 9c3d be7b 81bd
00000030: 6138 173e c135 c2bd 9bbc 86bd 0030 ecbc
00000040: 376d af3c 8dff eb3d 9257 da3b ccb1 713d
00000050: b1a4 bb3d 49c9 70bd 20f7 8a3d 8474 9d3d
00000060: 7f57 793d ccc3 a9bd 79a2 0a3e df5c 09be
00000070: 09e3 a6bd 4525 52bd 8245 51bc 78fa d1bd
00000080: 8e32 f63d 10a6 04be 9e18 06be e5bc 42bd
00000090: 074b 143e 0b47 e03c 5207 9cbc 42b0 a23d
000000a0: 1003 5d3e 6ed8 403e 3671 8abc 8e31 343d
000000b0: 0454 243d f0e1 78bd c75e 0f3e 5759 1fbd
000000c0: 55b4 8ebd 438b a83d 7743 0bbe 0b12 d13d
000000d0: 6c59 c2bd a4e3 42bb 9ce3 123e e8ea cdbd
000000e0: 8b54 883d 18fd d23d 595c ebbc b5e8 97bb
000000f0: cd2d 0abe 7c77 e7bd 4b5a 023e 535c 343e
00000100: d2c5 1c3d 748e a4bc 5c36 9bbd ad13 4cbe
00000110: 881f 2bbe a855 8fbc b906 01be e2fb a33d
00000120: e6e4 11be 49fc 273e b3fd 50bd 4f36 d53d
00000130: 1a8c c0bd 0254 013e b49b 283d 3c09 49bd
00000140: 0f6a fbbc ab34 233e aedb a03d 77ea 6a3d
00000150: 9a05 1dbe 46d2 dcbd af39 eebd 547a 86bd
00000160: 0163 06be 4453 afbb d114 ebbd e4cb fb3c
00000170: d3f6 023e 2c1d 0fbe 5546 f5bd 4b4f a7bc
00000180: 598b 163e 7779 09be 6fb1 7b3d c003 de3d
00000190: 7ae0 1abe df7f 8cbd 3b88 cc3d 87c4 a4bd
000001a0: 4f1c 9abd d87e 2b3d 3866 ecbd e2c5 8dbd
000001b0: c965 64be d52d 483d 6e60 aabd 57d0 42bd
000001c0: ab12 d8bd 05de 2bbe 4dd5 46bd 6e0c 57be
000001d0: c793 f23c ea24 d0bb 64a2 6d3d 1ab1 6c3d
000001e0: 8d78 143e 25f1 b4bd b57a 6bbd 6e94 45bd
000001f0: c22b 443e 7517 363e 6c2e 883d 404b 313d
00000200: 4e23 f13d af66 783d 52ea d93d f932 10be
00000210: e7df 643d 2945 ef3d d93b 45bd 4d0e 1b3d
00000220: 7e19 bbbd 86ee dc3c 4e4b 35bd aae1 2dbc
00000230: fc85 183e 8472 5abd e10b fd3c df1a 01be
00000240: 088b 673d 30e0 9ebd a431 5ebb 670c 693c
00000250: 5d67 ff3d a565 df3d 2b75 213e c7a1 19be
00000260: fadc b8bd d424 153d 8c6c 063e 497a 903d
00000270: 0f8f d3bc eece 9d3d a1f6 a83c 36dc 253e
00000280: a0bb cebd 7da2 ba3d 61f1 cfbd ddc3 09be
00000290: faaa 07be bfef ff3d a349 5f3d a24b 823d
000002a0: 20d7 693d 2391 6a3e a03b f4bc d513 9e3c
000002b0: 5620 4ebd 04db 593e 4573 7b3d 0473 443e
000002c0: 5e8a e73c a5b1 1a3e 859d f43d 0f5d 243e
000002d0: bafe ee3d 9b38 0dbe 6b66 2b3e 044f bc3d
000002e0: fd62 40bc 7129 08bd b2bc 12be 9d48 e6bc
000002f0: f429 53bd 8789 4c3d 6fd2 293e 6aaa aebd
00000300: 4beb 883c 843e b3bd cb5c 09be 15c5 21bd
00000310: efa6 973b b723 993d db3c ef3d 6a8c df3d
00000320: c319 73bc cff8 cf3d 621a 363d a55a 32bd
00000330: 7576 cdbc 7be3 fb3d f2b0 d1bd 2f06 f73d
00000340: a83c 0bbe ce8e 17be a3ce 2ebd 0c13 163e
00000350: 0208 ec3c 2a10 aebc 795f babd 3bb2 173e
00000360: f6e2 0c3e eea7 ffbd ecab 343c 9c0f a5bd
00000370: ffa8 c13d 6f78 6bbc 7b9e 4ebd d01f 8e3d
00000380: 1b2c ffbd dc20 d33c f98b 883d 75eb d0bd
00000390: 81df 5abc 91c8 563d ae73 dfbd fb87 99bd
000003a0: 7d9c d0bd 0ea4 ae3d 78e8 17bc fe7f e6bd
000003b0: 94d6 c93d 858d d33d 5761 c63d 7b5e 00bd
000003c0: 262a aa3d 657f 10bd 91fd 683d 4d00 b13d
000003d0: baa6 0abe 47bf f93c e6a4 f13d fece d8bc
000003e0: 53f6 023d 0978 b2bd d6f9 f6bc 2179 9d3d
000003f0: b555 aebc c70a aabc c6da 45bd f67a 593e

fc1_val.bias f4 [128]
0.12365593 0.058044475 -0.100970685 0.060794882 0.19562969 0.021556448 0.1322844 0.1803686
-0.14655574 0.04324583 -0.17298386 0.046846773 0.14809988 -0.13132802 -0.018200401 -0.16747749
0.21239513 0.06060886 0.20995432 0.015130689 0.14603384 -0.04363304 -0.057442434 0.08538479
0.19375281 0.1574997 -0.08942735 0.14680576 0.19332495 0.032977063 -0.007992519 0.1185064
-0.023911798 0.15211836 0.026844991 0.08662981 -0.024066601 -0.004816224 -0.022535464 0.102997854
-0.027831756 0.040497854 0.08872765 0.19408289 0.09119138 -0.025087401 -0.12585309 0.036586817
0.20330492 0.24414158 0.12880202 0.009447204 0.18426761 0.19468614 0.19297034 -0.11244844
0.10971616 0.026308851 0.022644628 -0.07331806 0.013881517 -0.0957678 0.019053077 0.17340542
-0.0042093103 0.15765837 0.19235003 0.21630406 0.1894236 0.004847913 -0.0107882 0.02283371
0.19600962 -0.031157563 0.18554553 0.12591885 0.13528991 -0.17931733 0.058385223 0.2537054
-0.04921302 0.06568921 0.17613262 -0.09209747 -0.046336103 0.102896444 0.17840044 0.2460909
-0.0161152 0.19611329 0.15683562 -0.011195281 -0.06644525 0.1939918 0.022224186 -0.051149238
0.11941059 0.007957914 0.12156308 0.11657334 0.114458196 0.03714489 -0.11906016 0.18306217
0.081488356 -0.050835665 0.09701759 0.024689615 0.029333808 0.11905564 0.17415947 0.079148345
0.19866695 0.2065888 -0.032248355 0.23292638 -7.621563e-05 0.15192062 0.19172063 0.12930554
-0.094338275 0.16749416 0.15216824 0.11973495 -0.036132004 -0.005392566 -0.006783876 0.076732
00000000: 523f fd3d 0bc0 6d3d b8c9 cebd 0e04 793d
00000010: 2653 483e 2697 b03c 9075 073e 8cb2 383e
00000020: b512 16be 8a22 313d ae22 31be 67e2 3f3d
00000030: 7fa7 173e da7a 06be 0219 95bc 387f 2bbe
00000040: 1c7e 593e ff40 783d 44fe 563e b6e6 773c
00000050: e589 153e 8fb8 32bd c248 6bbd 39de ae3d
00000060: 2367 463e 9a47 213e b025 b7bd 4054 163e
00000070: faf6 453e f512 073d 0ef3 02bc 7cb3 f23d
00000080: ade2 c3bc eac4 1b3e 07ea db3c f86a b13d
00000090: 5227 c5bc 6ad1 9dbb 4b9c b8bc 8af0 d23d
000000a0: 6cff e3bc 14e1 253d d8b6 b53d aabd 463e
000000b0: 8cc2 ba3d 1884 cdbc a2df 00be 0fdc 153d
000000c0: 2a2f 503e 4000 7a3e ade4 033e 72c8 1a3c
000000d0: a6b0 3c3e ce5b 473e 049a 453e 5e4b e6bd
000000e0: deb2 e03d a985 d73c 3a81 b93c c727 96bd
000000f0: 4d6f 633c e921 c4bd 3315 9c3c 3191 313e
00000100: 41ee 89bb 3271 213e 68f7 443e d07e 5d3e
00000110: 43f8 413e 3edb 9e3b fec0 30bc c30d bb3c
00000120: bfb6 483e 253e ffbc a6ff 3d3e dff0 003e
00000130: 7089 0a3e f69e 37be 5825 6f3d ade5 813e
00000140: 9793 49bd 1188 863d 1c5c 343e 999d bcbd
00000150: edca 3dbd 5fbb d23d 9bae 363e 41ff 7b3e
00000160: 0604 84bc ecd1 483e 8499 203e 696c 37bc
00000170: 7214 88bd c9a5 463e 7f0f b63c dd81 51bd
00000180: 8a8d f43d e961 023c 10f6 f83d 01be ee3d
00000190: 0f69 ea3d 3d25 183d d0d5 f3bd a674 3b3e
000001a0: 5ee3 a63d 0f39 50bd 29b1 c63d e041 ca3c
000001b0: 744d f03c 72d3 f33d dc56 323e 8718 a23d
000001c0: 596f 4b3e 048c 533e da16 04bd 4184 6e3e
000001d0: f4d5 9fb8 1491 1b3e 6a52 443e ac68 043e
000001e0: 6d34 c1bd 9783 2b3e fed1 1b3e 9937 f53d
000001f0: 27ff 13bd 1fb4 b0bb 474b debb ab25 9d3d

fc2_val.weight f4 [128, 128]
0.17273282 0.058720216 -0.051636547 0.14347513 0.09496273 0.16047992 0.11581807 0.11200755
-0.18853554 0.0993429 -0.07476276 0.082401454 0.045071185 0.1488905 0.09757671 -0.059018057
0.1658466 0.07552115 0.068881184 0.16045862 0.18136477 0.059672426 0.16008565 0.062391937
0.08027878 0.045954462 -0.11519332 0.13838898 0.14998658 0.12123798 0.11536642 0.17265086
0.07761222 0.074285656 0.120462276 0.1648596 -0.004380317 -0.0914793 0.12819035 0.16218743
0.22363521 0.09872209 0.2542493 0.13821878 0.037070386 0.21273951 0.030446064 0.14402132
0.15560618 0.06551445 0.047046527 0.13715428 0.105633244 0.011917694 0.009027429 -0.026746955
0.18377754 0.08302165 0.08140514 0.18118747 -0.1141849 -0.029583102 0.027323922 0.025512002
0.16054325 0.11774872 0.098486274 0.066024005 0.036267385 -0.0030175932 -0.04536252 0.004714224
0.109405614 0.16006579 0.5811913 0.13504678 0.110027716 -0.1281027 0.20200925 0.0064715124
0.04473407 0.035987336 0.11435143 -0.088304065 0.17199115 0.017151011 0.14869098 0.11075631
-0.14349806 0.14769758 0.15023214 0.1261368 0.09985268 0.14079005 -0.032789033 -0.096741565
0.14863576 0.15714525 0.025488298 0.033091184 0.023465114 0.044426993 0.02135091 0.08615346
-0.0016317535 0.027732868 -0.003106044 0.124239065 0.18146044 0.10972509 0.117773995 0.30295262
0.013017932 0.18451001 0.068811126 0.025156083 0.14840667 0.03912348 0.060054105 0.096224904
0.18621488 0.06302319 0.09431773 0.08195688 0.02292375 0.17073347 0.41572228 0.00240937
0.05095535 0.081524216 0.06346265 0.04932516 0.106850095 0.086645424 0.03351645 0.024778811
-0.15481387 0.091149345 -0.07296639 0.14515191 -0.0033690496 0.21838424 0.12463895 -0.031457346
0.082228184 0.053638812 0.026604898 0.016725855 0.082432434 0.07653259 0.16870792 0.011369695
0.1289572 0.15208925 -0.0032633387 0.12358506 0.06903426 0.082245246 0.09566095 0.18897013
0.119544975 0.14587174 0.11070775 0.12732409 0.07149247 -0.18602324 0.166934 -0.0019494451
0.15172155 0.19228517 0.26917765 0.1523298 0.044525795 0.21666095 0.006085081 0.11037075
0.14506127 0.08996479 0.12217309 -0.007012422 0.062926106 -0.019974018 0.13539232 -0.07000419
0.12947518 0.018426182 0.17156465 0.20022877 -0.12713455 0.08003007 0.057603773 0.14389586
0.018404702 0.10283626 0.117917135 0.09153097 0.031246994 0.06697561 0.010152398 0.092829
0.14887722 0.093429 0.6144633 0.049713396 0.03624314 -0.18509816 0.15491736 -0.0028128645
0.03194954 0.07132618 -0.006918801 -0.11617623 0.14910948 0.084010646 0.047265273 0.05918782
-0.049904086 0.08700474 0.02079683 0.014007036 0.10079868 0.18312196 -0.096677594 -0.066770956
0.05663053 0.19943929 0.07586411 0.02082861 0.13183033 0.14293613 0.008654774 0.09953515
0.0326941 0.043749597 0.08840054 0.113441095 0.19288391 0.15809971 0.08946143 0.39060807
0.06298575 0.12045775 0.060020525 0.0764253 0.03353128 0.10369947 0.17743735 0.06680854
0.028348817 0.0040876553 0.102001175 0.12491264 -0.009417551 0.09238685 0.29242894 0.14770943
00000000: dfe0 303e 9c84 703d d880 53bd 25eb 123e
00000010: d27b c23d d954 243e 0632 ed3d 3764 e53d
00000020: 760f 41be 4a74 cb3d 381d 99bd 18c2 a83d
00000030: 909c 383d c076 183e 4cd6 c73d ebbc 71bd
00000040: b1d3 293e d5aa 9a3d 9411 8d3d 444f 243e
00000050: b0b7 393e 136b 743d 7eed 233e b08e 7f3d
00000060: 3369 a43d bf3a 3c3d 7aea ebbd d7b5 0d3e
00000070: 1596 193e 9e4b f83d 3b45 ec3d 63cb 303e
00000080: 28f3 9e3d 1423 983d edb4 f63d f4d0 283e
00000090: c388 8fbb 8059 bbbd 5544 033e 7614 263e
000000a0: a100 653e cf2e ca3d f72c 823e 3989 0d3e
000000b0: 1ed7 173d 63d8 593e 066a f93c 537a 133e
000000c0: 3a57 1f3e 712c 863d dcb3 403d 2c72 0c3e
000000d0: 3e56 d83d 6e42 433c c8e7 133c 6e1c dbbc
000000e0: 2e30 3c3e 4107 aa3d bdb7 a63d 3589 393e
000000f0: c6d9 e9bd 4358 f2bc 6bd6 df3c 8cfe d03c
00000100: 7365 243e 3e26 f13d 2cb3 c93d 9837 873d
00000110: 1c8d 143d d0c2 45bb 0dce 39bd c779 9a3b
00000120: 0d10 e03d 49e8 233e f4c8 143f b449 0a3e
00000130: 3656 e13d 5b2d 03be 83db 4e3e fb0e d43b
00000140: 123b 373d 7567 133d 1531 ea3d c3d8 b4bd
00000150: 731e 303e 4780 8c3c 7342 183e 34d4 e23d
00000160: 28f1 12be 093e 173e 74d6 193e 012a 013e
00000170: 907f cc3d 442b 103e cb4d 06bd 7120 c6bd
00000180: f933 183e afea 203e d6cc d03c 9f8a 073d
00000190: e939 c03c 14f9 353d 1be8 ae3c 3a71 b03d
000001a0: 90e0 d5ba 0a30 e33c c58e 4bbb 0d71 fe3d
000001b0: c4d0 393e 8cb7 e03d 7e33 f13d 9b1c 9b3e
000001c0: 2a49 553c 31f0 3c3e d9ec 8c3d 2114 ce3c
000001d0: ebf7 173e f13f 203d 4bfb 753d 9011 c53d
000001e0: 1daf 3e3e 4d12 813d a729 c13d 02d9 a73d
000001f0: 97ca bb3c c1d4 2e3e 8dd9 d43e 85e6 1d3b
00000200: 8fb6 503d 2bf6 a63d b5f8 813d 2e09 4a3d
00000210: 39d4 da3d 2873 b13d 8c48 093d effc ca3c
00000220: 8787 1ebe 82ac ba3d 676f 95bd b4a2 143e
00000230: 46cb 5cbb 1ea0 5f3e b542 ff3d 6bd9 00bd
00000240: 4067 a83d 5fb4 5b3d 84f2 d93c a904 893c
00000250: 56d2 a83d 1ebd 9c3d c5c1 2c3e f547 3a3c
00000260: 5b0d 043e 49bd 1b3e bddd 55bb 2a1a fd3d
00000270: d661 8d3d 3270 a83d e3e9 c33d 6381 413e
00000280: ffd3 f43d 675f 153e bfba e23d 3f61 023e
00000290: a56a 923d e07c 3ebe bff0 2a3e 8684 ffba
000002a0: e55c 1b3e 67e6 443e a7d1 893e 58fc 1b3e
000002b0: ae60 363d 5edc 5d3e 5c65 c73b 0f0a e23d
000002c0: f18a 143e 763f b83d e335 fa3d 76c8 e5bb
000002d0: 67df 803d 8da0 a3bc 49a4 0a3e 5b5e 8fbd
000002e0: 2495 043e 81f2 963c a5ae 2f3e c508 4d3e
000002f0: 8f2f 02be cee6 a33d eff1 6b3d 7059 133e
00000300: 75c5 963c d19b d23d 8a7e f13d 9774 bb3d
00000310: b2f9 ff3c 822a 893d 3e56 263c 211d be3d
00000320: 4573 183e b457 bf3d 784d 1d3f 46a0 4b3d
00000330: b073 143d 5f8a 3dbe a8a2 1e3e 0958 38bb
00000340: 85dd 023d 7613 923d 1cb7 e2bb ceed edbd
00000350: 28b0 183e c60d ac3d 3b99 413d ed6e 723d
00000360: 3a68 4cbd 8b2f b23d 1d5e aa3c c47d 653c
00000370: 8a6f ce3d 5384 3b3e e7fe c5bd 36bf 88bd
00000380: 6af5 673d d039 4c3e a45e 9b3d c3a0 aa3c
00000390: 88fe 063e d95d 123e c1cc 0d3c 16d9 cb3d
000003a0: 40ea 053d c732 333d 580b b53d ce53 e83d
000003b0: 5c83 453e e4e4 213e 8e37 b73d c8fd c73e
000003c0: acfe 803d 8eb2 f63d 15d8 753d de84 9c3d
000003d0: 1858 093d 6360 d43d 23b2 353e ead2 883d
000003e0: c73b e83c bdf1 853b fee5 d03d 33d2 ff3d
000003f0: 124c 1abc 5135 bd3d 3fb9 953e 2441 173e

fc2_val.bias f4 [128]
0.077185355 0.1461648 0.102599256 -0.0035083366 0.029491872 0.13246383 0.101431474 0.02560628
0.05635288 0.016657155 0.18331574 0.07461833 0.05386198 -0.016626757 -0.066027336 -0.063552685
0.16330099 -0.057099197 0.08539465 0.028980404 0.12501498 0.116636954 0.06450731 -0.033198573
0.103597976 -0.0071188146 0.05195434 -0.0037733726 0.13504583 0.015839169 0.103534184 -0.037687294
0.05900321 0.14266968 0.06167053 -0.0127275465 0.093347125 0.058894064 -0.018679932 -0.03400122
0.1139473 0.05681361 0.1674615 0.085895985 -0.01686695 0.16578977 -0.051787883 0.050304428
-0.045193866 -0.012550584 0.0070567583 0.09892654 -0.039568223 0.04998628 0.15379368 0.12778212
0.006830157 0.12500344 -0.08146583 0.038613938 0.07217458 0.06110362 -0.09144713 0.06678975
0.036407724 0.12254807 0.11140372 0.07695155 0.14658013 -0.0029588498 -0.0052818367 0.07700835
0.042723812 0.032978695 0.024684304 0.031065788 0.15184268 -0.03683596 0.015789479 -0.08001541
-0.06281598 -0.036733676 0.08075521 0.02753807 0.06838206 -0.03626069 0.060141254 0.13104483
-0.055542633 -0.008228546 0.046703354 0.042215552 0.05874119 0.038364224 -0.012941506 0.04892046
0.14470433 -0.04075147 0.019573912 0.08425307 0.10551768 0.13215217 0.16693772 0.12373105
0.038194004 0.007537946 0.11446321 0.06743149 0.110452 0.09139141 0.08280955 -0.07639061
0.14746682 -0.072369576 0.03687099 -0.08395092 0.1748153 -0.055306464 0.096696295 0.10498197
0.02373341 -0.08864144 -0.017787918 -0.036188655 -0.025543433 0.033152368 0.018271692 0.046199992
00000000: 5b13 9e3d 3aac 153e 8f1f d23d 1fec 65bb
00000010: f098 f13c 99a4 073e 4ebb cf3d 43c4 d13c
00000020: 47d2 663d 9674 883c 1fb7 3b3e 7fd1 983d
00000030: 619e 5c3d d634 88bc 5739 87bd e927 82bd
00000040: 6038 273e d9e0 69bd 64e3 ae3d 5068 ed3c
00000050: ed03 003e 5bdf ee3d 691c 843d 3afb 07bd
00000060: 2d2b d43d f244 e9bb 13ce 543d b04a 77bb
00000070: 7449 0a3e 25c1 813c bb09 d43d fe5d 1abd
00000080: 5aad 713d 0018 123e 3d9a 7c3d 3387 50bc
00000090: c72c bf3d e73a 713d a806 99bc dd44 0bbd
000000a0: 345d e93d 63b5 683d 077b 2b3e 3cea af3d
000000b0: 8f2c 8abc cbc4 293e 881f 54bd 040c 4e3d
000000c0: 341d 39bd f7a0 4dbc 613c e73b ff99 ca3d
000000d0: 4a12 22bd 6abe 4c3d 177c 1d3e 51d9 023e
000000e0: 82cf df3b e700 003e 8fd7 a6bd a629 1e3d
000000f0: 44d0 933d ca47 7a3d a248 bbbd 10c9 883d
00000100: 4420 153d 7cfa fa3d a227 e43d c698 9d3d
00000110: 1a19 163e 43e9 41bb 4213 adbb 8eb6 9d3d
00000120: 2aff 2e3d ab14 073d bd36 ca3c ae7d fe3c
00000130: a67c 1b3e 4ee1 16bd f058 813c 1fdf a3bd
00000140: aaa5 80bd 0d76 16bd fd62 a53d 8597 e13c
00000150: e50b 8c3d 1786 14bd ad56 763d 9e30 063e
00000160: ac80 63bd 06d1 06bc 044c 3f3d 37ea 2c3d
00000170: 9a9a 703d ce23 1d3d 9c08 54bc d260 483d
00000180: 5f2d 143e 03eb 26bd 7859 a03c e08c ac3d
00000190: a719 d83d e652 073e b9f1 2a3e b466 fd3d
000001a0: 5171 1c3d e000 f73b b06b ea3d 8519 8a3d
000001b0: a834 e23d 6b2b bb3d 0e98 a93d ae72 9cbd
000001c0: 8b01 173e 8036 94bd 0906 173d 76ee abbd
000001d0: c802 333e 0889 62bd b508 c63d c900 d73d
000001e0: 916c c23c a589 b5bd f8b7 91bc 8e3a 14bd
000001f0: 7640 d1bc c7ca 073d 84ae 953c 343c 3d3d

fc3_val.weight f4 [1, 128]
-0.11977298 -0.11728697 -0.14497608 -0.14159411 0.12367855 -0.16726735 -0.11671228 0.23810944
0.1597135 0.31177533 -0.114273086 0.21723606 -0.15540054 -0.009319175 -0.21341047 0.25964335
-0.18618685 0.26899326 -0.12562776 0.18224064 -0.16756698 -0.20191547 -0.0855968 0.27186048
-0.17091756 0.13246326 -0.21255563 0.22767603 -0.1662759 0.3135407 -0.18242466 0.38021985
-0.14181742 -0.119345345 -0.16265434 0.2448728 -0.14494435 -0.126437 0.2362124 0.26579374
-0.14483958 0.15250437 -0.15084304 0.12805349 0.19504946 -0.16264565 0.17822377 0.18232687
0.2195001 0.1998458 -0.04196827 -0.15912041 0.2653619 -0.15126137 -0.1639899 -0.22176345
0.23977561 -0.19994627 0.20297465 0.19287057 -0.17163758 -0.1478512 0.20260087 -0.21748258
0.27257624 -0.1855475 -0.19112709 0.19127896 -0.12468251 0.2725016 0.4026189 -0.14741981
-0.22539055 -0.21060257 0.14266662 0.14835148 -0.13159813 0.21956941 0.32349616 0.32089373
0.2525368 0.24147016 -0.1807267 0.35838768 -0.19458465 0.17176853 0.2466054 -0.17684297
0.04671157 0.3333611 -0.1731495 0.23337513 0.2084854 -0.119361 0.22947815 -0.16618681
-0.16022854 0.29624632 -0.13610382 -0.19601531 -0.14189929 -0.13729261 -0.12029779 -0.15320177
-0.1812545 0.20645976 -0.13239297 -0.12349456 -0.16609053 -0.16613393 -0.19555257 0.22140512
-0.13176334 0.31371278 0.2458308 0.463081 -0.19205709 0.28163913 0.28903842 -0.158378
0.23257932 0.18943171 0.1963406 0.23547186 0.25128308 -0.16842254 -0.17672783 0.22846924
00000000: 894b f5bd 2734 f0bd 9c74 14be 0cfe 10be
00000010: 2e4b fd3d 2248 2bbe d906 efbd f6d2 733e
00000020: f08b 233e 04a1 9f3e 0208 eabd 2173 5e3e
00000030: 5221 1fbe 74af 18bc 4688 5abe f9ef 843e
00000040: c4a7 3ebe 7cb9 893e 90a4 00be 4a9d 3a3e
00000050: ae96 2bbe eec2 4ebe 604d afbd 4c31 8b3e
00000060: 0305 2fbe 73a4 073e 2fa8 59be e823 693e
00000070: 3b44 2abe 6888 a03e 88cd 3abe 2dac c23e
00000080: 9638 11be 556b f4bd dc8e 26be efbf 7a3e
00000090: 4b6c 14be b378 01be aae1 713e 1e16 883e
000000a0: d450 14be 1b2a 1c3e 9976 1abe 7420 033e
000000b0: 0cbb 473e 958c 26be 4b80 363e e5b3 3a3e
000000c0: a2c4 603e 61a4 4c3e ece6 2bbd 76f0 22be
000000d0: 84dd 873e 43e4 1abe f8ec 27be f515 63be
000000e0: bd87 753e b7be 4cbe 96d8 4f3e dd7f 453e
000000f0: c3c1 2fbe 4e66 17be 9a76 4f3e c1b3 5ebe
00000100: 1d8f 8b3e 2a00 3ebe d2b6 43be a2de 433e
00000110: 8b59 ffbd 5485 8b3e 1124 ce3e 38f5 16be
00000120: c8cc 66be 33a8 57be 3317 123e 73e9 173e
00000130: a9c1 06be ced6 603e 4aa1 a53e 2f4c a43e
00000140: 814c 813e f443 773e 6c10 39be 977e b73e
00000150: 3341 47be 17e4 2f3e 2086 7c3e 5316 35be
00000160: a254 3f3d 4eae aa3e 1a4e 31be e4f9 6e3e
00000170: 327d 553e 8a73 f4bd 52fc 6a3e e02c 2abe
00000180: f312 24be 99ad 973e cd5e 0bbe 3db8 48be
00000190: 0c4e 11be 6f96 0cbe b05e f6bd ede0 1cbe
000001a0: c89a 39be 306a 533e 0692 07be b7ea fcbd
000001b0: a313 2abe 031f 2abe ef3e 48be 06b8 623e
000001c0: f8ec 06be f69e a03e 12bb 7b3e f418 ed3e
000001d0: 9daa 44be 0133 903e d8fc 933e d82d 22be
000001e0: 4629 6e3e 63fa 413e 830d 493e 891f 713e
000001f0: 2da8 803e f576 2cbe 24f8 34be d7f3 693e

fc1_adv.weight f4 [128, 43]
-0.013950896 0.06899757 0.00077424763 0.01177621 -0.088882856 -0.03013291 -0.016632425 0.039270118
-0.017002452 -0.05869937 -0.06093212 -0.096421316 -0.02678829 -0.11730969 -0.07313742 -0.016635066
0.09598215 0.0389 0.19688295 -0.021871835 0.04826822 -0.012501868 0.18670909 0.004078867
-0.14531259 -0.023056066 -0.035449643 0.040749647 0.1091198 -0.092138104 -0.08509883 -0.108880326
-0.14171833 -0.06253273 -0.19359948 -0.038104217 0.06674537 0.13784045 0.057902295 -0.09071739
-0.17769362 -0.008014575 0.15706219 0.046399713 0.05917911 0.052607823 0.029034015 0.13634448
0.17965992 -0.04171376 -0.0058647427 -0.072600156 -0.028241077 0.13340852 0.10322624 0.07671173
-0.007604011 -0.01656916 0.10882246 0.056304563 -0.01023769 0.035913866 -0.0018704154 0.008011046
0.011983342 0.058508355 0.103862986 0.08438336 0.044272948 -0.02529555 0.07454755 0.15984967
0.15048973 0.020127008 0.08558256 -0.038338635 0.012308787 0.0076466324 0.14788112 -0.013594346
-0.04940154 0.09306845 -0.09355691 0.5805613 -0.14950511 0.011753184 -0.12420887 -0.13501091
0.06972246 -0.19272098 0.059088424 0.09574185 -0.040165152 -0.060894236 0.036600355 -0.013799099
-0.08061527 0.07868674 -0.00029326126 -0.02819646 0.08080922 -0.048699956 0.11050409 -0.06772814
-0.16121596 0.06516614 -0.17939511 -0.01903904 -0.055525504 0.1345939 -0.06396277 0.15583415
0.15246166 -0.0194575 -0.057464574 -0.1553612 0.08938353 -0.061761647 -0.0012881036 0.063703515
-0.17413032 -0.019502204 0.11349607 0.13260141 0.17927475 0.056586187 -0.0076252786 -0.08628543
-0.11567181 -0.21885243 -0.28816807 -0.17247301 0.10814514 -0.0860544 -0.08136717 0.087246515
0.14192863 0.13356882 0.011749701 -0.056152336 -0.083693355 0.1528065 -0.0355451 -0.09014395
0.070002034 0.08124901 0.022424504 -0.017575867 -0.10509346 0.111798726 0.14981835 0.082029834
-0.15752523 0.039612267 -0.0100597255 -0.07077138 0.044784613 0.042835634 0.04801487 -0.086817786
0.18902944 0.061444245 0.04707843 0.015434357 -0.015323095 0.105200656 0.026191011 0.056875113
-0.13870846 -0.18264337 0.03434332 -0.00048195582 0.013825358 0.11086286 0.18361655 0.176403
0.19248493 -0.033663563 0.17842744 0.037192855 -0.027266731 0.08655484 -0.033853833 -0.05523853
0.09159778 0.0070964815 0.12704226 -0.11831328 -0.07928322 0.052818388 -0.088794485 0.15697993
-0.0074149296 0.013319576 0.14984807 -0.05328413 -0.025739996 0.037989244 0.12630099 0.0037141342
0.052826926 0.067555405 0.10297945 0.01097748 -0.116402425 0.0031222135 0.025158973 0.031616762
-0.019157529 0.14620489 -0.11753261 0.111141644 -0.10932477 0.18734497 0.012774986 -0.0901506
-0.20600004 -0.0149174305 0.04246847 0.103891 -0.047780737 -0.03655489 -0.047581702 -0.057830017
-0.044619728 0.13444678 -0.034056485 0.0013129028 -0.070317104 0.10407954 -0.02303486 0.031598724
-0.011594696 -0.023601139 -0.069582514 0.049407355 0.08717789 0.11859906 0.014985664 0.045986354
-0.012255076 0.06259083 -0.08900265 0.063789345 -0.030601945 -0.023455989 0.011990248 -0.115499526
0.1399177 0.09574057 0.12607275 -0.022451932 -0.0015573534 -0.019773228 -0.11011641 0.296228
00000000: 4d92 64bc 994e 8d3d e1f6 4a3a 01f1 403c
00000010: 3708 b6bd 4bd9 f6bc b940 88bc b4d9 203d
00000020: ba48 8bbc c06e 70bd f593 79bd 8a78 c5bd
00000030: 1e73 dbbc 1040 f0bd 12c9 95bd 4346 88bc
00000040: 4a92 c43d 9b55 1f3d af9b 493e 902c b3bc
00000050: e6b4 453d a3d4 4cbc ab30 3f3e 04a8 853b
00000060: d3cc 14be 13e0 bcbc a533 11bd 1ae9 263d
00000070: 347a df3d e7b2 bcbd 4c48 aebd a6fc debd
00000080: 9c1e 11be 2911 80bd f13e 46be 2b13 1cbd
00000090: ccb1 883d 0c26 0d3e f52a 6d3d 0aca b9bd
000000a0: 51f5 35be 904f 03bc e9d4 203e a00d 3e3d
000000b0: cb65 723d 4d7b 573d bed8 ed3c e39d 0b3e
000000c0: c5f8 373e 0cdc 2abd 072d c0bb 64af 94bd
000000d0: d559 e7bc 3e9c 083e 4768 d33d 0a1b 9d3d
000000e0: 112b f9bb 0cbc 87bc 4fde de3d 9d9f 663d
000000f0: fcbb 27bc 6b1a 133d ba28 f5ba c340 033c
00000100: c755 443c 75a6 6f3d 1eb6 d43d 2fd1 ac3d
00000110: 8d57 353d 9d38 cfbc 63ac 983d a2af 233e
00000120: fb19 1a3e 65e1 a43c e945 af3d f908 1dbd
00000130: cbaa 493c 9a90 fa3b 266e 173e d2ba 5ebc
00000140: 4559 4abd ac9a be3d c49a bfbd aa9f 143f
00000150: de17 19be 6d90 403c 3861 febd 4d40 0abe
00000160: a6ca 8e3d a658 45be b406 723d 4e14 c43d
00000170: 3784 24bd 3c6c 79bd 41ea 153d 9e15 62bc
00000180: 9e19 a5bd 8326 a13d dcc0 99b9 43fc e6bc
00000190: 4e7f a53d 9b79 47bd f84f e23d 0db5 8abd
000001a0: cc15 25be d375 853d 5ab3 37be c3f7 9bbc
000001b0: b66e 63bd fcd2 093e eafe 82bd fd92 1f3e
000001c0: e91e 1c3e 5665 9fbc f95f 6bbd 0217 1fbe
000001d0: b60e b73d c8f9 7cbd 96d5 a8ba fd76 823d
000001e0: 384f 32be 16c3 9fbc a170 e83d aac8 073e
000001f0: cd93 373e ebc6 673d 79dd f9bb 6ab6 b0bd
00000200: 58e5 ecbd da1a 60be c48a 93be c49c 30be
00000210: 337b dd3d 4a3d b0bd d5a3 a6bd 4dae b23d
00000220: bd55 113e 44c6 083e d181 403c feff 65bd
00000230: 6c67 abbd 4f79 1c3e bd97 11bd 649d b8bd
00000240: 3a5d 8f3d e265 a63d 98b3 b73c 44fb 8fbc
00000250: 3d3b d7bd bbf6 e43d fb69 193e 42ff a73d
00000260: 4b4e 21be 7940 223d 8cd1 24bc 96f0 90bd
00000270: 1270 373d 6b74 2f3d 3eab 443d 86cd b1bd
00000280: ef90 413e f6ac 7b3d 50d5 403d 63e0 7c3c
00000290: b80d 7bbc 7173 d73d 888e d63c e1f5 683d
000002a0: 9709 0ebe dd06 3bbe 95ab 0c3d 04af fcb9
000002b0: c183 623c 110c e33d fa05 3c3e fda2 343e
000002c0: c51a 453e cee2 09bd afb5 363e 8957 183d
000002d0: 7b5e dfbc aa43 b13d 51aa 0abd cc41 62bd
000002e0: 9e97 bb3d 9a89 e83b 5e17 023e 3c4e f2bd
000002f0: 3e5f a2bd 1858 583d e2d9 b5bd 59bf 203e
00000300: f0f8 f2bb 5a3a 5a3c c671 193e 7640 5abd
00000310: afdc d2bc 9c9a 1b3d 0c55 013e d568 733b
00000320: 0c61 583d 7d5a 8a3d e4e6 d23d e3da 333c
00000330: 6564 eebd 0d9e 4c3b 311a ce3c 9480 013d
00000340: 40f0 9cbc bcb6 153e f0b4 f0bd 3b9e e33d
00000350: aae5 dfbd 5cd7 3f3e 2d4e 513c e1a0 b8bd
00000360: adf1 52be 3d68 74bc 6bf3 2d3d cec4 d43d
00000370: bcb5 43bd 95ba 15bd 08e5 42bd 2bdf 6cbd
00000380: 2dc3 36bd 6bac 093e d07e 0bbd b515 ac3a
00000390: 6a02 90bd a727 d53d 9ab3 bcbc aa6d 013d
000003a0: aef7 3dbc 2d57 c1bc 4781 8ebd 5e5f 4a3d
000003b0: 528a b23d 10e4 f23d 6e86 753c 305c 3c3d
000003c0: 84c9 48bc 9f2f 803d 0547 b6bd fda3 823d
000003d0: eeb0 fabc c626 c0bc bf72 443c 048b ecbd
000003e0: 9646 0f3e a213 c43d 3719 013e 1ded b7bc
000003f0: 1c20 ccba 77fb a1bc b684 e1bd 32ab 973e

fc1_adv.bias f4 [128]
0.27762425 0.08915763 -0.12470792 0.18799095 0.2226494 0.0859907 0.061045755 -0.08626118
-0.20802435 -0.020482957 -0.11401377 -0.09291258 0.18427718 -0.07602785 -0.0030722 0.21405621
0.022317383 0.089624695 -0.22574621 -0.050893072 0.054825492 0.033298373 0.038865272 -0.10522715
0.16265337 -0.10450332 -0.010009461 0.1285623 0.10629299 -0.063581765 -0.1984821 0.14470452
0.0700694 -0.06904767 0.13869159 -0.02669357 -0.07060738 -0.18050662 -0.009938505 0.033697702
0.017048728 0.2879328 -0.10620619 0.3020394 -0.023232238 -0.11254779 0.271558 -0.10780867
-0.06550797 0.1342716 0.060628936 -0.11937659 0.12949945 -0.094029136 0.03292345 0.15718308
-0.11975967 0.036388896 -0.015816372 -0.11753532 -0.050492696 0.12748297 0.016053328 -0.18086776
0.048242558 -0.0029853513 -0.080475904 -0.03348475 -0.07946163 0.06364188 0.046742234 0.03368972
0.15445802 -0.16537969 0.017266406 -0.0024874473 0.1953018 0.26433536 0.028659828 0.085394256
0.028999511 -0.056722738 -0.13316429 -0.10241626 0.19355007 0.067501426 0.061296538 0.05754476
-0.22030479 0.14830254 -0.07712822 0.038268726 0.10926759 -0.11674633 0.13368808 0.03539679
0.24573368 0.060762633 0.27250445 -0.1019474 0.07594179 -0.22405438 0.22549628 0.04242061
-0.12963966 0.15162109 -0.069900475 0.024799952 0.08253783 0.07391158 0.1739241 -0.07432646
-0.008645494 -0.097737916 0.23577696 0.23852852 0.05704021 0.32199875 -0.14253256 -0.11743184
-0.10478557 -0.059672028 -0.06867501 0.032365095 -0.09518733 0.29769427 0.09306854 -0.12934291
00000000: c424 8e3e 4798 b63d de66 ffbd b380 403e
00000010: 34fe 633e e41b b03d 1d0b 7a3d b4a9 b0bd
00000020: 5604 55be e0cb a7bc 0d80 e9bd f348 bebd
00000030: 28b3 3c3e 7db4 9bbd f756 49bb 8d31 5b3e
00000040: f2d2 b63c 278d b73d 042a 67be 4175 50bd
00000050: b290 603d e063 083d 3131 1f3d 5581 d7bd
00000060: 9b8e 263e d605 d6bd b9fe 23bc d6a5 033e
00000070: 24b0 d93d 2837 82bd e43e 4bbe 6c2d 143e
00000080: 8c80 8f3d dd68 8dbd 2b05 0e3e 79ac dabc
00000090: 9a9a 90bd bad6 38be 1cd5 22bc 9a06 0a3d
000000a0: c6a9 8b3c ee6b 933e a282 d9bd e9a4 9a3e
000000b0: 8951 bebc 757f e6bd a609 8b3e cbca dcbd
000000c0: 0b29 86bd 7f7e 093e 0c56 783d b77b f4bd
000000d0: 819b 043e 5992 c0bd bdda 063d 9af4 203e
000000e0: 8f44 f5bd 860c 153d 5691 81bc 5cb6 f0bd
000000f0: 6ed1 4ebd e58a 023e 4582 833c 6635 39be
00000100: fd99 453d e2a5 43bb 8dd0 a4bd 4e27 09bd
00000110: c7bc a2bd ad56 823d c974 3f3d 3bfe 093d
00000120: 3e2a 1e3e 4b59 29be 4772 8d3c 7104 23bb
00000130: 32fd 473e f756 873e 04c8 ea3c 2fe3 ae3d
00000140: 6290 ed3c 1a56 68bd 385c 08be 9ebf d1bd
00000150: fd31 463e 303e 8a3d 1412 7b3d 0eb4 6b3d
00000160: 9497 61be 9fdc 173e 66f5 9dbd abbf 1c3d
00000170: b0c7 df3d b318 efbd 87e5 083e 39fc 103d
00000180: 9ca1 7b3e 3de2 783d b485 8b3e ccc9 d0bd
00000190: 5f87 9b3d 836e 65be 7fe8 663e 3cc1 2d3d
000001a0: 42c0 04be 8f42 1b3e fb27 8fbd 4529 cb3c
000001b0: 9809 a93d f45e 973d 2919 323e 7938 98bd
000001c0: d4a5 0dbc d12a c8bd 846f 713e d240 743e
000001d0: ffa2 693d 05dd a43e 0ef4 11be 1b80 f0bd
000001e0: d199 d6bd a86a 74bd 7ca5 8cbd 4391 043d
000001f0: 93f1 c2bd 626b 983e b89a be3d 7872 04be

fc2_adv.weight f4 [128, 128]
-0.012418392 -0.009007306 0.103322126 -0.15616262 0.05815767 -0.13489804 0.046956442 0.11350785
0.13154535 0.062242173 0.045101102 0.02053082 -0.07618695 -0.115052275 0.17406186 -0.03240587
-0.07074656 0.009731318 0.1319525 0.08744857 0.116035305 0.06470121 0.013325132 0.12545528
0.07422226 0.028801164 0.14083973 -0.020981366 0.049183924 0.13485461 0.23726064 -0.31298736
0.07555946 -0.071297325 0.046557553 0.13294986 -0.079388626 0.076800436 0.043634243 -0.0064064707
-0.050734166 0.11202701 0.03207493 -0.032869082 -0.08031006 0.1610912 -0.01302388 -0.2592701
-0.18491744 0.08197304 0.017421376 -0.06495854 -0.16154216 0.042724457 0.03876838 0.021866916
0.18327482 0.074312165 -0.02205777 0.1242846 0.16945942 0.053027466 -0.0021674111 0.17089865
-0.15840052 -0.030046187 0.0024908006 -0.039515294 0.14314531 0.07147564 0.051462628 -0.06610252
-0.042806808 0.028112171 0.13228035 0.07661435 0.21162704 0.006039534 -0.06610146 -0.003936025
0.11760833 -0.031096525 0.032075547 0.09478507 -0.0047296933 -0.12386248 0.021915281 0.09908388
0.12687816 -0.005862248 0.13693991 -0.04709855 0.023008702 -0.14211339 0.1753718 0.0098551735
-0.026892705 0.09045936 0.055233434 0.06479361 -0.17612578 0.16218132 -0.022425745 -0.0592603
0.054317452 -0.06125479 -0.02349563 -0.067838505 0.13145582 0.0073036863 -0.32133156 -0.05621307
0.11351448 0.12342745 -0.05189894 0.060871195 -0.05355417 0.07103283 0.0715056 0.20873894
0.052736346 0.027223231 -0.06399595 -0.0059075267 0.12614807 -0.07310282 -0.033372547 0.061459213
-0.025895644 0.007497907 0.018620664 0.043509137 0.015466416 -0.0008282767 -0.11239211 -0.035662483
0.010700919 0.113109626 -0.022369117 -0.15087263 -0.12217059 0.12947556 -0.12522377 -0.07536548
0.10040529 0.10778978 0.043635648 -0.008372826 0.019179415 0.102767944 -0.12985852 0.021315044
-0.063568205 0.038901106 0.0031889577 -0.059048884 0.06311297 -0.08274743 0.11203698 -0.018231314
-0.040938362 0.081028834 -0.1282788 0.034917433 -0.060328275 0.0027037973 0.0025650694 0.030289855
-0.011364423 -0.022691885 0.04324352 0.012861578 0.12214781 0.04712176 -0.023683112 0.13441579
0.09408229 -0.018197887 -0.010158759 0.08407029 -0.19886953 -0.059014402 -0.005865875 -0.029458474
-0.0029308954 -0.09078239 0.07083767 0.079904765 -0.031666536 0.03474011 0.04885524 0.10283437
0.029230364 -0.017253231 0.033811953 -0.0067244614 -0.015656019 -0.018914303 -0.06940501 0.05769382
0.09458945 0.11642064 -0.022717196 0.12893742 -0.012590448 -0.07071022 0.06348335 0.08966697
-0.030971985 -0.001369716 0.100041196 0.096187346 -0.03889435 0.08293368 -0.18123855 -0.02008016
-0.046799347 -0.089746565 0.03906891 -0.09057355 0.06125204 0.04470183 -0.03334957 0.12607539
-0.046816666 -0.002548659 -0.020397633 0.13475241 -0.1649645 -0.038435657 -0.0010153126 0.0704318
-0.00549101 0.027203737 0.07215649 -0.0069857473 0.11602227 0.018906312 -0.23134795 0.115858845
0.086810865 -0.06040606 0.026920805 -0.12178018 0.080951385 -0.09037622 0.01191526 0.044961676
0.10641912 0.028634785 0.08749691 0.021301571 0.1239172 -0.112486415 0.039844006 -0.057622995
00000000: 8376 4bbc 6193 13bc 8d9a d33d 18e9 1fbe
00000010: bd36 6e3d b622 0abe 6655 403d ce76 e83d
00000020: d3b3 063e a6f1 7e3d efbb 383d 4030 a83c
00000030: e707 9cbd 87a0 ebbd 463d 323e 04bc 04bd
00000040: 93e3 90bd 1b70 1f3c 8e1e 073e 3c18 b33d
00000050: eba3 ed3d 1182 843d a851 5a3c 5977 003e
00000060: d701 983d 6bf0 eb3c 4a38 103e 1de1 abbc
00000070: 1575 493d 5417 0a3e 74f4 723e e13f a0be
00000080: ebbe 9a3d 5504 92bd 22b3 3e3d 0224 083e
00000090: 8196 a2bd 8c49 9d3d d2b9 323d 5fed d1bb
000000a0: a1ce 4fbd 6b6e e53d 0061 033d bba1 06bd
000000b0: 9a79 a4bd 17f5 243e 1d62 55bc 0dbf 84be
000000c0: ff5a 3dbe 7be1 a73d 46b7 8e3c fc08 85bd
000000d0: 4f6b 25be d7ff 2e3d 98cb 1e3d 3f22 b33c
000000e0: 65ac 3b3e fa30 983d 7fb2 b4bc ed88 fe3d
000000f0: c586 2d3e 5433 593d 200b 0ebb 0e00 2f3e
00000100: bf33 22be 6c23 f6bc b33c 233b cada 21bd
00000110: af94 123e d261 923d 7aca 523d c260 87bd
00000120: 3156 2fbd 7f4b e63c 8074 073e fce7 9c3d
00000130: c2b4 583e 49e7 c53b 3460 87bd c5f9 80bb
00000140: a3dc f03d 24be febc a661 033d ad1e c23d
00000150: 8bfb 9abb 9dab fdbd ad87 b33c 7dec ca3d
00000160: 59ec 013e 1a18 c0bb fa39 0c3e 69ea 40bd
00000170: bf7c bc3c 2c86 11be aa94 333e 9877 213c
00000180: 174e dcbc c242 b93d 743c 623d 83b2 843d
00000190: 515a 34be dc12 263e 32b6 b7bc eeba 72bd
000001a0: fa7b 5e3d 4de6 7abd e879 c0bc eaee 8abd
000001b0: 5b9c 063e c353 ef3b 9285 a4be ad3f 66bd
000001c0: 487a e83d 88c7 fc3d fc93 54bd 1354 793d
000001d0: 9e5b 5bbd a979 913d 8771 923d a9bf 553e
000001e0: 1102 583d 4103 df3c 4f10 83bd ed93 c1bb
000001f0: f62c 013e eeb6 95bd a7b1 08bd a8bc 7b3d
00000200: 1a23 d4bc 01b1 f53b 5d8a 983c a336 323d
00000210: da66 7d3c b520 59ba d62d e6bd d312 12bd
00000220: e852 2f3c 05a6 e73d 703f b7bc 5b7e 1abe
00000230: 9334 fabd 3e95 043e a93a 00be 3759 9abd
00000240: 4aa1 cd3d e3c0 dc3d 4bbb 323d 2d2e 09bc
00000250: 261e 9d3c 0078 d23d a2f9 04be e39c ae3c
00000260: 0c30 82bd c456 1f3d d5fd 503b 3edd 71bd
00000270: 5f41 813d 7c77 a9bd a573 e53d d659 95bc
00000280: fcae 27bd 72f2 a53d 855b 03be 9505 0f3d
00000290: c81a 77bd 3132 313b b91a 283b 6e22 f83c
000002a0: d831 3abc 55e4 b9bc 1e20 313d 5eb9 523c
000002b0: a228 fa3d bf02 413d 1603 c2bc 4ba4 093e
000002c0: 37ae c03d bc13 95bc ec70 26bc 0b2d ac3d
000002d0: 74a4 4bbe 16b9 71bd 8736 c0bb e652 f1bc
000002e0: 4414 40bb 1eec b9bd 5713 913d 1ca5 a33d
000002f0: c5b4 01bd a54b 0e3d 6f1c 483d d49a d23d
00000300: 8474 ef3c a656 8dbc 677e 0a3d df58 dcbb
00000310: 0d41 80bc 2bf2 9abc 3724 8ebd 5b50 6c3d
00000320: 1db8 c13d f26d ee3d 6a19 babc 2c08 043e
00000330: 2b48 4ebc 85d0 90bd 8f03 823d 51a3 b73d
00000340: f6b8 fdbc 0b88 b3ba 66e2 cc3d dffd c43d
00000350: af4f 1fbd 22d9 a93d 9996 39be 267f a4bc
00000360: acb0 3fbd 0ccd b7bd b906 203d a07e b9bd
00000370: 6be3 7a3d 4419 373d 8f99 08bd e819 013e
00000380: d5c2 3fbd 6707 27bb f018 a7bc 89fc 093e
00000390: 74ec 28be b56e 1dbd 3d14 85ba 8c3e 903d
000003a0: eeed b3bb 5fda de3c c8c6 933d b2e8 e4bb
000003b0: 159d ed3d 69e1 9a3c 7ae6 6cbe 6747 ed3d
000003c0: e5c9 b13d 586c 77bd 0589 dc3c e367 f9bd
000003d0: d7c9 a53d 2b17 b9bd 3938 433c bc29 383d
000003e0: 45f2 d93d 7f93 ea3c 9431 b33d a280 ae3c
000003f0: 4dc8 fd3d 475f e6bd 7833 233d 1706 6cbd

fc2_adv.bias f4 [128]
-0.049320646 0.022745388 0.0041319835 0.003252007 -0.013613523 0.046577256 0.096709564 0.11576189
0.0070046354 -0.01270241 -8.671346e-05 -0.05087543 0.08733765 -0.08284061 -0.1564688 -0.05275796
0.038673174 -0.008252007 -0.17100236 0.042270485 0.08656647 0.08136052 -0.08002587 -0.062267203
0.06865581 0.10104933 0.024181077 0.28131047 -0.0062678806 0.11261843 -0.13685764 0.07175667
-0.1361791 0.06091382 0.00796862 0.0009788723 0.024694437 -0.015441965 0.027180312 -0.019702977
-0.08666866 -0.0552408 0.10634745 0.057506096 -0.032847308 -0.0054977755 0.049107842 0.03299833
-0.061447524 -0.017099971 0.036090445 0.059565287 0.08871723 -0.1066503 -0.08686226 -0.049737696
0.09555751 -0.12674607 0.026206609 0.106138 -0.041528296 0.043735925 -0.07728881 -0.06647131
-0.09976241 -0.08192152 0.0655243 0.06388154 -0.05468881 -0.009343118 0.00016580052 0.026341114
0.24154648 0.104434185 0.031866904 0.087315895 -0.06695973 -0.108250916 0.021342475 0.025568698
0.043319993 0.032334026 0.16096067 0.06031603 0.025953596 0.043488123 -0.02761111 0.028957691
0.21787728 0.049420517 -0.108158305 -0.07836441 0.07654277 -0.00814528 0.035267897 -0.02332739
0.048597265 0.02764695 0.011721547 -0.06961185 -0.10923376 -0.046081614 0.036230605 0.06349876
-0.1110889 0.08568967 0.092368856 -0.0493856 -0.025254738 -0.10666681 0.04320088 -0.023866711
0.054208893 0.0305735 -0.00097004836 0.08505569 -0.06358446 0.10280839 -0.025419885 -0.12622367
-0.08170311 -0.009790887 -0.12143644 -0.0142872045 -0.057518817 -0.00046140843 -0.110245295 0.070628904
00000000: 7204 4abd 8954 ba3c 9765 873b a01f 553b
00000010: 410b 5fbc cbc7 3e3d aa0f c63d 9214 ed3d
00000020: 2487 e53b c51d 50bc efd9 b5b8 c162 50bd
00000030: 15de b23d 56a8 a9bd 5b39 20be bb18 58bd
00000040: c367 1e3d 6d33 07bc 3e1b 2fbe d123 2d3d
00000050: c349 b13d 58a0 a63d 9ae4 a3bd e50b 7fbd
00000060: 6b9b 8c3d f3f2 ce3d 6517 c63c ed07 903e
00000070: cb62 cdbb 7ea4 e63d 6924 0cbe 29f5 923d
00000080: 8972 0bbe c580 793d d18e 023c 814d 803a
00000090: fd4b ca3c 4c00 7dbc 3fa9 de3c 2368 a1bc
000000a0: 577f b1bd 2d44 62bd b1cc d93d 838b 6b3d
000000b0: e68a 06bd af26 b4bb 4e25 493d 4229 073d
000000c0: 66b0 7bbd 3d15 8cbc 93d3 133d bbfa 733d
000000d0: 61b1 b53d 796b dabd d7e4 b1bd c1b9 4bbd
000000e0: a8b3 c33d b9c9 01be 3eaf d63c e15e d93d
000000f0: 9319 2abd 7124 333d 9849 9ebd 1c22 88bd
00000100: 3c50 ccbd 78c6 a7bd 9b31 863d 53d4 823d
00000110: 6001 60bd e113 19bc bdda 2d39 52c9 d73c
00000120: f657 773e 97e1 d53d df86 023d add2 b23d
00000130: 2f22 89bd a8b2 ddbd 6ad6 ae3c 7275 d13c
00000140: 4e70 313d af70 043d e0d2 243e f10d 773d
00000150: a39c d43c 9a20 323d b230 e2bc ae38 ed3c
00000160: 391b 5f3e 2b6d 4a3d 1a82 ddbd 857d a0bd
00000170: 75c2 9c3d c873 05bc 1275 103d 1519 bfbc
00000180: ed0d 473d db7b e23c bb0b 403c a890 8ebd
00000190: f3b5 dfbd 13c0 3cbd 8b66 143d a30b 823d
000001a0: 9482 e3bd 117e af3d e22b bd3d 8e48 4abd
000001b0: 06e3 cebc 2174 dabd 68f3 303d 1f84 c3bc
000001c0: 250a 5e3d 4775 fa3c d84a 7eba ad31 ae3d
000001d0: 9238 82bd 358d d23d 5d3d d0bc c740 01be
000001e0: f653 a7bd f569 20bc abb3 f8bd e114 6abc
000001f0: da98 6bbd 31e9 f1b9 49c8 e1bd e3a5 903d

fc3_adv.weight f4 [2, 128]
0.33327174 -0.034823436 0.1791043 0.22085914 0.23021781 0.23922078 0.06239183 -0.12377605
0.097886056 -0.08507351 0.21355508 0.056568123 0.21122298 -0.2203628 -0.3265569 -0.18970326
0.16657037 0.20432965 -0.34783608 0.18168697 0.16847946 0.13227111 -0.04218153 -0.24298628
-0.035665683 0.1963333 -0.018432533 -0.69762164 0.14531812 0.16575204 -0.25567317 0.16994551
-0.27331328 0.2549983 0.06951564 0.0760128 0.2607592 0.088779055 0.20433508 0.18115988
0.18597168 0.23401673 -0.13387951 0.25034222 -0.0021494408 0.11878756 0.23302162 0.18544358
0.0768159 0.19684224 0.09147252 0.070173986 0.14678265 -0.3088199 -0.27731785 0.09929015
0.1690861 -0.26036158 -0.17978346 -0.07497892 0.27309462 0.09509307 -0.038993925 0.24732417
-0.2581277 -0.08130621 0.08762124 -0.23207234 -0.24601592 -0.15203783 0.0011784687 0.14066523
-0.7116526 0.08891012 0.18490992 0.16725934 0.15458079 -0.2041551 0.17857377 0.12762623
0.15036367 -0.21293946 -0.3486758 0.21776536 0.07631994 0.078709595 -0.19617239 0.14480464
-0.87658215 0.17270806 -0.26512823 -0.15676315 0.16717342 0.16026711 0.048658006 0.1586184
0.07781065 0.05303054 -0.1889153 -0.019169541 -0.21670076 -0.22431503 0.11993727 0.15581101
-0.1640674 0.072966896 -0.14384472 0.21972537 0.120791264 -0.2554109 0.14011171 0.15372762
0.19996187 0.17184417 0.10581815 0.21820602 0.11855445 0.10003518 0.19278148 -0.3230639
-0.05415103 0.1668518 -0.23186405 -0.034790363 -0.21084885 -0.21796155 -0.29985377 0.1266216
0.16654633 -0.20439193 0.18632902 0.14740226 0.13780507 -0.10739932 -0.14098893 -0.19626647
-0.0042512626 -0.20050362 0.092284374 0.0801994 0.16665538 -0.19786268 -0.2708108 -0.24002717
0.20795827 0.018218745 -0.3276482 0.1433862 0.17359082 0.13232563 -0.017861707 -0.12427555
0.112916276 0.18217263 0.2064476 -0.6914009 0.21374588 0.18609288 -0.22088091 0.20103066
-0.25491294 0.1719419 -0.19975974 0.18001415 0.19090484 0.1509763 0.083403446 0.16229834
-0.027950903 0.165176 -0.26102263 0.19428366 0.16798514 0.15792327 0.14143558 0.13415308
-0.27378199 0.12262443 0.13722003 -0.15397368 0.19475271 -0.2805492 -0.22198524 0.2642125
0.18482026 -0.10573199 0.06510313 -0.14319482 0.20340817 0.21761556 -0.054530665 0.26515913
-0.2751221 -0.030656528 -0.19026025 -0.14475965 -0.021434728 -0.23495035 -0.13358839 0.08675492
-0.72077507 0.22111571 0.12927818 0.18283674 -0.17826734 -0.27702323 0.22048709 0.16561778
0.21736428 -0.1027397 -0.42686582 0.26974344 0.17788668 0.23659316 -0.21309541 0.20505324
-0.8007736 0.15158118 -0.2585475 -0.25078213 0.17488895 -0.006560474 0.12194928 0.15092587
0.19331056 0.1745175 -0.2627498 -0.021501645 -0.2572653 -0.20563775 0.2320645 0.07904715
-0.22868763 0.13920182 0.13190484 0.0014388262 0.18525714 -0.18848038 0.164816 0.14215122
0.12898971 0.16620031 0.18353343 0.20383023 0.19995813 0.14932442 0.13153839 -0.25831023
0.18395077 0.26656085 -0.2683754 -0.076065734 -0.24731523 -0.2398116 -0.23922056 0.20472646
00000000: 98a2 aa3e 05a3 0ebd 1e67 373e e628 623e
00000010: 38be 6b3e 4bf6 743e 938e 7f3d 4c7e fdbd
00000020: 7c78 c83d 053b aebd 2fae 5a3e fab3 673d
00000030: d64a 583e c9a6 61be 7732 a7be 9241 42be
00000040: 6c91 2a3e cb3b 513e 9217 b2be 260c 3a3e
00000050: e185 2c3e 1472 073e 8ac6 2cbd 65d1 78be
00000060: 2e16 12bd 990b 493e d3ff 96bc 5597 32bf
00000070: 46ce 143e e7ba 293e 98e7 82be 3206 2e3e
00000080: b8ef 8bbe 238f 823e 375e 8e3d 99ac 9b3d
00000090: 3b82 853e cbd1 b53d 373d 513e fa81 393e
000000a0: 5c6f 3e3e 15a2 6f3e b617 09be db2c 803e
000000b0: a2dd 0cbb e446 f33d 389d 6e3e ece4 3d3e
000000c0: a851 9d3d 0391 493e f255 bb3d 61b7 8f3d
000000d0: 314e 163e a41d 9ebe 9bfc 8dbe a258 cb3d
000000e0: e824 2d3e 1d4e 85be 2819 38be 8c8e 99bd
000000f0: 0fd3 8b3e 28c0 c23d 18b8 1fbd 8c42 7d3e
00000100: 5029 84be df83 a6bd c472 b33d 5fa4 6dbe
00000110: 99eb 7bbe ceaf 1bbe d976 9a3a 8c0a 103e
00000120: dd2e 36bf 8216 b63d 0759 3d3e 0846 2b3e
00000130: 6d4a 1e3e 090e 51be 0bdc 363e 73b0 023e
00000140: eff8 193e cd0c 5abe a285 b2be e2fd 5e3e
00000150: a14d 9c3d 7f32 a13d 6ae1 48be ab47 143e
00000160: b067 60bf 62da 303e e3be 87be 8586 20be
00000170: 822f 2b3e 101d 243e 9e4d 473d dd6c 223e
00000180: 315b 9f3d 8d36 593d 0373 41be 7109 9dbc
00000190: cee6 5dbe d7b2 65be aca1 f53d ec8c 1f3e
000001a0: 4901 28be ab6f 953d 084c 13be b0ff 603e
000001b0: 6961 f73d 38c5 82be 7279 0f3e c66a 1d3e
000001c0: cec2 4c3e ebf7 2f3e 30b7 d83d 6671 5f3e
000001d0: adcc f23d 3fdf cc3d 8268 453e a268 a5be
000001e0: 78cd 5dbd 33db 2a3e c56d 6dbe 5780 0ebd
000001f0: c3e8 57be 5031 5fbe 6f86 99be 18a9 013e
00000200: 1f8b 2a3e 1e4c 51be 09cd 3e3e 9ef0 163e
00000210: c61c 0d3e 2df4 dbbd 675f 10be 14fa 48be
00000220: 2d4e 8bbb d250 4dbe 97ff bc3d 953f a43d
00000230: b5a7 2a3e 849c 4abe b7a7 8abe afc9 75be
00000240: 03f3 543e 7a3f 953c 81c1 a7be d5d3 123e
00000250: cbc1 313e 5f80 073e b752 92bc 2e84 febd
00000260: a640 e73d 768b 3a3e 0067 533e a6ff 30bf
00000270: 33e0 5a3e 228f 3e3e 9b2e 62be fbda 4d3e
00000280: f383 82be 8a11 303e d18d 4cbe a155 383e
00000290: 8f7c 433e 8899 1a3e 6dcf aa3d 8931 263e
000002a0: 4bf9 e4bc e623 293e c2a4 85be 4cf2 463e
000002b0: 4c04 2c3e a3b6 213e 7dd4 103e 6d5f 093e
000002c0: 272d 8cbe 8422 fb3d 6883 0c3e 47ab 1dbe
000002d0: 416d 473e 25a4 8fbe 1950 63be dc46 873e
000002e0: 8641 3d3e 038a d8bd ca54 853d aaa1 12be
000002f0: 3b4a 503e 9dd6 5e3e 8c5b 5fbd f0c2 873e
00000300: cedc 8cbe 6623 fbbc 95d3 42be e03b 14be
00000310: e297 afbc d396 70be 65cb 08be 90ac b13d
00000320: b784 38bf 286c 623e 8061 043e 8e39 3b3e
00000330: b78b 36be fdd5 8dbe 5ec7 613e b597 293e
00000340: be94 5e3e 3169 d2bd 288e dabe d01b 8a3e
00000350: ed27 363e 7a45 723e af35 5abe 7af9 513e
00000360: 80ff 4cbf 1938 1b3e 5760 84be 8466 80be
00000370: 1716 333e 3ff9 d6bb 8bc0 f93d 508c 1a3e
00000380: 34f3 453e b7b4 323e 2487 86be 3824 b0bc
00000390: 47b8 83be b492 52be 51a2 6d3e 79e3 a13d
000003a0: 172d 6abe ec8a 0e3e 1012 073e ff96 bc3a
000003b0: 0cb4 3d3e 0001 41be 87c5 283e 1790 113e
000003c0: e115 043e 6a30 2a3e 30f0 3b3e dfb8 503e
000003d0: d3c1 4c3e 80e8 183e 00b2 063e 3d41 84be
000003e0: 975d 3c3e aa7a 883e 8068 89be 5ac8 9bbd
000003f0: 3440 7dbe 2c91 75be 3cf6 74be d0a3 513e

fc3_adv.bias f4 [2]
0.07920262 0.06578635
00000000: fc34 a23d feba 863d
