src/nets/avoid_checkpoint300.pth (torch_old, 180515 bytes, 11 tensors)

fc1_val.weight f4 [128, 43]
0	0x3d301a32	0.04299373
1	0x3e87ae00	0.2649994
2	0x3d9fada3	0.077967905
3	0x3d957274	0.07297221
4	0x3daea4e3	0.085275434
5	0x3d8042a7	0.06262713
6	0x3df3b346	0.11899428
7	0xbe390771	-0.18069245
8	0xbe401f35	-0.18761905
9	0x3d02d3e5	0.03194036
10	0x3d911850	0.07084715
11	0xbd96faf1	-0.07372082
12	0x3e14da98	0.14536512
13	0xbdf4fe72	-0.11962594
14	0xbd9aed47	-0.07564788
15	0xbd2322a9	-0.039827976
16	0x3c13d1bc	0.009022173
17	0x3ddc0cd7	0.107446365
18	0x3b7ed8e1	0.0038886594
19	0x3d801ec3	0.06255867
20	0x3db77291	0.08957399
21	0xbd6f35b8	-0.05840084
22	0x3d7e36c3	0.062063944
23	0x3d822b78	0.06355947
24	0x3d8d4d00	0.06899452
25	0xbdb089c3	-0.08620026
26	0x3e05c257	0.13062416
27	0xbe07701d	-0.13226362
28	0xbd85ff54	-0.065428406
29	0xbd5c6f5b	-0.053817134
30	0xbae73000	-0.0017638206
31	0xbdaf8376	-0.08569996
32	0x3e03a6ac	0.12856549
33	0xbdd321fc	-0.103092164
34	0xbde3ddbf	-0.11126279
35	0xbd0e4c28	-0.034740597
36	0x3e15c357	0.14625297
37	0x3cf68fef	0.03009793
38	0xbca34472	-0.019930098
39	0x3d9d1caf	0.076714866
40	0x3e75f111	0.24017741
41	0x3e4621c9	0.19348826
42	0xbcada6ab	-0.021197638
43	0x3d6929f5	0.05692478
44	0x3d9e5d24	0.07732609
45	0xbdb1bb0e	-0.08678256
46	0x3e05611e	0.13025329
47	0xbd14ca5c	-0.036325797
48	0xbd743178	-0.05961749
49	0x3dc194fd	0.094522454
50	0xbe1c13f9	-0.15241994
51	0x3de0dd09	0.10979659
52	0xbdae77ae	-0.08518921
53	0x3c561bde	0.0130681675
54	0x3e21f8cd	0.15817566
55	0xbdcb7d00	-0.09935951
56	0x3d3b7715	0.045767862
57	0x3d9783c9	0.07398183
58	0xbd3c720d	-0.046007205
59	0x3ce70c6f	0.028204171
60	0xbd5c7453	-0.053821873
61	0xbd78e492	-0.060764857
62	0x3dde7334	0.10861817
63	0x3e2421b6	0.16028485
64	0x3d5335ef	0.051565107
65	0x3cab63bd	0.020921582
66	0xbc9d8205	-0.019227037
67	0xbdf2f9d7	-0.118640594
68	0xbdece0ce	-0.115663156
69	0xbb8fc221	-0.0043871556
70	0xbdd21665	-0.10258178
71	0x3d2d0599	0.042241666
72	0xbdf538dd	-0.119737364
73	0x3e2a17e3	0.16610675
74	0xbd3aae3c	-0.04557632
75	0x3dea6c87	0.11446481
76	0xbd8d6e3e	-0.06905793
77	0x3e093e26	0.13402614
78	0x3d032ad5	0.03202327
79	0xbd9148a1	-0.07093931
80	0xbcc22796	-0.023700517
81	0x3e1a8804	0.15090948
82	0x3d92d729	0.07169945
83	0x3db6ac0f	0.08919536
84	0xbe306893	-0.17227392
85	0xbdb871fb	-0.09006115
86	0xbe165278	-0.14679897
87	0xbca5ee89	-0.020255344
88	0xbe08feb7	-0.13378416
89	0x3a9fefaf	0.0012202169
90	0x3ca46cfe	0.020071503
91	0x3c09b5b4	0.008405138
92	0x3e3fd9c2	0.18735412
93	0xbd8dd566	-0.06925468
94	0xbdf995a3	-0.12186744
95	0xbcb2db5d	-0.021833116
96	0x3dc66254	0.09686723
97	0xbe801780	-0.2501793
98	0xbcb10729	-0.02160986
99	0x3e10d14f	0.14142345
100	0xbe2ae0c0	-0.16687298
101	0xbc6d5469	-0.014485457
102	0x3dd5d982	0.10441877
103	0xbd9da8ff	-0.07698249
104	0xbd396d23	-0.045270097
105	0x3d656d2a	0.05601231
106	0xbd089b58	-0.033351272
107	0xbb2e0eef	-0.0026559194
108	0xbe898736	-0.2686097
109	0x3d9b1ae7	0.075734906
110	0xbdf6d008	-0.120513976
111	0x3cde6f9f	0.027152834
112	0x3d4f78d0	0.050652325
113	0xbe24c903	-0.16092305
114	0xbcab11fb	-0.020882597
115	0xbe287dfe	-0.16454312
116	0xbc1f0d77	-0.0097078
117	0xbc94ee83	-0.018180138
118	0x3d512b62	0.051066764
119	0xbd011e4a	-0.031523027
120	0x3e0904f7	0.133808
121	0xbe381c05	-0.17979439
122	0xbdd18af1	-0.10231579
123	0xbe1b5a2b	-0.15171115
124	0x3dcd46fa	0.10023303
125	0x3e3144fc	0.17311472
126	0x3df7a9a2	0.12092902
127	0x3d81d291	0.063389905
128	0x3dd21592	0.102580205
129	0x3d7e60a8	0.062103897
130	0x3e19a2df	0.15003537
131	0xbe391ec5	-0.18078144
132	0x3d925712	0.071455136
133	0x3df0eb4f	0.117636316
134	0xbd75ed85	-0.06004097
135	0x3d84cd17	0.0648443
136	0xbda2c4c4	-0.07947686
137	0x3c9e2e7f	0.01930928
138	0xbd3668e5	-0.04453363
139	0xbd070af8	-0.032969445
140	0x3dfbea57	0.12300556
141	0xbd28756e	-0.041127615
142	0x3d76b481	0.060230736
143	0xbdf884e0	-0.12134719
144	0x3d4b30fb	0.04960726
145	0xbda9c636	-0.08289759
146	0xbc81af23	-0.015830582
147	0xbbcb2d4e	-0.006200469
148	0x3df85878	0.12126249
149	0x3de91fb6	0.113830015
150	0x3e19d903	0.1502419
151	0xbe25b8f5	-0.16183837
152	0xbd80d0bf	-0.06289815
153	0xbc34d350	-0.011036709
154	0x3deeaed4	0.116544396
155	0x3d75aa9b	0.059977155
156	0xbd29a898	-0.04142055
157	0x3dd5acc6	0.104333445
158	0x3c73046f	0.0148326
159	0x3e1df128	0.15424025
160	0xbe047467	-0.12935029
161	0x3d892f72	0.066985026
162	0xbdd28080	-0.10278416
163	0xbe166f9a	-0.1469101
164	0xbe281e51	-0.16417815
165	0x3dae5cab	0.08513769
166	0x3d48e187	0.049043205
167	0x3d8d37c4	0.06895402
168	0x3d574be4	0.05256261
169	0x3e8a6649	0.27031162
170	0xbd211422	-0.03932584
171	0x3ba05848	0.0048933364
172	0xbd817b50	-0.06322348
173	0x3e7761f3	0.24158458
174	0x3d989d16	0.07451837
175	0x3e42897b	0.18997757
176	0x3cbbe8b2	0.022938106
177	0x3e154e8f	0.14580749
178	0x3df01fc6	0.1172481
179	0x3e17ca12	0.14823177
180	0x3dd51557	0.10404461
181	0xbe10ded5	-0.14147504
182	0x3e2b073b	0.16701977
183	0x3dae0ca8	0.08498508
184	0xbc1b5645	-0.0094810175
185	0xbcdae6c1	-0.02672136
186	0xbdce9402	-0.10086824
187	0xbcd8b9ef	-0.026455848
188	0xbd5ed876	-0.054405652
189	0x3d2c6db9	0.042096827
190	0x3e249051	0.16070677
191	0xbdb7bdc9	-0.089717455
192	0x3b6f3b50	0.003650386
193	0xbd8e7107	-0.06955152
194	0xbe14b5b8	-0.14522445
195	0xbcc57c6b	-0.024107179
196	0x3c9aa1f7	0.018876059
197	0x3d8e2f3c	0.06942603
198	0x3deb9caf	0.115044944
199	0x3dd4cade	0.10390256
200	0xbc12deca	-0.00896425
201	0x3dbe8bbd	0.09303997
202	0x3d09ed90	0.033673823
203	0xbd6d1f3b	-0.05789111
204	0xbd329861	-0.04360235
205	0x3dfe8dfc	0.12429425
206	0xbdf3ec79	-0.11910338
207	0x3ddd7db9	0.10814995
208	0xbe1ab391	-0.15107562
209	0xbe19e554	-0.15028888
210	0xbd9d0a2c	-0.07667956
211	0x3e063328	0.13105452
212	0x3d4abc70	0.049496114
213	0xbcb3c93f	-0.021946548
214	0xbdd684c6	-0.10474543
215	0x3e1a920c	0.15094775
216	0x3e18d73d	0.14925857
217	0xbe298866	-0.16555938
218	0x3d56fbab	0.052486103
219	0xbd4c7fee	-0.04992669
220	0x3dc3724a	0.09543283
221	0xbcafd16e	-0.021462169
222	0xbdac3e87	-0.08410364
223	0x3d46f0f1	0.048569623
224	0xbe072dc7	-0.13201056
225	0x3c97f49e	0.01854926
226	0x3d91cda8	0.07119304
227	0xbd9efc85	-0.07763008
228	0xbc0fe7f6	-0.008783331
229	0x3d1ddd47	0.038541105
230	0xbde622a3	-0.11237075
231	0xbdc2d136	-0.0951256
232	0xbdafa027	-0.085754685
233	0x3d9be56e	0.076121196
234	0x3bc5c566	0.0060354946
235	0xbdc2eba1	-0.09517599
236	0x3dc65196	0.0968353
237	0x3dc96481	0.09833623
238	0x3d95aac2	0.0730796
239	0xbd6264ef	-0.05527204
240	0x3d8d08be	0.06886433
241	0xbd110e49	-0.035414014
242	0x3ceb51f9	0.028725611
243	0x3db903d9	0.09033937
244	0xbdefe66a	-0.1171387
245	0x3d1485c6	0.03626039
246	0x3dd6c00f	0.10485851
247	0xbcb1be9d	-0.021697337
248	0x3d63396c	0.055474684
249	0xbd68dca8	-0.05685106
250	0xbc48e1f0	-0.012260899
251	0x3da2416f	0.07922637
252	0xbcc23792	-0.023708139
253	0xbba6a0e2	-0.0050850967
254	0xbd13849c	-0.036015138
255	0x3e82d433	0.2555252

fc1_val.bias f4 [128]
0	0x3e1cd555	0.15315755
1	0x3d81ac69	0.06331713
2	0xbdc37aa8	-0.09544879
3	0x3d77c1b2	0.060487457
4	0x3e627ff4	0.22119123
5	0x3cec0297	0.028809829
6	0x3e1ff364	0.1562019
7	0x3e53ba3c	0.20676512
8	0xbe0cc414	-0.13746673
9	0x3dacff1e	0.08447097
10	0xbe4dfa55	-0.20115025
11	0x3d6c8257	0.05774149
12	0x3e22cff5	0.15899642
13	0xbdfc564e	-0.12321149
14	0x3bd101bb	0.00637838
15	0xbe34b14e	-0.17645761
16	0x3e7e4fd0	0.24835134
17	0x3d63ae7b	0.05558632
18	0x3e780936	0.24222264
19	0x3d1be899	0.03806362
20	0x3e0982b0	0.1342876
21	0xbd669b21	-0.056300286
22	0xbd45e94e	-0.0483182
23	0x3dfaf3ca	0.1225353
24	0x3e68520a	0.22687545
25	0x3e37720d	0.179146
26	0xbdb4068d	-0.08790312
27	0x3e30c27d	0.17261691
28	0x3e6e69ce	0.23282549
29	0x3d08661c	0.033300504
30	0x3c4d9123	0.01254681
31	0x3e0aeebc	0.13567632
32	0x3c469829	0.012121239
33	0x3e3ea467	0.18617402
34	0x3ccce91b	0.025013497
35	0x3def5204	0.11685565
36	0x3c276aca	0.010218332
37	0x3d30e2af	0.043184932
38	0x3bc318f0	0.0059539005
39	0x3e14476f	0.14480375
40	0x3c2d6077	0.010582081
41	0x3d388c2a	0.045055546
42	0x3e236690	0.15957093
43	0x3e684bbb	0.22685139
44	0x3dcd48e7	0.10023671
45	0xbb4bef5a	-0.0031118006
46	0xbe075eb1	-0.13219716
47	0x3d3d049c	0.046146974
48	0x3e72e865	0.23721464
49	0x3e90d1c1	0.2828503
50	0x3e2222ae	0.15833542
51	0x3d109c53	0.035305332
52	0x3e5c8459	0.21534862
53	0x3e662d57	0.22478233
54	0x3e65e05f	0.22448872
55	0xbe07b784	-0.132536
56	0x3ddfcae1	0.10927368
57	0x3d205055	0.03913911
58	0x3d253a52	0.04033882
59	0xbdc06a90	-0.09395325
60	0xbbbd841c	-0.005783571
61	0xbdb9aaba	-0.09065767
62	0x3ccbb9eb	0.024868926
63	0x3e515dff	0.20446013
64	0x3c4d5a4e	0.012533737
65	0x3e58963c	0.2115106
66	0x3e614e84	0.22002608
67	0x3e80d0c2	0.2515927
68	0x3e62dd74	0.2215479
69	0x3c8ae938	0.01695691
70	0x3d450ecc	0.048109815
71	0x3d78c93c	0.060738787
72	0x3e66db22	0.2254453
73	0xbc781c99	-0.015143537
74	0x3e959291	0.29213384
75	0x3e1d0214	0.15332824
76	0x3e19812b	0.1499068
77	0xbe46e413	-0.19422941
78	0x3da4daec	0.080495685
79	0x3e923c0a	0.2856143
80	0x3b99d2df	0.0046943272
81	0x3d85c283	0.06531241
82	0x3e51c2de	0.20484492
83	0xbdf37ba7	-0.11888819
84	0xbd0a4989	-0.033761535
85	0x3e071500	0.13191605
86	0x3e4fc440	0.20289707
87	0x3e8f9311	0.2804189
88	0x3d84f0ed	0.064912654
89	0x3e68f3ef	0.22749303
90	0x3e3c2a48	0.18375504
91	0x3bb5e399	0.0055508134
92	0xbcef038a	-0.029176492
93	0x3e5bcf55	0.2146581
94	0x3d87991e	0.06621002
95	0xbdbc3b30	-0.091909766
96	0x3ddc49d4	0.10756269
97	0x3c92b79c	0.017909817
98	0x3e2045dd	0.1565165
99	0x3df6ce1f	0.12051033
100	0x3e12f1d7	0.14350067
101	0x3d2e29de	0.042520396
102	0xbe21882d	-0.15774603
103	0x3e53b492	0.20674351
104	0x3e069df5	0.13146193
105	0xbcccc461	-0.024995985
106	0x3e03ae26	0.12859401
107	0x3cf17a59	0.029477285
108	0x3d03e76e	0.03220313
109	0x3e27d657	0.16390358
110	0x3e396505	0.18104942
111	0x3e07a5ef	0.13246892
112	0x3e671f93	0.22570638
113	0x3e6bbe53	0.23021822
114	0xbc7bfcf7	-0.015380136
115	0x3e8705f2	0.26371723
116	0xba915e57	-0.0011090738
117	0x3e3d6d02	0.18498614
118	0x3e661613	0.22469358
119	0x3e1f85cb	0.15578382
120	0xbde8542f	-0.11344182
121	0x3e44e9b7	0.1922978
122	0x3e346cc0	0.1761961
123	0x3e012dae	0.12615082
124	0xbc3782f1	-0.011200652
125	0x3c45e032	0.012077378
126	0x3b86f0c1	0.0041180556
127	0x3dd17c66	0.10228805

fc2_val.weight f4 [128, 128]
0	0x3e45a88a	0.19302574
1	0x3da66b85	0.081259765
2	0x3c498ac6	0.012301153
3	0x3e3d6259	0.18494548
4	0x3de732e5	0.11289004
5	0x3e490a4a	0.19632831
6	0x3e0adb29	0.13560165
7	0x3e06c35c	0.13160461
8	0xbe517ea0	-0.2045846
9	0x3ddd5517	0.10807245
10	0xbd87de08	-0.06634146
11	0x3dfe98ce	0.12431489
12	0x3d8bdedd	0.06829617
13	0x3e3554b7	0.17708097
14	0x3e0120d7	0.12610184
15	0xbd99b4a0	-0.075051546
16	0x3e419938	0.18906105
17	0x3e009ca1	0.12559749
18	0x3db931d2	0.090427056
19	0x3e36bddb	0.17845862
20	0x3e5d3d32	0.21605375
21	0x3e35b328	0.17744124
22	0x3e3d7ceb	0.18504684
23	0x3d9bf24c	0.07614574
24	0x3dc80e0d	0.09768305
25	0x3d8134bb	0.06308886
26	0xbe0dd3f3	-0.13850383
27	0x3e1a06fb	0.15041725
28	0x3e2b0f0c	0.16704959
29	0x3e18541d	0.14875837
30	0x3dfe006e	0.12402426
31	0x3e5cdf5e	0.21569583
32	0x3dde3a81	0.108510025
33	0x3dde3cff	0.10851478
34	0x3e18322c	0.14862889
35	0x3e3ee525	0.18642099
36	0x3b5eb83d	0.0033984326
37	0xbdc00b46	-0.0937715
38	0x3e2c61ad	0.16834135
39	0x3e3f0a0b	0.18656175
40	0x3e856f30	0.26061392
41	0x3e08752d	0.13325949
42	0x3ea9ea16	0.33186406
43	0x3e1c0921	0.15237857
44	0x3d8635e8	0.065532506
45	0x3e812359	0.2522228
46	0x3d3e2dfa	0.046430565
47	0x3e23db47	0.16001616
48	0x3e2fb557	0.1715902
49	0x3da83956	0.08214061
50	0x3d84bb73	0.064810656
51	0x3e1e58f3	0.15463619
52	0x3e00d4d6	0.1258119
53	0x3d0b5b7f	0.034022804
54	0x3ce35cfb	0.027754297
55	0xbd84b316	-0.064794704
56	0x3e661bd3	0.22471552
57	0x3dde03c8	0.10840565
58	0x3e064c06	0.13114938
59	0x3e507790	0.2035811
60	0xbe039c8f	-0.12852691
61	0xbd153962	-0.036431678
62	0x3d3da901	0.046303753
63	0x3d43043c	0.04761146
64	0x3e44d9c8	0.19223702
65	0x3e1fc1e6	0.1560131
66	0x3df39c26	0.11895017
67	0x3db2ba58	0.087269485
68	0x3d587ca2	0.052853234
69	0x3d0dbda8	0.0346047
70	0xbd1cf4ca	-0.038319387
71	0x3cba5c07	0.02274896
72	0x3dfed6bc	0.12443301
73	0x3e3c55fd	0.18392177
74	0x3f3c8aed	0.73649484
75	0x3e2ca525	0.16859873
76	0x3e0965a7	0.13417684
77	0xbe16c5d0	-0.14723897
78	0x3e6ebb0d	0.23313542
79	0x3cd6f986	0.026242029
80	0x3de1a002	0.11016847
81	0x3d89b016	0.06723039
82	0x3e07f5d6	0.13277373
83	0xbddf9fa4	-0.10919121
84	0x3e42678b	0.18984811
85	0x3d1512ff	0.03639507
86	0x3e25ddb2	0.16197851
87	0x3e05ad40	0.13054371
88	0xbe55035a	-0.2080206
89	0x3e2a9689	0.16658987
90	0x3e2f60d7	0.17126785
91	0x3e247650	0.16060758
92	0x3e0dbf0e	0.13842413
93	0x3e3492d2	0.17634133
94	0xbd455504	-0.04817678
95	0xbde6670b	-0.11250123
96	0x3e42a17f	0.19006918
97	0x3e4dd665	0.20101316
98	0x3d35ad40	0.044354677
99	0x3ddf7140	0.109102726
100	0x3d1ee2cc	0.03879051
101	0x3d9604ce	0.07325135
102	0xbcd6c482	-0.02621675
103	0x3de0dd66	0.109797284
104	0x3c6a7ea8	0.014312424
105	0x3d8c8f1b	0.06863233
106	0x3c424c28	0.011858977
107	0x3e2306e0	0.15920591
108	0x3ed8dd25	0.4235622
109	0x3e08a522	0.13344243
110	0x3e09d778	0.13461101
111	0x3eeb5cf2	0.4596935
112	0x3d01e14a	0.031708993
113	0x3e57ad23	0.2106214
114	0x3da27f83	0.07934477
115	0x3d44a109	0.048005138
116	0x3e2ad742	0.16683677
117	0x3d78dc0d	0.06075673
118	0x3da74579	0.08167548
119	0x3ddf2f40	0.10897684
120	0x3e71ff2b	0.23632495
121	0x3dabcf76	0.083891794
122	0x3de4f105	0.11178783
123	0x3ddcf25f	0.10788416
124	0x3d1db20d	0.03849988
125	0x3e42b671	0.19014908
126	0x3f32af13	0.6979839
127	0x3ca94654	0.020663418
128	0x3d91e38f	0.071234815
129	0x3dd51f7f	0.10406398
130	0x3e027427	0.12739621
131	0x3db9f274	0.090794474
132	0x3dff84e6	0.1247652
133	0x3dfadb9e	0.1224892
134	0x3d5a406a	0.053284086
135	0x3d35b760	0.044364333
136	0xbe2ef71a	-0.1708645
137	0x3dcc83ef	0.09986102
138	0xbd84377d	-0.06455896
139	0x3e3f8e89	0.18706717
140	0x3ca28c1d	0.019842202
141	0x3e7c7d7c	0.24657243
142	0x3e1cd46f	0.15315412
143	0xbd4293a3	-0.04750408
144	0x3dd7ebf7	0.105430536
145	0x3dd467be	0.1037135
146	0x3d452dbe	0.048139326
147	0x3d0e2fe4	0.03471364
148	0x3defd819	0.11711139
149	0x3e46f5b3	0.19429664
150	0x3e464fb7	0.19366346
151	0x3ccdbc12	0.025114093
152	0x3e15dc98	0.14634931
153	0x3e2d4631	0.16921307
154	0xbcd9b7df	-0.026576934
155	0x3e0ada91	0.13559939
156	0x3db04c0a	0.08608253
157	0x3de0c78f	0.10975563
158	0x3dd59d28	0.10430366
159	0x3e6d91ac	0.232001
160	0x3e1a0ade	0.15043208
161	0x3e386a5b	0.18009321
162	0x3e0e3331	0.13886715
163	0x3e187189	0.1488706
164	0x3da24fe7	0.079253964
165	0xbe40d784	-0.18832213
166	0x3e540be6	0.20707664
167	0x3cb79f82	0.022414926
168	0x3e4138f2	0.18869379
169	0x3e6842d2	0.2268174
170	0x3eb18d5e	0.34678167
171	0x3e2a780f	0.16647361
172	0x3d957840	0.072983265
173	0x3e8324bd	0.25613967
174	0x3cb4d5b6	0.022074562
175	0x3e0164fe	0.12636182
176	0x3e24e517	0.16103016
177	0x3dda43bc	0.106574506
178	0x3e0f47d8	0.1399225
179	0x3c2b545d	0.0104571255
180	0x3daa2aca	0.083089426
181	0x3b0b14ab	0.0021222036
182	0x3e1dcd03	0.15410237
183	0xbddd50c9	-0.10806424
184	0x3e2e7f06	0.17040643
185	0x3d3366d8	0.04379925
186	0x3e629ebb	0.22130863
187	0x3e63f8a8	0.22262824
188	0xbe10e14c	-0.14148444
189	0x3d95d78b	0.07316502
190	0x3d9cd750	0.07658255
191	0x3e29f6ba	0.16598025
192	0x3d4d2dbd	0.050092448
193	0x3e1079c9	0.14108957
194	0x3e0db01f	0.13836716
195	0x3de6ef67	0.11276131
196	0x3d43dc75	0.047817666
197	0x3dd631f1	0.10458744
198	0x3c8cba7a	0.017178763
199	0x3de301f8	0.1108436
200	0x3e27d339	0.16389169
201	0x3df02bb1	0.117270835
202	0x3f450f2d	0.7697628
203	0x3daa8282	0.08325674
204	0x3d7753bf	0.0603826
205	0xbe51275d	-0.20425172
206	0x3e3e7f32	0.18603209
207	0x3c8acd90	0.016943723
208	0x3dc76f26	0.09737997
209	0x3dd20c6a	0.10256274
210	0x3c3c48e9	0.0114919925
211	0xbe0c5b97	-0.13706814
212	0x3e2af7e7	0.1669613
213	0x3dd36fda	0.10324068
214	0x3d7800af	0.060547527
215	0x3da1b79c	0.07896349
216	0xbdea5f13	-0.11443915
217	0x3dd8d9f0	0.10588443
218	0x3d2b4f18	0.041823477
219	0x3d46931d	0.048480142
220	0x3e0eb5ee	0.13936588
221	0x3e5fe8b5	0.21866114
222	0xbde58807	-0.11207586
223	0xbda911af	-0.08255326
224	0x3dc8d47a	0.09806152
225	0x3e792379	0.24329938
226	0x3dc1f990	0.094714284
227	0x3dc65279	0.09683699
228	0x3e16acbb	0.14714329
229	0x3e2fe171	0.17175843
230	0xbd1f65fb	-0.038915616
231	0x3dfc3f32	0.12316741
232	0x3d4728b5	0.048622806
233	0x3dad58cd	0.08464203
234	0x3dd3a87e	0.10334872
235	0x3e17f5c7	0.1483985
236	0x3edeb6c1	0.43498805
237	0x3e3a2be9	0.18180813
238	0x3dd9adc0	0.10628843
239	0x3f0c1f9e	0.54735744
240	0x3da740bd	0.08166645
241	0x3e1614a2	0.14656308
242	0x3d9075a3	0.070536874
243	0x3dcb4a5a	0.09926291
244	0x3d54ccb4	0.051953033
245	0x3e005440	0.12532139
246	0x3e4bd350	0.19904828
247	0x3da2ea7c	0.079548806
248	0x3da0aac7	0.07845073
249	0x3ccc5747	0.02494396
250	0x3df4a739	0.11945958
251	0x3e1a727f	0.1508274
252	0x3bc95816	0.006144534
253	0x3de4f99c	0.11180422
254	0x3f131ecc	0.5746887
255	0x3e29ee80	0.16594887

fc2_val.bias f4 [128]
0	0x3dd815a2	0.10551001
1	0x3e32a9be	0.17447564
2	0x3e062b3b	0.13102429
3	0x3ccc2495	0.024919787
4	0x3d0e4665	0.034735102
5	0x3e24cf4e	0.16094705
6	0x3e04daf3	0.12974147
7	0x3d4ff3ec	0.05076973
8	0x3d803d26	0.06261663
9	0x3cadda1b	0.021222165
10	0x3e58b39c	0.21162266
11	0x3d93e76c	0.072218746
12	0x3da895e0	0.082317114
13	0xbcae955e	-0.021311458
14	0xbd970ab8	-0.07375091
15	0xbdc11aed	-0.09428964
16	0x3e446f84	0.19183165
17	0xbd56d3e8	-0.052448183
18	0x3de8f240	0.113743305
19	0x3d18b62f	0.03728312
20	0x3e1d31ef	0.1535108
21	0x3e14aea6	0.14519748
22	0x3d7852c4	0.060625806
23	0xbcf8e755	-0.030383745
24	0x3e074419	0.13209571
25	0x3c8b2f79	0.01699041
26	0x3da4eeb9	0.08053345
27	0x3aee9a76	0.0018203992
28	0x3e2774ea	0.16353193
29	0x3cdd93e1	0.027048053
30	0x3e0739ed	0.1320569
31	0xbcb2f765	-0.021846483
32	0x3db306a7	0.08741503
33	0x3e2f1899	0.17099227
34	0x3db89c38	0.09014171
35	0xbbeeea5e	-0.0072911223
36	0x3df962fe	0.121770844
37	0x3db2aea2	0.08724715
38	0xbc964b39	-0.018346416
39	0xbc937f03	-0.0180049
40	0x3e11c986	0.14237031
41	0x3d8e55c7	0.069499545
42	0x3e489a98	0.19590223
43	0x3db94382	0.09046079
44	0x3c4f4635	0.012651016
45	0x3e46ec43	0.19426064
46	0xbd7b55c3	-0.061361086
47	0x3d38b2ed	0.045092512
48	0xbd68e3c2	-0.05685783
49	0xbb4f3db0	-0.0031622462
50	0x3bb348d7	0.0054713297
51	0x3e0273b8	0.12739456
52	0xbd009a3f	-0.0313971
53	0x3da09f62	0.078429
54	0x3e3aa4f2	0.18226984
55	0x3e20216d	0.15637751
56	0x3c96ed2c	0.01842364
57	0x3e1d3fce	0.15356371
58	0xbd9dad9e	-0.076991305
59	0x3d437750	0.047721207
60	0x3dce2cae	0.10067116
61	0x3db75f1d	0.08953688
62	0xbd9074dc	-0.07053539
63	0x3dc35598	0.0953781
64	0x3d43e825	0.047828812
65	0x3e1ab466	0.15107879
66	0x3e0f4d34	0.13994294
67	0x3db94f91	0.09048379
68	0x3e332025	0.17492731
69	0xbc52c59c	-0.012864497
70	0x3b9a2119	0.0047036526
71	0x3dd7f031	0.1054386
72	0x3d921233	0.071323775
73	0x3d7c1eee	0.061552934
74	0x3d677fe6	0.056518458
75	0x3d92a152	0.07159676
76	0x3e3889f2	0.18021372
77	0xbd07631b	-0.0330535
78	0x3c58a194	0.013222117
79	0xbdaa56fd	-0.08317373
80	0xbd84710e	-0.06466876
81	0xbd23514a	-0.039872445
82	0x3ddfca20	0.10927224
83	0x3d25f086	0.040512584
84	0x3dc681b3	0.09692707
85	0xbd07ca93	-0.033152174
86	0x3d8c7f45	0.06860212
87	0x3e23622a	0.15955415
88	0xbd6a0128	-0.05713001
89	0xba39fbc8	-0.0007094708
90	0x3d9a040b	0.075203024
91	0x3d85d63c	0.065350026
92	0x3d994a03	0.0748482
93	0x3d88929c	0.066685885
94	0xbc93e0f9	-0.018051611
95	0x3d9e85d0	0.077403665
96	0x3e3153f6	0.17317185
97	0xbcd36ec6	-0.025809657
98	0x3d4473c3	0.04796196
99	0x3de7065b	0.11280509
100	0x3e09256e	0.13393185
101	0x3e246692	0.16054752
102	0x3e47f1ae	0.19525787
103	0x3e1bd615	0.15218385
104	0x3d88a188	0.06671435
105	0x3a146f88	0.00056623714
106	0x3e12441d	0.14283796
107	0x3dc42529	0.095774
108	0x3e0e4566	0.13893661
109	0x3df582fd	0.11987875
110	0x3de410fa	0.111360505
111	0xbdb70578	-0.0893659
112	0x3e340f5c	0.17583984
113	0xbd4876a1	-0.04894126
114	0x3d76f851	0.060295407
115	0xbd80c5be	-0.06287716
116	0x3e503df0	0.20336127
117	0xbc47b45d	-0.012188998
118	0x3e02af96	0.12762293
119	0x3e08a609	0.13344587
120	0x3ccefb82	0.025266413
121	0xbd91ea41	-0.071247585
122	0xbd26ad52	-0.040692635
123	0xbd4fe0fd	-0.050751675
124	0xbd1845d3	-0.037175965
125	0x3d7c7aac	0.061640427
126	0x3d3fa014	0.04678352
127	0x3d5c3e9b	0.053770643

fc3_val.weight f4 [1, 128]
0	0xbe1f61d0	-0.15564656
1	0xbe1c6bd6	-0.15275511
2	0xbe39b2f5	-0.18134673
3	0xbe3ab982	-0.18234828
4	0x3e50dcfb	0.20396797
5	0xbe4fe3d3	-0.20301752
6	0xbe1b5869	-0.15170445
7	0x3ecc1e34	0.39866793
8	0x3e714c33	0.23564224
9	0x3ec70670	0.388721
10	0xbe1bb607	-0.15206157
11	0x3e9b1a3b	0.3029345
12	0xbe4415f6	-0.19149002
13	0xbbbeb46c	-0.005819848
14	0xbe866dc2	-0.26255614
15	0x3ea677ee	0.32513374
16	0xbe647162	-0.22308877
17	0x3eae3a25	0.34028736
18	0xbe24a019	-0.16076697
19	0x3e838a28	0.25691342
20	0xbe538bba	-0.2065877
21	0xbe73b313	-0.2379878
22	0xbe075b62	-0.13218454
23	0x3ebaa59a	0.3645447
24	0xbe53b0dc	-0.20672935
25	0x3e8c7117	0.2743003
26	0xbe7ef119	-0.24896659
27	0x3e9c893f	0.3057346
28	0xbe509d94	-0.20372611
29	0x3f033eb7	0.5126757
30	0xbe5fd3b7	-0.21858107
31	0x3f018518	0.5059371
32	0xbe36553f	-0.17805956
33	0xbe1ee165	-0.15515669
34	0xbe4ac9e5	-0.19803579
35	0x3ead2ace	0.3382172
36	0xbe398a29	-0.1811911
37	0xbe26262c	-0.16225499
38	0x3eacca4b	0.33748087
39	0x3ef936fd	0.48674765
40	0xbe3927f6	-0.1808165
41	0x3ea203ef	0.31643626
42	0xbe4050ef	-0.18780874
43	0x3e4edcf9	0.20201482
44	0x3ebe0fcc	0.37121427
45	0xbe4b58f7	-0.19858156
46	0x3e97f690	0.296803
47	0x3e75a62c	0.23989171
48	0x3ea0c64c	0.31401289
49	0x3ebd28e5	0.36945263
50	0xbd27afd3	-0.040939163
51	0xbe49518c	-0.19660014
52	0x3eaf34de	0.34220022
53	0xbe3fee30	-0.18743205
54	0xbe4dad9f	-0.20085762
55	0xbe84431b	-0.25832447
56	0x3efd4b25	0.49471393
57	0xbe718be6	-0.23588523
58	0x3ee1134a	0.4396003
59	0x3e888677	0.2666509
60	0xbe54556f	-0.20735715
61	0xbe3c6fd7	-0.18402039
62	0x3ea53402	0.3226624
63	0xbe824cf3	-0.25449333
64	0x3ebff318	0.37490153
65	0xbe63e728	-0.22256148
66	0xbe683407	-0.22676097
67	0x3ec56a5c	0.38557708
68	0xbe24fbb4	-0.16111642
69	0x3ebfffdc	0.37499893
70	0x3f09fda3	0.53902644
71	0xbe3bc460	-0.1833663
72	0xbe865edf	-0.26244256
73	0xbe7c5ab3	-0.24643974
74	0x3ea7dce2	0.32785708
75	0x3eb985d0	0.36234903
76	0xbe2aac9b	-0.16667406
77	0x3ece741c	0.4032296
78	0x3ed00e89	0.4063609
79	0x3ecb70fa	0.39734632
80	0x3eb01521	0.3439112
81	0x3eb4c6dc	0.35307968
82	0xbe5de0aa	-0.21667734
83	0x3f0f69bc	0.5602071
84	0xbe6b6c91	-0.22990634
85	0x3e7936aa	0.24337259
86	0x3ee8828a	0.45412093
87	0xbe59c39f	-0.2126603
88	0x3d38d61f	0.045126077
89	0x3ed08699	0.4072769
90	0xbe5602f3	-0.20899563
91	0x3ee3c9de	0.4448995
92	0x3e893938	0.26801467
93	0xbe1edd5b	-0.15514128
94	0x3ea35acd	0.31905213
95	0xbe4f7e65	-0.2026306
96	0xbe48d80d	-0.19613667
97	0x3ee2ffac	0.44335687
98	0xbe2f008a	-0.1709005
99	0xbe6eb36f	-0.23310636
100	0xbe36f2b2	-0.17866018
101	0xbe31b7c9	-0.17355265
102	0xbe1ed178	-0.15509593
103	0xbe432955	-0.19058736
104	0xbe5ea4fa	-0.21742621
105	0x3e9c6d46	0.3055212
106	0xbe2b6200	-0.16736603
107	0xbe238b21	-0.15971042
108	0xbe501c15	-0.20323212
109	0xbe4f94bb	-0.2027158
110	0xbe6ee9c0	-0.23331356
111	0x3eb4e698	0.3533218
112	0xbe2bea22	-0.16788533
113	0x3f0aaf8f	0.5417413
114	0x3ee008d0	0.43756723
115	0x3f38164c	0.7190902
116	0xbe6a284e	-0.22866938
117	0x3f006cf0	0.50166225
118	0x3ee096fa	0.43865186
119	0xbe477c59	-0.19481029
120	0x3ea89717	0.32927772
121	0x3efa6124	0.48902237
122	0x3ecce97a	0.40021878
123	0x3ec5c329	0.38625458
124	0x3eb4cd40	0.35312843
125	0xbe5163dc	-0.2044825
126	0xbe5a113e	-0.2129564
127	0x3eb33815	0.35003725

fc1_adv.weight f4 [128, 43]
0	0x3c6859c2	0.014181556
1	0x3dcc2365	0.099676885
2	0xb9676bf5	-0.00022070094
3	0x3ce2d938	0.027691469
4	0xbd839535	-0.06424943
5	0xbc906c30	-0.017629713
6	0xbcad4cb0	-0.021154732
7	0x3c3a4a28	0.011370219
8	0x3c7f62b3	0.015587497
9	0xbdf07dcb	-0.11742743
10	0xbdfc4f51	-0.12319816
11	0xbdeff2d1	-0.117162354
12	0xbdba9279	-0.09109969
13	0xbe229599	-0.1587738
14	0xbd3a8f0b	-0.045546573
15	0xbd9f0aad	-0.07765708
16	0x3cbe5262	0.023232643
17	0xbb32f0c2	-0.0027304147
18	0x3de07dea	0.10961516
19	0xbddbe172	-0.1073636
20	0xbda09b69	-0.07842142
21	0xbdc81dcf	-0.097713105
22	0x3e0a0729	0.13479294
23	0xbddba5eb	-0.10725006
24	0xbe304515	-0.17213853
25	0xbd9b215a	-0.07574721
26	0xbd5fbba4	-0.054622307
27	0xbc879d36	-0.016554456
28	0x3de3ebf1	0.111289866
29	0xbde43e66	-0.11144714
30	0xbdeb3093	-0.11483874
31	0xbdb200b2	-0.08691539
32	0xbe2cbca7	-0.1686884
33	0xbe0b2144	-0.13586909
34	0xbe22d295	-0.15900643
35	0xbd225bcd	-0.03963833
36	0x3bdc0c40	0.0067153275
37	0x3d55e0b3	0.052216243
38	0x3d51bbbb	0.051204424
39	0xbe2a2103	-0.16614155
40	0xbe65eb93	-0.22453146
41	0x3c700e9f	0.014651923
42	0x3e132fe8	0.14373744
43	0x3db27349	0.08713395
44	0x3d8f32a1	0.069920786
45	0x3d4754ae	0.04866474
46	0x3c08076e	0.008302553
47	0x3e3198c1	0.17343427
48	0x3e2dafc3	0.16961579
49	0xbd14e468	-0.036350638
50	0x3d13ebd5	0.03611358
51	0xbddac497	-0.10682028
52	0xbd8c720e	-0.06857692
53	0x3de71391	0.11283029
54	0x3dee35ae	0.11631332
55	0x3dbfacd5	0.09359137
56	0xbbb82e72	-0.005620771
57	0x3cc1b975	0.023648003
58	0x3dd85627	0.10563307
59	0x3c40457c	0.011735316
60	0xbd4d9135	-0.05018731
61	0x3c004519	0.007828974
62	0xbc813e91	-0.015776904
63	0xbbe1fbb6	-0.0068964614
64	0x3bf36ce2	0.0074287513
65	0xbbb1ff92	-0.0054320777
66	0x3d3abb64	0.045588866
67	0x3d217e92	0.039427347
68	0x3cbfb59b	0.023402026
69	0xbd3aa388	-0.04556611
70	0x3d784afd	0.06061839
71	0x3e2a2adb	0.1661791
72	0x3df4de47	0.119564585
73	0x3c4d9f65	0.01255021
74	0x3de97a73	0.114003085
75	0x3d768a2f	0.060190376
76	0x3ce03ac6	0.027371775
77	0x3d0d765f	0.034536716
78	0x3e3f04e2	0.18654206
79	0x3c722721	0.014779837
80	0xbcfd466c	-0.030917369
81	0x3d8e8d8a	0.0696059
82	0xbd837f64	-0.06420782
83	0x3f420c31	0.7579985
84	0xbe6c55dc	-0.23079628
85	0xbb272626	-0.0025504916
86	0xbd9f4d36	-0.07778399
87	0xbd8ffd5a	-0.07030745
88	0x3d3f884b	0.04676084
89	0xbdcb6b2d	-0.099325515
90	0x3d91e9d0	0.07124674
91	0x3e05b770	0.13058257
92	0xbdb3d924	-0.08781651
93	0xbdebd47a	-0.11515136
94	0xb9f29772	-0.00046270672
95	0xbd6d3daa	-0.057920136
96	0xbded0a2b	-0.11574205
97	0x3d9f5284	0.077794105
98	0x3ce71e38	0.028212652
99	0xbd01a534	-0.03165169
100	0x3d6a5e00	0.05721855
101	0xbd56d6dd	-0.052451003
102	0x3e14bb72	0.1452463
103	0xbe340afd	-0.17582317
104	0xbe429f9f	-0.19006203
105	0x3db33297	0.087498836
106	0xbe1d9dbb	-0.153922
107	0xbc1f0440	-0.009705603
108	0x3d2bc64c	0.041937158
109	0x3e53cbab	0.20683162
110	0xbd4c5c9b	-0.049893003
111	0x3e1fa02d	0.15588446
112	0x3def08e3	0.11671617
113	0xbd711949	-0.058862004
114	0xbdc8e65e	-0.09809564
115	0xbe107373	-0.1410654
116	0x3d99d0ef	0.07510554
117	0xbdb56201	-0.088565834
118	0xbbc541e0	-0.006019816
119	0x3d7234fa	0.059132554
120	0xbe228eec	-0.15874833
121	0xbc66d0d7	-0.014087877
122	0x3e326bd2	0.17423943
123	0x3e3cdeb1	0.18444325
124	0x3e796dee	0.24358341
125	0x3e128191	0.14307238
126	0x3d108d78	0.035291165
127	0xbd9a2871	-0.07527245
128	0xbda5763e	-0.080791935
129	0xbe4dd378	-0.201002
130	0xbea745d0	-0.3267045
131	0xbe2e86eb	-0.17043655
132	0x3dd39212	0.10330595
133	0xbdb75844	-0.08952382
134	0xbd88ca53	-0.06679215
135	0x3dbc43f6	0.0919265
136	0x3e1b1581	0.15144922
137	0x3e1edefb	0.15514748
138	0x3b0dd0da	0.0021639378
139	0xbda9396e	-0.08262907
140	0xbda1e024	-0.079040796
141	0x3e17e1fd	0.14832301
142	0x3c7bf1cb	0.015377472
143	0xbdbd642a	-0.092476204
144	0x3d393cbc	0.045223936
145	0x3d8c80a4	0.06860474
146	0x3b87343b	0.0041260994
147	0xbc0e7b7b	-0.008696432
148	0xbdd26b53	-0.10274377
149	0x3ddbb150	0.10727179
150	0x3e197cd3	0.14989023
151	0x3d6ebedd	0.05828749
152	0xbe2a9244	-0.16657358
153	0x3d157246	0.036485933
154	0xbb985cba	-0.0046497257
155	0xbd8944a3	-0.067025445
156	0x3d6c0138	0.05761835
157	0x3d077e5c	0.03307949
158	0x3d9b02bb	0.0756888
159	0xbd8ab249	-0.067722864
160	0x3e3baa4b	0.1832668
161	0x3cfee087	0.031112922
162	0x3d2edf10	0.042693198
163	0x3d419328	0.04725948
164	0x3c24ada6	0.010051167
165	0x3e096185	0.13416107
166	0x3c1a6328	0.009423055
167	0x3d2b7984	0.041863933
168	0xbe31f8a0	-0.17379999
169	0xbe1cb0db	-0.1530184
170	0x3cadd7b9	0.021221029
171	0xbca027d8	-0.019550249
172	0x3ccc71ed	0.024956668
173	0x3df479d9	0.11937303
174	0x3e3f7944	0.18698603
175	0x3e39ffc2	0.1816397
176	0x3e48d145	0.1961108
177	0xbce2462d	-0.027621353
178	0x3e3b78c2	0.18307784
179	0x3d310e1a	0.04322634
180	0xbc9fdb85	-0.019513855
181	0x3db55989	0.08854968
182	0xbd021f21	-0.031767968
183	0xbd986517	-0.07441156
184	0x3dbdf0c7	0.0927444
185	0x3c072d6b	0.008250575
186	0x3e10c3df	0.14137219
187	0xbdec40d0	-0.115357995
188	0xbda7b5cc	-0.08188972
189	0x3d5f04bd	0.05444788
190	0xbd9f6afe	-0.07784079
191	0x3e24280e	0.16030905
192	0xbbe6786d	-0.007033399
193	0x3bd02105	0.0063515925
194	0x3e12535d	0.14289613
195	0xbdb7bcc1	-0.08971549
196	0xbcdb9fbe	-0.02680957
197	0x3d172521	0.036900643
198	0x3dfc1a02	0.12309648
199	0x3b956c8c	0.004560059
200	0x3d71f9e7	0.059076216
201	0x3d93c443	0.07215168
202	0x3dcec1ba	0.10095544
203	0x3c1858f1	0.009298549
204	0xbe2479de	-0.16062114
205	0xbad4dad2	-0.001623953
206	0x3cd2afd9	0.025718616
207	0x3ccab576	0.02474473
208	0xbc81b6ce	-0.015834238
209	0x3e13b6a3	0.14425139
210	0xbde82104	-0.11334422
211	0x3de6d00b	0.1127015
212	0xbe126b13	-0.14298658
213	0x3e5391dc	0.2066111
214	0xbaeaa358	-0.0017901463
215	0xbd745f00	-0.05966091
216	0xbe5554db	-0.20833151
217	0xbd22d050	-0.039749444
218	0x3d5e9b2b	0.0543472
219	0x3de800ab	0.113282524
220	0xbd9bc985	-0.07606796
221	0xbdb96fd5	-0.090545334
222	0xbcc5ffb6	-0.024169784
223	0xbcce0849	-0.025150435
224	0xbd2b016e	-0.04174941
225	0x3df2dcee	0.11858545
226	0xbd04aefe	-0.032393448
227	0x3c8c398e	0.017117288
228	0xbd3e8a70	-0.046518743
229	0x3ddbf455	0.10739962
230	0xbc927b83	-0.01788116
231	0x3d6d748e	0.057972483
232	0xbb1f5125	-0.002430984
233	0xbd8e6eb4	-0.06954709
234	0xbdb5c9b6	-0.08876364
235	0x3d1bc092	0.038025446
236	0x3d9e9c23	0.077446245
237	0x3dd39c08	0.10332495
238	0xbc756441	-0.014977516
239	0x3cc8e5a8	0.024523571
240	0xbb9dd95d	-0.0048171715
241	0x3d732b9f	0.059367772
242	0xbdd0ad5f	-0.10189318
243	0x3c830716	0.01599459
244	0xbc3542da	-0.011063302
245	0xbc774bd0	-0.015093759
246	0x3b962658	0.0045822076
247	0xbdced309	-0.100988455
248	0x3dfe29e1	0.124103315
249	0x3dbcd59d	0.09220431
250	0x3de88f31	0.113554366
251	0xbd03c53b	-0.032170516
252	0x3c524680	0.012834191
253	0x3c07740d	0.008267415
254	0xbdbebacb	-0.09312972
255	0x3eba13b0	0.36343145

fc1_adv.bias f4 [128]
0	0x3eabec14	0.3357855
1	0x3d3348a7	0.04377046
2	0xbd98f832	-0.074692145
3	0x3e62306c	0.22088784
4	0x3e8949d4	0.2681414
5	0x3da83340	0.082129
6	0x3db88285	0.090092696
7	0xbda38bd7	-0.07985657
8	0xbe8634a4	-0.26212037
9	0xbd06b3b7	-0.032886233
10	0xbde71dd8	-0.11284989
11	0xbdbeb0f4	-0.09311095
12	0x3e4dce2f	0.20098184
13	0xbdbb7829	-0.09153778
14	0x3c04e287	0.008110649
15	0x3e7e9fcd	0.24865647
16	0x3c0bc46a	0.0085307155
17	0x3d961104	0.07327464
18	0xbe8c7e34	-0.27440035
19	0xbd8c1358	-0.06839627
20	0x3d46b77c	0.048514828
21	0x3dbaddae	0.09124313
22	0x3d623650	0.055227578
23	0xbdb7b477	-0.08969968
24	0x3e5ceef6	0.21575531
25	0xbe06b714	-0.13155776
26	0xbcfe5096	-0.031044286
27	0x3e31b70c	0.17354983
28	0x3e0af788	0.13570988
29	0xbe09cb84	-0.13456541
30	0xbe8851c7	-0.2662489
31	0x3e110f68	0.14166033
32	0x3dc4c7d8	0.0960843
33	0xbd5ad2e6	-0.053423785
34	0x3e4a5fe6	0.19763145
35	0xbd8698ab	-0.06572088
36	0xbd820cfa	-0.06350131
37	0xbe5f6f54	-0.21819812
38	0x3c496283	0.012291553
39	0x3c7c1020	0.015384704
40	0x3d271e4a	0.04080037
41	0x3ec4c937	0.38434765
42	0xbdf7fc47	-0.12108665
43	0x3ebaa37f	0.36452863
44	0xbd05ac44	-0.03263499
45	0xbe087aa3	-0.13328032
46	0x3ea79a57	0.3273494
47	0xbe064e24	-0.13115746
48	0xbd7c79f7	-0.061639752
49	0x3de4d364	0.11173132
50	0x3cff4a38	0.03116332
51	0xbe0a5700	-0.1350975
52	0x3e3966e8	0.18105662
53	0xbdaf4c13	-0.08559432
54	0x3d89687f	0.06709384
55	0x3e48292e	0.19546959
56	0xbe0077c4	-0.12545687
57	0x3d9230db	0.07138225
58	0xbd2da332	-0.042391963
59	0xbe2027b5	-0.15640147
60	0xbe1524a1	-0.14564754
61	0x3e0e533a	0.13898936
62	0x39563af7	0.00020430596
63	0xbe32c470	-0.17457747
64	0x3d840e74	0.06448069
65	0x3d5e9cb8	0.054348677
66	0xbdcf69c3	-0.10127594
67	0xbdcb5673	-0.09928598
68	0xbd56a013	-0.052398752
69	0x3d2c5920	0.042077184
70	0x3de17182	0.11007978
71	0x3ce37676	0.027766448
72	0x3e5e788c	0.21725672
73	0xbe34e066	-0.17663726
74	0x3cd468a9	0.025928812
75	0x3b840030	0.0040283427
76	0x3e5c8397	0.21534573
77	0x3e97d1a1	0.29652122
78	0x3c4baaf2	0.012430893
79	0x3d99c049	0.075073786
80	0x3de57748	0.11204392
81	0xbd978e2b	-0.07400163
82	0xbdd500ad	-0.104005195
83	0xbe3462cb	-0.17615812
84	0x3e725a47	0.2366725
85	0x3da5937d	0.08084772
86	0x3dc17df4	0.09447852
87	0x3dad4b61	0.08461643
88	0xbe88e397	-0.26736137
89	0x3e314123	0.17310004
90	0xbda3631b	-0.07977887
91	0x3d49a87b	0.04923294
92	0x3d73beda	0.059508182
93	0xbdfd47e3	-0.12367227
94	0x3e370d76	0.17876229
95	0x3cc3b525	0.023890087
96	0x3e9ca7eb	0.3059686
97	0x3dc330c6	0.09530787
98	0x3eab3e1f	0.33445832
99	0xbe0342f8	-0.12818515
100	0x3d8d937a	0.069128945
101	0xbe9f22bf	-0.31081197
102	0x3e822b62	0.25423723
103	0x3d249c61	0.040188197
104	0xbe483ced	-0.19554491
105	0x3e3bada6	0.1832796
106	0xbd90c57e	-0.07068919
107	0x3c7fac8c	0.015605103
108	0x3dd3015e	0.10302995
109	0x3d6db384	0.058032528
110	0x3e92a3c2	0.28640562
111	0xbda2fcd6	-0.07958381
112	0xbb5ad6e8	-0.0033392254
113	0xbdcfde33	-0.10149803
114	0x3e956c84	0.29184353
115	0x3ea2941b	0.3175362
116	0x3d5ec7e6	0.054389857
117	0x3ebad1e0	0.36488247
118	0xbe1d5573	-0.15364628
119	0xbe1c8a3d	-0.15287109
120	0xbe1337d9	-0.14376773
121	0xbda4353e	-0.08017968
122	0xbd955611	-0.072918065
123	0xbd28fa0c	-0.04125409
124	0xbdba9616	-0.09110658
125	0x3ea728b9	0.32648256
126	0x3dd2f8f8	0.10301393
127	0xbe2f6fae	-0.17132446

fc2_adv.weight f4 [128, 128]
0	0xbd033b0f	-0.032038745
1	0x3ad4caf7	0.0016234805
2	0x3d936878	0.0719766
3	0xbe7d402a	-0.24731508
4	0x3dad289a	0.0845501
5	0xbe0a4814	-0.13504058
6	0x3d409703	0.047019016
7	0x3e26eec4	0.1630202
8	0x3e207864	0.15670925
9	0x3da3043d	0.07959793
10	0x3da6fc30	0.0815357
11	0x3d5615c2	0.052266844
12	0xbd8224ae	-0.06354652
13	0xbe0c9729	-0.13729538
14	0x3e501a13	0.20322447
15	0xbcc3ff39	-0.02392541
16	0xbd9451c7	-0.0724216
17	0x3c5d6f2b	0.013515274
18	0x3e284ed6	0.16436324
19	0x3dd9a93c	0.10627982
20	0x3df1dfd7	0.11810272
21	0x3d7c0821	0.06153119
22	0x3ce17085	0.027519474
23	0x3e1779c4	0.14792544
24	0x3de1e30d	0.110296346
25	0xbd03914f	-0.032121
26	0x3e320c89	0.17387594
27	0xbcf480e6	-0.02984662
28	0x3cd372cd	0.025811577
29	0x3e2b6fbc	0.16741842
30	0x3e8aad76	0.27085465
31	0xbedf14c8	-0.43570542
32	0x3dc68a19	0.09694309
33	0xbda8550d	-0.08219347
34	0x3d523a8e	0.051325373
35	0x3e1487f5	0.14504988
36	0xbd8be068	-0.068299115
37	0x3dd0bd56	0.10192363
38	0x3db1cefd	0.08682058
39	0x3bc9ff85	0.0061644935
40	0xbd92ecb2	-0.07174052
41	0x3e02861d	0.12746473
42	0x3c43fbec	0.011961918
43	0xbbcd7c27	-0.0062709036
44	0xbdcc275d	-0.099684455
45	0x3e2de33a	0.16981211
46	0x3c38f8b0	0.0112897605
47	0xbe93742e	-0.28799576
48	0xbe52549e	-0.20540091
49	0x3df7d2ae	0.12100731
50	0x3d027e67	0.031858828
51	0xbdbd9fa4	-0.09258965
52	0xbe29e25f	-0.1659026
53	0x3d8a998b	0.06767567
54	0x3d4abc78	0.049496144
55	0x3d666040	0.056244135
56	0x3e4426f6	0.19155487
57	0x3dc9f5dd	0.09861348
58	0x3b0dbafa	0.002162634
59	0x3e08404d	0.13305779
60	0x3e3b9495	0.18318398
61	0x3d1987db	0.037483077
62	0xbc4f7c43	-0.012663904
63	0x3e38d95e	0.18051669
64	0xbe262f48	-0.16228974
65	0xbc89aba6	-0.016805481
66	0xbcd43768	-0.025905326
67	0xbcbe210c	-0.023209117
68	0x3e24ea8a	0.16105095
69	0x3de2c8d9	0.11073465
70	0x3db1d395	0.08682934
71	0xbd76fc36	-0.06029912
72	0xbd4d6302	-0.05014325
73	0x3d2ec90b	0.0426722
74	0x3e3445da	0.17604771
75	0x3d72b561	0.059255008
76	0x3e835650	0.2565179
77	0x3c52430d	0.012833369
78	0xbd99379d	-0.074813105
79	0x39150285	0.00014210686
80	0x3e1552df	0.14582394
81	0x3bb3f3f3	0.0054917275
82	0x3bc0b327	0.0058807316
83	0x3ded6395	0.115912594
84	0xbc5e67de	-0.013574569
85	0xbe1035dc	-0.14083046
86	0x3cdd415e	0.027008709
87	0x3e02ef00	0.12786484
88	0x3e2be9fc	0.16788477
89	0xbc1c878b	-0.0095538
90	0x3e0c98dc	0.13730186
91	0xbd0d4a3c	-0.034494624
92	0x3d1e8848	0.038704187
93	0xbe0e7943	-0.13913445
94	0x3e552802	0.20816043
95	0xbbb19e66	-0.005420494
96	0xbcf3949f	-0.029733954
97	0x3db6073e	0.088881
98	0x3d84f3bf	0.064918034
99	0x3d9fee8c	0.07809171
100	0xbe3a1f12	-0.18175915
101	0x3e4da2bd	0.20081611
102	0x3c018484	0.007905129
103	0xbd8d5bae	-0.06902252
104	0x3db81448	0.08988243
105	0xbd4c33fb	-0.04985426
106	0xbd01034b	-0.03149728
107	0xbd6c1989	-0.05764154
108	0x3e0c524e	0.13703272
109	0x3c5b5255	0.013386329
110	0xbec7b6a9	-0.39006546
111	0xbd409ae7	-0.047022726
112	0x3deba69a	0.11506386
113	0x3e4da64c	0.20082968
114	0xbd778645	-0.060430784
115	0x3d8fdd94	0.070246845
116	0xbd4c70da	-0.04991231
117	0x3da5c1ce	0.08093606
118	0x3dbcbc82	0.092156425
119	0x3e9182dd	0.28420153
120	0x3cf1c42c	0.029512487
121	0x3d6be456	0.057590805
122	0xbdacf089	-0.08444316
123	0x3bd05e79	0.0063589183
124	0x3dd0ddb8	0.101985395
125	0xbd9c0e50	-0.076199174
126	0xbdb2af20	-0.08724809
127	0x3e419871	0.18905808
128	0xbdbf8c0a	-0.09352882
129	0x3d42cec4	0.04756047
130	0x3dfa3e80	0.12218952
131	0xbbb05542	-0.0053812573
132	0x3aba03a1	0.0014191755
133	0x3b2131df	0.0024596376
134	0xbd8b6bda	-0.068076804
135	0x3ccffcbe	0.025389072
136	0x3d862d95	0.06551663
137	0x3e07eb68	0.13273394
138	0x3d0c3518	0.03423032
139	0xbdcfd40e	-0.10147868
140	0xbe16a60e	-0.14711782
141	0x3e25acb5	0.16179164
142	0xbe093586	-0.13399324
143	0xbda82529	-0.08210213
144	0x3de4d184	0.111727744
145	0x3e024249	0.12720598
146	0x3dad3462	0.08457257
147	0x3ca40720	0.020022929
148	0x3d088bcb	0.033336442
149	0x3d9ebfc4	0.0775142
150	0xbdc290f2	-0.095003024
151	0x3d2c3851	0.042045895
152	0xbdb2dfe2	-0.087341085
153	0x3d972dd7	0.0738179
154	0xbbb5de11	-0.005550154
155	0xbd7005ad	-0.058599163
156	0xbc7caf86	-0.015422707
157	0xbd25b978	-0.04046008
158	0x3e3e8250	0.18604398
159	0xbe2e4848	-0.1701976
160	0xbd141b75	-0.036158998
161	0x3db81778	0.08988851
162	0xbe1606dc	-0.14651054
163	0x3dbcf27f	0.0922594
164	0xbd70e519	-0.058812235
165	0x3cf9ef42	0.030509595
166	0x3d169b1d	0.03676902
167	0x3c7aee3e	0.01531559
168	0xbd0444f0	-0.032292306
169	0xbcf145ed	-0.029452289
170	0x3da713e9	0.081580944
171	0xbc28ae20	-0.010295421
172	0x3e075a60	0.13218069
173	0x3dbbb2b4	0.09164944
174	0xbd671de6	-0.056424998
175	0x3e33eb56	0.17570242
176	0x3dd7e3d5	0.105415024
177	0x39ee96ee	0.0004550735
178	0x3cb1a345	0.021684298
179	0x3e010f45	0.12603481
180	0xbe87a82a	-0.26495486
181	0x3b37f0d7	0.0028067136
182	0xbd4525ad	-0.048131634
183	0xbcc5f160	-0.024162948
184	0x3bd8b6b4	0.006613577
185	0xbd88f073	-0.06686487
186	0x3dc28e86	0.094998404
187	0x3d972605	0.073802985
188	0x3c7f061b	0.0155654205
189	0x3d5a5d9b	0.053311925
190	0x3dabada2	0.08382727
191	0x3df90e13	0.121608876
192	0x3d24c46b	0.04022638
193	0xbcc779a9	-0.024350004
194	0x3da67ec0	0.081296444
195	0x3ca04b0a	0.019567031
196	0x3d571ba8	0.05251661
197	0x3d79a03c	0.060943827
198	0xbd3b4877	-0.045723405
199	0x3d976b27	0.073934846
200	0x3dbc54eb	0.09195884
201	0x3e0d7858	0.13815439
202	0x3cf220d3	0.029556667
203	0x3debab10	0.11507237
204	0xbd4c7359	-0.04991469
205	0xbdcdc7d3	-0.10047879
206	0x3d5c626b	0.053804796
207	0x3dd93d69	0.10607416
208	0xbd14e5c7	-0.036351945
209	0x3c9630d0	0.018333822
210	0x3dd835b0	0.10557115
211	0x3e0218a1	0.12704708
212	0xbd94e506	-0.07270245
213	0x3dafdbf8	0.085868776
214	0xbe1b4014	-0.15161163
215	0xbd18eabe	-0.037333243
216	0x3d032122	0.03201402
217	0xbd914826	-0.07093839
218	0x3d62bfc7	0.055358674
219	0xbd7b02a2	-0.061281808
220	0x3d920323	0.071295045
221	0x3d8a0eaf	0.06741082
222	0xbd0c0209	-0.03418163
223	0x3e084d72	0.13310793
224	0xbd9e14d4	-0.077188164
225	0xbc0150c0	-0.007892787
226	0xbd1c25b8	-0.03812191
227	0x3e1f7910	0.15573525
228	0xbe9dffb4	-0.30859149
229	0x3ca30b6b	0.019902905
230	0xbd0244ed	-0.031804014
231	0x3db3aa34	0.08772698
232	0x3d540746	0.05176475
233	0x3d5a6477	0.053318467
234	0x3da6d278	0.081456125
235	0x3c8e1ad6	0.01734678
236	0x3dc20443	0.09473469
237	0x3caa35d6	0.020777624
238	0xbf0908b3	-0.535289
239	0x3e15ff49	0.14648165
240	0x3dd6e7ba	0.10493417
241	0x3d120161	0.035645846
242	0xbc5fa44f	-0.013650014
243	0xbe1e5e41	-0.15465643
244	0x3dcbdfb8	0.0995478
245	0xbe05fad5	-0.13083966
246	0x3d347a94	0.044062212
247	0x3e232108	0.15930569
248	0x3e3bb446	0.18330488
249	0x3d6da719	0.058020685
250	0x3e091f48	0.13390839
251	0x3d5fd546	0.054646753
252	0x3e1f6415	0.15565522
253	0xbe2c776c	-0.16842431
254	0x3d77a716	0.06046208
255	0xbc229571	-0.009923325

fc2_adv.bias f4 [128]
0	0xbd1bc1e0	-0.03802669
1	0xbc0b38df	-0.008497446
2	0x3d21dc9b	0.039517026
3	0x3d8334bb	0.06406542
4	0x3d0957da	0.033531047
5	0x3d52d248	0.05147007
6	0x3dd7b7c3	0.10533097
7	0x3e0a0a42	0.13480476
8	0x3cdfcbc5	0.027318845
9	0xbce4121f	-0.027840672
10	0x3d0d9254	0.034563377
11	0xbd5062c1	-0.05087543
12	0x3deec457	0.116585426
13	0xbddb1715	-0.10697762
14	0xbe3f2450	-0.18666196
15	0xbd8f6501	-0.07001687
16	0x3deae34b	0.11469134
17	0x3cc03224	0.023461409
18	0xbe54c099	-0.20776595
19	0x3ddee499	0.10883445
20	0x3e9a676e	0.30157036
21	0x3e150960	0.14554358
22	0xbda3e49a	-0.08002587
23	0xbd8b1165	-0.06790427
24	0x3d856a33	0.065143965
25	0x3dd30eb6	0.1030554
26	0x3b794667	0.0038036348
27	0x3eb1eecd	0.34752503
28	0x3d1b06f3	0.037848424
29	0x3dd66213	0.10467925
30	0xbe19fad0	-0.15037084
31	0x3dece683	0.11567404
32	0xbe1d8541	-0.15382864
33	0x3dfcad03	0.12337687
34	0x3cc6c321	0.024262967
35	0x3a0785f0	0.00051697996
36	0x3dd2a5e3	0.10285547
37	0x3c87d84c	0.01658263
38	0x3d80ac41	0.06282855
39	0x3df3ac3a	0.11898084
40	0xbd7c0242	-0.06152559
41	0xbd3f5eb9	-0.046721194
42	0x3e0f038e	0.139662
43	0x3e1cc8c0	0.15310955
44	0xbc87232a	-0.01649626
45	0xbc44a80e	-0.012002958
46	0x3dc82e06	0.09774403
47	0x3dce769e	0.10081218
48	0xbd749745	-0.059714574
49	0x3d0e2dac	0.034711525
50	0x3d25460b	0.04035
51	0x3d86ce94	0.065823704
52	0x3e15ed37	0.14641272
53	0xbe0736e7	-0.13204537
54	0xbdbf3307	-0.093359046
55	0xbcb41ca8	-0.02198632
56	0x3e71af5e	0.23602054
57	0xbe15469f	-0.14577721
58	0x3c257ebe	0.0101010185
59	0x3e020fa5	0.1270128
60	0x3ceaf91b	0.028683236
61	0x3d85642e	0.065132484
62	0xbd9e4998	-0.07728881
63	0x3da7bc5f	0.08190226
64	0xbdf1621c	-0.11786291
65	0xbdac7234	-0.0842022
66	0x3d3e3d32	0.04644508
67	0x3d2b559f	0.0418297
68	0xbd720f01	-0.05909634
69	0xbd22a943	-0.0397122
70	0xbb6cbe51	-0.003612418
71	0x3db0a63e	0.08625458
72	0x3ea0f34a	0.31435615
73	0x3e04a27d	0.1295261
74	0x3d8463fd	0.06464384
75	0x3e514f7c	0.20440477
76	0xbd5dc2aa	-0.054140724
77	0xbe0a7f65	-0.1352516
78	0x3dd9a91a	0.10627957
79	0x3da982fe	0.08276938
80	0x3da61126	0.081087396
81	0x3c7bc662	0.015367122
82	0x3e80d6ec	0.25163972
83	0x3d9848ea	0.07435782
84	0x3d1980e7	0.037476446
85	0x3d9864dd	0.07441113
86	0xbd484d2f	-0.048901733
87	0x3dae9c48	0.08525902
88	0x3e94020a	0.28907806
89	0x3e0c87eb	0.13723724
90	0xbe0166fa	-0.12636939
91	0xbdcf0610	-0.10108578
92	0x3e8d594f	0.276072
93	0x3c45f49a	0.012082243
94	0x3d7e133f	0.062030073
95	0x3d9689be	0.07350491
96	0x3d5b8f76	0.053603612
97	0x3cef3673	0.029200768
98	0xbc3e603c	-0.011619624
99	0xbd8e90a8	-0.06961185
100	0xbe0596aa	-0.13045755
101	0xbd809439	-0.06278271
102	0x3d8ba1ff	0.06818008
103	0x3dd87a36	0.10570185
104	0xbe050532	-0.12990263
105	0x3da685a6	0.0813096
106	0x3dbf79f9	0.09349436
107	0xbcd892de	-0.02643722
108	0xbc3896c6	-0.011266416
109	0xbe07e56f	-0.13271116
110	0x3d7fd453	0.062458348
111	0x3d193838	0.03740713
112	0x3dd63c0f	0.10460674
113	0x3e0959ca	0.13413158
114	0xbafbb9da	-0.0019205168
115	0x3e401019	0.18756141
116	0xbd47ebe3	-0.048808943
117	0x3dc793eb	0.0974501
118	0x3c9a106c	0.018806659
119	0xbe1fce8d	-0.15606137
120	0xbd47c91d	-0.04877578
121	0x3cf5a98d	0.029988075
122	0xbe0583bc	-0.13038534
123	0xbc6a14e1	-0.0142872045
124	0xbda9aa7e	-0.08284472
125	0xbcb16333	-0.021653747
126	0xbe0b4861	-0.13601829
127	0x3dca58cc	0.09880218

fc3_adv.weight f4 [2, 128]
0	0x3ec1ce37	0.37852642
1	0xbd8ed982	-0.0697508
2	0x3e5f8e3b	0.218316
3	0x3e842658	0.25810504
4	0x3e86cd8f	0.26328704
5	0x3e9375bb	0.2880076
6	0x3de0de5c	0.10979912
7	0xbe34ab05	-0.17643364
8	0x3df285cd	0.11841927
9	0xbdeb8253	-0.11499467
10	0x3e7b75b2	0.24556616
11	0x3d67b3fa	0.056568123
12	0x3e7f9025	0.2495733
13	0xbe8012d0	-0.25014353
14	0xbeb72f53	-0.35778293
15	0xbe6274a2	-0.22114804
16	0x3e5035c9	0.20333017
17	0x3e6fc55d	0.23415132
18	0xbec1def2	-0.37865406
19	0x3e5f4f83	0.21807675
20	0x3e545567	0.20735703
21	0x3e30a063	0.17248683
22	0xbd2cc68a	-0.04218153
23	0xbe8c779c	-0.27435005
24	0xbc893a60	-0.016751468
25	0x3e72a0c2	0.23694137
26	0xbd80953e	-0.06278466
27	0xbf731979	-0.94960743
28	0x3e3d8903	0.18509297
29	0x3e4f4eaf	0.20244859
30	0xbe92e0df	-0.28687188
31	0x3e57c77c	0.21072191
32	0xbe9c0538	-0.30472732
33	0x3e9432b7	0.28944942
34	0x3dad543f	0.08463334
35	0x3de3d822	0.111252084
36	0x3e99748b	0.29971728
37	0x3e0164ef	0.1263616
38	0x3e738efb	0.23785011
39	0x3e60d88a	0.21957603
40	0x3e4e253e	0.20131394
41	0x3e9832dd	0.29726306
42	0xbe4aa92a	-0.19791093
43	0x3e9433ed	0.28945866
44	0x3d2dfac5	0.04247548
45	0x3e1b514e	0.15167734
46	0x3e8dc6de	0.27690786
47	0x3e63d861	0.22250511
48	0x3da009e7	0.07814389
49	0x3e6c8d2f	0.23100732
50	0x3e024cf1	0.12724663
51	0x3def9544	0.11698392
52	0x3e3f5ba7	0.18687306
53	0xbeadd5d5	-0.33952203
54	0xbe9d6aec	-0.30745637
55	0x3e13f166	0.14447555
56	0x3e54f4ab	0.20796458
57	0xbe942978	-0.28937888
58	0xbe87aa8d	-0.26497307
59	0xbe43f6cb	-0.19137113
60	0x3e9e6d9e	0.30943006
61	0x3e03790b	0.12839143
62	0xbd1fb818	-0.038993925
63	0x3e90cdc4	0.28281987
64	0xbe948117	-0.29004738
65	0xbd9fbeec	-0.07800087
66	0x3dd874f5	0.10569183
67	0xbe83ee37	-0.2576768
68	0xbe8d1359	-0.27553824
69	0xbe3c3a35	-0.18381579
70	0xbca2d69b	-0.019877722
71	0x3e37f08e	0.17962858
72	0xbf76f119	-0.96461636
73	0x3e11294f	0.14175914
74	0x3e615b59	0.22007503
75	0x3e544806	0.207306
76	0x3df7ae79	0.12093825
77	0xbe720afd	-0.23637004
78	0x3e60bf12	0.21947888
79	0x3e2e3cd9	0.17015399
80	0x3e45cf19	0.19317283
81	0xbe785675	-0.2425173
82	0xbf2177d5	-0.63073474
83	0x3e85d602	0.26139838
84	0x3df05ec9	0.11736829
85	0x3e025ebd	0.12731452
86	0xbe69393c	-0.2277574
87	0x3e3fa9e6	0.18717155
88	0xbf9035c2	-1.1266406
89	0x3e5552fd	0.20832439
90	0xbe973f3a	-0.29540426
91	0xbe3f6ddd	-0.18694253
92	0x3e563219	0.20917548
93	0x3e3d17d8	0.18466127
94	0x3db21aa6	0.08696489
95	0x3e486ae8	0.19572031
96	0x3decf421	0.115700014
97	0x3dbb717b	0.09152504
98	0xbe61471f	-0.21999787
99	0xbc9d0971	-0.019169541
100	0xbe7eaf5b	-0.2487158
101	0xbe8357e1	-0.25652984
102	0x3e276221	0.16346027
103	0x3e4348f9	0.19070806
104	0xbe4a671a	-0.19765893
105	0x3dff737d	0.124731995
106	0xbe9681de	-0.29395956
107	0x3e803212	0.250382
108	0x3e229bd5	0.15879758
109	0xbe91ea1c	-0.28498924
110	0x3e34f458	0.17671335
111	0x3e42a475	0.19008048
112	0x3e75c33e	0.2400026
113	0x3e572972	0.21011904
114	0x3e0e7f97	0.13915859
115	0x3e823efe	0.25438684
116	0x3e198394	0.149916
117	0x3e0bf5b6	0.1366795
118	0x3e6bb0a6	0.23016605
119	0xbeb5885b	-0.35455593
120	0xbd1d40f4	-0.038392022
121	0x3e5a790f	0.21335243
122	0xbe865bc8	-0.262419
123	0xbd0e8057	-0.034790363
124	0xbe7833ff	-0.24238585
125	0xbe802262	-0.25026232
126	0xbea906ad	-0.33012906
127	0x3e2a2055	0.16613896
128	0x3e5f7867	0.21823274
129	0xbe6c5135	-0.23077853
130	0x3e623b32	0.22092894
131	0x3e3ed2b7	0.18635069
132	0x3e36284f	0.17788814
133	0xbe052d2f	-0.13005517
134	0xbe13d8b1	-0.1443813
135	0xbe685e36	-0.22692189
136	0x3cf9eb74	0.03050778
137	0xbe6d52a3	-0.23176055
138	0x3e035c15	0.12828095
139	0x3da43f95	0.0801994
140	0x3e4efcff	0.20213698
141	0xbe68de7e	-0.22741124
142	0xbe9a3429	-0.3011792
143	0xbe8bd0f4	-0.27307856
144	0x3e76b710	0.2409327
145	0x3d6c6ef3	0.057722997
146	0xbeb815ce	-0.35954136
147	0x3e3a6c66	0.18205413
148	0x3e562d57	0.20915733
149	0x3e2b24c3	0.16713242
150	0xbc9252b7	-0.017861707
151	0xbe21a27d	-0.1578464
152	0x3df9268a	0.12165554
153	0x3e6037b9	0.21896257
154	0x3eb7541c	0.35806358
155	0xbf6f1a28	-0.93399286
156	0x3e813aad	0.2524008
157	0x3e6123f3	0.2198637
158	0xbe80845d	-0.25100985
159	0x3e6e781c	0.23288006
160	0xbe925e9b	-0.28587803
161	0x3e56e6c0	0.20986462
162	0xbe31c1ca	-0.17359081
163	0x3e55db24	0.20884377
164	0x3e6f714c	0.23383063
165	0x3e3f5dc0	0.18688107
166	0x3e029633	0.12752609
167	0x3e4958ed	0.19662829
168	0x3bc58956	0.0060283346
169	0x3e60bc64	0.21946865
170	0xbe93e3ee	-0.28884834
171	0x3e70ec75	0.23527701
172	0x3e349a47	0.17636977
173	0x3e461bc9	0.19346537
174	0x3e3f1c8f	0.18663238
175	0x3e2ab73c	0.16671461
176	0xbe88cb87	-0.2671778
177	0x3e23cbd7	0.15995727
178	0x3e32dc1f	0.17466782
179	0xbe2482ed	-0.16065569
180	0x3e69882e	0.22805855
181	0xbea00080	-0.3125038
182	0xbe81a842	-0.25323683
183	0x3e9b8d98	0.30381465
184	0x3e620786	0.22073182
185	0xbe10a1d6	-0.14124236
186	0x3e1a6583	0.15077786
187	0xbe85b723	-0.26116285
188	0x3e77fcf5	0.24217589
189	0x3e8267eb	0.25469908
190	0xbd5f5b8c	-0.054530665
191	0x3e9e406a	0.3090852
192	0xbe9c89c1	-0.30573848
193	0xbcf69975	-0.03010247
194	0xbe52d6ea	-0.20589796
195	0xbe35ced2	-0.17754677
196	0xbd638322	-0.05554498
197	0xbe890353	-0.2676035
198	0xbe29ad30	-0.16569972
199	0x3e0435da	0.12911168
200	0xbf775615	-0.96615726
201	0x3e83a5e1	0.25712493
202	0x3e286b79	0.16447248
203	0x3e60d532	0.21956328
204	0xbe83755b	-0.25675473
205	0xbe9efd85	-0.31052795
206	0x3e82cec9	0.2554839
207	0x3e51f4ca	0.20503536
208	0x3e82f909	0.25580624
209	0xbe0ee4b0	-0.13954425
210	0xbf35278b	-0.7076346
211	0x3ea20bc2	0.31649595
212	0x3e590259	0.21192302
213	0x3e95ab77	0.2923238
214	0xbe7b2bf0	-0.2452848
215	0x3e75f5f6	0.24019608
216	0xbf8591d9	-1.0435134
217	0x3e3e36a2	0.18575528
218	0xbe939b36	-0.28829354
219	0xbe909bf8	-0.28243995
220	0x3e5af72a	0.21383348
221	0x3d143619	0.036184404
222	0x3e1c2c3f	0.15251254
223	0x3e41081b	0.18850748
224	0x3e6815b4	0.22664529
225	0x3e56edeb	0.20989196
226	0xbe97f35f	-0.29677865
227	0xbcb02438	-0.021501645
228	0xbe93a63e	-0.2883777
229	0xbe730b67	-0.23734818
230	0x3e8f23d5	0.27957025
231	0x3df7bc1f	0.12096428
232	0xbe8586d6	-0.26079434
233	0x3e3a9262	0.18219903
234	0x3e0559a9	0.13022484
235	0x3d18966d	0.037252832
236	0x3e60a96a	0.21939626
237	0xbe62b2cb	-0.22138517
238	0x3e4b3e89	0.19848074
239	0x3e395a76	0.18100914
240	0x3e2eb3d8	0.17060792
241	0x3e4f2f06	0.20232782
242	0x3e5ad913	0.2137187
243	0x3e7736ca	0.24141994
244	0x3e74e2ec	0.23914689
245	0x3e394ae4	0.18094975
246	0x3e2b6bbf	0.1674032
247	0xbe943bd7	-0.28951904
248	0x3e7aceb8	0.2449292
249	0x3e9d79d2	0.30757004
250	0xbe9a1f56	-0.30102032
251	0xbd9bc85a	-0.076065734
252	0xbe8ed7d3	-0.27899036
253	0xbe8ae653	-0.27128848
254	0xbe8aba6e	-0.2709536
255	0x3e75a521	0.23988773

fc3_adv.bias f4 [2]
0	0x3da6bb90	0.081412435
1	0x3d82348b	0.06357678
