src/nets/avoid_checkpoint200NEW.pth (torch_old, 180515 bytes, 11 tensors)

fc1_val.weight f4 [128, 43]
00000000: cc95 af3d 7874 803e ef8d 37be dcc9 7a3e
00000010: eeeb 88bd 21bc fb3d 4714 52be 9efb 5a3d
00000020: a6bf ecba 90fd 4b3d 8d74 f5bc 1339 68bc
00000030: 24e6 453d 6a55 82ba 3091 c3bc e826 bf3c
00000040: d516 05bd 794d 923c df3c 983d 20fc b7bc
00000050: f417 3eba 7b9e 8cbd 78e3 23bc 55ef 6e3d
00000060: 29e6 27bd e142 483d 7620 7abc 1b71 a13d
00000070: 6bc7 83bd 810e ac3c 6300 e1bc f92f b23d
00000080: adde 00bc 8a4e 23bd 3268 debc bd63 aa3c
00000090: 9b82 ba3d 6a60 233d a387 48bb 6e4e 85bc
000000a0: 2fa6 143f e516 953c 18ac c3bb 54e7 013e
000000b0: 9312 57be 35b8 8b3e 8ed5 aebd da14 093d
000000c0: e881 bb3d 925f a4bd ebe8 9ebc 1556 5fbd
000000d0: ed4e e43b 4d2b 513a ae8a a4bc 4147 8e3d
000000e0: 233a a83c fc89 b4bd 73d2 e2bc d658 a73d
000000f0: 4678 19be 3c71 ba3d 14ea bebd 3f73 733d
00000100: b025 e4bc 1755 223d cd20 7abc 3bbc a23d
00000110: a2fd 0abd 1095 e5bc e9ec ae3d 079b af3c
00000120: 4ef9 a2bc 63eb 563c 63b4 fbbc 2f1c edbc
00000130: c040 b63d 97cc e5bd 6f19 a83d 121c c6bd
00000140: 1e51 373d 1a3a c0bd 91bc 6d3d 8718 093f
00000150: d323 313c c2c7 8b3c 8069 8abe a740 2dbc
00000160: 7348 01be 32f1 993d 9c67 a9bd 422e 183e
00000170: 15b7 84bd 19ac b53d 781f afbc d971 b9bd
00000180: 903e 213d f51d edbd 1411 9c3d e580 7abd
00000190: ff78 3cbe f956 0ebd f11e 1dbd a8dc 39bd
000001a0: d648 2cbe 86b4 533d 1112 9cbe de6c 70bd
000001b0: 5b9c 5a3e 60c8 613e 291c 2e3d 11c8 a43c
000001c0: be55 d9bc 57a1 d33d ef45 953c 1c22 85bd
000001d0: 4cdc bbbc ed38 94bd 8d1e b73d b57c ac3d
000001e0: 3f31 f53c 0b49 3c3c 94e0 8b3d bc34 0e3d
000001f0: b9b8 65be ff4a 893d 8bf8 afbd c594 883c
00000200: 4557 54be bc2e eabd 2864 57bd b36e 813e
00000210: 2636 863e 3615 38bc 84a7 10be fb76 b03d
00000220: 802f 70bd e0ca 1dbe 4e1f 8e3d dfb7 26bb
00000230: b4b4 143e 9068 273e 3d65 4ebd f514 913d
00000240: 68f2 e33d d158 493e 04e3 143e 487d 343d
00000250: d422 943d a8db 9abd 50fc e73d 1486 0fbd
00000260: d742 9bbd 98af 813d c44e 86bc 3da8 523e
00000270: a073 a53c fec3 20bd 7a9c c73d d468 0dba
00000280: d6eb 733e 8499 1ebd 33d9 afbd 48f1 15bd
00000290: dd26 03be 9fec ef3d 1254 75bd ddc9 d9ba
000002a0: 8a8f 20bd a0f2 3fbe c0a9 06bc e2ee 743c
000002b0: 85b1 4dbe 5f6d 723e 5a7c bebe 7b85 b03a
000002c0: b24a c7be cdb0 b8be 03bb 003e d45f 84bc
000002d0: fbf8 b1bc 71d8 13bd 448f c4bd 9a89 453d
000002e0: 75f3 d6bd 55ca dbbd 46d6 cdbd 278f 5f3d
000002f0: c39d d93b f458 023e f6df da3d e9c8 eb3d
00000300: 72a4 863d 44ca c3b9 fc1a cabc 5117 06be
00000310: e0bf fb3c d5d2 aabd 3a41 fabc a920 703d
00000320: 66b0 013d 8268 7bbc 9d39 c23d 212d fb3d
00000330: fd45 b53d 5bc9 dc3d e98f 24bd e851 a33c
00000340: 7268 9fbc 1f5f 083e fb09 e5bc 7286 3d3d
00000350: 4131 44be 0107 c4bd 0230 fabc 305b e13d
00000360: 302d 233e ba2e 8fbe 1198 8b3e 948f 163e
00000370: cd46 b1bd 6f26 c23d 0d2c 87be 68df ee3d
00000380: 16e2 a5be ccf9 183e e488 cbba 4357 fabd
00000390: 05b3 95be 2e3d 6abe 1ad9 de3b f9b7 433c
000003a0: 62ed a8bd cc6e 03be e331 143e 6fde d5bc
000003b0: 4dcd c5bd 3ad7 a3be 88ce 23be 6153 71bd
000003c0: 87ee cdbe 0571 54be 24e8 32be 203c a2bd
000003d0: 220c 33be 877b e33d ec7f 2bbe 9853 bbbd
000003e0: 1c16 ab3c 00e7 f4bd 0e8f 153d 441f 23be
000003f0: e26b 9ebc 4d1c bebe cb36 08be ebc1 b4be
0.08573493 0.2508886 -0.17925237 0.24491066 -0.06685625 0.12291742 -0.20515548 0.053462617
-0.0018062487 0.049802363 -0.029962802 -0.014173764 0.048315182 -0.0009943668 -0.023872942 0.023333982
-0.032492477 0.017859207 0.07433485 -0.02245909 -0.0007251494 -0.06866165 -0.010002963 0.058333714
-0.040990982 0.048891906 -0.015266528 0.07882901 -0.0643452 0.02100301 -0.027466005 0.08700556
-0.00786559 -0.039869823 -0.027149294 0.020799512 0.09106942 0.03988687 -0.0030598424 -0.01627275
0.58066076 0.018199394 -0.005971443 0.12685901 -0.21003179 0.27288976 -0.08536826 0.03346715
0.09155637 -0.08026041 -0.019398173 -0.054525454 0.0069674165 0.00079791696 -0.020085659 0.06947184
0.020535534 -0.08815381 -0.02768824 0.08171241 -0.14987287 0.09103629 -0.093219906 0.05943608
-0.027850002 0.03963193 -0.015266609 0.07946058 -0.03393329 -0.02802518 0.08541281 0.021436227
-0.019894268 0.013117644 -0.030725664 -0.028944103 0.08899069 -0.11220663 0.08207976 -0.09673323
0.044755094 -0.09386082 0.05804116 0.5355305 0.010811764 0.017063025 -0.27033615 -0.010574496
-0.12625293 0.075167075 -0.08271715 0.14861396 -0.064802326 0.08870716 -0.02137731 -0.09054918
0.039366305 -0.115779795 0.07620445 -0.06115808 -0.18405531 -0.034750912 -0.038359586 -0.04537645
-0.1682466 0.051685832 -0.30482534 -0.058697574 0.21348707 0.22049093 0.042507324 0.02011493
-0.026530143 0.103335075 0.018221823 -0.065006465 -0.022932194 -0.0723742 0.08941374 0.084222235
0.029930709 0.011492024 0.06829944 0.03471826 -0.22433747 0.067037575 -0.08592328 0.016672501
-0.20736416 -0.11434695 -0.05258575 0.2527977 0.26213187 -0.011235526 -0.14126402 0.08616444
-0.05863905 -0.15409422 0.06939565 -0.0025439186 0.14522058 0.16348481 -0.050389517 0.07084075
0.1113022 0.19662787 0.14539725 0.04406479 0.072332054 -0.07561427 0.11327422 -0.035039976
-0.07581108 0.0633232 -0.01639498 0.2057199 0.020196736 -0.039249413 0.097466424 -0.0005394344
0.23820433 -0.038720623 -0.08586349 -0.036607057 -0.12807794 0.11715054 -0.05989463 -0.0016615946
-0.03919939 -0.18744898 -0.0082191825 0.014949532 -0.2008725 0.23674534 -0.37204248 0.0013467515
-0.38924176 -0.36072388 0.1257134 -0.016158976 -0.021725168 -0.036095086 -0.09597638 0.04822693
-0.104956545 -0.10731951 -0.10050635 0.05457988 0.006641121 0.12729245 0.106872484 0.1151293
0.06574334 -0.00037343998 -0.02467107 -0.13094832 0.030731142 -0.08340994 -0.03054868 0.058624897
0.031662367 -0.015344741 0.09483645 0.12264467 0.0885124 0.10780593 -0.040176306 0.019936517
-0.019458983 0.13317536 -0.02795886 0.046270795 -0.19159414 -0.095716484 -0.03054047 0.11003721
0.15935206 -0.27965337 0.27264455 0.14703208 -0.08656082 0.09479987 -0.26400796 0.11663705
-0.32399052 0.1493904 -0.0015528467 -0.12223675 -0.29238144 -0.228749 0.006800783 0.011945718
-0.08248402 -0.12835234 0.14472155 -0.026107041 -0.09658299 -0.32000142 -0.15996754 -0.058917407
-0.40221044 -0.20746239 -0.17471367 -0.07921624 -0.17485097 0.11107545 -0.16748017 -0.091468036
0.020884566 -0.11958122 0.03651338 -0.15929896 -0.019338552 -0.37130967 -0.13302152 -0.35304198

fc1_val.bias f4 [128]
00000000: 8d65 91bd 0123 803d 48e2 c53e 81a5 43be
00000010: 0d17 983d bca8 333c cbd5 b73d 11e5 873e
00000020: e4a8 04be 8508 6d3e 655a 06bd eb7a 533d
00000030: e629 b5bd f8bf a63d 7440 923c 12c8 b03e
00000040: 83d1 243e b850 ca3e 7f50 cdbb ef48 253e
00000050: 9047 fd3b 7e99 dabd 9263 943e 32b8 a73e
00000060: cccc fb3e 358b af3e 2114 033d da5d 923e
00000070: 2d01 71bc af21 f23d a2b1 9d3e eaf0 afbd
00000080: 279e 553e cb07 933e d411 98bd 5b51 863d
00000090: f8e3 483e 956f eb3d 2f96 40bd a282 553e
000000a0: 76e4 6e3d 6f89 ef3d 711e b43e f3c9 6d3e
000000b0: 24c4 af3e 84b5 2c3e ef78 493e 17d6 bc3e
000000c0: 73b9 3d3e 6554 8fbd 2cce 543e b1fb a93e
000000d0: fdad 793e 5e67 ec3e 2dfd a63c 9907 b9be
000000e0: f9f5 2b3d 2d02 a13e dc46 a33e 3648 c03d
000000f0: 6e58 a63e 6d5a 6b3e 6c14 31bc e1da ba3e
00000100: d20e a13e 3721 853e 649c a33d 1e34 bb3e
00000110: a176 183e 4a75 573c c958 513d 7670 573d
00000120: 3308 593e e30b 723e e0d2 b03e 6178 a43d
00000130: a166 323e 8c44 a33c a760 54bc 4af7 253e
00000140: 5379 243e 5fe8 a33d c53e 9c3e 8041 c73d
00000150: 5510 803e ec16 003e 61f0 9e3d a9b3 03bc
00000160: 81f0 92bc 2332 993e d5cb 4ebd 0f27 953e
00000170: 6679 f13d c096 de3e b8de 5fbe 846e a63d
00000180: 7830 b13e fd7a c33d ea94 993d ea00 83bb
00000190: 4c78 8b3e 93b4 973e d4b1 683e 32e0 c5bd
000001a0: f017 673e c7d7 1c3d bffa 13bc 4f64 543e
000001b0: ffce b33e 3d9c 6abe 3293 c3bd b124 133e
000001c0: e494 093e c23d 503d 50fd 8a3e 3b9b ac3e
000001d0: a53c 363e a653 823e 7480 fe3d 1f84 e53d
000001e0: db13 a0bd d15f 5b3e 72c2 9b3a 234e 733e
000001f0: 2633 77be b628 ac3e 4888 de3e ce65 8c3e
-0.070994474 0.062566765 0.386492 -0.19106103 0.074262716 0.010965522 0.08976325 0.2654195
-0.12955052 0.23147781 -0.03280105 0.051630896 -0.08845882 0.08142084 0.017853 0.34527642
0.16095547 0.3951471 -0.0062656994 0.16141103 0.007729478 -0.106738076 0.28982216 0.32757717
0.49179685 0.34285894 0.03200162 0.28587228 -0.014709753 0.11822831 0.30799586 -0.085908726
0.20861112 0.28716883 -0.074252754 0.06558486 0.19618213 0.11495892 -0.047018226 0.20850614
0.058323346 0.11696135 0.35179475 0.23221569 0.3432933 0.16866118 0.19675039 0.36882088
0.18527775 -0.06998519 0.20781773 0.33199838 0.24382778 0.46172613 0.020384395 -0.3613861
0.041982625 0.31446972 0.3189 0.09388773 0.32489341 0.22983713 -0.010808092 0.36495116
0.3145662 0.26001903 0.079888135 0.365632 0.14889003 0.0131505225 0.051110063 0.052597485
0.21194534 0.23637347 0.34535885 0.08030773 0.17421962 0.019930147 -0.012962497 0.16207615
0.16061907 0.08003306 0.3051664 0.0972929 0.2501246 0.12508744 0.077606924 -0.00803844
-0.017936947 0.29921064 -0.050487358 0.29131362 0.11790733 0.43474388 -0.21862304 0.08126548
0.3460729 0.095449425 0.07499106 -0.0039979117 0.27240217 0.29629955 0.22724086 -0.096619025
0.22567725 0.03829172 -0.0090319505 0.2074139 0.35118863 -0.22911163 -0.0954956 0.14369465
0.13435704 0.050840147 0.27146387 0.3371218 0.17796572 0.25454444 0.12426844 0.11206841
-0.07816287 0.2142327 0.0011883511 0.23760276 -0.24140605 0.3362481 0.4346335 0.2742142

fc2_val.weight f4 [128, 128]
00000000: 3070 9abc 2533 52be 792c b63e bb4c 193f
00000010: 47c6 7a3f 9284 0f3f 0191 60bd d630 efbd
00000020: f544 c0be 796d 903e d52c 11bf ca48 b83d
00000030: 8e81 35bf b4e4 42bb aebe 6c3f 6fa2 dd3d
00000040: c8aa 4a3e 35a1 103f d3ee bf3e 1356 103e
00000050: 7f5e b83f f1c9 123f 2fbd e2bd c78a eb3d
00000060: e1d8 10bd 52fe a93b 68fc 4abe 6c4b c2bd
00000070: be1b 493f f2e4 3c3f 4cb3 bebe 7966 7bbe
00000080: 8c48 9a3f 284f f4be 58f4 b83c a0c8 72be
00000090: 447c 80bf 3191 dc3e 5df8 d9be 6319 18be
000000a0: 0c04 a6be 199c c43e 2056 d3bd 577c 853e
000000b0: c5f1 e03c 6c5d 08be c968 e83e 39af 3abd
000000c0: fd91 e8be dae1 913f 397c 39be f427 973c
000000d0: 4bf8 b2bd 3fa6 843e e1b1 6bbe 1e4b 2cbe
000000e0: 4087 32bf 4b62 be3e 94bd 7b3d 1546 b0be
000000f0: 7cd1 1f3e b3ec 773d 9ed4 5d3d 9c57 a83d
00000100: d39f 65bb c87c 79bd d252 c13c bfe6 86bd
00000110: ef6b e7be 03fb 523e ab54 9f3d 26c3 55be
00000120: 701e b53d 26b5 8bbe cb07 7f3e 51ce 94be
00000130: d01f 86be c64c 39be 8e58 c7be 2a42 4b3e
00000140: 2a26 cbbd f50d 7abe 9a05 c93e d18e 68bc
00000150: 3698 19be bc70 c03e af6d 6ebe a71b 453e
00000160: f16a f5be b5fd 023f 4dfb b2bf f098 75be
00000170: 829f 41be 77e2 283e 8940 22bf 6e61 4a3f
00000180: 1fc0 93bd e373 9e3e a449 2e3e a44e 10bf
00000190: e95a f8bc 9bf5 4ebd ca53 58be a7ad 45bf
000001a0: 84bd 463e 260a 5e3e 8b73 f8be c9af b2bd
000001b0: d4bd 0abe 4655 5bbe bec9 6cbd 959d dfbd
000001c0: f64e c2bd a44e 78bd d485 68bd c7be 283d
000001d0: b914 813e d4f9 47be 37b1 31be 5bf0 20be
000001e0: a670 edbe f4ff 4cbe 445b d43c b098 c5bd
000001f0: c44e 873e 1925 dc3e 8eb9 ef3d 3e13 69be
00000200: 67f0 3c3e 6bdf 503e 438f 69bc 4c96 12bd
00000210: 0d9d 553e 14de 913d c631 363e 6b6d 1d3e
00000220: 7cc6 72bc 2a8d 2e3e a4f7 613e 9012 ea3d
00000230: 7e64 c13d 26bd 1f3d 5b41 683f 8526 143e
00000240: 49db 843d 6231 aa3d c2db 863d 1626 66bc
00000250: 95fa 653f 72b1 cd3c fe87 513e ef0c 093e
00000260: 439f db3d 86d2 f23d 6d3c 9f3d 5598 1c3e
00000270: ddac 72bd da54 a73d 65a8 103e 4f90 96bd
00000280: bf55 593e 9a28 113e 4229 da3c d423 70bd
00000290: 00a4 8d3e 8724 533d 5d38 4fbb 78ec 9fbc
000002a0: 26dc ea3d 44ae 8e3c 07ca 5c3c a0ea 493c
000002b0: d3dc b73d 19a4 f23c 1617 6f3c 03e6 163e
000002c0: 2793 9b3e 0cd7 353e 32fd 333e 676d 793d
000002d0: 874b c23d af46 1b3e 8cdd c73e 09f6 36be
000002e0: 7eec 863e 4e89 a73d 6adf 123d 5d1d 3a3e
000002f0: 8283 3e3c 5023 fb3d c25b 603d aadd 9e3c
00000300: 797c 583e 2230 1a3e cc96 a13d 813a 7e3c
00000310: 0570 403e 388b 8ebb e860 dc3c 7cbf e33d
00000320: 1ce5 2b3d 9761 de3d 8817 da3d 51aa 2b3d
00000330: 9ff3 d03c f71e bd3d 64f5 503e 2ace 1b3e
00000340: 249c 053d 84a9 333e 33d6 31bd cf2c 2f3e
00000350: b067 b93d 7dfb 693d 4990 883e 4530 f13d
00000360: 3be0 0dbd 677f 683d cf55 f73e ca2d 223e
00000370: fa06 9a3d 11be 3b3e 9e33 993b 1adf 923d
00000380: ae1f f23d e852 053e 1200 2e3e 9152 5fbd
00000390: 34f3 2f3e f749 76bb dc20 b23d 714d cb3d
000003a0: fb0b ef3d 6933 033e 9f2d 0f3e 223c c73d
000003b0: a8c4 753d edb9 9bbd 5cfc 853d c6ec bb3b
000003c0: 3145 643d 14da 4d3e a293 833e d553 0fbc
000003d0: ebc0 543d 4adc 913d 7abc 0fbc 554f 823d
000003e0: efb3 b2ba 5258 2d3d b466 e33d f531 d93d
000003f0: ce8c e4bd 7fec b83c f0c3 cc3c f8b3 513e
-0.018852323 -0.20527323 0.35580805 0.59882706 0.979588 0.5606166 -0.054825787 -0.116792366
-0.3755261 0.2820852 -0.56709033 0.089982584 -0.7090081 -0.0029738368 0.92478454 0.108219974
0.1979171 0.5649598 0.37486896 0.14095335 1.4403838 0.5733939 -0.1107124 0.11501079
-0.03536308 0.005187788 -0.19822848 -0.09487042 0.78557956 0.7378684 -0.37246168 -0.24550809
1.205339 -0.4771664 0.02257745 -0.23709345 -1.0037923 0.43079522 -0.425723 -0.14853434
-0.32424963 0.38400343 -0.103191614 0.26071426 0.027459035 -0.13316888 0.45392445 -0.04557726
-0.4542388 1.139705 -0.18113793 0.018451668 -0.087387644 0.25908086 -0.23017074 -0.1682553
-0.69737625 0.37184367 0.061460093 -0.34428468 0.15607256 0.06052847 0.054157846 0.08219835
-0.003503789 -0.060910016 0.023599062 -0.0658698 -0.45199534 0.20603566 0.07779821 -0.20875224
0.08843696 -0.27286643 0.24905317 -0.29063657 -0.26196146 -0.18095693 -0.3893475 0.19849458
-0.099193886 -0.24419387 0.39262086 -0.014194206 -0.1499947 0.3758601 -0.23284028 0.1924883
-0.47933152 0.51168376 -1.3982941 -0.23984122 -0.18908504 0.1649264 -0.6337972 0.79054916
-0.072143786 0.3094779 0.17020279 -0.56369996 -0.030316787 -0.050527196 -0.21125713 -0.772181
0.19408232 0.21683559 -0.48525652 -0.087249346 -0.13548976 -0.21419248 -0.057809584 -0.10918728
-0.09487717 -0.060621873 -0.056768253 0.041197564 0.25211123 -0.19528896 -0.17352758 -0.15716688
-0.46375006 -0.20019513 0.025922425 -0.096482635 0.2642728 0.42997053 0.117053136 -0.22761247
0.18451081 0.20397727 -0.014255348 -0.035787866 0.20860691 0.07122436 0.17792425 0.15373771
-0.01481783 0.17046037 0.22067124 0.11429322 0.094429955 0.038998745 0.90724725 0.14467819
0.06487138 0.083102 0.06584884 -0.014047166 0.8983548 0.025109027 0.20462033 0.1338384
0.10723736 0.118565604 0.07775197 0.15292485 -0.059246887 0.08170481 0.14126737 -0.073517434
0.21224116 0.14175645 0.026631001 -0.05862792 0.27664185 0.051548507 -0.0031619288 -0.019521937
0.11467771 0.01741708 0.013475901 0.012324005 0.08977666 0.029619263 0.014592906 0.1473618
0.30385706 0.17757815 0.17577055 0.06089535 0.09487062 0.15163682 0.39036214 -0.17867292
0.26352304 0.08180486 0.035857596 0.18175264 0.011628034 0.12262595 0.054775007 0.019392807
0.21141233 0.15057424 0.0789009 0.015516878 0.18792732 -0.0043500923 0.026901677 0.11120507
0.041966543 0.108584575 0.106490195 0.041910473 0.025506793 0.09234422 0.20406109 0.15215364
0.03261961 0.17545134 -0.043417167 0.17106937 0.0905298 0.057124604 0.2667258 0.11776785
-0.03463767 0.056762125 0.48307654 0.1583778 0.07520862 0.18334223 0.0046753427 0.071714595
0.11822449 0.13019907 0.16992214 -0.0545221 0.17182618 -0.0037580708 0.08697674 0.0992688
0.11672207 0.1281258 0.13982247 0.09728266 0.060002 -0.07603822 0.06542274 0.0057350127
0.05573005 0.20102721 0.25698572 -0.008748014 0.051941793 0.07122095 -0.008772964 0.06362788
-0.0013633947 0.042320557 0.111035734 0.10605232 -0.11159669 0.022573708 0.024995774 0.20478809

fc2_val.bias f4 [128]
00000000: c349 963e 2de7 6c3e dc1b 8c3e fe4d 163e
00000010: 7927 1f3e e0de 5a3e 3dc9 5d3e 198d 5c3e
00000020: 1a02 3d3c f8d3 dfbc 4aef c53d 0865 203e
00000030: 8a13 eebd 6b8f 893d b206 803e a5d5 373e
00000040: 2a88 7a3e 2bc2 4abe 07c3 873b eabf 01be
00000050: 97c1 a4bd 9b2c 2ebd 4434 a33d 29db 8b3e
00000060: da59 eabb ca08 713e 6bd4 e2bd 28b2 883e
00000070: 791d 923e d108 bbbc 84e1 533e 7c20 3cbe
00000080: 4528 55bc 5ece 673e 06e9 2f3e de5d 00be
00000090: a772 9fbd 978b 933e 1ec7 4f3e d080 403e
000000a0: 7897 1a3e 116e 3d3c 6859 383e 378e 963e
000000b0: cb82 c6bd d39a 2c3e 5330 983e 23e6 283e
000000c0: 9511 893e 1af8 13bd 4684 293e fd84 773c
000000d0: dfe8 263e 5b63 5b3e 3786 313e 76b9 f53c
000000e0: d5de 03bb ff93 4cbd 1d79 6e3e 8bad ab3d
000000f0: 084f 8b3e efdd 183c 49e5 723d 8893 4b3e
00000100: 0b2d 853e 671b 583e 72f9 453e 6a80 803e
00000110: 39a4 423e 385f 873e 05d7 d4bc 35c6 8c3e
00000120: fb0d 9c3c 1ff2 8b3e 427e 783c 5281 06be
00000130: 6dce 743e 676c 1dbe 5834 2f3e 8b8e 943e
00000140: f064 823e 6aac 213d 090a ec3d 517b ce3d
00000150: 17fe 91bb 5889 22bc a08f 3f3d e72f 393e
00000160: d6a8 213e 56f5 a3bd 5387 433e 68d9 533e
00000170: cac6 fa3d 1db8 583e 75aa 173e 2eaf 8b3e
00000180: ed37 663e 1a26 183e c981 4b3d f4fe 473e
00000190: 35a3 fcbc f78c 9ebd 7143 953e 6e4d 923d
000001a0: 3252 c2bd 7a04 4f3e 8646 3bbe 9538 883e
000001b0: fd28 143d 8037 acbd cd4f 373e ec81 b1ba
000001c0: f5e8 15be a59e 493e 1839 833e c60c 953e
000001d0: 6066 33bd f910 523c 6463 913e d026 5e3e
000001e0: 2b10 1c3e 9964 0bbe 9146 983c 3fd8 003e
000001f0: a5cf 7c3e 165c 7b3e 4910 48be 547c d5bd
0.2935315 0.23135062 0.27365005 0.14678189 0.15542401 0.21374083 0.21658798 0.215382
0.011536146 -0.027322754 0.096647814 0.1566354 -0.116248205 0.06716808 0.25005108 0.17952593
0.24466005 -0.19800632 0.004143122 -0.12670866 -0.08044737 -0.042523008 0.07968953 0.27315643
-0.0071518244 0.23538509 -0.11075672 0.26698422 0.2853811 -0.022831352 0.20691496 -0.18371767
-0.013010089 0.22637317 0.17178735 -0.12535807 -0.0778554 0.28817436 0.20290801 0.18799138
0.15096843 0.011561886 0.18002856 0.29405376 -0.096929155 0.16855936 0.29724368 0.1649404
0.26771227 -0.03612528 0.16554365 0.0151073905 0.16299771 0.2142462 0.17336355 0.029995661
-0.0020121832 -0.049945828 0.23288389 0.0838271 0.27208734 0.009330257 0.059300695 0.19880497
0.26010928 0.21104203 0.19333437 0.25097972 0.19007958 0.26439834 -0.025981436 0.2749497
0.019049635 0.2733316 0.015166821 -0.1313527 0.2390687 -0.15373383 0.17109811 0.29015002
0.25467634 0.039471067 0.115253516 0.100821145 -0.0044553387 -0.009920441 0.04676783 0.1808468
0.15787062 -0.080057785 0.19094591 0.20688403 0.12244947 0.21163984 0.14811118 0.2728209
0.22482271 0.14858285 0.04968432 0.1953085 -0.030839542 -0.07741731 0.29153016 0.07143675
-0.09488334 0.20216551 -0.18288621 0.2660567 0.036171902 -0.08409023 0.17901535 -0.0013542748
-0.14639647 0.19689424 0.25629497 0.29111308 -0.043798804 0.012821429 0.28396142 0.21694493
0.15240543 -0.13612594 0.018588336 0.12582491 0.24688585 0.24546847 -0.19537462 -0.10424104

fc3_val.weight f4 [1, 128]
00000000: 1424 24c0 1e6d 15be 3116 62be 9f0d 963f
00000010: 28c8 15be 8aef 2bbe 272a 41be 51c5 46be
00000020: c5ab b83f 817f d13e aafa 91be f8a9 bb3f
00000030: d41b e73e fb20 903f 6338 47be 2930 3abe
00000040: fca5 2cbe 935b a83e bb86 893e 653c b53e
00000050: 7e92 7a3d 6525 c23e 3675 7abe a2f8 08be
00000060: 7f44 c03e 3399 25be dc47 af3d 2198 16be
00000070: e507 44be 05ec 7f3e 63d3 6dbe 48b4 9b3e
00000080: e76e 683f 80a6 29be b2ec 30be 8928 bb3e
00000090: 63ba 2a3e c8bb 5abe cb7e 16be 4170 6fbe
000000a0: 5f1f 27be bcfa 8f3f 9d5e 55be 29f0 39be
000000b0: 824c 883e bf62 a63f 62d3 1fbe 9037 69be
000000c0: 743b e3bd c341 083f 3fbb 32be 7ff8 6a3f
000000d0: e3cf d33f 971c 4dbe 39b0 0bbe 52e3 6a3f
000000e0: 30a2 043f 8aff 363f e7d2 19be 7c56 983f
000000f0: 82db 2cbe b6f4 993e 484a ae3f 9432 d83f
00000100: 5a69 25be 83d9 35be a6e5 17be 9e4c dd3f
00000110: d316 33be 5266 33be ecbf fc3e 2029 69be
00000120: e4cc 9739 5687 5bbe f961 9d3f 259e 963e
00000130: 640e 20be 6733 593f 725b e6bd f8a8 75be
00000140: cf63 25be 1b8d 433f eed6 53be 60bf 9f3f
00000150: 18bc 553f 5fbf 833e 0e16 cc3f c4af a93f
00000160: a13d 073f bcfc af3e ab0a d33f ca67 68be
00000170: 8ec1 c53f 7240 eabd b47f 8a3f 17aa 3bbe
00000180: d26f 4fbe 70d9 c43e 4766 a43e bf7e 15be
00000190: 7553 373e 5b2c 383f 9f0e 43be 2000 b53e
000001a0: faa3 fe3e 2bb7 be3f 539b e83e 2f24 08be
000001b0: 8256 983f 30be 903e 85e1 33be 46c7 b73e
000001c0: 9587 0e3f 97ca 29be 49cb 09be 1d62 60be
000001d0: a065 de3e 399b be3e 736f 49be 3551 48be
000001e0: 8b3f c83f aeea 183f be73 513f b4df 733f
000001f0: 7bce ebbd 2241 1bbe b2c3 f13e 0cf8 fa3e
-2.564702 -0.14592406 -0.22078778 1.1722907 -0.14627135 -0.16790596 -0.18863736 -0.19411208
1.442742 0.4091759 -0.28511554 1.4661245 0.4513842 1.1260065 -0.19455104 -0.18182434
-0.16860193 0.32882366 0.26860604 0.3539764 0.061174862 0.37919155 -0.24458775 -0.13376096
0.37552258 -0.16171722 0.08558628 -0.1470647 -0.19143637 0.24992378 -0.23225169 0.3041098
0.90794224 -0.16567421 -0.17277792 0.36554363 0.16672663 -0.21360695 -0.14696805 -0.23382665
-0.16320561 1.1248393 -0.20836873 -0.1815802 0.2662087 1.2998885 -0.1560798 -0.22775102
-0.11095324 0.53225344 -0.17454241 0.91785425 1.6547817 -0.20030437 -0.13641442 0.91753113
0.5180998 0.7148367 -0.15021859 1.1901393 -0.1688061 0.30069512 1.3616419 1.6890435
-0.1615347 -0.17758755 -0.14833698 1.7289007 -0.17489175 -0.17519501 0.49365175 -0.22769594
0.0002895362 -0.21438345 1.2295524 0.2941753 -0.1563049 0.8484406 -0.112479106 -0.23990238
-0.16151355 0.76387185 -0.20687458 1.2480278 0.83490133 0.25731942 1.594423 1.3256764
0.52828413 0.3437251 1.6487631 -0.22695842 1.5449693 -0.11438073 1.0820222 -0.18326603
-0.202575 0.38447142 0.3210928 -0.14599131 0.1790293 0.7194268 -0.19048546 0.35351658
0.4973448 1.4899648 0.45431003 -0.13295053 1.19014 0.28270102 -0.17566498 0.3589422
0.5567563 -0.16581188 -0.13456453 -0.21912427 0.4343691 0.372278 -0.19671421 -0.19562228
1.5644392 0.5973309 0.81817234 0.9526322 -0.115139924 -0.15161565 0.47219616 0.4901737

fc1_adv.weight f4 [128, 43]
00000000: f963 2b3d 578c f3bb f21f 1ebe 57c5 f53d
00000010: ae77 3c3e d5d5 f13c 3507 e43d ef2b ae3d
00000020: c630 893d 55f9 7aba 13dc de3d 7801 133e
00000030: 1cc7 203e 2ce6 fd3d 435e bc3d d2e4 863d
00000040: b1d5 d1be 74c0 703c 637f c83d 0c74 a83d
00000050: bc3b 4bbd 12c8 b5bd 1ace dd3d b1ed cb3c
00000060: 08bf cd3c 206a 2a3e f7cc 913d e707 da3d
00000070: 26c3 59bd fd00 c43d 2b79 873d 387f eb3d
00000080: 7c30 673c 40d0 62bc 84f7 06bd b8e4 96bc
00000090: 9047 973d bc03 943c 963c c5bd 0203 0c3e
000000a0: 9b46 0bbf 5a50 293d e7ca b3be bcfc e43d
000000b0: 79ce 32be a567 0bbe a3b0 183e 8218 acbd
000000c0: ad10 283c 27af 26be c436 d7bd 8042 e23d
000000d0: 53a8 af3c 4d53 013c 98d9 9e3d 82a1 a03d
000000e0: 33a2 a23c c202 ce3c 5e96 a2bc 91a8 bbbc
000000f0: ad44 573c 3fc8 88bd 5014 ed3d 5729 c13d
00000100: 42bd 133d 1d8f 81bd 19f5 083c 2817 203d
00000110: 7c48 94bd 419e 073e 8bd6 f8bc a948 923d
00000120: ed4c 533d 0ba1 c03d 8cb7 133d c306 38bd
00000130: 5abd ce3d d005 1fbd e5cf 9b3d 8e10 893d
00000140: a222 69bc c6b5 f83c 09c7 dc3d 5753 553f
00000150: b3ea 923d fa7c 993c 1c31 0c3f d610 60be
00000160: e3fd 14be 8acd 893d 9aa3 083e 9d1b f63a
00000170: f709 35be f654 b4be c81c 33bd b661 813d
00000180: 5b01 513e b79f cf3d fadb 8bbd 5841 44be
00000190: 8e37 23be 1198 23be 8215 a03e a477 1a3c
000001a0: 13da 9d3d d80e 0e3e d83a 7f3d 5569 ec3d
000001b0: fb8c 6cbd 46b8 73bd 73ec 103e 9412 a33c
000001c0: 50f2 9bbd 6a6a 913d 1f8b ac3c aed6 863e
000001d0: 2514 bd3d e1b2 753e 6ff8 6a3d fd29 0f3e
000001e0: ae85 af3d 913e 203e d208 07bd dddb 0cbc
000001f0: 1055 f93d 316e 5b3e 5c5a 603f 79ad 683d
00000200: b023 183c 15ba 86be 3646 8d3d ee1a 9d3d
00000210: a83c 273e e13c f1bc bcd5 72bc 7ed1 e23d
00000220: 3af5 2f3d f22c c43d 8995 a33d eb4f 923d
00000230: a906 aabd 3f03 6ebe 9a07 4bbe dbe6 f3bd
00000240: bb05 5ebd 534d 1f3e 7517 ab3d 0bae 69bc
00000250: d9a8 5abd 4450 81bd 11a4 c93d c1a3 8a3d
00000260: 65f3 e33d 852c bc3c b212 5dbd c5ed 67bd
00000270: 7e60 1b3e 8e34 693d 5fbe 37bd 703a f53d
00000280: 1435 033d 7002 793c 2249 b23d e0ce 933d
00000290: b4a8 1a3e 883d 0b3d 3eab 08be c4ee dcbd
000002a0: 1e59 533c 729c b53f 1c27 e63d dd7d e73d
000002b0: 2b5d 02bf cfb6 8dbe 73fd f33d 926c 5bbe
000002c0: 8a4f d4be e7b7 3cbe 03f8 4f3d 2ba3 c9bc
000002d0: ed06 96bc b361 5cbe d8e5 2bbe 2e2a 50bd
000002e0: b01b 413d 920e 8d3d 35d2 b3ba 385a 94bc
000002f0: be43 14be 62be 41be ad1b abbd 77a2 4fbe
00000300: 64a0 babd 5efc a8bd c510 41be 1869 153c
00000310: 411c f0bc 523e 07bd f4f3 b13d 1501 f2bd
00000320: 64fb 1abe 87e7 7abe 26f5 6ebe aabf 8fbe
00000330: 8f16 40be b041 fcbe 9007 9bbe 1688 1dbe
00000340: 0528 8ebe 2a2b debd a322 17be 3718 a33d
00000350: b5ed 3dbe 71c4 5a3d 0e99 083c 5f7b 88be
00000360: 9316 09bf caf1 b7bd 9d5b 883c 9419 103e
00000370: e004 f5bd 2668 933d e8ab 0b3e 0b21 c23d
00000380: 3208 9e3d a0d3 313e ee91 053e 968f 273d
00000390: 74b9 5bbd 8509 7d3c 8a1b 533d 2d0c 6c3e
000003a0: 22bd 0bbb 7cd3 923e e2dd 083e 25c6 8d3d
000003b0: 76f5 1cbc 2ce1 c83b c419 323e fcf1 d33c
000003c0: 7b80 343e 0672 fabc 77b1 b8bc 69b3 f93d
000003d0: d58b f93a 2aad 93bc 96ff d6bd 6f6d 193e
000003e0: a3a1 133e 771d 483d 8c0b 49bc 0624 f43d
000003f0: c21f 053e 8d68 083e bb68 743e a3ba aa3f
0.04184339 -0.0074325013 -0.15441874 0.1200053 0.18405029 0.029520908 0.11134187 0.085044734
0.06698756 -0.00095738965 0.108818196 0.14356029 0.15700954 0.123974174 0.091976665 0.06586613
-0.40983346 0.014694322 0.09789922 0.08225259 -0.049617514 -0.08876051 0.108303264 0.024893614
0.025115505 0.16642046 0.07119172 0.106460385 -0.053164624 0.09570501 0.06614908 0.114988744
0.014110681 -0.013843596 -0.032950893 -0.018419608 0.07386696 0.018068187 -0.096306965 0.13673022
-0.5440461 0.041336395 -0.3511574 0.11181018 -0.17461576 -0.13613756 0.14911132 -0.08403112
0.010257882 -0.16277753 -0.105084926 0.1104784 0.021442568 0.007893396 0.077563465 0.07843305
0.019852733 0.0251478 -0.019847091 -0.022907527 0.013138932 -0.06678819 0.1157614 0.09431713
0.036069162 -0.06326125 0.008359217 0.039084584 -0.07240388 0.13243963 -0.03037574 0.07142765
0.051587034 0.094057165 0.036063716 -0.044928323 0.1009471 -0.038823903 0.07608012 0.06692611
-0.0142294485 0.030360114 0.107801504 0.8333029 0.071736716 0.018736351 0.54762435 -0.21881422
-0.14549975 0.067286566 0.13343659 0.001877654 -0.17679583 -0.3522107 -0.04372862 0.06317465
0.20410673 0.10137885 -0.068290666 -0.19165552 -0.15939161 -0.15975977 0.3126641 0.009427939
0.0770761 0.1387285 0.062311977 0.11543528 -0.057751637 -0.05950191 0.14152698 0.01990632
-0.07614577 0.07100375 0.021062432 0.26335663 0.09232358 0.23994018 0.05736583 0.13980861
0.08570419 0.15648867 -0.032967396 -0.008597341 0.121744275 0.21428753 0.8763788 0.05680606
0.009285852 -0.26313844 0.06898157 0.07671152 0.16331732 -0.029447975 -0.014821466 0.11075114
0.042958476 0.09578885 0.07987506 0.071441494 -0.083020516 -0.23243426 -0.19827119 -0.119092666
-0.054204684 0.1555684 0.083540834 -0.0142626865 -0.053383682 -0.063141376 0.09845746 0.06769515
0.11130408 0.022970447 -0.053972907 -0.05662324 0.15173528 0.056934886 -0.044859286 0.11974037
0.03203304 0.015198335 0.08705355 0.07217193 0.15103418 0.033994228 -0.13346574 -0.107877284
0.012899665 1.4188368 0.11237928 0.113033034 -0.50923413 -0.27678534 0.11913576 -0.21428135
-0.41466933 -0.18429528 0.05077363 -0.024613937 -0.01831385 -0.21521644 -0.16786897 -0.050821476
0.047145545 0.06887545 -0.0013719263 -0.018109426 -0.14478967 -0.18920282 -0.08354888 -0.20276819
-0.09112623 -0.0825126 -0.18854053 0.009119295 -0.029310348 -0.033018418 0.086891085 -0.11816613
-0.1513496 -0.24502383 -0.23335704 -0.28075916 -0.18758605 -0.49268866 -0.30279207 -0.15383944
-0.27764907 -0.10848077 -0.14759307 0.07963603 -0.1854771 0.053409997 0.008337272 -0.26656625
-0.5355007 -0.089816645 0.016645247 0.14072257 -0.119638205 0.07197599 0.13639796 0.09478959
0.07716407 0.17365885 0.13043949 0.04090842 -0.05364366 0.015444164 0.051539935 0.2305152
-0.0021322449 0.28676975 0.13365892 0.06922559 -0.009580007 0.006130358 0.17392641 0.025872223
0.17627136 -0.030571949 -0.02254556 0.12192423 0.0019038866 -0.018026907 -0.10497968 0.14983152
0.14417128 0.048856225 -0.012270819 0.119209334 0.13000396 0.13321133 0.23868077 1.3338207

fc1_adv.bias f4 [128]
00000000: 7c2e a03e 83de 0c3e e9cf 243e 1f77 32bd
00000010: 1e7a 6c3e 2f7d 523d 1b42 4d3e ca3b 9abd
00000020: 138a 783e a601 4e3e bd26 4cbe 7371 13bd
00000030: fa6d 7bbe 2594 cd3e ae95 b5be 24ee 44be
00000040: bfce e43c 706c 94be b633 23be 53a9 6dbe
00000050: 1336 ee3e 4f75 983e 3443 c4bd b321 f93e
00000060: 7f59 373e 2200 813e 6afa f53e 112b 74bd
00000070: 5e78 5bbd ae86 003f 2ba7 40be d414 44be
00000080: 6a1a 61bc 142d e13b 297f 503e 6ab8 b03e
00000090: 36fa 8a3e d809 9dbd 5e65 c53e 43b4 4b3e
000000a0: 92f2 e4bd 49b1 afbe 4c40 65be 0c88 67bd
000000b0: daab a33d 3e73 623a 895d 943e f82c 813b
000000c0: 779e 8dbd c16f cf3d 90d8 78bc 9f57 0e3d
000000d0: b718 803c 3c40 35be 74e0 b63e dcde 993c
000000e0: c8d9 91be 3c1e 3bbe deb8 013f 1290 8ebe
000000f0: eb92 973e ff62 f43e af25 8c3e 6ce1 da3d
00000100: 692c 013f 1df2 86bd 3f68 a83d 5049 b5bd
00000110: 6dd8 2fbd 638d e6ba 83bd 90bd a3be 5abe
00000120: 490e a9be 0fda d33e 8693 cf3e 29ba c43e
00000130: ade4 17bd 7aba c13e 9205 a33d 0b52 673b
00000140: d189 cfbe def2 c3bd e09f b4bd 5038 e3bc
00000150: 82df ff3d 77ed 563d ce23 783e cf3a 953e
00000160: 96f9 eabd bc51 cf3e 18d1 7c3e c35f b6be
00000170: 9f07 aa3b fa5e e23c 9635 863c eef0 90bd
00000180: 5920 db3a 6c9d ea3e c824 b63b 835e c3bd
00000190: 45a9 7abd 0fcd eebd f129 39be a664 bc3d
000001a0: 4e90 a23d 13ee 043f 2cef 5a3c 9210 9c3e
000001b0: a90d 49bd 63a7 0f3e 95ac b5bc 71a5 cf3d
000001c0: 9d22 63bc 83a6 8f3e afcd 1a3e f715 8ebe
000001d0: ffd3 5ebe 6bce 6b3d 853c dc3d d64c 18be
000001e0: 8a99 a73c 55e9 c33d f8a5 e63e 4f6d 7f3e
000001f0: 1ac4 1e3c 918e a3bd 1f1c 80be bc51 a63e
0.31285465 0.13756756 0.16094936 -0.043570634 0.23093459 0.051388916 0.20044748 -0.07530935
0.24271421 0.20117816 -0.19936652 -0.035996865 -0.24553671 0.40152088 -0.3546576 -0.19231468
0.027930615 -0.2898898 -0.15937695 -0.23209123 0.4652563 0.29777 -0.095831305 0.48658523
0.17905234 0.25195414 0.48042613 -0.059611384 -0.053581588 0.50205505 -0.1881377 -0.1914857
-0.013739208 0.006871829 0.20361008 0.34515697 0.2714402 -0.07667893 0.385539 0.19892983
-0.11179079 -0.34314945 -0.22387809 -0.05652623 0.079917625 0.0008638388 0.28977612 0.0039421283
-0.069149904 0.10128737 -0.015188351 0.03475153 0.015636785 -0.17700285 0.3571812 0.018783025
-0.28486466 -0.18273252 0.5067271 -0.27844292 0.29604277 0.47731778 0.273725 0.10687527
0.5045839 -0.06589148 0.08223008 -0.08851874 -0.04293101 -0.0017589744 -0.070673965 -0.21361785
-0.3301871 0.41377303 0.4054224 0.3842328 -0.037083317 0.37837583 0.07960047 0.0035296704
-0.40534833 -0.095678076 -0.08819556 -0.027736813 0.124938026 0.052472558 0.24232408 0.2914643
-0.11473386 0.40492046 0.24689138 -0.35619935 0.005188897 0.027633179 0.016382974 -0.07077204
0.0016718014 0.45823228 0.005558584 -0.09539511 -0.061196584 -0.116602056 -0.18082406 0.09198885
0.0793768 0.5192577 0.013362687 0.30481392 -0.049085293 0.14028697 -0.02217702 0.10138977
-0.013863233 0.28056726 0.15117525 -0.27751133 -0.21760558 0.057569902 0.10753731 -0.1487306
0.020458955 0.09565989 0.450485 0.24944042 0.009690309 -0.07986177 -0.25021455 0.32484233

fc2_adv.weight f4 [128, 128]
00000000: 189e b4bd 803f 143e d9fc 1c3e 915c 5d3d
00000010: 8d46 983d b031 9a3d 3110 41bc 2640 d33d
00000020: 144a 913e 4e43 51bd 6ce9 c93d 7b9d 983d
00000030: b2ae bc3a 2234 813d e5aa 543e 8675 ea3d
00000040: c0ce 193d 0e6d 1c3e 8b35 2b3e 0f79 cc3d
00000050: 17b8 77bd ca46 40be 91f8 983c e809 8dbd
00000060: 9123 bcbd e933 963d 17a1 a53d fe82 bbbb
00000070: b51d 2b3e e8e0 563d 97bf 573e c7f7 023c
00000080: a4e9 6a3d 9cf2 ef3d 25e5 a2be da89 a13c
00000090: 2c7b 56bd b8d5 333e 9de8 3bbd 3905 2e3c
000000a0: b270 393e b33c 193e e3cf 703c 75c5 3fbe
000000b0: 53d0 86be d770 733d a295 bb3d f3bb af3d
000000c0: 432d 24bf 5bd0 c83d df62 0bbe 3935 733c
000000d0: 26b0 153d 4db4 573c 84af a83d 6995 b0be
000000e0: fd4f 113e 53e6 31bd 7547 ebbc 69e3 d73d
000000f0: cb97 0dbd f5b9 c8bd 631a 2d3d 0059 46be
00000100: fd1a 8fbd 2f1a 52be 57c5 d0be 0503 3f3d
00000110: ec91 e23c 5fe4 32bc d42f f33d bea0 fe3d
00000120: b1c9 57bd 4b0c 6bbc e8ff 2dbd 72b1 25bd
00000130: 1e81 803c cc42 3ebe 8d68 123e 7ab7 a33d
00000140: 6165 103e 9b9c 9bbd 16f5 4ebe 7706 9f3d
00000150: 858d f03d b925 17be ce00 523d 3ee7 13be
00000160: 9c3c aa3d 8dd6 1bbd 807c 263e ca7b ac3d
00000170: 5ae2 e1bd 9648 033e c26c 75bd e613 03be
00000180: def3 f8bd 3f26 75bd ec57 3d3e 4d60 a73d
00000190: e22d 383e 0310 223e f097 f73d ea66 58bd
000001a0: 17be 31be 4e99 cdbd df45 0cbe f36b 123c
000001b0: 9791 223e 29ca 233d 4cdc 83bd 4290 85bd
000001c0: 88e6 23bf da03 cbbc 5615 72bb e5f4 023e
000001d0: 3beb 923d 2cb2 7dbd bae3 ae3d c35a ae3c
000001e0: 7b7b 493e 00a9 583c df94 d5bd caec b6bd
000001f0: 4707 2e3e 71b6 dc3d b3b4 1b3e 55a3 0c3d
00000200: 8756 06be 5f7a 2b3e 0c67 423d 384e 673d
00000210: f653 6fbd dff1 093e 67e3 06be f0ca 6b3d
00000220: 6eca db3c e7f5 4bbd aa05 423d 8a25 bf3d
00000230: 5ebb d33c 9055 2e3d 55af fb3d a386 893d
00000240: 4cdb 643e 4365 b13d 64f8 0cbc 5a77 d3bd
00000250: 30c3 24be 26d0 2dbe f039 fc3d 8298 10be
00000260: e17b b7bd a4d3 40be f2de e2bd b7af b73c
00000270: 0f2a 573e e840 0abe b3c7 ce3d e276 d23d
00000280: 25cb 833e a3ff 0d3d f200 82be e11c 35bc
00000290: 868b 2cbd 41c2 fc3d afb0 d838 90c1 a3bd
000002a0: cc82 063e e3da 9f3d 2fb3 e8bc 1d3d 81be
000002b0: 334a 38be 67e5 3fbc 49c2 363d 902f b1bc
000002c0: 0720 3bbe 8547 903e bcd2 f43c 4e93 9b3c
000002d0: 6d85 a93e 25d0 ee3d dcad ee3b 7210 4ebe
000002e0: f352 e43d d733 203e d3be 08be 9970 b6bc
000002f0: 6d30 58bd 4031 97be cdf9 02be e850 ddbc
00000300: 0020 aabc 1b83 343e 5464 d3be b77b 13bd
00000310: 3ba5 78bc 3459 583d 9af0 593e 813c 183e
00000320: 535a 85bc 9d95 0ebe 9901 18be af75 a4bd
00000330: ea9c 583d 6c76 60be 42b6 343e 8aa1 d13c
00000340: feec 273e 8689 103e a2f5 823e 2f85 ff3c
00000350: 9677 1b3e 63cc 7dbe 2322 4ebd 50c0 a9bd
00000360: 7af0 233e 4f44 3bbe 2627 e5bc 5331 063e
00000370: eb5d 43be d183 023d 77c2 ba3d b531 5d3d
00000380: 1319 1c3e 9ce8 fdbc 2e29 373e 708d 4f3e
00000390: be31 043e 4a2e a3bc 4a36 123e 9ae4 9fbd
000003a0: c9e3 a4bd da4e 0ebe 09f1 133e cccd 89ba
000003b0: 1281 91bd 678b 0fbe 0099 8b3d c7da 1bbd
000003c0: 2739 c0be 34c6 1cbe a853 b5bc 123c f6bc
000003d0: 8f5d 1c3e 62e8 813d b58d 463c 6c2c 273d
000003e0: 45e5 613e bf22 0ebe 7b78 efbd 400d 82bd
000003f0: d1b9 f33d 741d 0a3e 157a b63c 9957 acbd
-0.088192165 0.14477348 0.15330829 0.054043356 0.074353315 0.075290084 -0.0117836455 0.1031497
0.2837683 -0.051089577 0.09858975 0.07451912 0.0014395325 0.06308772 0.20768316 0.11448197
0.037550688 0.15275976 0.16719644 0.099840276 -0.060478296 -0.18777004 0.018673213 -0.06886655
-0.09186471 0.0733412 0.08087366 -0.0057224026 0.16710551 0.05246058 0.2106918 0.007993645
0.057351723 0.11716196 -0.31815448 0.019719053 -0.05236356 0.17561996 -0.045876134 0.010621362
0.18109396 0.14964561 0.014698002 -0.18727668 -0.26330814 0.059433784 0.091593996 0.0858077
-0.64131564 0.09805366 -0.13611935 0.014844232 0.03654494 0.013165546 0.08236602 -0.3448899
0.1419067 -0.043432545 -0.028720597 0.10541422 -0.03456859 -0.098010935 0.042261492 -0.19369888
-0.069875695 -0.20517801 -0.40775558 0.04663374 0.027657472 -0.010918706 0.11874357 0.12433003
-0.052682582 -0.014346193 -0.04248038 -0.04045243 0.015686568 -0.18580168 0.14297695 0.0799398
0.14101173 -0.075982295 -0.2021068 0.07764905 0.11745743 -0.14760484 0.0512703 -0.1444368
0.083123416 -0.03804641 0.1625843 0.084220484 -0.11029501 0.12820658 -0.059918173 -0.1280056
-0.12155889 -0.059850927 0.18490571 0.08172665 0.17986253 0.1582642 0.12089527 -0.05283252
-0.1735767 -0.10039006 -0.13698529 0.00893687 0.1587585 0.039987717 -0.06438503 -0.065216556
-0.6402364 -0.02478211 -0.0036938987 0.12788732 0.07173773 -0.061937496 0.08539529 0.021283513
0.1967601 0.0132238865 -0.104287855 -0.08931883 0.16994964 0.107769854 0.1520565 0.034335453
-0.13118945 0.167459 0.047461554 0.05647108 -0.05842968 0.13471173 -0.13172685 0.057566583
0.026829924 -0.049795058 0.047368683 0.09333332 0.02584618 0.042562068 0.12289301 0.06715133
0.2234928 0.08661892 -0.008604143 -0.10325499 -0.16090083 -0.16973934 0.12315738 -0.14120677
-0.08959175 -0.18830734 -0.1107768 0.022422655 0.21012138 -0.13501322 0.10096683 0.10276581
0.25740924 0.034667622 -0.25391346 -0.011054249 -0.042125247 0.123417385 0.000103325925 -0.079959035
0.13135833 0.07805421 -0.028405754 -0.25241938 -0.17997055 -0.011712409 0.04461888 -0.021629125
-0.18273936 0.28179565 0.029885642 0.018991139 0.33109608 0.11660794 0.0072839092 -0.20123461
0.11148634 0.15644775 -0.13354044 -0.022270488 -0.052780557 -0.29529762 -0.12790604 -0.027016118
-0.020767212 0.17628138 -0.41287482 -0.036006656 -0.015176113 0.052819446 0.21283188 0.1486683
-0.016278422 -0.1392426 -0.1484436 -0.08030259 0.05288402 -0.21920174 0.17647651 0.025589723
0.16398999 0.14114961 0.25578028 0.031191437 0.15182337 -0.24784999 -0.050325524 -0.08288634
0.16009703 -0.18287776 -0.027972769 0.13104753 -0.19078796 0.03186399 0.091191225 0.054002482
0.1524394 -0.030994706 0.17886803 0.20268798 0.129096 -0.019919533 0.14278522 -0.07807274
-0.08051259 -0.13897267 0.14447416 -0.0010513603 -0.07104696 -0.14018022 0.06816292 -0.03805044
-0.37543604 -0.15309983 -0.022134617 -0.03005794 0.15270065 0.06343152 0.0121187465 0.04081385
0.22060116 -0.13880442 -0.11692902 -0.063501835 0.11900676 0.13487798 0.02227501 -0.084151454

fc2_adv.bias f4 [128]
00000000: a69a 99be 7038 f2bd d44c 983d 1dbd 383e
00000010: af10 003e aee5 cfbc f541 56bd 425e 2d3e
00000020: bcd0 ebbd 09e2 913c db0b 2abc 4cf4 9f3e
00000030: 8ce8 33bd 3eb9 47be d723 d9bd 70a1 89bd
00000040: 87e2 4c3e 26a3 c9bd a933 92bd 7119 63be
00000050: ddce 9f3e 0f71 cebd 4f7d 79bd ec60 5f3e
00000060: b2a1 b9bc dc52 03bd f6d9 ba3d 437c 4cbd
00000070: b2df 0a3e 8099 833d fcf4 c83c 4fd0 323e
00000080: 833a 92bd 8eaa 98bd 34dc a3bd bb20 a23c
00000090: ff67 fdbd 3673 c5bc 1c06 983e cb03 0f3e
000000a0: 062a fe3d d0a4 3fbe c79a e73d 5a09 bdbd
000000b0: 5199 1ebe c2c9 a83c 34fd b03e 40e7 af3e
000000c0: 93aa bbbb 8021 02be 781b 22be 6c59 9c3e
000000d0: 1e09 d2bd 5bdf e7ba 38e4 8abc 09da b93d
000000e0: 43ad cabd bd1f 7b3e 5c84 d53d aed2 91bd
000000f0: 1bb7 2f3e 0cb1 b23d 8bf3 b33d 2cf0 a9bd
00000100: f694 95bd 615a 81bd 2a1f d4bd 7493 84be
00000110: 4c63 23be 80b1 bebc db90 d93d 4dcc 0d3d
00000120: c9cb ebbd 70d9 083d 9463 f33b 245d 013e
00000130: 0876 5b3e fd80 85bd c2bc b43e afe0 0abe
00000140: 9052 1cbd e2bc 6abd 2e93 5cbd 764d 913d
00000150: 0650 c03d 4f81 4b3d 5df4 fb3c e2f4 9b3e
00000160: 4b42 ba3c 8853 b2bc 4338 913e a9f8 c63d
00000170: 3482 b83d d3ca 3fbd c7c8 2fbe 7ffa 103e
00000180: 2000 243e 52e8 44bd 3113 5f3d 7fa1 5cbc
00000190: 7a97 d0bd 1cc5 233d abf9 f23d 5c00 053e
000001a0: b8d6 0e3e 2bf4 e0bd ad9b 0bbe 359e 343e
000001b0: b24a f0bd d24c 2ebd fab5 72be b99a 1abe
000001c0: a2a5 3bbe 7d08 53bd 673d 03be 04e7 63bc
000001d0: 3381 41be 672d 643e 337a bd3d a76e 1c3e
000001e0: 9cbb 77bd a330 583e 25bb 16be 0e36 71be
000001f0: 92c5 6c3d da5d 0dbe 05ab 603e a492 c8bd
-0.300008 -0.11827171 0.07436529 0.18040891 0.12506364 -0.025378074 -0.052308995 0.16930488
-0.11514422 0.017807977 -0.010378803 0.3124107 -0.043922946 -0.19504258 -0.10602539 -0.06720245
0.20008288 -0.09845571 -0.0713876 -0.22177674 0.31212512 -0.10080158 -0.06091052 0.21814317
-0.02266011 -0.032061443 0.09123604 -0.049923193 0.13561895 0.06425762 0.02453088 0.17462276
-0.071400665 -0.07454406 -0.08000985 0.019790998 -0.12373351 -0.024102788 0.2969216 0.1396629
0.12410359 -0.18715215 0.11308818 -0.09230299 -0.15488173 0.020604018 0.3456818 0.34356117
-0.005727121 -0.12708092 -0.15830791 0.30536973 -0.10255645 -0.0017690466 -0.016954526 0.0907479
-0.09896328 0.24523826 0.10425636 -0.07120262 0.17159693 0.08725175 0.087866865 -0.08297762
-0.07303803 -0.063160665 -0.103575066 -0.25893748 -0.15955848 -0.023277998 0.10623332 0.034618665
-0.11513478 0.03341049 0.007427642 0.12633187 0.21431744 -0.06518743 0.3530026 -0.13562272
-0.038164675 -0.05730904 -0.0538513 0.070948526 0.09390263 0.049683865 0.03075617 0.30460268
0.02273669 -0.021768346 0.28363237 0.09715397 0.09009209 -0.046824288 -0.17166434 0.14158057
0.16015673 -0.04807312 0.05446166 -0.013466238 -0.10185142 0.0399829 0.11864027 0.12988418
0.13949096 -0.10984071 -0.13633604 0.17638476 -0.11732997 -0.04255373 -0.23702231 -0.15098085
-0.18324903 -0.051521767 -0.12816392 -0.013910059 -0.18896942 0.22282945 0.09251823 0.15276586
-0.060481653 0.21112303 -0.14719827 -0.23555776 0.057805605 -0.13805333 0.21940239 -0.097935945

fc3_adv.weight f4 [2, 128]
00000000: ec9d b43d df96 95be 7e09 473e 9a52 fa3d
00000010: 57fd de3d 4bb5 143e 83bf babe 5bb4 ff3d
00000020: 077d a9be c192 033e 6094 66be f619 a23d
00000030: 816c 3dbe c2b0 063e 4aae 98bf 80fd 57be
00000040: 7fa3 ae3d 75f4 44be c32c 0a3e 02c9 23be
00000050: 08da 243e 9ba4 88be 84b7 8bbe 4b47 803f
00000060: 3210 d33d 0f48 513d ce0b a13f 6633 7fbe
00000070: 7028 133e 252b aa3d 3e9e 2ebe 4ffd 063e
00000080: 48b1 b53d ba62 a8be 16ac 57be 8a6e cf3d
00000090: 5e63 33be 709d 7b3e 7a41 8bbf c487 0dbf
000000a0: 04b6 61bf 7ee1 593e 968f 663d d94c 043d
000000b0: cfd5 d5bd edbd 1d3d 66b4 96bf 422d b93e
000000c0: c130 163e 857a e43d a080 88be 8fab a6bf
000000d0: cca8 a2be 229f 91be 6a40 da3d 0c14 0e3e
000000e0: 1c84 bebe 70c5 a23e 3ff9 f53d b063 72be
000000f0: 71b4 d33d 74b0 093e 1c0c 123e 8c60 b6be
00000100: 9c7f 8abd fbd5 ff3c f569 14be 0ece 86bf
00000110: 52ae 143e bf71 b23d d8bf 043e 56c9 fabd
00000120: 4994 20be 3906 1f3e 3969 7a3e a5f1 433e
00000130: 0dbc 0e3e 9f5d 953d a670 babf ce2f 123e
00000140: b74f 02be 86d5 a6be b6dc 81be bd21 0b3e
00000150: 2bc4 213e 59a3 b03d 1c09 4f3d 8204 9bbf
00000160: 0b74 7d3d 7b7b 63be dec4 68bf 5e3c db3d
00000170: 4393 8a3f e9e0 34be cc69 c7be 69b3 843e
00000180: 350a 043f 8c14 2cbe 1b24 c73d 0f97 6fbe
00000190: f11d f33d 7103 083e 2a9c 463e 7534 2b3e
000001a0: 2df0 8e3d faf6 68be ac4d 31be deaa 463e
000001b0: b3b0 c9be 8309 4bbe 8b9b a4be 5863 b3be
000001c0: 1a42 adbe 35ce 1f3e 799a 62be 7eb8 83be
000001d0: 3ca7 2bbe c2cc 31bf dfc8 a03f 216b 1f3e
000001e0: 1f51 0a3e e675 333e 13a6 aabe c26a 66be
000001f0: c263 c53d e058 e43d 69f8 0f3e 9d67 8dbe
00000200: a5cd bb3d fbb9 9bbe c1ec 213e ee17 933d
00000210: 4d0f c93d e753 d33d 9594 a3be 8759 e53d
00000220: 0e89 c3be bd15 283e 1b81 96be 1e66 d83d
00000230: 4f23 73be 4a08 063e e20c 98bf 6163 82be
00000240: 8988 9b3d fc91 12be 01d9 183e 7e42 2abe
00000250: 7b4f 0d3e d2e8 a0be 19d8 693e 9e76 803f
00000260: 5acb 2e3e 895e 983d e1b8 8b3f e7e6 8cbe
00000270: dc60 bd3d e2fc 253e d18a 1bbe 2f89 c83d
00000280: 7c3c 163e cf96 afbe 308d 79be 357c e83d
00000290: 8d11 a2bd 5321 8e3e 65d9 8cbf 5968 11bf
000002a0: aad3 5dbf c58e 003e 2f4c c63d 8cb3 8f3d
000002b0: 4c9c f5bd 745b 9c3d e446 8bbf 82d0 b73e
000002c0: 175e e83d 962a 0b3e 57c5 a8be 3ec7 a5bf
000002d0: f22f 7ebe c126 95be f9cc 283e b6cb d43d
000002e0: e2d7 a1be 6021 983e 5317 183e 0ca9 7dbe
000002f0: 72d7 433d cff9 313e 14ec 1b3e 9dc6 8fbe
00000300: 2d69 d2bd 2614 773b 68a2 44be 2f74 8ebf
00000310: cfeb 203e ae06 0f3e 4e23 c53d 0281 3ebe
00000320: 014c 90be 879c 183e 6505 423e 93e8 c73d
00000330: a106 3e3e ac39 f13d 8f65 c0bf 832e 103e
00000340: 2f72 25be c88f 9ebe b210 90be 7758 433e
00000350: bfe6 d73d f092 f63d b28c f93d d2c8 9dbf
00000360: 840d cf3d 3876 56be c7df 7cbf 02e5 023e
00000370: 4f65 503f 703a 4dbe adf2 98be a621 af3e
00000380: c444 e43e 1fbc 54be bdab 143e 4cc6 83be
00000390: c99d fe3d 3a49 2c3e f6db 003e f545 de3d
000003a0: 2ce9 653d 4a9d 61be 75a1 86be f865 603e
000003b0: 06f3 a6be 79b2 8bbe 017f 82be 3adf a7be
000003c0: 0973 93be 08b5 183e c1c5 91be 9e37 a1be
000003d0: e4f4 afbe 4219 3abf fe55 9d3f 08e0 b13e
000003e0: d28a dd3d e73d 1c3e fe0b 71be fae2 6abe
000003f0: faeb c03d b836 d63d 491a e93d 0b4b 8dbe
0.08819184 -0.29216668 0.19437215 0.12222786 0.108881645 0.14522283 -0.36474237 0.12485572
-0.331032 0.12848951 -0.22517538 0.07915108 -0.18498422 0.13153365 -1.1928189 -0.21092796
0.08527278 -0.19233878 0.13493638 -0.15994647 0.16098797 -0.26688084 -0.2728845 1.0021757
0.103058234 0.05109411 1.2581728 -0.2492195 0.14370894 0.083090104 -0.17052552 0.13182567
0.08871704 -0.32887822 -0.2106174 0.101285055 -0.17518374 0.24571776 -1.0879357 -0.55285287
-0.8816836 0.21277425 0.056289278 0.03229985 -0.104411714 0.038511205 -1.1773803 0.3616734
0.14667036 0.11156181 -0.26660633 -1.3021106 -0.31769407 -0.2844172 0.10656817 0.13874835
-0.37210166 0.31791258 0.120104305 -0.2367084 0.10337151 0.13446218 0.14262432 -0.35620534
-0.06762621 0.031229964 -0.14493544 -1.0531633 0.14519623 0.087131016 0.12963808 -0.12245433
-0.15681566 0.15529718 0.24454202 0.19135149 0.13938923 0.072932474 -1.4565628 0.14276049
-0.12725721 -0.3258478 -0.25363702 0.13587089 0.15797488 0.08624906 0.050545797 -1.2110751
0.061878245 -0.22215073 -0.90925395 0.107048735 1.0826191 -0.17663921 -0.38947904 0.2591813
0.51578075 -0.16804713 0.097236834 -0.23397468 0.11870945 0.13282563 0.1939551 0.1671923
0.06979404 -0.22750464 -0.17314786 0.19401118 -0.39392623 -0.19827847 -0.3214992 -0.3503673
-0.33839494 0.15606005 -0.22129239 -0.25726694 -0.16763014 -0.6945306 1.2561301 0.1556821
0.13507508 0.17525443 -0.3332983 -0.22501662 0.09638168 0.11149764 0.14059605 -0.27618113
0.09170083 -0.3041533 0.1581297 0.071822986 0.098173715 0.103187375 -0.31949297 0.111987166
-0.38190502 0.16414542 -0.29395375 0.10566352 -0.23743938 0.130891 -1.1878932 -0.25466445
0.075944014 -0.14313501 0.1492653 -0.16626927 0.1379985 -0.31427628 0.22836341 1.0036199
0.1706976 0.07439906 1.0915796 -0.27519915 0.0924699 0.16209748 -0.15189673 0.09791791
0.1467151 -0.34294745 -0.24370265 0.113518156 -0.07913504 0.277598 -1.1003844 -0.56799847
-0.866511 0.12554462 0.096824996 0.07016668 -0.11992702 0.07634631 -1.0881009 0.35901266
0.11346071 0.13590464 -0.32963058 -1.2951429 -0.24822977 -0.2913113 0.16484441 0.10390417
-0.31610018 0.29712963 0.14852647 -0.24771518 0.047812887 0.1738045 0.15226775 -0.28081217
-0.10273967 0.0037701218 -0.19202578 -1.1129206 0.15714954 0.13967392 0.096258745 -0.186039
-0.28182986 0.1490346 0.1894737 0.09761157 0.18557216 0.11778578 -1.5030993 0.14080243
-0.16156839 -0.3096907 -0.28137738 0.19076715 0.10542058 0.12039745 0.121850386 -1.232691
0.1011 -0.20943534 -0.9877896 0.12782672 0.81404585 -0.20041823 -0.29872647 0.3420536
0.44583714 -0.20774888 0.14518638 -0.25737226 0.12432439 0.16824809 0.12583908 0.10853187
0.056130573 -0.22032657 -0.26295057 0.21913898 -0.32607287 -0.272846 -0.2548752 -0.32787496
-0.28798702 0.14912808 -0.28471187 -0.31487745 -0.34366524 -0.7269479 1.2291868 0.34741235
0.108174935 0.15257989 -0.23539731 -0.22938147 0.09420009 0.104596555 0.113819666 -0.27596316

fc3_adv.bias f4 [2]
00000000: 0f46 443d 38bd af3b
0.047918376 0.005363133
