src/nets/exp_graph_obs_4_prio50.pth (torch_old, 360749 bytes, 11 tensors)

fc1_val.weight f4 [256, 45]
0	0x3e0b51ad	0.13605376
1	0x3d71d5ce	0.05904179
2	0xbde8b4fa	-0.113626435
3	0x3e11c804	0.14236456
4	0xbcb0405e	-0.021515068
5	0xbdc65d99	-0.09685821
6	0xbd4a10b3	-0.049332332
7	0xbd838b3d	-0.06423042
8	0x3db2522e	0.08707081
9	0xb9f89739	-0.00047414916
10	0x3c8c9f38	0.017165765
11	0x3cb03a6e	0.021512236
12	0x3d9dbb5b	0.07701751
13	0x3d5d86e5	0.054083724
14	0x3db38e17	0.08767336
15	0x3d2ccef2	0.042189546
16	0xbd3ad523	-0.04561342
17	0xbdf167b9	-0.11787362
18	0xbe012e06	-0.12615213
19	0x3cb0ff2b	0.021606049
20	0x3db87e08	0.090084136
21	0x3d481bfa	0.048854806
22	0x3c0caa7c	0.0085855685
23	0xbdca945c	-0.098915786
24	0xbdaf73b0	-0.085669875
25	0xbd4298ae	-0.047508888
26	0x3d1445ed	0.0361995
27	0xbd778066	-0.060425185
28	0xbdc4be0c	-0.09606561
29	0xbde5a2e7	-0.11212712
30	0xbda9bd5a	-0.08288069
31	0x3d5e6104	0.05429174
32	0x3d8129bc	0.06306788
33	0xbde2ec2d	-0.11080203
34	0x3deb2c82	0.114830986
35	0x3d612e7e	0.05497598
36	0x3da4fe03	0.080562614
37	0xbce6ddf7	-0.028182013
38	0x3aba1d19	0.0014199346
39	0x3d31dc4a	0.043422975
40	0x3e0a6810	0.13516259
41	0x3e2eb4e5	0.17061193
42	0xbdb5dc19	-0.08879871
43	0x3e1d4de5	0.15361746
44	0x3b624b13	0.003452961
45	0xbd11bd05	-0.035580654
46	0x3c5f5eb6	0.013633421
47	0x3dd0f397	0.10202711
48	0xbc06772f	-0.0082071265
49	0x3e0f9847	0.14022933
50	0x3de1421a	0.10998936
51	0x3d80b17a	0.06283851
52	0xbd39856b	-0.045293253
53	0x3e0cdffe	0.13757321
54	0xbbd33e2e	-0.0064466214
55	0x3d6ebd98	0.05828628
56	0x3cef26e4	0.02919335
57	0x3d73697a	0.059426762
58	0xbda5d7a9	-0.080977745
59	0xbdd18da3	-0.10232093
60	0xbd97161f	-0.07377266
61	0x3c83021e	0.01599222
62	0xbcf4a122	-0.02986199
63	0x3dd42183	0.10357954
64	0xbe0350d1	-0.12823798
65	0x3e0a52ad	0.13508101
66	0xbd975b9e	-0.073905215
67	0x3d7752ef	0.060381826
68	0xbc9da67f	-0.01924443
69	0x3cefe7b7	0.029285295
70	0xbdca3864	-0.09874037
71	0xbd8098ca	-0.06279142
72	0xbdd84d79	-0.10561652
73	0xbdbe7800	-0.09300232
74	0xbc5b17ad	-0.013372344
75	0xbd9ac1b6	-0.07556479
76	0xbe0a4a3a	-0.13504878
77	0x3d8df9ec	0.069324344
78	0x3d32ae2e	0.043623142
79	0xbd8b5c66	-0.06804733
80	0xbe0b3f9f	-0.13598488
81	0x3b21eabe	0.0024706568
82	0xbb29f148	-0.0025931168
83	0xbcba663a	-0.022753824
84	0x3d0a5f0d	0.033782054
85	0x3de90291	0.11377443
86	0x3e06a057	0.13147102
87	0x3e1ee08a	0.15515342
88	0xbcc131f8	-0.023583397
89	0x3dfd3f96	0.12365644
90	0x3def3595	0.11680142
91	0xbcc8552b	-0.024454674
92	0x3dfe4309	0.1241513
93	0xbe1e4bfb	-0.15458672
94	0xbe0477a6	-0.12936267
95	0xbdbac97c	-0.09120461
96	0xbe02456d	-0.12721796
97	0xbdbcb39d	-0.09213946
98	0x3dd77d7c	0.10521981
99	0x3dadeeb3	0.08492794
100	0xbdb04e8d	-0.08608732
101	0xbe081e83	-0.1329289
102	0xbdffc863	-0.124893926
103	0x3dea80ef	0.114503734
104	0x3d111ea1	0.0354296
105	0x3da2f595	0.07956997
106	0xbdb198c1	-0.086717136
107	0x3dea2f6e	0.11434828
108	0xbdf8d387	-0.12149721
109	0x3e0cbbe6	0.13743553
110	0x3e1bf418	0.15229833
111	0xbdc0fb7b	-0.09422966
112	0xbd88b169	-0.06674463
113	0x3d89d83e	0.06730698
114	0xbdbcf85e	-0.0922706
115	0xbdacdad9	-0.084401794
116	0xbd441b48	-0.04787758
117	0xbc12bc3b	-0.00895601
118	0xbd68e098	-0.056854814
119	0x3d2e1f02	0.04251004
120	0xbd86459d	-0.065562464
121	0x3db64cf1	0.08901394
122	0x3cf42c3c	0.029806249
123	0xbd8da684	-0.06916526
124	0xbe170fc7	-0.14752112
125	0x3de3c997	0.111224346
126	0x3e009259	0.12555827
127	0x3dca9cab	0.09893163
128	0x3dc5de98	0.09661597
129	0xbd8b8890	-0.068131566
130	0xbdf683d3	-0.12036862
131	0xbcd9aa88	-0.026570573
132	0xbdbc6689	-0.091992445
133	0xbda5101a	-0.08059712
134	0xbc8e0525	-0.017336437
135	0x3d515cf8	0.051114053
136	0xbd4c157f	-0.049825188
137	0x3de8ae56	0.11361377
138	0x3d34608d	0.04403739
139	0x3e092cf1	0.1339605
140	0x3db586b4	0.08863583
141	0xbdef22b6	-0.116765425
142	0x3d29aeff	0.041426655
143	0x3d0c8124	0.034302846
144	0xbe0c4a3e	-0.13700196
145	0xbc454412	-0.012040155
146	0x3da2a7c7	0.07942157
147	0x3d10c63f	0.035345312
148	0xbdccd43e	-0.100014195
149	0xbc0eae1a	-0.008708501
150	0x3d86f5d6	0.06589858
151	0x3c45c7fc	0.012071606
152	0x3e196953	0.14981584
153	0xbc4052f7	-0.01173853
154	0x3d01c796	0.03168448
155	0xbbb80e0c	-0.005616909
156	0xbd0319bc	-0.032006964
157	0x3db5d9a6	0.08879404
158	0xbe044a6f	-0.12919019
159	0x3bd19016	0.00639535
160	0xbd07df6a	-0.03317205
161	0x3dc0f7c5	0.09422258
162	0xbd0c181c	-0.03420268
163	0xbe0c158f	-0.13680099
164	0xbdac762a	-0.084209755
165	0x3d3f3ef7	0.046690907
166	0x3e051f31	0.1300018
167	0xbb6f7204	-0.0036536464
168	0x3d0623f3	0.032749128
169	0xbd36a44d	-0.044590283
170	0xbdd771cd	-0.10519753
171	0x3d15ef2a	0.036605038
172	0x3dea9d9e	0.11455844
173	0x3ddc3967	0.10753136
174	0xbd825930	-0.063646674
175	0x3c91a936	0.017780881
176	0x3dd7f6e1	0.10545135
177	0x3d600029	0.054687653
178	0xbcf1c8d1	-0.029514702
179	0x3e0ec452	0.13942078
180	0x3c208c9a	0.009799147
181	0xbe277680	-0.16353798
182	0xbd7d7d5d	-0.061887134
183	0xbdd6d200	-0.10489273
184	0xbd3ee2ef	-0.04660314
185	0xbd17e77f	-0.037086006
186	0x3d143b73	0.036189508
187	0x3d1cb24f	0.038255986
188	0x3d9711f1	0.07376469
189	0xbdfedeeb	-0.12444862
190	0xbd61a803	-0.05509187
191	0xbd42a891	-0.04752404
192	0xbc9024c4	-0.017595656
193	0xbdb96e61	-0.09054256
194	0x3e104a70	0.14090896
195	0x3d26385c	0.040581092
196	0x3dd1a2ce	0.10236131
197	0xbdb85fea	-0.09002669
198	0x3d057f8a	0.032592334
199	0xbc2cd03f	-0.010547697
200	0xbdb0824d	-0.08618603
201	0xbe0bf43c	-0.13667387
202	0x3da3956c	0.07987484
203	0x3d00016d	0.03125136
204	0x3dfcaccc	0.12337646
205	0x3cf90261	0.030396642
206	0x3dab53ba	0.08365579
207	0xbda85eb9	-0.08221192
208	0x3c21b3bd	0.009869513
209	0xbc7dffd8	-0.015502892
210	0x3d7d5737	0.061850753
211	0xbd984794	-0.074355274
212	0x3e0309f7	0.1279677
213	0x3df451d5	0.11929671
214	0x3e045e85	0.12926681
215	0xbd9a4275	-0.07532207
216	0xbda5385f	-0.080673926
217	0xbd183081	-0.037155632
218	0x3db86d27	0.09005194
219	0xbccfbea0	-0.025359452
220	0x3e0d4c38	0.13798606
221	0xbd459808	-0.04824069
222	0xbdf023da	-0.11725588
223	0x3d7c4cab	0.061596554
224	0xbdea6470	-0.11444938
225	0x3d9ea744	0.07746747
226	0xbbf65684	-0.0075176377
227	0xbdb9276a	-0.09040721
228	0x3d9a8787	0.07545381
229	0xbde8597e	-0.11345194
230	0x3dbe73ef	0.09299456
231	0xbdddad83	-0.1082411
232	0x3bb6ff2c	0.005584618
233	0x3d87d477	0.06632321
234	0x3d9360a3	0.07196166
235	0x3da43b9b	0.08019181
236	0x3d029cdc	0.031887874
237	0x3d00a379	0.0314059
238	0x3c192050	0.009346083
239	0x3c9e26b1	0.019305559
240	0x3d26f6bb	0.040762644
241	0x3dbddda8	0.09270793
242	0xbdc60012	-0.09667982
243	0x3d6b08d2	0.05738146
244	0x3d8d9668	0.06913453
245	0xbda8f0ab	-0.08249029
246	0x3e049bf5	0.12950118
247	0x3d43b71c	0.04778205
248	0xbd93e1e4	-0.072208196
249	0x3d13840e	0.03601461
250	0xbc89df02	-0.016829971
251	0x3d7c8216	0.061647497
252	0xbd02b3d5	-0.031909782
253	0xbdc54116	-0.09631555
254	0xbd541c19	-0.05178461
255	0xbe06cffa	-0.13165274

fc1_val.bias f4 [256]
0	0xbcf710ed	-0.030159438
1	0x3da0f986	0.07860093
2	0x3dfee66e	0.12446295
3	0xbe126aee	-0.14298603
4	0xbde7369e	-0.11289714
5	0xbdd8d6af	-0.10587823
6	0xbd15c0c4	-0.03656079
7	0xbd34dc06	-0.044155143
8	0x3c8dfc4e	0.017332222
9	0x3da54d4f	0.08071386
10	0xbd771ef6	-0.06033226
11	0xbd32c81d	-0.043647874
12	0xbd497770	-0.04918617
13	0x3cc295b6	0.023753028
14	0x3dd611eb	0.10452636
15	0xbcb030e3	-0.021507686
16	0x3cf98e7d	0.030463452
17	0xbe05422c	-0.13013524
18	0x3cf9d3b8	0.030496463
19	0x3d36fbb7	0.044673648
20	0x3a76bb17	0.0009412034
21	0xbde93544	-0.11387113
22	0xbdc012b7	-0.093785696
23	0x3d46c6b5	0.048529346
24	0x3dcabdb2	0.09899463
25	0xbde1429b	-0.10999032
26	0x3df3dfe0	0.11907935
27	0xbd2ce442	-0.04220987
28	0x3d77399f	0.060357686
29	0x3e02144f	0.1270306
30	0xbaa38be0	-0.0012477599
31	0x3c536cb9	0.0129043395
32	0x3e1d9bbc	0.15391439
33	0xbd808226	-0.06274824
34	0xbdce4155	-0.10071055
35	0x3d8265c4	0.063670665
36	0xbd684db5	-0.056714732
37	0x3d05f4ba	0.032704093
38	0x3e12a527	0.14320813
39	0xbe124bc2	-0.14286712
40	0x3c04f8ed	0.008115989
41	0x3e07e4a3	0.13270812
42	0xbd6b98bb	-0.057518702
43	0xbdfed734	-0.124433905
44	0xbd25eacc	-0.040507123
45	0xbd6828af	-0.056679424
46	0x3db153c6	0.08658557
47	0x3daf6347	0.085638575
48	0xbc920006	-0.017822277
49	0x3d5908a5	0.05298676
50	0xbd9c3128	-0.07626563
51	0x3dfa0a2d	0.12208972
52	0x3d99f63b	0.07517668
53	0xbdb40b59	-0.08791227
54	0xba277f88	-0.0006389548
55	0xbd3f006a	-0.046631254
56	0x3e00e521	0.12587406
57	0x3df274db	0.11838695
58	0xbcd026e1	-0.025409164
59	0x3dbfdc9b	0.09368249
60	0xbd54c670	-0.051947057
61	0x3dcb3a6d	0.09923253
62	0x3de62755	0.11237971
63	0xbdf0258c	-0.117259115
64	0x3e0df8f3	0.13864498
65	0xbcb99218	-0.02265267
66	0xbcd4ad99	-0.025961684
67	0xbd84a868	-0.064774334
68	0x3e0fa965	0.14029463
69	0xbc5925fa	-0.013253683
70	0xbdcfc39c	-0.101447314
71	0xbde60054	-0.11230531
72	0x3caf367f	0.02138829
73	0x3d94d130	0.07266462
74	0x3c883bfc	0.016630165
75	0xbcd881f0	-0.026429147
76	0xbdb5c921	-0.08876253
77	0xbdd17f7a	-0.10229392
78	0x3d292bcb	0.04130153
79	0x3d9d499f	0.07680058
80	0xbd8895f7	-0.066692285
81	0xbd7ecf10	-0.06220919
82	0xbdafb6f1	-0.08579815
83	0x3c636b17	0.013880513
84	0xbc504932	-0.012712764
85	0xbdca6324	-0.09882191
86	0xbddff559	-0.10935468
87	0x3d3d9fa7	0.046294834
88	0xbd43ac2c	-0.047771618
89	0x3d4a5e20	0.04940617
90	0xbde8c115	-0.113649525
91	0x3e1d2fa1	0.153502
92	0x3d84e0d8	0.06488198
93	0xbdfc644c	-0.123238176
94	0xbd278f34	-0.040908054
95	0xbd8ca5ad	-0.06867538
96	0xbda2e008	-0.07952887
97	0xbdcdeb0c	-0.10054597
98	0x3db2f6c5	0.08738474
99	0xbde651e9	-0.11246092
100	0x3d96167d	0.07328508
101	0x3e13d2ec	0.14435929
102	0xbe0200f6	-0.12695679
103	0xbd947877	-0.07249539
104	0x3dbd7b23	0.09252002
105	0xbde001d9	-0.109378524
106	0xbdec4094	-0.11535755
107	0x3d5249f4	0.05134006
108	0x3e15efd7	0.14642273
109	0xbd3d07bb	-0.04614995
110	0x3dc8a5c0	0.09797239
111	0x3d8bc672	0.0682496
112	0xbdcd5e5f	-0.100277655
113	0x3dbb252c	0.09137949
114	0xbc242774	-0.010019172
115	0x3e06192f	0.13095544
116	0xbca9d56d	-0.020731652
117	0xbe09f4cc	-0.13472289
118	0x3e0c78b4	0.1371792
119	0xbe0bce23	-0.13652854
120	0x3bd42d3d	0.0064751194
121	0x3ddce8d0	0.10786593
122	0x3d38056e	0.044927053
123	0xbd170f02	-0.036879547
124	0xbdeafbcd	-0.114738084
125	0xbcba6160	-0.02275151
126	0xbe107e6f	-0.1411073
127	0x3e12b4da	0.14326802
128	0xbdbf8a5e	-0.09352563
129	0xbdef56ee	-0.116865024
130	0xbdb2fbcc	-0.08739433
131	0xbd89347f	-0.06699466
132	0x3da42414	0.08014694
133	0x3db2906b	0.08718952
134	0x3df0f41d	0.11765311
135	0xbd866f5d	-0.065642096
136	0xbe128ec0	-0.14312267
137	0x3c852f6b	0.016257962
138	0x3de4071e	0.1113417
139	0x3d9929a1	0.07478643
140	0x3dd979ed	0.106189586
141	0x3cad997b	0.02119135
142	0xbdc18b7f	-0.09450435
143	0x3de9f7de	0.1142423
144	0x3d11c2a4	0.035586014
145	0xbdecaefa	-0.11556812
146	0x3cb06cbc	0.021536224
147	0xbe064e72	-0.13115862
148	0xbd79ca51	-0.06098396
149	0xbd1608b2	-0.036629386
150	0x3db78faa	0.089629486
151	0xbde211a8	-0.11038524
152	0xbe03cc4d	-0.12870903
153	0x3de8cd8a	0.113673285
154	0xbdb821c7	-0.089908175
155	0x3e204598	0.15651548
156	0x3e118755	0.14211781
157	0xbe01e40c	-0.12684649
158	0x3d9e6d89	0.07735736
159	0xbb1ec3e4	-0.0024225647
160	0xbe062f0f	-0.13103889
161	0xbe0186f2	-0.12649134
162	0xbcd15a62	-0.025555793
163	0x3e1fe653	0.15615205
164	0xbd26ccfd	-0.040722836
165	0xbdf968c2	-0.12178184
166	0xbd96b40a	-0.073585585
167	0xbd943d29	-0.07238228
168	0x3ddc4a32	0.10756339
169	0x3e288803	0.16458134
170	0x3dd20754	0.10255304
171	0x3c9d52b5	0.019204477
172	0x3cb27398	0.021783635
173	0x3d78f919	0.060784433
174	0xba04c509	-0.0005064761
175	0xbd791348	-0.060809404
176	0x3d447fbb	0.047973376
177	0x3d840168	0.06445581
178	0xbe2471b1	-0.16058995
179	0xbc110812	-0.008852022
180	0xbe304702	-0.17214587
181	0x3d566601	0.052343372
182	0xbdba7e15	-0.091060795
183	0xbded1c84	-0.115777045
184	0xbe15a31a	-0.14613
185	0xbdb671d2	-0.08908428
186	0x3db883a6	0.09009485
187	0x3d862d91	0.0655166
188	0x3d951431	0.07279242
189	0x3dcfd7e5	0.101486005
190	0x3e1e332b	0.15449207
191	0x3d051d5e	0.03249871
192	0xbd8fb7dc	-0.0701749
193	0x3dfbc9f9	0.122943826
194	0xbe0e219e	-0.13880011
195	0x3ddad524	0.106851846
196	0x3dee1994	0.116259724
197	0x3d456816	0.048194967
198	0xbdba30cd	-0.09091339
199	0xbd917cb7	-0.071038656
200	0xbd5194ef	-0.051167425
201	0x3dbfdc91	0.093682416
202	0xbbc55ea3	-0.0060232445
203	0x3e169163	0.14703898
204	0x3da8f3b8	0.08249611
205	0x3e03ec83	0.12883191
206	0xbda96bfd	-0.0827255
207	0xbd397781	-0.045279983
208	0x3de2e4a5	0.11078767
209	0x3dc1b3c3	0.09458115
210	0x3b5789c3	0.003288851
211	0x3d20ee62	0.03928984
212	0x3c9f1ceb	0.019422969
213	0xbda30f9d	-0.07961962
214	0xbcaa36a6	-0.020778012
215	0x3d840602	0.064464584
216	0x3de1acb7	0.11019271
217	0xbdd6ad20	-0.1048224
218	0xbd6727bb	-0.056434374
219	0xbdf68646	-0.120373294
220	0x3d9b90f7	0.07596009
221	0x3dd129b1	0.1021303
222	0x3db5c1d2	0.08874859
223	0x3e090d74	0.13384038
224	0x3d46d650	0.048544228
225	0x3d52326d	0.05131762
226	0x3daee68c	0.08540067
227	0x3e0e186f	0.13876508
228	0xbd0824e4	-0.033238307
229	0x3e1c0e31	0.15239789
230	0x3cdd1d4d	0.02699151
231	0x3c4bb2de	0.012432782
232	0xbdaf31e8	-0.08554441
233	0xbdc457bb	-0.09587046
234	0xbdcbd23d	-0.09952209
235	0x3cf72f2f	0.030173866
236	0xbc1fda3f	-0.009756624
237	0x3e1c35cf	0.15254901
238	0x3e1ef29b	0.15522234
239	0xbd823763	-0.063582204
240	0x3dc63090	0.09677231
241	0xbdd339df	-0.103137724
242	0xbdfcc303	-0.12341883
243	0x3de9118b	0.11380299
244	0xbdad7228	-0.08469039
245	0x3ceacae3	0.028661197
246	0xbd2737db	-0.040824752
247	0xbd797476	-0.06090208
248	0x3e16fbfe	0.14744565
249	0xbdd551c8	-0.10415989
250	0x3dbda7b8	0.092605054
251	0xbd5a1d09	-0.053250346
252	0xbe02934c	-0.12751502
253	0x3dc7dc22	0.09758784
254	0x3dadef37	0.08492892
255	0xbdb8853f	-0.0900979

fc2_val.weight f4 [128, 256]
0	0x3da06c7c	0.07833192
1	0xbd1268de	-0.03574454
2	0xbce07c92	-0.02740315
3	0x3da3417b	0.07971474
4	0x3c958a3c	0.018254392
5	0x3d5516ee	0.05202382
6	0xbdaf96ba	-0.08573671
7	0x3c4a6bff	0.01235485
8	0x3ce1346c	0.027490817
9	0x3d7dc837	0.061958518
10	0x3b8e35b6	0.004339899
11	0x3b6d59b7	0.0036216804
12	0x3d66d411	0.056354586
13	0x3cb567ed	0.022144282
14	0x3cbcaf69	0.02303286
15	0xbc6ba06a	-0.014381507
16	0x3d0bb42f	0.034107383
17	0x3dd0317e	0.1016569
18	0xba4e7ade	-0.0007876585
19	0xbd08b62c	-0.033376858
20	0xbd28f810	-0.041252196
21	0xbd2fda27	-0.042932656
22	0x3cc607a2	0.024173561
23	0x3c801101	0.015633108
24	0x3ccd6190	0.025070935
25	0x3d7e2091	0.062042776
26	0x3ce473aa	0.027887184
27	0x3d2b7830	0.041862667
28	0x3d4f74b4	0.050648406
29	0x3cdb8f00	0.026801586
30	0x3d560891	0.052254263
31	0x3d513881	0.051079277
32	0xbc8eb4b1	-0.017420145
33	0x3ce33373	0.027734494
34	0x3cf8a548	0.03035225
35	0x3b0cf0c2	0.0021505808
36	0x3d97a323	0.07404163
37	0x3d59a8ce	0.0531395
38	0x3d8f1192	0.06985773
39	0x3d262550	0.040562928
40	0xbb82aded	-0.0039880187
41	0x3c929856	0.017894905
42	0xbd45e8fd	-0.048317898
43	0xbe2aadd3	-0.16667871
44	0x3d1499fe	0.03627967
45	0x3d5df7e1	0.054191474
46	0xbbdf8e31	-0.0068223705
47	0xbc579b1e	-0.013159541
48	0x3d030d4a	0.031995095
49	0x3d968893	0.07350268
50	0x3da356f6	0.07975571
51	0x3d05559e	0.032552354
52	0xbd40049d	-0.0468794
53	0xbd403afd	-0.046931256
54	0x3d2a6055	0.041595776
55	0x3d6e63a0	0.05820048
56	0x3d2eae60	0.042646766
57	0x3d899473	0.067177676
58	0xbd152392	-0.036410876
59	0xbc5c7b9e	-0.013457207
60	0x3c6269bd	0.013819155
61	0x3d0c9ba7	0.03432813
62	0x3d0463bd	0.03232168
63	0x3cfef4d8	0.03112261
64	0xbc8fa28d	-0.017533565
65	0x3c98cc78	0.018652186
66	0x3d0314ad	0.03200214
67	0x3d320924	0.04346575
68	0x3d2a81ef	0.04162782
69	0xbc8905a1	-0.016726317
70	0x3d886897	0.06660574
71	0xbdc91e7a	-0.09820266
72	0xbcaf790e	-0.021420028
73	0x3c6cd540	0.01445514
74	0x3d1141b3	0.035463046
75	0xbcb18c6e	-0.021673407
76	0xbcca2e36	-0.024680238
77	0xbcc62727	-0.024188591
78	0x3c07f602	0.008298399
79	0x3d9c5fff	0.07635497
80	0xbc4ab177	-0.0123714125
81	0x3d8d69ce	0.06904946
82	0x3d25bd90	0.040463984
83	0xbd3e2cc5	-0.046429414
84	0x3dfc7f97	0.12329023
85	0xbd096a82	-0.03354884
86	0x3d375c0e	0.044765525
87	0x3d8d9e99	0.06915016
88	0x3d039a00	0.032129288
89	0x3c20762d	0.0097938
90	0xbda334f1	-0.07969082
91	0xbcfcc648	-0.030856267
92	0x3d9cdf49	0.07659776
93	0x3c07b394	0.008282561
94	0x3d46c568	0.048528105
95	0xbc36cd50	-0.011157349
96	0xbccb49b4	-0.024815418
97	0xbd17d707	-0.0370703
98	0x3d9005bc	0.07032344
99	0xbd3ef7fe	-0.046623223
100	0xbbf1df00	-0.00738132
101	0xbd218b85	-0.039439697
102	0x3caac03e	0.020843621
103	0xbcfff532	-0.031244848
104	0x3d13b56f	0.0360617
105	0xbd139cb1	-0.036038104
106	0x3c3d49fa	0.011553282
107	0x3cc92b6b	0.024556836
108	0x3d8c4364	0.06848791
109	0x3e0b5f7a	0.1361064
110	0x3d02a294	0.031893328
111	0x3c6f7591	0.014615432
112	0x3d8cd286	0.06876092
113	0xbcb2f82f	-0.021846859
114	0xbd581b32	-0.05276031
115	0x3cdbd9a2	0.026837174
116	0x3d86949d	0.065713145
117	0xbd3642b5	-0.04449721
118	0x3cc53320	0.02407223
119	0x3d151235	0.036394317
120	0x3d63f5a1	0.05565417
121	0x3d3838f7	0.0449762
122	0x3d9fd7a2	0.078048006
123	0xbd1d8db9	-0.038465235
124	0xbca876a1	-0.02056438
125	0xbb945155	-0.004526297
126	0xbdaff882	-0.08592321
127	0x3d8bf671	0.06834114
128	0x3da3e198	0.08002013
129	0x3cf921b6	0.030411582
130	0x3d9c798b	0.0764037
131	0x3c92a4d5	0.017900864
132	0xbc4bb902	-0.012434246
133	0xbc53b28b	-0.012920986
134	0x3d2f9f15	0.04287632
135	0x3c93b2d6	0.018029612
136	0xbc920b22	-0.017827574
137	0xbd077c8f	-0.033077773
138	0x3cf84e02	0.030310635
139	0x3d66cc6d	0.0563473
140	0x3cc6302f	0.024192898
141	0x3d99800b	0.074951254
142	0x3da85b84	0.0822058
143	0x3c9f842f	0.01947221
144	0xbc160a88	-0.009157784
145	0xbe09be1f	-0.13451432
146	0x3b335caa	0.0027368465
147	0xbd970d19	-0.07375545
148	0xbdd5039b	-0.10401078
149	0xbd5f4173	-0.054505777
150	0x3d05ba55	0.032648403
151	0xbbcb9452	-0.0062127495
152	0x3d503416	0.050830923
153	0x3d2fc353	0.042910885
154	0x3d9753c0	0.07389021
155	0x3c98a8fe	0.01863527
156	0x3c8b9f2e	0.017043676
157	0xbd3205fb	-0.043462735
158	0xbd044a74	-0.032297567
159	0xbd11030c	-0.035403296
160	0xbc21ebfe	-0.009882925
161	0xbd24e6d6	-0.040259205
162	0x3b6eed11	0.003645722
163	0xbca5d270	-0.020241946
164	0x3d395e1e	0.045255773
165	0xbd0b87b5	-0.034064967
166	0x3d8c3820	0.068466425
167	0x3d9466c5	0.07246164
168	0xbcd193f2	-0.025583241
169	0xbbcf5870	-0.0063276812
170	0xbcec9a12	-0.02888206
171	0x3d93ee91	0.07223237
172	0xbcd3b655	-0.025843779
173	0xbd81d614	-0.0633966
174	0xbd1a3b58	-0.03765425
175	0x3d874e20	0.06606698
176	0x3d04d1da	0.032426693
177	0xbd5de2ad	-0.054171253
178	0xbc8094bb	-0.01569592
179	0x3da015b9	0.07816643
180	0xbc9532f4	-0.018212773
181	0x3cb08b35	0.021550754
182	0x3caaabba	0.020833839
183	0x3dae65e7	0.0851553
184	0xbc8885d4	-0.016665377
185	0x3d842057	0.06451481
186	0xbbd84c05	-0.006600859
187	0xbd448df6	-0.047986947
188	0xbcf0bb18	-0.029386088
189	0xbcd565f2	-0.026049588
190	0xbbe9ed58	-0.0071388893
191	0xbd174251	-0.03692848
192	0xbcc4fe96	-0.024047177
193	0xbc388968	-0.011263229
194	0x3d1b1a63	0.03786696
195	0x3d43c354	0.0477937
196	0xbd3527df	-0.044227477
197	0x3d4d2ab7	0.050089564
198	0xbc1996eb	-0.009374361
199	0x3af0b064	0.0018363115
200	0xbd06ecc8	-0.032940656
201	0xbcc19c43	-0.023634082
202	0x3c483771	0.0122202495
203	0xbcb215e1	-0.021738948
204	0x3c8898c5	0.016674409
205	0xbd373a1a	-0.044733144
206	0xbcb2d296	-0.02182893
207	0x3cff65c8	0.031176463
208	0xbd602c15	-0.05472954
209	0x3d6e5916	0.058190428
210	0xbd0eb035	-0.034836013
211	0xbd389721	-0.045066003
212	0x3d578793	0.052619528
213	0xbcf7e407	-0.0302601
214	0xbcda89b7	-0.026676996
215	0xbb52d1d7	-0.0032168531
216	0x3bad1c58	0.00528292
217	0xbcd336b9	-0.02578293
218	0x3c6e6db3	0.0145525215
219	0xbd4ccc3e	-0.049999468
220	0xbbb49a9a	-0.005511594
221	0x3d9a82aa	0.075444534
222	0xbd0316b0	-0.03200406
223	0x3d8c7247	0.06857734
224	0xbca58bd7	-0.020208282
225	0x3d173439	0.036915038
226	0xbc8c64d6	-0.017137926
227	0x3cecdd2d	0.028914059
228	0xbc937c08	-0.018003479
229	0x3dd114eb	0.10209068
230	0x3d3a98c6	0.045555852
231	0x3d4a390f	0.04937082
232	0xbcde542f	-0.027139751
233	0xbd90f277	-0.070774965
234	0x3dc45b0d	0.09587679
235	0xbc4c634d	-0.012474847
236	0xbd7acd76	-0.0612311
237	0x3c9e4f4c	0.019324921
238	0x3ce57a45	0.028012404
239	0xbc213e50	-0.009841517
240	0xbd8ff0bf	-0.070283405
241	0xbc74a2b4	-0.01493137
242	0x3c724400	0.01478672
243	0xbd458b3d	-0.04822849
244	0x3d63414c	0.055482194
245	0xbcceb011	-0.02523044
246	0xbd8cb16f	-0.0686978
247	0x3d4c5d65	0.049893755
248	0xbca0efd4	-0.019645609
249	0x3d440cc3	0.047863733
250	0x3cb06e3f	0.021536944
251	0x3d3ccda4	0.04609455
252	0x3d418771	0.047248308
253	0x3d8fcff3	0.07022085
254	0xbd2a49df	-0.041574355
255	0x3cd1a56e	0.025591578

fc2_val.bias f4 [128]
0	0x3d2280fe	0.039673798
1	0xbd4703be	-0.048587553
2	0xbc51d3ee	-0.012806876
3	0xbda2b04f	-0.079437844
4	0xbce157e1	-0.027507724
5	0xbd562b4a	-0.052287377
6	0x3d36f06b	0.044662874
7	0x3c8b74b0	0.017023414
8	0x3cad62d1	0.021165283
9	0xbd309787	-0.043113258
10	0xbd122bec	-0.03568642
11	0x3d49d4bf	0.049275156
12	0xbc7f8b37	-0.015597156
13	0x3cd516ef	0.026011912
14	0xbd748f72	-0.059707113
15	0x3d080721	0.033209924
16	0xbd88ac1a	-0.06673451
17	0x3cc55fd0	0.024093539
18	0xbbeab907	-0.0071631703
19	0x3d1046f5	0.03522392
20	0x3d15c5f4	0.036565736
21	0x3d649650	0.05580741
22	0x3d6a86ba	0.05725739
23	0x3d357dc4	0.044309393
24	0xbb9f727e	-0.0048659435
25	0xbd422acf	-0.047404107
26	0xbd7959d7	-0.060876694
27	0xbd806a66	-0.06270294
28	0x3d39fe8c	0.04540877
29	0xbd1b6052	-0.037933655
30	0xbcd47aa5	-0.025937388
31	0x3d5a24fe	0.053257935
32	0xbc694de5	-0.014239763
33	0xbd17d5f9	-0.037069295
34	0x3d778750	0.06043178
35	0xbc81a551	-0.0158259
36	0x3d733bbc	0.05938314
37	0x3c38d0bd	0.011280236
38	0x3d593810	0.05303198
39	0xbcb1046c	-0.021608554
40	0xbc5a6215	-0.013329049
41	0xbd390cee	-0.045178346
42	0xbd29228c	-0.041292712
43	0x3c68c581	0.014207245
44	0x3cf0b2c4	0.029382117
45	0xbcf03a54	-0.029324688
46	0xbbae8d3d	-0.0053268955
47	0x3d56dd64	0.05245723
48	0xb9bb9c5e	-0.00035783922
49	0xbd202f53	-0.039107632
50	0xbd0316c9	-0.03200415
51	0x3d88b4de	0.06675123
52	0x3d0665c9	0.032811914
53	0xbd2a8305	-0.041628856
54	0x3d664f57	0.056228008
55	0xbca29acd	-0.019849205
56	0x3c854eb6	0.016272884
57	0x3d116a85	0.035501976
58	0x3d46a8f7	0.04850098
59	0xbd7aaeef	-0.061201986
60	0xbd58ad70	-0.052899778
61	0xbd1ca6b7	-0.03824493
62	0x3cf6bb9d	0.030118758
63	0x3c34d95e	0.0110381525
64	0x3d3138d0	0.04326707
65	0x3d42c673	0.047552537
66	0x3cd8e030	0.026474088
67	0xbbc32890	-0.005955763
68	0xbca7c360	-0.020478904
69	0x3d4a71d5	0.049424965
70	0x3d61db6a	0.05514089
71	0xbb0f69a4	-0.0021883035
72	0x3d2588f8	0.040413827
73	0x3c8a7c2c	0.016904913
74	0xbcde4c53	-0.027136004
75	0x3d0ff07e	0.03514146
76	0x3c4affde	0.012390105
77	0x3d4401bf	0.047853228
78	0x3cba14e5	0.022715041
79	0x3d4722ec	0.04861729
80	0x3ac31314	0.0014883005
81	0x3d66f32f	0.05638426
82	0xbd5cf807	-0.053947475
83	0xbd42d547	-0.04756668
84	0x3d26ce73	0.04072423
85	0xbd4f9054	-0.05067475
86	0x3d8956e5	0.06706027
87	0x3d4b79f6	0.049676858
88	0x3b4b5784	0.0031027505
89	0xbc98e84f	-0.01866546
90	0xbc7d1d42	-0.01544887
91	0xbcee72b6	-0.029107433
92	0xbd5cc29e	-0.05389654
93	0xbd4a675b	-0.049414974
94	0xbd6f3001	-0.05839539
95	0xbca67463	-0.02031917
96	0x3d460268	0.04834214
97	0xbcfd180a	-0.030895252
98	0x3d07557b	0.033040505
99	0x3d80a0df	0.06280684
100	0xbca4259f	-0.02003747
101	0xbd21b5f9	-0.039480183
102	0xbc215767	-0.0098474985
103	0xbc36d6b0	-0.011159584
104	0x3bc51031	0.006013893
105	0x3d4d9706	0.050192855
106	0xbc278e1a	-0.010226751
107	0x3d648e16	0.055799566
108	0x3d40094d	0.04688387
109	0x3cd13ffe	0.02554321
110	0x3d837602	0.064189926
111	0xbd25ff51	-0.04052669
112	0xbc930655	-0.017947355
113	0xbc07a7d4	-0.008279759
114	0x3cd9fb29	0.02660902
115	0x3d962b4a	0.073324755
116	0xbae61ee8	-0.0017556818
117	0x3d265115	0.04060467
118	0xbc93c215	-0.018036881
119	0x3d77a7a6	0.060462616
120	0xbd1b68c7	-0.03794172
121	0x3c967760	0.01836747
122	0xbbf7016c	-0.0075380113
123	0x3d38e1ce	0.04513722
124	0xbd3c033a	-0.045901515
125	0xbced3e2f	-0.028960316
126	0xbd04aa70	-0.032389104
127	0x3c979cca	0.01850738

fc3_val.weight f4 [1, 128]
0	0xbceafef5	-0.028686026
1	0xbd76201d	-0.06008922
2	0xbdc88b8b	-0.09792241
3	0x3e382ea1	0.17986538
4	0x3def769e	0.11692546
5	0x3d260324	0.04053034
6	0x3c30bad0	0.010786727
7	0x3d8312c6	0.06400065
8	0xbda2d619	-0.07950992
9	0xbd84e5c2	-0.06489135
10	0x3df48be4	0.119407445
11	0xbcace073	-0.02110312
12	0x3db6c02c	0.089233726
13	0x3d822562	0.063547865
14	0x3d5d490b	0.054024737
15	0xbdf49ef6	-0.11944382
16	0x3daa8fc6	0.08328204
17	0xbd0a82ff	-0.033816334
18	0xbdabe32a	-0.083929375
19	0x3cabeda4	0.02098734
20	0xbd06a304	-0.032870308
21	0xbca4890b	-0.020084878
22	0xbd9188e7	-0.0710619
23	0x3d7ba84d	0.0614398
24	0x3dd33db6	0.10314505
25	0x3d0727ab	0.032996815
26	0x3d392038	0.04519674
27	0x3db1dbd0	0.08684504
28	0xbd3dbc1e	-0.04632198
29	0xbce4237e	-0.027848955
30	0xbdc83d2d	-0.09777293
31	0x3d813d5f	0.06310534
32	0xbcf588ce	-0.02997246
33	0x3dc02022	0.09381129
34	0xbd83b87f	-0.06431674
35	0x3d65b736	0.056082927
36	0x3d5e2202	0.05423165
37	0xbcfc7e52	-0.030821953
38	0x3ceb1576	0.028696757
39	0xbdc0d107	-0.09414869
40	0x3d9d9bdd	0.07695744
41	0x3d5d7d4b	0.054074567
42	0x3d8686d9	0.06568689
43	0x3c3c5ea4	0.011497173
44	0x3e011a7b	0.12607758
45	0xbd58746c	-0.052845404
46	0x3b7e334a	0.0038787895
47	0xbd215553	-0.039388012
48	0xbde2e9e6	-0.11079769
49	0xbdb162b8	-0.08661407
50	0xbdb9abea	-0.09065993
51	0xbd89dba1	-0.06731344
52	0x3de986d5	0.1140267
53	0xbd8656bf	-0.06559514
54	0x3dc7ebd7	0.0976178
55	0xbd7c4a7e	-0.06159448
56	0x3c7764b9	0.015099698
57	0xbcca67e1	-0.024707736
58	0x3d8fff4a	0.070311144
59	0x3d29b552	0.041432686
60	0x3d1a6f7e	0.037703983
61	0x3dd5e1d1	0.10443462
62	0xbcc5840c	-0.024110816
63	0xbd309a18	-0.043115705
64	0xbdeded5d	-0.11617539
65	0xbd64046f	-0.05566829
66	0xbd83e66a	-0.06440432
67	0xbdef54c9	-0.11686093
68	0x3ad22eb6	0.001603565
69	0x3dca54a2	0.09879424
70	0x3d5941b8	0.05304119
71	0x3d7453c7	0.05965021
72	0x3df7e78e	0.121047124
73	0xbdba3ab0	-0.09093225
74	0x3d81c492	0.06336321
75	0xbd301f37	-0.04299852
76	0x3dda099d	0.10646365
77	0x3de864d5	0.11347357
78	0xbd250272	-0.040285535
79	0xbd547143	-0.051865827
80	0xbd584f50	-0.052810013
81	0x3d7e0afe	0.0620222
82	0x3d23af16	0.039961897
83	0xbd896fd7	-0.06710785
84	0x3d9350db	0.07193156
85	0x3d646505	0.055760402
86	0xbd622de6	-0.055219553
87	0x3c349872	0.011022674
88	0xbd849111	-0.06472982
89	0xbe1036b5	-0.14083369
90	0x3ddffc5d	0.10936806
91	0xbdc71d35	-0.09722368
92	0x3d27dc9a	0.040981866
93	0x3dea184a	0.11430414
94	0x3d9e1f2c	0.07720789
95	0xbcc1f8f1	-0.023678275
96	0xbd5817a4	-0.05275692
97	0xbdd6e983	-0.104937576
98	0x3cec6dbd	0.028860921
99	0x3dd60f6e	0.10452162
100	0xbd6db089	-0.058029685
101	0x3d8aa71a	0.06770153
102	0xbe089e61	-0.13341667
103	0x3c9ae9d7	0.018910332
104	0xbd6b9392	-0.05751378
105	0x3dbaa0c2	0.09112693
106	0x3cdc64fa	0.026903618
107	0xbca83d41	-0.02053702
108	0xbd06a3b6	-0.03287097
109	0x3e04ff88	0.12988102
110	0x3cc42c7c	0.023946993
111	0xbd779db7	-0.060453143
112	0xbd6a606d	-0.057220865
113	0x3d9cffed	0.076660015
114	0x3d6e7e62	0.058225997
115	0x3df77f92	0.12084879
116	0xbdc20718	-0.09474009
117	0xbce40580	-0.027834654
118	0xbdee0271	-0.116215594
119	0xbc4def98	-0.012569331
120	0x3d9fd474	0.07804194
121	0xbd963341	-0.07333995
122	0x3d319616	0.043356024
123	0x3c7c0698	0.015382431
124	0xbd67ffd8	-0.056640476
125	0xbd483f11	-0.04888827
126	0xbd49a8d8	-0.049233288
127	0xbd615ba8	-0.05501905

fc1_adv.weight f4 [256, 45]
0	0xbe03ca4c	-0.12870139
1	0x3d439bce	0.04775601
2	0x3cf04aa2	0.029332463
3	0xbdcf5aaf	-0.101247184
4	0xbd9589b2	-0.07301654
5	0xbdac7c5e	-0.08422159
6	0x3d190677	0.03735968
7	0xbd5aff83	-0.05346633
8	0x3db74ded	0.0895041
9	0x3d586ec8	0.052840024
10	0x3cf655b0	0.030070156
11	0x3e236305	0.15955742
12	0x3d00086f	0.031258043
13	0xbe04f4b3	-0.1298397
14	0xbdb90b78	-0.090353906
15	0x3c4b68bd	0.012415108
16	0xbd03809a	-0.032105066
17	0xbd5779cf	-0.0526064
18	0x3dbfe700	0.09370232
19	0xbdc48fb5	-0.095977224
20	0xbbce2801	-0.00629139
21	0x3d04a6e6	0.03238573
22	0xbb45fc1a	-0.0030210079
23	0xbdbefafe	-0.09325217
24	0x3e0c514a	0.13702884
25	0x3d823d6c	0.063593715
26	0x3e0c29ff	0.13687895
27	0x3dd33b8e	0.103140935
28	0xbd41b9d2	-0.047296353
29	0xbdf8bd77	-0.121455126
30	0x3d403ae6	0.04693117
31	0x3ddb82d9	0.107183166
32	0x3dd8dd2f	0.105890624
33	0x3de2852a	0.11060555
34	0xbbafff25	-0.005370992
35	0x3d74f8d2	0.059807606
36	0xbcf90fe5	-0.030403087
37	0xbda4d4a3	-0.0804837
38	0x3c6e0170	0.01452671
39	0x3df569ab	0.11983045
40	0x3d827714	0.063703686
41	0xbdf44a21	-0.119282015
42	0x3e140dc6	0.14458379
43	0xbd81233a	-0.06305547
44	0x3e05e0d5	0.13074048
45	0x3d02be4a	0.031919755
46	0xbd602d62	-0.05473078
47	0x3d960cc7	0.07326656
48	0x3d18d9a2	0.037316926
49	0xbe01be0c	-0.12670153
50	0xbe0df4f2	-0.1386297
51	0x3ded66ce	0.11591874
52	0x3d4adf40	0.049529314
53	0xbd09e024	-0.033661023
54	0x3da67b12	0.081289425
55	0xbd4a5c55	-0.04940446
56	0x3d9a09f5	0.075214304
57	0x3d5a658a	0.05331949
58	0x3dbb8418	0.09156054
59	0x3ddb0715	0.1069471
60	0x3c6ba73b	0.014383133
61	0x3d7c172e	0.061545543
62	0xbdfad731	-0.12248076
63	0xbd03da0b	-0.032190364
64	0x3cddab4e	0.027059224
65	0xbddbe935	-0.1073784
66	0xbd801fc0	-0.06256056
67	0x3d8077ef	0.062728755
68	0xbd7d198b	-0.061791938
69	0xbc9e0b3a	-0.019292463
70	0x3d32c1d1	0.04364187
71	0xbd1acc15	-0.037792284
72	0xbda07465	-0.078347005
73	0x3d20a0f3	0.039215993
74	0x3de75aa9	0.11296589
75	0xbd745148	-0.05964783
76	0x3d443300	0.0479002
77	0x3cc0cee4	0.023536153
78	0x3d11a2d5	0.03555568
79	0xbe149ec5	-0.14513691
80	0xbc716a34	-0.014734793
81	0xbe06e4ae	-0.13173172
82	0x3df55b35	0.11980287
83	0xbdde1808	-0.10844427
84	0x3de44a37	0.11146968
85	0x3e0de77a	0.13857833
86	0x3d7f0a9d	0.06226598
87	0xbc4b0692	-0.012391703
88	0x3d81f573	0.06345644
89	0x3d562af6	0.052287064
90	0xbc2bb0b5	-0.010479142
91	0x3b7d7053	0.0038671687
92	0x3dd9e7c6	0.106399104
93	0x3dae190f	0.08500873
94	0xbe0a715d	-0.13519807
95	0x3e03e11b	0.1287884
96	0xbdbabab0	-0.09117639
97	0xbde5159f	-0.111857645
98	0xbd8cc1d3	-0.068729065
99	0x3e04e730	0.12978816
100	0xbc304f6e	-0.010761125
101	0xbe0b27ea	-0.13589445
102	0xbd9ee812	-0.07759108
103	0xbe1d6c56	-0.15373358
104	0x3daeb180	0.08529949
105	0x3ce687ac	0.028140865
106	0x3d178a71	0.036997262
107	0xbbb9fa15	-0.005675564
108	0xbde5d8e0	-0.11223006
109	0xbb633c8f	-0.0034673547
110	0xbdbd3dee	-0.09240328
111	0xbbd1b9b9	-0.0064003137
112	0xbcd2f701	-0.025752546
113	0x3e050cfe	0.12993237
114	0xbde445da	-0.11146136
115	0x3da635e1	0.08115745
116	0xbd88d417	-0.06681078
117	0x3e0cd3bb	0.13752644
118	0x3d4a21f1	0.049348775
119	0xbb0144fc	-0.0019724956
120	0x3d26ba78	0.040705174
121	0x3d14ae18	0.03629884
122	0x3dbe59a4	0.09294441
123	0x3c0cd2e8	0.008595206
124	0xbd896dea	-0.067104176
125	0x3d272b51	0.040812794
126	0xbce9028d	-0.0284436
127	0x3cd3dbc9	0.025861638
128	0x3dcb5e80	0.09930134
129	0xbcd9f977	-0.026608212
130	0xbdfaf92b	-0.12254556
131	0x3d76ec17	0.060283747
132	0xbe122d3b	-0.14275067
133	0xbd92107a	-0.07132049
134	0xbc19480c	-0.009355556
135	0xbdd5b2f4	-0.10434523
136	0xbd11e096	-0.035614572
137	0xbd6f6e06	-0.058454536
138	0x3ba987c4	0.005173655
139	0xbdf30c1a	-0.118675426
140	0xbd522035	-0.051300246
141	0xbd93937e	-0.07205866
142	0x3d0138ea	0.031548418
143	0xbd4f8b4f	-0.050669964
144	0xbe1224c5	-0.14271839
145	0x3c2a2d01	0.010386706
146	0xbd6b8d55	-0.05750783
147	0x3de1fa2b	0.11034044
148	0xbd1b1593	-0.03786237
149	0x3dc628f3	0.09675779
150	0xbd1edee4	-0.038786784
151	0xbdf8755a	-0.12131758
152	0xba6eb90c	-0.00091065536
153	0x3ddaeaf0	0.10689342
154	0x3e024c7e	0.12724492
155	0x3b356adb	0.00276821
156	0x3db2e637	0.08735316
157	0x3d259c95	0.04043253
158	0x3e0f43a6	0.1399065
159	0xbd81984e	-0.06327878
160	0x3d7bb02e	0.061447315
161	0xbdc53a4b	-0.09630259
162	0xbdd39b59	-0.103323646
163	0xbd5e06a6	-0.05420556
164	0xbdcbc032	-0.09948768
165	0x3e30d685	0.17269333
166	0xbc6baa4d	-0.014383865
167	0x3e225825	0.15853937
168	0xbdc42615	-0.09577576
169	0x3e048c3c	0.1294412
170	0x3d9a9f47	0.07549911
171	0x3d931e30	0.07183492
172	0x3c95511d	0.018227154
173	0xbdf52993	-0.1197082
174	0xbc177c29	-0.009245911
175	0xbd9e3c3d	-0.07726333
176	0xbd9efa54	-0.0776259
177	0x3df435e6	0.11924343
178	0xbe0b6c02	-0.1361542
179	0xbe381ef5	-0.17980559
180	0xbae0f919	-0.0017164081
181	0x3e014cfc	0.12627023
182	0x3d5fc1a4	0.05462803
183	0xbdbfc95a	-0.09364577
184	0x3c47a790	0.012185946
185	0x3ddace09	0.10683829
186	0xbdc2bde4	-0.09508875
187	0xbd41191c	-0.047143087
188	0x3dff6681	0.12470723
189	0xbdb2f883	-0.08738806
190	0x3d18a6b0	0.03726834
191	0xbdaf3f3a	-0.085569814
192	0x3ca30c30	0.019903272
193	0xbd0e74ef	-0.034779485
194	0x3d9122d8	0.07086724
195	0xbd62d964	-0.0553831
196	0xbdf5759e	-0.11985324
197	0xbdca2b7f	-0.098715775
198	0xbdbe5a54	-0.092945725
199	0x3e03b4c4	0.12861925
200	0x3c82491e	0.015904006
201	0x3d7eb526	0.062184475
202	0x3d890ca4	0.06691864
203	0x3e0ab3d5	0.13545163
204	0xbd253344	-0.040332094
205	0x3cbba386	0.022905122
206	0x3d31e1c6	0.043428205
207	0x3d23ccf9	0.0399904
208	0x3d912c67	0.07088547
209	0x3dea4b86	0.11440186
210	0xbdd9d463	-0.10636213
211	0x3e14d439	0.14534082
212	0x3db0203c	0.08599898
213	0xbd888ec6	-0.06667857
214	0xbd1b8455	-0.037968
215	0xbdaf4284	-0.08557609
216	0xbe0373d0	-0.12837148
217	0x3dd7b800	0.10533142
218	0x3caa22f7	0.020768626
219	0xbdfab4d4	-0.122415215
220	0xbdb53c93	-0.08849444
221	0xbc7185b3	-0.014741349
222	0x3dd4271e	0.103590235
223	0xbb159146	-0.0022822185
224	0x3d88280a	0.06648262
225	0xbdc1a9ba	-0.09456201
226	0xbe0c3f5a	-0.13696042
227	0x3e06209d	0.13098378
228	0xbe150f5e	-0.14556643
229	0xbdbea9b8	-0.09309715
230	0x3e0dde04	0.13854223
231	0x3d3dac3e	0.04630684
232	0x3d88e660	0.066845655
233	0xbe1171a9	-0.14203514
234	0x3d3ac1e2	0.045595057
235	0x3e032cee	0.12810108
236	0xbd846608	-0.064647734
237	0x3de5e27e	0.112248406
238	0x3de88d52	0.1135508
239	0xbde48dd2	-0.111598626
240	0x3d0188a7	0.031624462
241	0xbe09d543	-0.13460259
242	0x3d23aaeb	0.039957922
243	0xbdb40fc5	-0.0879207
244	0x3dda5031	0.106598265
245	0x3d90960e	0.07059871
246	0x3dc093f7	0.09403222
247	0x3d253abc	0.040339217
248	0xbba7063d	-0.005097179
249	0x3e03679d	0.12832494
250	0x3e182e51	0.14861418
251	0x3dac35d2	0.08408703
252	0xbe0eb0dd	-0.13934655
253	0x3c686d97	0.0141862845
254	0xbdd950fc	-0.1061115
255	0xbdf73b87	-0.12071901

fc1_adv.bias f4 [256]
0	0xbe110880	-0.14163399
1	0x3deafe87	0.114743285
2	0x3e3c3005	0.18377693
3	0xbda4a346	-0.080389544
4	0xbdf1c639	-0.11805386
5	0xbd800e30	-0.06252706
6	0x3dfb8982	0.12282087
7	0x3d91f6a3	0.0712712
8	0xbdb1af50	-0.08676016
9	0x3da5eafa	0.08101459
10	0xbe0cdc83	-0.13755994
11	0x3d77fec8	0.060545713
12	0xbd1cd080	-0.03828478
13	0xbe0bc002	-0.13647464
14	0x3e34b0ce	0.1764557
15	0xbdbc1314	-0.09183326
16	0x3e159e91	0.1461127
17	0x3e153240	0.1456995
18	0x3c8991b6	0.016793113
19	0x3bdef0f9	0.0068036285
20	0xbe04768c	-0.12935847
21	0x3daf7bdd	0.08568547
22	0xbdabbbee	-0.08385454
23	0xbdab78a0	-0.08372617
24	0x3dd93dd7	0.10607498
25	0xbcc6016c	-0.0241706
26	0x3df867e5	0.12129191
27	0x3e11a13e	0.14221665
28	0x3d8a342f	0.067482345
29	0x3e0a7658	0.13521707
30	0x3e51fbde	0.20506236
31	0xbd0f766b	-0.03502504
32	0x3dd041f7	0.10168832
33	0x3df85200	0.12125015
34	0x3e5ca620	0.21547747
35	0xbd19a598	-0.037511438
36	0x3ca93ff1	0.020660372
37	0x3df3210b	0.11871537
38	0xbe403bbb	-0.18772785
39	0x3e1768e5	0.14786108
40	0xbe1d9440	-0.15388584
41	0xbdb4cb7b	-0.08827873
42	0xbb92030d	-0.00445593
43	0xbe0c7ea3	-0.13720183
44	0x3d8e3bf6	0.069450304
45	0x3e23ab22	0.1598325
46	0xbd4b1a51	-0.049585644
47	0xbdcef386	-0.10105042
48	0xbe0c474e	-0.13699076
49	0xbd8d9701	-0.06913567
50	0x3d109cca	0.035305776
51	0x3e08e976	0.13370308
52	0x3bf82780	0.007573068
53	0xbe401c43	-0.18760781
54	0x3de17386	0.110083625
55	0xbd727aaf	-0.05919903
56	0x3cebf534	0.028803445
57	0xbdcff714	-0.10154548
58	0xbc0f5252	-0.008747654
59	0xbc48c698	-0.01225438
60	0xbd016615	-0.031591494
61	0x3e04ab6a	0.12956014
62	0xbe0943c2	-0.13404754
63	0xbe0558d4	-0.13022166
64	0xbcb7030d	-0.022340322
65	0x3e1b94f4	0.1519354
66	0xbdea0739	-0.11427159
67	0x3d8b48fd	0.06801031
68	0xbdca187a	-0.0986795
69	0xbd2db35d	-0.042407382
70	0x3e06ae2c	0.13152379
71	0x3e1e42a6	0.15455112
72	0x3e350c11	0.17680384
73	0xbda6bfcd	-0.08142052
74	0x3df2346d	0.11826406
75	0xbdc6d945	-0.097094096
76	0x3d11cda4	0.035596505
77	0xbe214731	-0.15749814
78	0x3dbc5b18	0.09197062
79	0xbe0fd288	-0.14045155
80	0xbe0135e2	-0.12618211
81	0x3e1f445f	0.15553425
82	0x3bea60c9	0.007152651
83	0xbe04d5ff	-0.12972258
84	0x3d5419d1	0.051782433
85	0x3d6e3658	0.058157295
86	0x3ddc9b35	0.10771791
87	0x3d2842f6	0.041079484
88	0x3e271f43	0.16320519
89	0xbdcef577	-0.101054125
90	0x3e0c3bf6	0.13694748
91	0xbc05fdb0	-0.00817816
92	0x3cf4663b	0.029833904
93	0xbd08ad0d	-0.03336816
94	0x3d2a7e94	0.04162462
95	0xbe42bd82	-0.19017604
96	0xbc82d463	-0.015970415
97	0x3dd15831	0.10221899
98	0x3e0b2c72	0.13591173
99	0xbde05fc3	-0.10955765
100	0x3ddcece6	0.10787372
101	0x3cfdbd18	0.030973956
102	0xbdf73b4b	-0.12071856
103	0x3d815f14	0.06316963
104	0xbb304bf4	-0.002690074
105	0x3d868ef1	0.06570233
106	0x3decc407	0.11560827
107	0xbdf12298	-0.11774176
108	0xbdb67e4c	-0.08910808
109	0x3d6b9353	0.057513546
110	0xbd048be7	-0.032359984
111	0x3e0db95e	0.13840243
112	0x3d6dc825	0.0580522
113	0x3dbffdf8	0.093746126
114	0xbcc67fa0	-0.024230778
115	0xbd962f2e	-0.073332176
116	0xbd0ffb05	-0.0351515
117	0x3d5e22f2	0.054232545
118	0x3dabb2db	0.08383723
119	0x3d9e30ed	0.077241756
120	0xbd81fa36	-0.06346552
121	0xbd07a13c	-0.03311275
122	0x3e0cc9c1	0.13748838
123	0x3c95a2e4	0.018266149
124	0x3e157a53	0.14597444
125	0x3dc51781	0.09623624
126	0xbd6c33c5	-0.05766656
127	0xbd0538c2	-0.03252483
128	0xbe0c6b92	-0.1371291
129	0x3d83e2b2	0.06439723
130	0xbdc36b50	-0.095419526
131	0x3e0d5384	0.1380139
132	0xbd86f24c	-0.06589183
133	0xbe149419	-0.1450962
134	0x3d225685	0.039633293
135	0xbdbb8eb0	-0.09158075
136	0x3ddeb2b1	0.108739264
137	0xbcfe72bf	-0.031060575
138	0xbdb831c4	-0.08993867
139	0x3d62b03a	0.055343844
140	0xbdf9f53e	-0.12204979
141	0xbd6dba88	-0.05803922
142	0x3d2c8235	0.042116363
143	0xbe0d438a	-0.13795295
144	0xbda23ba9	-0.079215355
145	0x3cea912c	0.028633676
146	0xbdb0bf0c	-0.08630189
147	0x3d3b82db	0.04577909
148	0xbdbf179d	-0.09330676
149	0xbd6ab838	-0.05730459
150	0x3daf0a14	0.08546844
151	0x3d46c4ac	0.048527405
152	0xbc020c85	-0.007937555
153	0x3d015c45	0.031582136
154	0x3dca9a03	0.09892657
155	0xbe244ed6	-0.16045699
156	0xbe190754	-0.14944202
157	0x3ddf25f4	0.10895911
158	0xbdc1a9c6	-0.0945621
159	0x3ac15cac	0.001475235
160	0x3dd7281b	0.105056964
161	0x3cedada0	0.029013455
162	0x3e0c8088	0.13720906
163	0x3e30e306	0.17274103
164	0x3e06da12	0.13169125
165	0xbda39f5c	-0.0798938
166	0x3e3363dd	0.17518564
167	0xbe04a493	-0.12953405
168	0xbe0c6b73	-0.13712864
169	0x3e59616a	0.21228567
170	0xbcf4b20e	-0.02987006
171	0x3c81fa77	0.015866501
172	0x3ce23e7d	0.027617687
173	0x3dc172cb	0.09445723
174	0xbe096226	-0.13416347
175	0x3e1a862b	0.15090244
176	0xbdd83bf9	-0.10558314
177	0xbd5fba2b	-0.054620903
178	0x3cb4846c	0.0220358
179	0x3d9398a7	0.072068505
180	0x3da0c721	0.07850481
181	0x3cb8a577	0.022539837
182	0x3dc67b85	0.09691528
183	0xbdf689eb	-0.120380245
184	0xbdd76f81	-0.105193146
185	0x3d8090ec	0.06277642
186	0xbcef459c	-0.029207997
187	0xbdb4dec8	-0.08831555
188	0xbcf01f0c	-0.02931168
189	0xbd96e2f2	-0.07367505
190	0xbc3a366e	-0.011365516
191	0xbd506bb1	-0.050883953
192	0x3d9090a3	0.07058837
193	0xbdf5fa73	-0.1201066
194	0xbc907aca	-0.017636675
195	0x3da4df9d	0.08050463
196	0x3d50971e	0.050925367
197	0xbe21ed22	-0.15813115
198	0x3e1d28bc	0.1534757
199	0xbd221bc6	-0.039577268
200	0xbc9902f6	-0.01867817
201	0x3e0a07cb	0.13479535
202	0xbc6f3a8d	-0.014601362
203	0x3e0cbcf0	0.13743949
204	0xbe06326c	-0.13105172
205	0xbd94b481	-0.07260991
206	0xbd9894a5	-0.07450227
207	0x3de908c4	0.11378625
208	0x3d920702	0.07130243
209	0x3e2aadba	0.16667834
210	0x3e2eddda	0.17076817
211	0xbd7a8aa9	-0.061167393
212	0x3dba8edd	0.0910928
213	0xbdef5815	-0.11686722
214	0x3ae32b97	0.0017331716
215	0x3da4c7bb	0.08045908
216	0x3d2eb078	0.042648762
217	0x3d5f22ab	0.05447642
218	0xbdff88b4	-0.12477246
219	0x3d62b153	0.05534489
220	0xbdc5bdf8	-0.09655374
221	0x3d93276e	0.07185255
222	0xbcfde33f	-0.030992148
223	0x3df93d35	0.121698774
224	0xbd942f64	-0.072356015
225	0x3e32d8ef	0.17465566
226	0x3d9f9194	0.07791439
227	0xbda22f44	-0.079191715
228	0xbd8ea8c8	-0.06965786
229	0xbdf490a3	-0.1194165
230	0xbe107e69	-0.14110722
231	0x3e1207f4	0.14260846
232	0xbe001754	-0.12508899
233	0x3ab3e9fe	0.0013726351
234	0x3e0f157b	0.13973038
235	0xbdda3b20	-0.106558084
236	0x3a4cbbc1	0.000780996
237	0xbd4aaa81	-0.04947901
238	0x3e3e892e	0.18607017
239	0x3c1b6c36	0.009486249
240	0x3e35ab12	0.1774104
241	0xbc243e13	-0.010024565
242	0x3d9f4036	0.07775919
243	0x3cc9bff0	0.024627656
244	0xbc825c67	-0.015913201
245	0xbe0819e7	-0.13291131
246	0x3d7291b5	0.05922099
247	0x3e33bd23	0.17552619
248	0xbd831778	-0.06400961
249	0xbe1d31a1	-0.15350963
250	0xbe1d09f5	-0.1533583
251	0xbbdd1bc9	-0.006747697
252	0x3def9223	0.11697795
253	0x3d774b0f	0.060374316
254	0x3d950f88	0.07278353
255	0xbd499a5b	-0.04921947

fc2_adv.weight f4 [128, 256]
0	0xbd86cba5	-0.06581811
1	0xbb1602f2	-0.002288994
2	0x3cd04bc1	0.025426747
3	0x3cb03c9c	0.021513276
4	0x3b2e3d17	0.0026586705
5	0xbbe7efd5	-0.0070781508
6	0xbc920857	-0.017826242
7	0x3d2b91eb	0.041887205
8	0x3db252ca	0.08707197
9	0x3d72113e	0.059098475
10	0xbcdd724c	-0.02703204
11	0x3b9a3b0e	0.004706747
12	0x3c2a1682	0.010381343
13	0xbd6fad07	-0.05851462
14	0xbd956e59	-0.07296438
15	0x3b1ea75c	0.002420864
16	0xbd975efb	-0.07391163
17	0x3c857c8a	0.016294736
18	0xbdaa0da3	-0.08303382
19	0xbd6d2d3b	-0.057904463
20	0x3cfea328	0.031083658
21	0xbd42976b	-0.047507685
22	0x3cbb1806	0.022838604
23	0x3ce66171	0.028122636
24	0xbd0f4f95	-0.034988005
25	0xbcbb1cef	-0.022840945
26	0x3b02d0df	0.0019960923
27	0xbd5d7bc6	-0.054073118
28	0x3d058ecf	0.032606896
29	0x3ccad5af	0.024760095
30	0xbcb57182	-0.022148851
31	0x3dad105d	0.08450387
32	0x3cd47b69	0.025937753
33	0xbd88a3a7	-0.06671839
34	0x3a880a26	0.0010379001
35	0xbc2b8337	-0.010468296
36	0xbd4017c1	-0.046897653
37	0xbd17fd39	-0.037106726
38	0x3d90242a	0.07038148
39	0xbd88bbb7	-0.06676429
40	0x3d9aa4a5	0.07550935
41	0x3daf1176	0.08548252
42	0x3a731374	0.0009272613
43	0x3cd3d69f	0.025859175
44	0x3d02dc67	0.031948473
45	0xbb6b33aa	-0.0035888948
46	0xbd9d2000	-0.07672119
47	0x3d186097	0.03720149
48	0x3ce976c6	0.028499018
49	0xbd3eab9d	-0.046550382
50	0xbc25b0da	-0.0101129655
51	0xbd88a31a	-0.06671734
52	0x3cdc9949	0.02692856
53	0xbda053da	-0.078284934
54	0xbdc1ae81	-0.09457112
55	0x3d69a38f	0.057040747
56	0xbd4a46dd	-0.049383987
57	0x3cd19964	0.025585838
58	0x3d982cb5	0.07430402
59	0x3cfc01c2	0.030762557
60	0xbd6a9da8	-0.05727926
61	0xbd3c9b99	-0.046046827
62	0xbcdf0658	-0.027224705
63	0x3d973625	0.07383374
64	0x3d2feb4c	0.042949006
65	0xbcfa54ea	-0.030558068
66	0xbe04b038	-0.12957847
67	0xbd908048	-0.07055718
68	0x3da464bb	0.08027025
69	0xbd27c552	-0.040959664
70	0x3c9e698f	0.019337444
71	0x3d410ed2	0.047133274
72	0xbd5d5499	-0.054035757
73	0xbcaf8f1c	-0.021430545
74	0xbd36551c	-0.04451476
75	0xbd026c03	-0.03184129
76	0xbd229c04	-0.03969957
77	0xbbaf81e2	-0.0053560594
78	0xbd0894e0	-0.033345103
79	0xbe07ee9e	-0.13274619
80	0xbc3e037b	-0.0115975095
81	0xbd340826	-0.043953083
82	0xbd5cb533	-0.053883743
83	0xbcd0fcc3	-0.025511151
84	0xbda898c9	-0.082322665
85	0x3d886a49	0.06660897
86	0x3cc0ccf1	0.023535224
87	0xb8885509	-6.5008244e-05
88	0x3b94e707	0.004544142
89	0x3d149de7	0.0362834
90	0x3d1bee7f	0.038069244
91	0x3d08751d	0.033314813
92	0xbda80114	-0.08203331
93	0xbdb18f56	-0.08669917
94	0xbd23dd76	-0.040006123
95	0xbd4b94e8	-0.049702555
96	0x3d45be35	0.0482771
97	0x3c9479db	0.018124511
98	0xba5ed456	-0.00085002685
99	0xbbb160e6	-0.0054131625
100	0xbd9a92ac	-0.07547507
101	0x3d4c3404	0.049854293
102	0x3d6896fa	0.056784607
103	0x3da9c3b3	0.0828928
104	0x3d96b74c	0.0735918
105	0xbbbf9aef	-0.005847327
106	0xbbd84dd8	-0.0066010766
107	0x3cff6694	0.031176843
108	0xbc38b21a	-0.0112729315
109	0x3cba27b9	0.02272402
110	0xbdcbfbf4	-0.099601656
111	0xbd2bd132	-0.04194755
112	0x3ca1b21d	0.019738251
113	0x3d85bcc7	0.06530147
114	0x3a80c5c5	0.0009824565
115	0x3d20b682	0.039236553
116	0x3d30b694	0.04314287
117	0x3d152a88	0.036417514
118	0x3c2ea5a4	0.010659609
119	0x3d1b0721	0.037848596
120	0x3d962a5a	0.07332297
121	0x3c99e9c8	0.018788233
122	0x3d184e6b	0.03718416
123	0x3d0d45fe	0.034490578
124	0x3da1b406	0.07895665
125	0xbd78696c	-0.060647413
126	0xbd6675d1	-0.056264702
127	0x3d9e2597	0.077220134
128	0xbd37b5fd	-0.044851292
129	0xbc3096c2	-0.010778131
130	0x3cfe3fef	0.031036345
131	0xbc4b6a7f	-0.012415527
132	0xbd83d23f	-0.06436586
133	0xbbc8f341	-0.0061325138
134	0x3d96b933	0.07359543
135	0xbdb452e7	-0.08804875
136	0xbd6447b8	-0.05573246
137	0xbd1a3d85	-0.037656326
138	0x3d051de4	0.03249921
139	0xbda4bf40	-0.080442905
140	0x3d4339fa	0.047662713
141	0xbcd7e420	-0.026353896
142	0xbcfc571d	-0.030803258
143	0xbd42b77e	-0.047538273
144	0x3d9acfd6	0.07559173
145	0xbc42d564	-0.011891697
146	0xbcb10c5a	-0.021612335
147	0xbcdae058	-0.026718304
148	0xbdc87f96	-0.0978996
149	0x3d1b6724	0.03794016
150	0xbccd8e3c	-0.025092237
151	0xbc474674	-0.012162793
152	0x3d2e29d4	0.04252036
153	0x3d56dc66	0.052456282
154	0xbd09e772	-0.03366799
155	0x3d4b1bfd	0.04958724
156	0xbbd835b0	-0.006598197
157	0xbd130b9f	-0.035899755
158	0xbc571dc8	-0.013129659
159	0x3cbdcfd6	0.023170393
160	0x3c135437	0.008992246
161	0x3d562ebc	0.052290663
162	0x3d08d22a	0.033403553
163	0x3c93ba52	0.01803318
164	0xbc93e6f1	-0.018054457
165	0x3d6c5305	0.05769636
166	0x3d21f80d	0.0395432
167	0xbce182b2	-0.02752814
168	0xbcd4899f	-0.02594453
169	0x3ca3c5ba	0.019991744
170	0xbd736d2e	-0.059430294
171	0x3c597836	0.013273289
172	0x3cd11e3b	0.02552711
173	0x3bc978aa	0.0061484175
174	0xbdd4701d	-0.103729464
175	0xbd65fe09	-0.05615047
176	0xbcb2019b	-0.021729281
177	0xbdcdc02f	-0.10046422
178	0xbc968109	-0.018372076
179	0x3c62e522	0.013848575
180	0x3d551503	0.05202199
181	0xbc5cba84	-0.013472203
182	0x3c729ccc	0.014807891
183	0xba3c8a42	-0.0007192233
184	0x3d8794b2	0.06620158
185	0xbd7082f8	-0.05871865
186	0xbd38d2c2	-0.04512287
187	0x3cf9fb91	0.030515464
188	0x3d555dbf	0.052091356
189	0x3d936454	0.071968704
190	0xbd9d8863	-0.07692029
191	0x3cbd1903	0.023083216
192	0xbd713ea9	-0.058897648
193	0x3cebb692	0.02877358
194	0xbd230c53	-0.039806675
195	0x3c4cb83e	0.012495099
196	0xba49242b	-0.0007672931
197	0xbdd8011f	-0.10547089
198	0xbd9a4176	-0.07532017
199	0xbd8202b5	-0.063481726
200	0x3d10a522	0.035313733
201	0xba37fa87	-0.00070182275
202	0xbcd9aed4	-0.026572622
203	0x3c8ac436	0.016939264
204	0x3be8f2dc	0.007109029
205	0x3cfe431d	0.031037861
206	0xbcf94b26	-0.030431341
207	0x3a2c846b	0.0006581011
208	0x3d1a22b2	0.037630744
209	0x3caaf888	0.020870462
210	0xbc576609	-0.013146886
211	0x3ccc5062	0.024940673
212	0xbd715348	-0.058917314
213	0x3cb2db5e	0.021833118
214	0x3c09e3d0	0.008416131
215	0x3c29bb8d	0.010359657
216	0x3c167b4d	0.009184671
217	0xbc6f8ec2	-0.014621438
218	0x3bb7baf0	0.0056070015
219	0x3cd19eab	0.025588354
220	0x3d5c4d72	0.053784795
221	0x3ce72713	0.028216874
222	0x3d8e92ca	0.069615915
223	0xbd706072	-0.058685727
224	0x3d5c55d0	0.053792775
225	0x3d3cd1fd	0.046098698
226	0xbd02aaf8	-0.03190133
227	0xbc77161b	-0.015080954
228	0x3d1441cd	0.036195565
229	0x3d61d472	0.055134244
230	0x3df41e69	0.11919863
231	0xbcce6f38	-0.025199518
232	0x3b7ead63	0.003886067
233	0x3cf0c11a	0.029388953
234	0x3d4c1941	0.04982877
235	0x3dab486f	0.08363425
236	0xbcf6dc30	-0.03013429
237	0xbc3ff32a	-0.01171569
238	0xbcc65b5c	-0.024213485
239	0xba48cd31	-0.00076599704
240	0xbd489f5a	-0.048980094
241	0x3d8287b5	0.0637354
242	0xbd1229f6	-0.03568455
243	0x3c54ce8c	0.012988698
244	0xbd11e2a9	-0.03561655
245	0x3c1d0de8	0.009585835
246	0x3d400990	0.04688412
247	0x3d11a100	0.035553932
248	0x3c205bf6	0.00978755
249	0xbc92ff47	-0.017943991
250	0x3d9e824c	0.07739696
251	0xbd918849	-0.071060725
252	0x3c01f55a	0.0079320315
253	0x3c6eca77	0.014574639
254	0x3bf6a8a1	0.0075274264
255	0x3c87e752	0.016589794
