src/nets/exp_graph_obs_4_agents100.pth (torch_old, 356653 bytes, 11 tensors)

fc1_val.weight f4 [256, 43]
0.12729658 -0.085863195 -0.033913992 0.083854064 0.048461936 0.033148203 -0.021567002 -0.07760997
0.06566561 -0.08843609 0.16220465 0.14903647 0.075908616 0.073618494 -0.07363205 -0.07935512
0.05706164 -0.06718166 0.12706976 -0.12312947 -0.061350226 -0.13209908 -0.06082447 -0.13620235
0.11617519 -0.059350938 -0.078489445 0.0021951576 -0.14820178 0.03927007 -0.028643487 -0.13148816
-0.031401943 0.004403924 -0.06520015 0.15009543 0.07291086 0.09617079 -0.05295281 0.013551218
0.05247347 -0.057821404 0.03914805 0.09700286 0.0010123677 -0.0013354608 -0.0023635789 -0.14116241
-0.13144958 0.042904068 -0.15662101 -0.109097965 0.029113257 -0.076853186 0.0027655312 0.023063453
-0.10047877 0.1215716 -0.0020422216 -0.06514239 -0.1121525 0.022003176 -0.046336558 -0.004072158
0.068375155 -0.014961299 -0.16147658 -0.10986209 0.08512403 0.12832351 -0.002020506 -0.03964476
0.07439651 0.105160214 -0.07892198 0.09216204 0.013432255 -0.07407807 0.12143232 -0.088529386
-0.17305887 -0.14235339 -0.034796692 -0.15926349 -0.1590379 0.12865745 -0.0713268 0.03096712
-0.06542537 0.03124434 -0.0790759 0.08189212 0.035538774 0.12048857 -0.036441784 0.08251553
0.017637376 -0.0350919 0.0053337784 0.13994929 0.08182761 -0.14233229 -0.016506417 -0.05747586
0.030661946 -0.12641983 -0.03615294 0.06043892 0.101616524 -0.018070908 0.14630525 -0.0008748682
0.13243705 0.030666849 0.11025473 -0.057826657 0.08971531 0.09334533 -0.006573622 -0.13313657
-0.11071587 -0.013238326 -0.057017937 0.07758353 0.109765455 0.11394453 0.13955441 0.087500535
0.15844604 -0.10784592 -0.052459374 -0.12810944 -0.014808051 0.05082698 0.030803569 -0.08830008
0.03678014 -0.003359377 -0.05313662 -0.032713797 0.119391635 0.073665805 0.14483598 0.00032249378
0.06791187 -0.0039683776 0.024719827 -0.0056432295 -0.08202376 0.076182894 -0.045039054 0.06161933
0.018094074 -0.055153143 0.06480175 0.15591818 0.006384677 -0.12304001 -0.068215095 -0.032710638
0.13221252 0.022043055 0.0024501705 -0.039754417 0.053519685 -0.16197497 -0.12606156 -0.116055235
-0.13205549 0.06947181 0.1888878 -0.10055931 0.14218614 0.13925657 0.009915138 -0.09522294
-0.015201291 0.060630262 0.010902374 0.058399152 -0.10784839 -0.10100546 0.0419532 0.12620878
-0.13331486 -0.08754868 0.14119293 0.04018491 0.13145941 -0.035326663 -0.036853567 -0.048977185
0.040623736 0.13362184 -0.044252925 -0.04473691 0.033705957 -0.056501858 -0.04437509 -0.016082345
-0.13220204 0.08706831 -0.095352575 0.068209946 0.13671972 0.12155529 0.0504348 -0.08234783
-0.014737701 -0.098516226 0.087489136 0.12211319 0.04654992 0.08011873 0.09397166 0.06543223
-0.01985152 0.049169242 -0.12454854 0.08726892 -0.15175869 -0.02495921 0.13182563 -0.16406338
0.034032714 0.113520905 0.1365455 -0.007396092 0.09673273 -0.0996557 0.083093114 -0.056982603
-0.04475789 -0.055742178 0.11267077 0.004493839 -0.094894744 -0.025829943 0.034385454 -0.045889422
-0.059965074 -0.15277436 0.110484004 0.13802855 -0.15370601 -0.13128963 0.019801533 0.12166731
0.118372224 -0.103100844 0.041948706 0.044903506 0.0027636406 -0.030616652 0.14673866 -0.016389778
00000000: 095a 023e 0bd9 afbd 66e9 0abd aebb ab3d
00000010: 0680 463d 69c6 073d 48ad b0bc faf1 9ebd
00000020: b17b 863d fb1d b5bd fa18 263e 049d 183e
00000030: fa75 9b3d 4bc5 963d 66cc 96bd f084 a2bd
00000040: 77b9 693d 8a96 89bd 931e 023e 4e2b fcbd
00000050: 604a 7bbd fb44 07be 1423 79bd a178 0bbe
00000060: 42ed ed3d f819 73bd 13bf a0bd a2dc 0f3b
00000070: 35c2 17be a7d9 203d bfa5 eabc d5a4 06be
00000080: 539f 00bd cb4e 903b a887 85bd 9eb2 193e
00000090: 4a52 953d 31f5 c43d 0ce5 58bd ee05 5e3c
000000a0: 6cee 563d 23d6 6cbd b559 203d 6fa9 c63d
000000b0: 6cb1 843a a10a afba 46e6 1abb e18c 10be
000000c0: b89a 06be 2dbc 2f3d 4261 20be c16e dfbd
000000d0: ed7e ee3c 3465 9dbd ea3d 353b 91ef bc3c
000000e0: d0c7 cdbd 88fa f83d cbd6 05bb 6069 85bd
000000f0: 36b0 e5bd 0140 b43c 67cb 3dbd bd6f 85bb
00000100: 4608 8c3d 3c20 75bc 1e5a 25be 60ff e0bd
00000110: 8255 ae3d 3d67 033e 776a 04bb 8b62 22bd
00000120: 335d 983d 3d5e d73d d9a1 a1bd 74bf bc3d
00000130: f612 5c3c 3eb6 97bd 82b1 f83d e54e b5bd
00000140: 5836 31be 16c5 11be fa86 0ebd f815 23be
00000150: d5da 22be c7be 033e c913 92bd c2ae fd3c
00000160: bdfd 85bd 21f4 ff3c 8cf2 a1bd 0eb7 a73d
00000170: 1b91 113d b6c2 f63d fb43 15bd e7fd a83d
00000180: 427c 903c 86bc 0fbd fac6 ae3b de4e 0f3e
00000190: 3c95 a73d 8ebf 11be 7738 87bc cf6b 6bbd
000001a0: c32e fb3c 3374 01be 1b15 14bd cd8e 773d
000001b0: 531c d03d 7109 94bc 0bd1 153e 6957 65ba
000001c0: 949d 073e 0b39 fb3c 3bcd e13d a5db 6cbd
000001d0: a9bc b73d d62b bf3d 8a67 d7bb f454 08be
000001e0: 01bf e2bd 90e5 58bc a48b 69bd 1de4 9e3d
000001f0: b6cc e03d c05b e93d 5ae7 0e3e 7b33 b33d
00000200: ae3f 223e 52de dcbd a4df 56bd 1f2f 03be
00000210: 789d 72bc f42f 503d c457 fc3c acd6 b4bd
00000220: c6a6 163d fe28 5cbb c9a5 59bd e7fe 05bd
00000230: 9a83 f43d 19de 963d e24f 143e 6214 a939
00000240: 6115 8b3d 2a09 82bb 3c81 ca3c d7ea b8bb
00000250: 13fc a7bd c705 9c3d df7a 38bd 8d64 7c3d
00000260: 063a 943c 43e8 61bd c8b6 843d 04a9 1f3e
00000270: 8d36 d13b 67fc fbbd 5bb4 8bbd 97fb 05bd
00000280: b862 073e a393 b43c 0a93 203b 87d5 22bd
00000290: 7537 5b3d c4dc 25be 4816 01be 5eae edbd
000002a0: 8e39 07be 3c47 8e3d ce6b 413e 0af2 cdbd
000002b0: 3e99 113e 4699 0e3e 1a73 223c 3f04 c3bd
000002c0: d60e 79bc 7057 783d df9f 323c f333 6f3d
000002d0: 9edf dcbd f3db cebd 1ed7 2b3d e03c 013e
000002e0: b183 08be b94c b3bd e194 103e ef98 243d
000002f0: 4c9d 063e b1b2 10bd c4f3 16bd 4d9c 48bd
00000300: 1365 263d 2ad4 083e 8e42 35bd 0d3e 37bd
00000310: 420f 0a3d 7e6e 67bd a8c2 35bd 1fbf 83bc
00000320: f95f 07be df50 b23d 3648 c3bd a8b1 8b3d
00000330: 4100 0c3e fbf1 f83d b994 4e3d fba5 a8bd
00000340: 6676 71bc e0c2 c9bd 812d b33d 7b16 fa3d
00000350: 21ab 3e3d 4a15 a43d 3774 c03d 5501 863d
00000360: a89f a2bc b065 493d 4e13 ffbd 0cba b23d
00000370: a166 1bbe 4277 ccbc 4cfd 063e 3b00 28be
00000380: e365 0b3d a67d e83d 95d2 0b3e eb5a f2bb
00000390: cf1b c63d 4a18 ccbd b92c aa3d 9766 69bd
000003a0: 0d54 37bd e951 64bd efbf e63d 0e41 933b
000003b0: 2d58 c2bd 5199 d3bc c3d7 0c3d 8cf6 3bbd
000003c0: f09d 75bd e270 1cbe 7045 e23d 5b57 0d3e
000003d0: 1c65 1dbe ca70 06be d336 a23c b62c f93d
000003e0: 236d f23d 8926 d3bd 68d2 2b3d bdec 373d
000003f0: 321e 353b c6cf fabc a942 163e db43 86bc

fc1_val.bias f4 [256]
-0.037850995 -0.09849063 -0.1409226 -0.05698738 0.06438554 -0.07362564 -0.043021765 0.12496396
0.032119304 0.13116676 0.14653932 -0.06461363 0.0023899944 0.013531633 -0.02212473 0.08799298
-0.1006638 0.05230511 -0.11448601 -0.020744076 -0.064982384 -0.12347149 0.062389337 0.04542632
-0.04069161 -0.023909288 -0.0663339 -0.05280313 -0.057942282 0.018798612 -0.007689855 -0.03212738
0.11510923 -0.10866547 0.10601406 0.051105626 -0.11788894 -0.09955149 0.059767514 0.04088405
-0.065629 0.07105481 -0.009361856 -0.029254463 0.14832391 -0.016452411 -0.051984508 -0.06486332
-0.13297254 0.038471736 0.11472324 0.112901695 0.055874035 0.1640158 0.03355207 -0.02262762
-0.025358817 -0.105942026 0.12010265 0.048886772 -0.0036246364 0.08182186 -0.16594832 0.041109428
0.024922699 -0.09974798 0.11545575 -0.06339319 -0.08132868 -0.03482911 0.08512087 0.13391398
-0.11893611 0.16501461 0.11735826 -0.004255606 0.07105948 -0.123658076 0.14230165 -0.07275107
0.08343294 0.0371005 0.11427936 -0.15102352 0.13331239 0.067085005 0.057734568 -0.041274395
-0.10890263 0.15804486 -0.028968645 0.1748105 0.14912821 -0.00020158841 0.1530706 -0.11217884
0.028466538 -0.052097857 0.13172665 0.06664723 -0.06272471 0.12656417 0.12183132 -0.03168616
-0.02545613 0.07754822 -0.1020862 -0.047797315 -0.05125461 -0.07825326 -0.097622484 0.09404198
0.08308697 0.041302815 0.036320355 -0.019548759 0.046677783 -0.13300763 -0.15331154 0.123889625
-0.06389928 0.133334 -0.07369257 -0.052452467 0.03804977 0.0051184176 -0.037620183 0.0213608
-0.0948609 -0.049384236 0.09737689 0.094159305 -0.048774607 -0.04166169 -0.076396644 0.04350052
0.16016169 0.10630471 0.15823627 0.0073067653 -0.027085163 0.09897137 -0.0669767 0.1096097
0.077539414 -0.09054808 -0.09023585 -0.050951533 0.09484636 0.063932 -0.11247885 0.10666062
-0.062590905 -0.13309251 0.0504971 0.12759145 0.04054696 -0.04307145 0.046412732 0.04215838
0.0841568 -0.041039106 -0.031999175 0.13759293 -0.054187056 0.008892591 -0.12867004 0.08933882
0.05579121 -0.015534988 -0.022630598 0.07226716 -0.07549485 -0.03426261 -0.0689033 0.041212503
-0.085286155 0.0034013218 0.15412782 0.1588782 -0.028077638 -0.042813532 0.011559018 0.14222012
0.056377526 0.14743286 0.14791907 0.07728994 0.13068534 -0.0694935 0.005091597 -0.09073815
-0.048240528 0.14992206 -0.17206182 0.027809253 0.11768065 -0.0031052863 -0.06995024 -0.10937419
0.08122138 0.04115007 -0.0789352 -0.06254721 0.059735395 0.12627423 -0.08164997 -0.10420334
0.12604412 0.15372233 -0.15035714 0.038592916 -0.1022664 0.049812872 -0.06738605 -0.15790413
-0.054174274 -0.117737204 0.098373815 -0.083854795 -0.06567134 -0.05170614 0.013124405 -0.04773785
-0.04698716 0.024220647 -0.07147517 -0.09898972 0.14788827 -0.03173973 -0.09305403 0.08351347
-0.06840344 -0.11206918 0.10540234 -0.03771063 -0.0070399037 -0.016945934 -0.1508397 -0.044111248
0.12631191 -0.066853896 -0.012078876 0.02243431 0.10549359 -0.075193405 -0.11158491 0.058849007
0.054143015 -0.05727691 0.11469499 0.111362 -0.11859729 -0.08555136 0.041585375 -0.05086474
00000000: a509 1bbd 75b5 c9bd 044e 10be 996b 69bd
00000010: 91dc 833d 0ac9 96bd 9737 30bd 1bed ff3d
00000020: 888f 033d 9450 063e 670e 163e 2754 84bd
00000030: 74a1 1c3b c8b3 5d3c ec3e b5bc aa35 b43d
00000040: d328 cebd e23d 563d a477 eabd 7bef a9bc
00000050: 7c15 85bd 9fde fcbd f68b 7f3d f310 3a3d
00000060: 3fac 26bd 69dd c3bc 11da 87bd 1848 58bd
00000070: e354 6dbd 8cff 993c 2efb fbbb 0098 03bd
00000080: 63be eb3d 008c debd e61d d93d 2254 513d
00000090: c26f f1bd a7e1 cbbd c8ce 743d 0976 273d
000000a0: 7f68 86bd 2f85 913d 7862 19bc 0ea7 efbc
000000b0: 39e2 173e 35c7 86bc b5ed 54bd 0fd7 84bd
000000c0: f429 08be 8a94 1d3d 05f4 ea3d 0139 e73d
000000d0: 2cdc 643d c2f3 273e e56d 093d 8f5d b9bc
000000e0: 4bbd cfbc 22f8 d8bd 61f8 f53d 7f3d 483d
000000f0: 4f8b 6dbb 3892 a73d 5bee 29be 5c62 283d
00000100: b02a cc3c ab48 ccbd 1074 ec3d 4ad4 81bd
00000110: a78f a6bd f8a8 0ebd da53 ae3d bf20 093e
00000120: c694 f3bd 97f9 283e 8759 f03d 9c72 8bbb
00000130: a287 913d 7240 fdbd 86b7 113e 83fe 94bd
00000140: e4de aa3d b2f6 173d 4c0b ea3d e9a5 1abe
00000150: 0b83 083e dd63 893d 157b 6c3d 570f 29bd
00000160: 5808 dfbd 83d6 213e a74f edbc 8601 333e
00000170: 11b5 183e 7a61 53b9 8abe 1c3e 05be e5bd
00000180: a832 e93c 9064 55bd 5ae3 063e 587e 883d
00000190: d075 80bd 0a9a 013e b382 f93d 59c9 01bd
000001a0: 6089 d0bc 9ad1 9e3d 9212 d1bd 1ec7 43bd
000001b0: 5bf0 51bd 3f43 a0bd 4cee c7bd 1599 c03d
000001c0: 8029 aa3d 242d 293d a7c4 143d b824 a0bc
000001d0: 3431 3f3d 2733 08be b3fd 1cbe d8b9 fd3d
000001e0: a0dd 82bd b588 083e 21ec 96bd 66d8 56bd
000001f0: 13da 1b3d 66b8 a73b 9f17 1abd d8fc ae3c
00000200: 6e46 c2bd 2047 4abd 896d c73d 98d6 c03d
00000210: e2c7 47bd 73a5 2abd d875 9cbd 9a2d 323d
00000220: 6d01 243e 49b6 d93d b008 223e 976d ef3b
00000230: b4e1 ddbc 80b1 ca3d 152b 89bd 0d7b e03d
00000240: fccc 9e3d 4671 b9bd 93cd b8bd 8eb2 50bd
00000250: cf3e c23d c8ee 823d 505b e6bd e270 da3d
00000260: a92f 80bd 6749 08be 0cd6 4e3d 55a7 023e
00000270: 9214 263d b06b 30bd 471b 3e3d 44ae 2c3d
00000280: 665a ac3d 9f18 28bd 9111 03bd 29e5 0c3e
00000290: 3ff3 5dbd 3bb2 113c 14c2 03be 45f7 b63d
000002a0: 5385 643d 7686 7ebc ce63 b9bc ce00 943d
000002b0: 0b9d 9abd f356 0cbd 2c1d 8dbd 71ce 283d
000002c0: 82aa aebd b6e8 5e3b afd3 1d3e f8b0 223e
000002d0: 1303 e6bc 3e5d 2fbd 0962 3d3c 27a2 113e
000002e0: 1fec 663d a4f8 163e 1978 173e 304a 9e3d
000002f0: 61d2 053e 9c52 8ebd 69d7 a63b ecd4 b9bd
00000300: dc97 45bd 2b85 193e f930 30be 3bd0 e33c
00000310: 8d02 f13d 0f82 4bbb 1242 8fbd 93ff dfbd
00000320: 6557 a63d fa8c 283d c7a8 a1bd c018 80bd
00000330: 1aad 743d 084e 013e 1938 a7bd 9068 d5bd
00000340: b611 013e 6369 1d3e 39f7 19be 9b13 1e3d
00000350: 0c71 d1bd 9508 4c3d b301 8abd 9fb1 21be
00000360: d8e5 5dbd 3420 f1bd 3678 c93d 10bc abbd
00000370: b27e 86bd d1c9 53bd bf07 573c c488 43bd
00000380: 9c75 40bd 616a c63c 9361 92bd 1fbb cabd
00000390: 0670 173e 8501 02bd 1c93 bebd 1c09 ab3d
000003a0: 1a17 8cbd 8784 e5bd 2fdd d73d 7676 1abd
000003b0: feae e6bb 33d2 8abc b975 1abe ffad 34bd
000003c0: e957 013e b2ea 88bd 7ae6 45bc 28c8 b73c
000003d0: 060d d83d 00ff 99bd a186 e4bd a80b 713d
000003e0: 11c5 5d3d 319b 6abd 35e5 ea3d c311 e43d
000003f0: 23e3 f2bd 8d35 afbd 6d55 2a3d 8c57 50bd

fc2_val.weight f4 [128, 256]
0.07460004 -0.04061153 -0.023060884 -0.03359929 -0.041507334 -0.040874504 0.0704349 0.0347449
-0.02549503 0.06309067 0.005845516 0.041841753 0.030751502 -0.06307234 0.04243185 0.02249815
0.016541947 -0.00025156932 -0.08306339 0.07184159 -0.026493665 0.045019314 0.043870434 0.042368863
-0.014919063 0.05894778 0.011800043 0.020747151 -0.043616682 0.066897236 0.013920474 0.046615865
-0.021313028 -0.047952678 0.003171872 -0.009792118 -0.14031367 0.090110086 -0.0042706616 0.080657
0.048441388 0.0460093 -0.018500747 0.029380443 0.045082327 0.10997843 -0.036217693 -0.0056369174
0.09554677 0.06513507 0.010469238 0.008755302 0.05448918 -0.04373924 0.02055048 0.00091213174
-0.0070354114 -0.05145596 0.061010372 0.010393151 -0.030866323 0.013475736 -0.017830843 0.009511361
0.064410515 0.020153161 -0.03268961 -0.025038937 0.012155848 0.07286098 -0.0128085455 0.031653866
-0.057226345 -0.026292976 -0.04828231 0.03829404 -0.005824789 0.0037856875 0.004193401 -0.0023206954
0.06886841 0.05862697 0.052791186 0.0049197865 0.061377753 -0.013417348 -0.023866158 0.06543912
-0.02209547 0.016941518 0.00831304 -0.04079741 0.03475384 -0.010037342 0.0018732897 0.03915104
-0.095635444 0.045163926 0.016169524 0.0038830512 0.052152555 -0.03591857 -0.009847001 0.03960082
-0.07200438 0.024395237 0.006481858 0.032478724 0.06607241 -0.03344442 0.011765365 -0.01659424
0.0950442 -0.04757806 -0.042126503 0.021567112 0.0036463737 -0.036851667 0.02331149 -0.032152552
0.06821109 -0.044049896 -0.016220754 -0.0014742372 -0.01691518 0.016078517 0.079553016 0.037903454
0.034668565 0.041448817 0.055805515 0.02988827 0.033625904 0.010080704 -0.059034307 0.05706988
0.014170646 0.037835564 0.05111578 -0.010479933 -0.0010372677 0.11763323 0.0711093 0.07346104
0.033867218 -0.005045981 -0.020098172 0.056049507 0.021937985 -0.016183743 0.0053109326 -0.0017021447
-0.031056076 0.07051578 -0.0012929604 0.04572332 -0.019530496 -0.0060589258 -0.038316805 0.010886909
0.012436163 0.07788728 -0.050785173 -0.0028016027 0.026462268 0.0713959 0.09260488 0.055976566
0.06426603 -0.016190074 -0.10336882 0.028246928 0.041240323 0.14101808 0.021658452 0.0066794716
0.042818967 -0.018622044 0.06565848 -0.005370848 0.0021133272 0.04475841 -0.029507646 -0.024208141
-0.027683698 0.018318292 0.08271571 0.029898556 0.006202273 0.0027209308 0.07272211 -0.003485489
0.07034871 0.05376821 -0.035831597 -0.0050529633 -0.016295277 -0.0129284505 0.042079624 -0.032001927
0.068240464 0.045260888 0.08579794 0.07464837 0.05220798 0.03548847 0.036833532 0.018812925
-0.015172943 0.07216083 -0.029746108 0.05821024 0.020486755 0.016239451 0.0771289 -0.0021188206
0.07958709 -0.10632281 0.11827414 0.087905325 -0.08236002 -0.0135882795 0.018293152 0.04838396
0.038433786 -0.01366375 0.08965005 -0.07991045 0.0075409804 0.07025435 0.03783977 -0.020161277
0.06624882 0.077158354 0.018684987 -0.052590687 -0.029429767 0.0783889 -0.020767407 0.1532761
0.049788017 0.09076228 -0.02395351 0.026225379 -0.013682922 -0.024363646 0.011718704 0.06680169
-0.019147564 0.029721137 0.013582064 0.041422278 -0.11680398 -0.022815276 -0.046028066 0.025881622
00000000: e8c7 983d 4758 26bd 2eea bcbc 699f 09bd
00000010: 9803 2abd 066c 27bd 2c40 903d ab50 0e3d
00000020: f4da d0bc ae35 813d be8b bf3b 4262 2b3d
00000030: 93ea fb3c 122c 81bd 05cd 2d3d 0a4e b83c
00000040: fa82 873c 10e5 83b9 231d aabd af21 933d
00000050: 3e09 d9bc 2c66 383d 7cb1 333d f98a 2d3d
00000060: 166f 74bc 3a73 713d f854 413c eef5 a93c
00000070: 68a7 32bd 6b01 893d b312 643c 47f0 3e3d
00000080: a998 aebc 076a 44bd 2fdf 4f3b 1f6f 20bc
00000090: 63ae 0fbe a38b b83d e8f0 8bbb 7f2f a53d
000000a0: 7a6a 463d 3f74 3c3d e18e 97bc 41af f03c
000000b0: 3fa8 383d 5f3c e13d 0159 14bd e4b5 b8bb
000000c0: 06ae c33d 8965 853d 2b87 2b3c 6672 0f3c
000000d0: 0c30 5f3d eb27 33bd 7b59 a83c 201c 6f3a
000000e0: 4f89 e6bb 7cc3 52bd 03e6 793d 0948 2a3c
000000f0: 5fdb fcbc 55c9 5c3c fd11 92bc 8ad5 1b3c
00000100: a9e9 833d 3e18 a53c 8ae5 05bd 751e cdbc
00000110: 5229 473c 2338 953d efda 51bc 7ca7 013d
00000120: 2c66 6abd 5e64 d7bc acc3 45bd 36da 1c3d
00000130: dfdd bebb 4c19 783b cc68 893b cf16 18bb
00000140: e20a 8d3d d522 703d 923b 583d 2936 a13b
00000150: 3d67 7b3d 70d4 5bbc f682 c3bc f204 863d
00000160: 8f01 b5bc f0c8 8a3c 6b33 083c 2f1b 27bd
00000170: 0b5a 0e3d aa73 24bc 2c89 f53a d75c 203d
00000180: 84dc c3bd cffd 383d f375 843c ca7a 7e3b
00000190: eb9d 553d 5a1f 13bd 5155 21bc 7834 223d
000001a0: 0877 93bd 85d8 c73c c465 d43b 6908 053d
000001b0: f950 873d 04fd 08bd 84c3 403c a5f0 87bc
000001c0: 89a6 c23d 36e1 42bd d78c 2cbd 83ad b03c
000001d0: 00f8 6e3b c6f1 16bd bdf7 be3c 65b2 03bd
000001e0: 42b2 8b3d aa6d 34bd 63e1 84bc 313b c1ba
000001f0: b491 8abc 18b7 833c b1ec a23d a740 1b3d
00000200: a000 0e3d 3cc6 293d 5394 643d 3fd8 f43c
00000210: 51bb 093d 8a29 253c f5cd 71bd 1bc2 693d
00000220: ff2b 683c 77f9 1a3d c85e 513d 06b4 2bbc
00000230: eef4 87ba b1e9 f03d c1a1 913d be72 963d
00000240: 5ab8 0a3d c258 a5bb eca4 a4bc 2b94 653d
00000250: 4ab7 b33c c593 84bc 5507 ae3b 801a dfba
00000260: 5069 febc 946a 903d 8d78 a9ba 6048 3b3d
00000270: 6bfe 9fbc f489 c6bb 15f2 1cbd 025f 323c
00000280: 0cc1 4b3c 5e83 9f3d 1d04 50bd 189b 37bb
00000290: 66c7 d83c 0338 923d a1a7 bd3d af47 653d
000002a0: e99d 833d 0ca1 84bc 08b3 d3bd 1a66 e73c
000002b0: 9deb 283d 0b67 103e 116d b13c 78df da3b
000002c0: f162 2f3d 428d 98bc f477 863d f0fd afbb
000002d0: bf7f 0a3b 9854 373d 05ba f1bc 2750 c6bc
000002e0: ecc8 e2bc 3e10 963c db66 a93d d1ed f43c
000002f0: 703c cb3b a551 323b 54ef 943d cd6c 64bb
00000300: fc12 903d 0e3c 5c3d 27c4 12bd 5493 a5bb
00000310: ac7d 85bc dad1 53bc af5b 2c3d 7414 03bd
00000320: a8c1 8b3d 7b63 393d d5b6 af3d 3fe1 983d
00000330: 09d8 553d 5c5c 113d c2de 163d 901d 9a3c
00000340: ef97 78bc 0fc9 933d 1cae f3bc dc6d 6e3d
00000350: d7d3 a73c 9908 853c c2f5 9d3d e9db 0abb
00000360: 8efe a23d c6bf d9bd b639 f23d b507 b43d
00000370: 5fac a8bd 60a1 5ebc 85db 953c 422e 463d
00000380: bf6c 1d3d ecdd 5fbc 729a b73d 17a8 a3bd
00000390: 541a f73b 83e1 8f3d e0fd 1a3d 4329 a5bc
000003a0: 76ad 873d 3305 9e3d 4211 993c 5569 57bd
000003b0: b216 f1bc 5c8a a03d 6920 aabc 69f4 1c3e
000003c0: 85ee 4b3d 93e1 b93d 273a c4bc 9bd6 d63c
000003d0: 562e 60bc 4596 c7bc cfff 3f3c 53cf 883d
000003e0: 5adb 9cbc be79 f33c 4e87 5e3c 68aa 293d
000003f0: ed36 efbd 1ae7 babc ed87 3cbd b205 d43c

fc2_val.bias f4 [128]
-0.0065495693 -0.04620602 -0.027485952 0.008946344 0.055952914 0.033467192 0.034082502 -0.009786659
0.04682055 -0.056407016 -0.04069028 0.05638264 0.03515735 -0.026793025 0.063795306 -0.0203864
0.049987026 0.043348953 0.029961405 0.0043456885 -0.050691012 -0.00029770078 0.014155011 -0.042457186
0.05170609 -0.05539772 0.01631901 -0.002167942 -0.07458608 0.0412264 0.028863056 -0.024302954
0.0014167406 -0.031653788 -0.009742244 0.00722392 0.0462856 -0.04907978 -0.033693444 0.018938787
-0.026836196 -0.020212991 0.015146611 -0.0048965663 -0.059819862 -0.049717404 -0.0073893443 0.033588044
-0.011279141 -0.06651448 -0.040461667 0.048024405 -0.013389775 0.034724634 0.0034553711 0.015153717
0.034856725 0.04493277 -0.040320896 -0.022679182 0.042269472 -0.037476413 -0.030651266 -0.043053713
-0.04993936 0.050215688 0.026416803 -0.002832941 0.026249275 0.0706731 -0.03829087 -0.02240464
0.0077525987 0.021716114 -0.022480655 0.02872041 -0.026427586 -0.037523776 -0.005170203 -0.06442076
0.029050546 -0.027101774 0.062392894 -0.005371411 0.072580494 -0.058569215 0.0069783716 0.043100607
0.05892494 0.013017074 -0.038229857 0.012562711 -0.051785666 -0.051132523 -0.028388439 0.0033005679
-0.018887537 0.024601674 -0.04044544 -0.032330286 -0.032759726 0.0046078097 -0.057507906 -0.012823687
0.0062408643 0.03867006 0.014402624 -0.0012931342 -0.06019556 0.012941478 0.04678163 0.065107994
0.03304361 -0.03487308 0.045289464 -0.025229545 -0.018764028 -0.008224522 -0.012594447 0.016568625
-0.0142392 -0.06859917 -0.01648974 0.05194569 0.07278564 -0.015737306 0.045545965 0.0074979938
00000000: c59d d6bb 8642 3dbd 382a e1bc b093 123c
00000010: e22e 653d e514 093d 189a 0b3d 3958 20bc
00000020: e8c6 3f3d 0b0b 67bd daaa 26bd 7cf1 663d
00000030: 2701 103d 0c7d dbbc 1da7 823d 6101 a7bc
00000040: 32bf 4c3d ac8e 313d 9f71 f53c 4766 8e3b
00000050: 61a1 4fbd b914 9cb9 6bea 673c 96e7 2dbd
00000060: c4c9 533d b8e8 62bd 72af 853c 0814 0ebb
00000070: 96c0 98bd 03dd 283d 3772 ec3c fd16 c7bc
00000080: edb1 b93a 67a7 01bd ef9d 1fbc a2b6 ec3b
00000090: f895 3d3d e107 49bd 2302 0abd 8425 9b3c
000000a0: 95d7 dbbc b795 a5bc 7e29 783c 6073 a0bb
000000b0: ac05 75bd 7aa4 4bbd 5022 f2bb 9e93 093d
000000c0: 25cc 38bc be38 88bd 22bb 25bd 3db5 443d
000000d0: c960 5bbc 6b3b 0e3d 8273 623b 4c47 783c
000000e0: edc5 0e3d 6d0b 383d 8627 25bd b1c9 b9bc
000000f0: c122 2d3d de80 19bd 5d18 fbbc 1759 30bd
00000100: 378d 4cbd f7ae 4d3d 0d68 d83c dda8 39bb
00000110: b808 d73c 0fbd 903d e3d6 1cbd f089 b7bc
00000120: 8309 fe3b fee5 b13c 5a29 b8bc 1147 eb3c
00000130: aa7e d8bc 88b2 19bd ce6a a9bb 08ef 83bd
00000140: 69fb ed3c 8a04 debc b18f 7f3d a902 b0bb
00000150: 15a5 943d 46e6 6fbd d3aa e43b 438a 303d
00000160: 475b 713d 9145 553c e996 1cbd d4d3 4d3c
00000170: 351d 54bd 5670 51bd df8e e8bc 574e 583b
00000180: 09ba 9abc 7389 c93c 1eaa 25bd c36c 04bd
00000190: 102f 06bd 1cfd 963b 698d 6bbd 711a 52bc
000001a0: 2a80 cc3b 7f64 1e3d fcf8 6b3c 627e a9ba
000001b0: 9f8f 76bd 7e08 543c 189e 3f3d 5757 853d
000001c0: bd58 073d 13d7 0ebd 7281 393d 31ae cebc
000001d0: 05b7 99bc 25c0 06bc f058 4ebc edba 873c
000001e0: 894b 69bc b97d 8cbd 7e15 87bc 01c5 543d
000001f0: a310 953d 86eb 80bc 688e 3a3d bbb1 f53b

fc3_val.weight f4 [1, 128]
-0.09572543 0.16785806 0.15474308 0.100429416 0.094984 -0.06703548 -0.09247154 0.13335858
-0.06030156 0.09329604 0.037832897 -0.05474904 0.044631712 -0.063889906 -0.033027086 -0.06310481
0.10868073 -0.083688766 0.14271365 -0.034699682 0.19305022 -0.128272 -0.039347753 0.098577246
-0.06722735 0.09874248 -0.044747386 0.017719066 0.11876598 0.061279487 -0.08127921 0.027993958
0.09364762 -0.06928806 0.060968805 0.14395864 -0.109297454 0.054676022 -0.106763005 0.074182466
0.0361796 0.11429263 -0.04941893 0.060222812 -0.1743709 -0.15002683 -0.09252987 0.03016733
-0.054666325 0.16855289 0.099251024 0.14763042 -0.19207868 0.07670581 0.040650215 0.07946852
-0.11064623 -0.10762053 0.12005696 -0.078442894 0.074143015 -0.045497477 -0.043217063 -0.056776155
0.09544689 -0.09813828 -0.071651615 -0.08577412 -0.039811272 -0.103754334 0.0990693 0.062891684
-0.11350876 0.05580862 0.083067656 0.101177186 0.056389093 -0.09736398 -0.057585508 0.12872611
-0.031356305 0.07687248 -0.0977325 0.11224972 -0.06242927 0.17706385 0.032384023 0.052334312
-0.10132468 0.09532514 0.15278234 0.052358054 0.10461892 0.11009916 -0.12646987 -0.09497881
-0.13619545 -0.07121381 0.088105366 -0.04470568 0.084760815 0.061553452 0.12112621 -0.10618297
0.09404883 0.026615031 0.11358428 0.1222156 0.10625632 -0.11253419 0.051042225 0.08336137
0.08288587 -0.10768927 0.06825885 -0.029717397 -0.16571745 -0.05807806 0.061450243 -0.085310385
0.059852913 0.1175375 -0.15714043 0.11963004 -0.030303268 0.047584176 0.06571428 -0.039863344
00000000: b20b c4bd fce2 2b3e f874 1e3e f0ad cd3d
00000010: f986 c23d e649 89bd b861 bdbd 278f 083e
00000020: c5fe 76bd ff11 bf3d abf6 1a3d 8840 60bd
00000030: becf 363d b6d8 82bd 6947 07bd 183d 81bd
00000040: 0194 de3d 0465 abbd 8723 123e 4121 0ebd
00000050: f5ae 453e bc59 03be 1c2b 21bd dee2 c93d
00000060: 7eae 89bd 7f39 ca3d 0949 37bd 9327 913c
00000070: 943b f33d 3300 7b3d b775 a6bd 9653 e53c
00000080: 53ca bf3d e6e6 8dbd 6dba 793d e569 133e
00000090: 58d7 dfbd f7f3 5f3d 90a6 dabd faec 973d
000000a0: 0f31 143d 4112 ea3d 816b 4abd 32ac 763d
000000b0: 498e 32be a2a0 19be 4d80 bdbd 7a21 f73c
000000c0: cce9 5fbd 2199 2c3e 1f44 cb3d 6e2c 173e
000000d0: 46b0 44be f017 9d3d d780 263d 64c0 a23d
000000e0: 7e9a e2bd 2768 dcbd 6ce0 f53d aba6 a0bd
000000f0: 4bd8 973d 905b 3abd 6004 31bd 1d8e 68bd
00000100: a979 c33d b9fc c8bd 15be 92bd 58aa afbd
00000110: 2511 23bd 277d d4bd d8e4 ca3d 5bcd 803d
00000120: 4877 e8bd 9497 643d 601f aa3d fc35 cf3d
00000130: 40f8 663d c466 c7bd c8de 6bbd c7d0 033e
00000140: 786f 00bd 526f 9d3d fa27 c8bd 2ee3 e53d
00000150: d6b5 7fbd 3a50 353e 1ca5 043d 815c 563d
00000160: 5083 cfbd d439 c33d f972 1c3e 6675 563d
00000170: 7242 d63d ab7b e13d 5181 01be 4084 c2bd
00000180: d276 0bbe 8cd8 91bd 9670 b43d 4e1d 37bd
00000190: 1497 ad3d 791f 7c3d 0511 f83d 7576 d9bd
000001a0: ac9c c03d c407 da3c e09e e83d 2c4c fa3d
000001b0: ea9c d93d 5378 e6bd a711 513d 5eb9 aa3d
000001c0: 11c0 a93d 318c dcbd 4ccb 8b3d e671 f3bc
000001d0: d6b1 29be 43e3 6dbd 40b3 7b3d 36b7 aebd
000001e0: 5428 753d 80b7 f03d 6ce9 20be 9800 f53d
000001f0: 8f3e f8bc a0e7 423d 3595 863d bf47 23bd

fc1_adv.weight f4 [256, 43]
-0.14476116 -0.008214444 0.1355141 0.10386749 0.13095668 0.05630389 0.09449845 -0.12656546
0.10022863 -0.10348214 -0.1499027 -0.05907578 -0.004084903 0.1258774 0.117937416 -0.020653883
-0.115503 -0.0382013 0.12610166 -0.10109399 -0.119461104 0.028620811 0.02722007 0.11475061
-0.13698792 -0.09612202 0.090051204 0.0061995694 -0.013330735 -0.052445147 -0.052641224 -0.030260246
0.09176689 0.084820844 -0.06494828 0.12839162 -0.08463698 -0.13771221 -0.07848181 0.08941492
0.14954051 -0.15096863 0.08899894 -0.0823763 -0.15632291 -0.08912011 -0.013085739 -0.07971999
0.06260687 -0.015986152 0.11961866 0.14261024 -0.14718062 -0.07712465 -0.12860249 0.011910693
0.0059310887 0.021858137 0.106770076 0.079173796 0.12969437 0.12759383 -0.10000877 -0.0060187755
-0.09328265 -0.06930978 -0.12847993 0.08942465 -0.029624717 -0.12864566 -0.07514771 0.1374226
0.051404607 -0.08937136 0.09787399 0.09633584 0.042706955 0.12592718 -0.10423355 -0.15917788
0.12248948 0.05966634 -0.038711667 -0.16010809 -0.19172075 0.14890923 0.0651723 -0.05816448
-0.007011216 0.0295576 0.016873939 0.14679854 0.12081896 0.015081623 -0.11494346 -0.12071986
0.05753249 0.017617542 -0.109061085 0.04734189 -0.023896178 0.11413898 -0.07814335 -0.12933856
-0.12909131 0.114042476 -0.020108733 -0.041688733 -0.011005797 0.07051357 -0.13557355 0.020890886
-0.08913739 0.064686336 -0.071813 0.15240006 0.13364972 0.14560711 -0.045376245 -0.12843537
-0.015063601 0.13600112 0.019082898 0.15883496 -0.09167874 -0.12431589 0.06553132 -0.037875306
0.018453922 0.0062976484 0.11511978 0.0764182 0.11414176 0.116867855 -0.07810168 0.11626908
0.008991845 -0.07170185 0.119755 0.13104509 0.13114513 -0.06054549 0.06521546 0.02028393
-0.014491235 -0.15671164 -0.11590097 0.03851439 0.051968284 0.018301202 -0.0046813274 -0.111895405
-0.0094593195 0.050788622 0.015478812 0.093587965 0.0291214 0.026263017 -0.04573536 -0.10411334
0.009373266 0.007615044 -0.08240339 0.0654868 0.08469886 0.029884703 0.07790948 0.027768325
-0.071055636 0.0014905256 0.089328334 0.06025833 0.030415842 -0.058124572 -0.112700224 -0.029845737
-0.104379006 0.015097776 0.15123269 0.14193766 0.14327675 -0.046116762 0.02369573 -0.06023709
-0.09020909 -0.14196272 -0.03150469 0.11598132 0.12304159 -0.05256209 0.11869276 -0.001834461
0.07419116 -0.09038619 0.092742376 0.10833372 -0.12117457 -0.09720174 -0.07984802 -0.035887234
0.07314847 -0.02302689 0.14660248 0.02432297 -0.058052175 0.053895235 0.047628615 -0.121818334
0.08056083 0.052788 -0.083693214 0.13945213 0.057662617 0.05392129 -0.058278274 0.1368065
0.05584152 0.10643696 -0.06097363 -0.03218554 -0.09492843 -0.008451512 -0.06456707 0.12443441
0.09311264 -0.08303743 -0.037480325 -0.0930087 -0.05549314 0.010289604 0.10744816 -0.07172914
-0.11949929 0.083038025 0.072095454 -0.13007404 0.027565155 0.053889282 0.14249547 -0.12244102
0.060027312 -0.05170666 0.15892532 0.09912876 0.024942447 0.046600707 0.094677486 0.10161501
-0.13448524 0.005886586 -0.042700358 -0.07181546 0.12375741 0.035831515 0.03318183 -0.15778351
00000000: 453c 14be e095 06bc 35c4 0a3e 7bb8 d43d
00000010: 8219 063e e89e 663d 6788 c13d 609a 01be
00000020: ab44 cd3d 72ee d3bd 1880 19be 72f9 71bd
00000030: a6da 85bb 01e6 003e 2c89 f13d 5532 a9bc
00000040: d68c ecbd f778 1cbd cb20 013e 5e0a cfbd
00000050: 06a8 f4bd 3176 ea3c a0fc de3c 5e02 eb3d
00000060: 9046 0cbe 9fdb c4bd c46c b83d c225 cb3b
00000070: 2869 5abc b9d0 56bd 539e 57bd 56e4 f7bc
00000080: 47f0 bb3d 8db6 ad3d 9b03 85bd 1879 033e
00000090: 2756 adbd 6e04 0dbe 12bb a0bd 2b1f b73d
000000a0: 2621 193e 8597 1abe 1445 b63d e8b4 a8bd
000000b0: 1d13 20be 9b84 b6bd 9165 56bc 3c44 a3bd
000000c0: 0838 803d 64f5 82bc a1fa f43d 6b08 123e
000000d0: 84b6 16be 87f3 9dbd 5fb0 03be 1125 433c
000000e0: 9459 c23b d60f b33c 45aa da3d df25 a23d
000000f0: 9ace 043e f5a7 023e 66d1 ccbd 2639 c5bb
00000100: f90a bfbd 49f2 8dbd 3e90 03be 4524 b73d
00000110: 89af f2bc b0bb 03be 0be7 99bd 83b8 0c3e
00000120: a38d 523d 5508 b7bd 2972 c83d ba4b c53d
00000130: 7ded 2e3d 0ef3 003e 6678 d5bd 87ff 22be
00000140: c4db fa3d b164 743d 2090 1ebd 60f3 23be
00000150: 7252 44be a97b 183e 0e79 853d e13d 6ebd
00000160: 58be e5bb c822 f23c 373b 8a3c 5b52 163e
00000170: ee6f f73d e918 773c 7a67 ebbd f93b f7bd
00000180: 30a7 6b3d aa52 903c 6b5b dfbd 92e9 413d
00000190: ebc1 c3bc b3c1 e93d 9f09 a0bd 5471 04be
000001a0: 8330 04be 1a8f e93d 12bb a4bc cec1 2abd
000001b0: a951 34bc 6b69 903d cbd3 0abe 5d23 ab3c
000001c0: aa8d b6bd 457a 843d b212 93bd c30e 1c3e
000001d0: 79db 083e 081a 153e 71dc 39bd 9084 03be
000001e0: 52cd 76bc e143 0b3e bd53 9c3c a2a5 223e
000001f0: 10c2 bbbd 5499 febd 4935 863d 2323 1bbd
00000200: ae2c 973c 815c ce3b ebc3 eb3d 2581 9c3d
00000210: 28c3 e93d 6a58 ef3d c6f3 9fbd 7c1e ee3d
00000220: 8852 133c 6bd8 92bd 1c42 f53d af30 063e
00000230: e94a 063e 8cfe 77bd af8f 853d 7c2a a63c
00000240: a56c 6dbc 0479 20be 7d5d edbd 44c1 1d3d
00000250: b2dc 543d 67ec 953c d265 99bb 6b29 e5bd
00000260: 43fb 1abc bb07 503d d89a 7d3c 0cab bf3d
00000270: 0190 ee3c 8a25 d73c 0055 3bbd 6039 d5bd
00000280: 5492 193c 9e87 f93b 1cc3 a8bd f21d 863d
00000290: 9976 ad3d c4d0 f43c 018f 9f3d 667a e33c
000002a0: 9e85 91bd bd5d c33a c6f1 b63d 70d1 763d
000002b0: a52a f93c 0814 6ebd 60cf e6bd 0c7f f4bc
000002c0: a9c4 d5bd aa5c 773c bedc 1a3e 1b58 113e
000002d0: 24b7 123e eee4 3cbd 8c1d c23c 2bbb 76bd
000002e0: 8bbf b8bd ad5e 11be 100b 01bd 9d87 ed3d
000002f0: 3bfd fb3d 594b 57bd 3115 f33d 4c72 f0ba
00000300: 89f1 973d 651c b9bd b7ef bd3d 12de dd3d
00000310: 5f2a f8bd b511 c7bd 5c87 a3bd 7efe 12bd
00000320: ddce 953d e3a2 bcbc f61e 163e f740 c73c
00000330: 1ec8 6dbd 40c1 5c3d 3916 433d e47b f9bd
00000340: 14fd a43d 3b38 583d 5967 abbd 8acc 0e3e
00000350: a32f 6c3d 92dc 5c3d 33b5 6ebd 0117 0c3e
00000360: 14ba 643d 9ffb d93d 7cbf 79bd fcd4 03bd
00000370: d669 c2bd 3678 0abc bd3b 84bd 78d7 fe3d
00000380: d7b1 be3d 870f aabd f884 19bd 587b bebd
00000390: c64c 63bd ba95 283c c80d dc3d bae6 92bd
000003a0: 0bbc f4bd d70f aa3d c8a6 933d 2132 05be
000003b0: 52d0 e13c 02bb 5c3d 55ea 113e 5cc2 fabd
000003c0: 33df 753d 5dca 53bd 52bd 223e 0504 cb3d
000003d0: 1a54 cc3c 62e0 3e3d 45e6 c13d 881b d03d
000003e0: 80b6 09be 43e4 c03b 92e6 2ebd fc13 93bd
000003f0: 8674 fd3d 11c4 123d ace9 073d 0092 21be

fc1_adv.bias f4 [256]
0.010679463 0.050352942 -0.08386279 0.031839013 0.0628385 -0.1395216 0.10177682 -0.084984675
0.18203853 0.10404087 -0.053371735 -0.010878949 0.09301656 -0.042074323 0.045939624 -0.07413781
0.068846665 -0.061949886 0.11862978 -0.09011859 -0.08254922 0.003725004 -0.12508084 0.106994204
-0.15259892 -0.10555244 0.037643544 -0.09681758 0.021490382 -0.121180266 -0.13016278 0.010458969
-0.02299271 -0.13629591 -0.043526016 0.0705275 -0.068631016 0.09833237 0.078364424 -0.012823531
0.016098492 0.15526986 0.05413109 -0.058919996 -0.058531933 -0.06747904 0.10118212 -0.113587074
-0.09722579 0.07333587 -0.09191357 -0.1200529 0.037967525 0.06826413 0.033670582 0.06617226
-0.10811801 -0.09676009 0.0922124 -0.0034390064 -0.12478448 0.063029595 0.17240773 -0.107054606
-0.082442984 -0.003066209 -0.021323355 -0.061451346 0.053667452 0.066569984 -0.028367212 -0.015445917
0.09099052 0.095729545 0.07834939 -0.1156388 0.09705058 0.04406294 0.0852976 0.031487104
0.16827619 -0.06483339 -0.12165631 -0.056369152 0.011471474 0.09070001 0.10959833 -0.11823876
-0.110508084 0.0032817037 0.16430601 0.16592035 0.17877512 -0.004986004 -0.10501395 0.062538914
-0.016071947 -0.12510215 0.15668766 -0.036901236 -0.05469101 -0.04091333 -0.08609882 -0.045085967
0.14680906 0.08316491 0.08022959 0.13248712 0.04950627 -0.021811549 -0.04930423 0.04741616
-0.0062597687 -0.015406149 0.0302993 0.16881907 0.10633681 -0.0892774 -0.16119759 0.08991563
0.15362978 -0.057118796 0.11093983 -0.026050882 0.117555045 0.089002535 0.12694155 0.029937418
0.07528437 -0.15378644 -0.116538726 -0.034890905 -0.026530752 0.010497887 -0.120498806 -0.015442625
0.15278748 -0.0020182293 -0.08701884 0.08075155 0.15236363 0.058959078 -0.07509975 -0.15136372
0.08313667 0.15447627 -0.074438915 -0.006770491 -0.014257892 -0.020250153 0.17266789 0.12145974
-0.053736128 0.055062182 0.1359631 -0.11344628 0.04400612 0.030115988 -0.119482115 0.01958646
0.06937425 0.19604002 0.16928004 0.19056085 0.09059584 0.011790538 0.021440644 -0.07751798
0.15175304 -0.12996536 -0.121116005 0.19833677 0.031491883 -0.14004421 -0.12557635 0.088038966
-0.024212698 0.014118505 -0.1533113 0.16429786 0.16481403 -0.047354035 0.018848406 -0.07071856
-0.1273389 0.03930806 0.17553264 0.08797521 0.15591034 0.018180102 0.14664187 0.036791794
-0.050327443 -0.056116335 -0.03418503 0.04919955 0.10049333 0.14549284 0.15048851 -0.014241259
0.08288106 0.05749857 -0.08934241 -0.10981459 0.062858455 -0.101979755 -0.09118558 0.058470365
0.0734045 -0.083883606 0.06848068 0.06800848 0.046230886 -0.10078805 -0.11967868 0.093997546
0.14406148 0.18979526 -0.018333744 -0.0042446763 0.115112744 -0.16944805 0.038098067 0.15423904
-0.0016305252 0.044679668 -0.14592661 -0.11261645 -0.11248214 -0.14950037 0.16974746 -0.03386648
-0.16246058 -0.06857501 0.15730795 0.05328681 -0.025400963 0.05056586 0.005661254 0.036600325
0.11140394 0.05869882 -0.07290426 0.12943065 0.03230335 -0.13513923 -0.036818597 0.061103474
0.16018908 0.119567074 0.0061837463 -0.12206991 -0.12822317 -0.07572819 -0.09016186 -0.116093375
00000000: eaf8 2e3c e33e 4e3d 41c0 abbd a069 023d
00000010: 79b1 803d c0de 0ebe 5e70 d03d 720c aebd
00000020: 4f68 3a3e 6113 d53d 529c 5abd 9f3d 32bc
00000030: 777f be3d 2056 2cbd 302b 3c3d 90d5 97bd
00000040: 7bff 8c3d 2abf 7dbd 2cf4 f23d 1890 b8bd
00000050: 910f a9bd 321f 743b 3115 00be c71f db3d
00000060: e442 1cbe e12b d8bd 1e30 1a3d 4c48 c6bd
00000070: 990c b03c 5c2d f8bd 6449 05be 185c 2b3c
00000080: 355b bcbc 2891 0bbe 5648 32bd b970 903d
00000090: 6b8e 8cbd 7b62 c93d 877d a03d ca19 52bc
000000a0: fce0 833c 10ff 1e3e 90b8 5d3d 1856 71bd
000000b0: 2ebf 6fbd 7332 8abd 9238 cf3d 57a0 e8bd
000000c0: 511e c7bd 1e31 963d 2f3d bcbd 4bde f5bd
000000d0: d683 1b3d 10ce 8b3d 2aea 093d 5285 873d
000000e0: fa6c ddbd 272a c6bd dbd9 bc3d f460 61bb
000000f0: 018f ffbd a915 813d a78b 303e 723f dbbd
00000100: ded7 a8bd 73f2 48bb 51ae aebc 68b4 7bbd
00000110: 67d2 5b3d d855 883d 5b62 e8bc df10 7dbc
00000120: 3d59 ba3d da0d c43d a575 a03d 09d4 ecbd
00000130: 74c2 c63d 577b 343d 82b0 ae3d 9ff8 003d
00000140: 9850 2c3e 5ec7 84bd f226 f9bd 57e3 66bd
00000150: d9f2 3b3c edc0 b93d 1775 e03d 2a27 f2bd
00000160: 1052 e2bd da11 573b d63f 283e 06e7 293e
00000170: d310 373e a261 a3bb 8e11 d7bd 6714 803d
00000180: 51a9 83bc c71a 00be bb72 203e c025 17bd
00000190: ae03 60bd bc94 27bd 9454 b0bd 10ac 38bd
000001a0: 1d55 163e 5d52 aa3d 694f a43d b4aa 073e
000001b0: 16c7 4a3d 22ae b2bc 3bf3 49bd 7337 423d
000001c0: bf1e cdbb 136a 7cbc 3d36 f83c e8de 2c3e
000001d0: 1dc7 d93d 12d7 b6bd fb10 25be b025 b83d
000001e0: 2051 1d3e 66f5 69bd 6c34 e33d a968 d5bc
000001f0: b3c0 f03d f646 b63d f7fc 013e 513f f53c
00000200: b12e 9a3d 317a 1dbe dbab eebd c4e9 0ebd
00000210: 0557 d9bc 54ff 2b3c 14c8 f6bd 1003 7dbc
00000220: 5274 1c3e 4544 04bb ef36 b2bd 1261 a53d
00000230: 3605 1c3e 137f 713d e6cd 99bd 17ff 1abe
00000240: 8f43 aa3d 072f 1e3e 6e73 98bd ffda ddbb
00000250: ef99 69bc a6e3 a5bc dacf 303e e2bf f83d
00000260: 6a1a 5cbd e288 613d e939 0b3e 8656 e8bd
00000270: c33f 343d ceb5 f63c 0ab3 f4bd c973 a03c
00000280: 1614 8e3d b7be 483e bf57 2d3e 6222 433e
00000290: 508a b93d 1a2d 413c 4aa4 af3c bfc1 9ebd
000002a0: 2665 1b3e a415 05be ab0b f8bd cb18 4b3e
000002b0: a2fd 003d c067 0fbe 1697 00be c64d b43d
000002c0: b559 c6bc 4d51 673c a3fd 1cbe b33d 283e
000002d0: 02c5 283e 4ef6 41bd f967 9a3c e4d4 90bd
000002e0: 2165 02be 7d01 213d d4be 333e 592c b43d
000002f0: f6a6 1f3e 70ee 943c 4929 163e feb2 163d
00000300: 2624 4ebd 3eda 65bd 9a05 0cbd 7885 493d
00000310: 72cf cd3d 13fc 143e a919 1a3e 2b54 69bc
00000320: 8cbd a93d 9f83 6b3d 27f9 b6bd 79e6 e0bd
00000330: efbb 803d c3da d0bd 81bf babd 9f7e 6f3d
00000340: 1955 963d 2bcb abbd 993f 8c3d 0848 8b3d
00000350: 995c 3d3d f769 cebd 191a f5bd c981 c03d
00000360: da84 133e b059 423e a630 96bc ed16 8bbb
00000370: 3bc0 eb3d ca83 2dbe b80c 1c3d d7f0 1d3e
00000380: 59b7 d5ba 0702 373d c96d 15be 74a3 e6bd
00000390: 095d e6bd a016 19be 47d2 2d3e 94b7 0abd
000003a0: 115c 26be 0e71 8cbd 5615 213e 4543 5a3d
000003b0: ae15 d0bc 261e 4f3d 0a82 b93b 39ea 153d
000003c0: c027 e43d 2d6e 703d d44e 95bd 7889 043e
000003d0: 8450 043d f061 0abe 19cf 16bd a347 7a3d
000003e0: 9b08 243e 95df f43d 06a1 ca3b caff f9bd
000003f0: ef4c 03be 6217 9bbd c8a6 b8bd 5dc2 edbd

fc2_adv.weight f4 [128, 256]
0.007860958 -0.048289977 -0.003206438 0.04052319 -0.012156293 -0.037748143 -0.0127670765 0.026597146
0.009647022 -0.05569026 0.033393133 0.0030214414 -0.021276934 -0.016393835 -0.007880434 -0.0652547
0.07840288 -0.010766208 -0.03139519 -0.08641581 -0.021997511 -0.064313635 0.034353826 -0.028918972
-0.005903746 0.08809596 0.051543172 0.013508108 -0.031567145 -0.0028682998 -0.028844208 -0.061179698
0.0050621848 -0.03594169 -0.012793154 0.012168899 -0.0171914 0.04083816 0.0100019425 0.00023149837
0.023223037 0.0600157 0.026272511 -0.059955377 0.021664781 0.04540979 -0.052656017 0.032189075
0.045305315 -0.065682866 -0.037556995 -0.073212564 -0.020965286 -0.07650273 0.02950245 -0.045213904
0.0015967481 -0.05844831 0.054069754 -0.10868557 0.019309023 0.013319399 0.03318144 0.05489292
0.0060851537 -0.071294926 0.04507347 -0.003878966 -0.07679371 0.01533517 0.04589956 -0.050255463
-0.03884762 -0.055113293 -0.010634076 0.034225978 0.054278217 0.046663243 0.01932559 -0.022698237
-0.011167551 -0.030061293 0.0603568 0.02998376 -0.01299228 0.066084296 0.032690432 0.033527385
-0.019356633 0.015087462 0.06158796 0.055113744 0.024035502 -0.048675593 0.010693441 0.049152847
-0.019764328 -0.015039965 0.040252786 -0.043834083 0.08063555 -0.027011257 -0.10308543 0.084123164
0.028193662 0.031646978 -0.055312328 -0.0316152 -0.060032953 0.022464246 -0.015775902 0.021650147
0.03164258 0.017830398 -0.05871309 0.07660991 0.039216656 0.04332654 -0.0016871482 0.021553172
-0.0012113176 -0.01595663 0.011279531 -0.009551351 0.059858978 -0.056694824 -0.000724183 0.027385784
0.108873695 0.014552567 0.023715878 -0.03789954 -0.0044998433 -0.014370493 -0.03793335 -0.080721825
0.064633556 0.019063251 -0.012278463 0.1157436 0.03515193 0.031471934 -0.02991111 -0.028719496
-0.055373754 -0.0125367185 0.047118586 -0.013840757 0.03964446 -0.065774865 0.037122376 0.009549718
-0.037011158 -0.077511325 -0.037917487 -0.095324144 -0.0144746695 0.020322235 -0.05659983 0.057700075
-0.022641003 -0.018254643 0.045451816 0.031836633 -0.047858242 -0.057611402 -0.059898283 -0.017424243
0.06259514 0.041781303 0.012944159 0.028612709 0.022060195 -0.0053422228 0.01573961 -0.0236843
0.03725312 -0.02804439 -0.05326553 0.0020801579 0.030935923 0.013272487 -0.04409414 0.008366065
-0.059979457 -0.034098428 0.028167695 -0.015558613 0.057949584 0.05646728 0.028698415 0.048114143
0.039132982 0.0614044 -0.03768872 -0.05225544 -0.043819226 -0.005187742 0.045608267 0.019679768
-0.01551478 0.045184862 0.026090952 -0.029941095 0.044721805 -0.027506892 0.025161939 -0.056466475
0.00447264 -0.03767872 0.099156596 -0.001942602 -0.015692977 0.010554284 0.0130058415 0.013459236
-0.05494639 0.06308184 -0.075348616 -0.0005311697 0.033153184 0.029842759 0.030900298 0.025317796
-0.06034844 -0.050321065 -0.07359338 -0.031179843 -0.031447697 -0.010341118 -0.047472425 0.03753418
-0.041970022 0.04248141 -0.056338 0.035498705 -0.064662434 0.034344878 -0.0011903392 -0.042303216
-0.04037904 -0.08463089 -0.06809704 0.03759504 -0.039663136 -0.047315758 -0.07790274 -0.033985496
0.009263355 -0.006111145 0.015900318 -0.057159528 -0.040537756 -0.044210475 -0.006352044 -0.052004855
00000000: 3fcb 003c b6cb 45bd 1a23 52bb a5fb 253d
00000010: 302b 47bc cc9d 1abd 002d 51bc 42e2 d93c
00000020: 8b0e 1e3c 781b 64bd 3dc7 083d 6003 463b
00000030: f74c aebc 5d4c 86bc f01c 01bc 42a4 85bd
00000040: b091 a03d c064 30bc 3e98 00bd c6fa b0bd
00000050: 2034 b4bc deb6 83bd 99b6 0c3d 7be7 ecbc
00000060: 3674 c1bb a86b b43d ef1e 533d 1d51 5d3c
00000070: 8d4c 01bd 16fa 3bbb b04a ecbc 9097 7abd
00000080: afe0 a53b 9837 13bd 619a 51bc 1060 473c
00000090: fbd4 8cbc ea45 273d 30df 233c 5fbe 7239
000000a0: 3d3e be3c 06d3 753d 7339 d73c c593 75bd
000000b0: 577a b13c 9eff 393d d6ad 57bd b1d8 033d
000000c0: 1192 393d bd84 86bd 5dd5 19bd 78f0 95bd
000000d0: 64bf abbc 77ad 9cbd 1faf f13c 3732 39bd
000000e0: fa49 d13a 7f67 6fbd 3f78 5d3d 8a96 debd
000000f0: f52d 9e3c 9c39 5a3c 43e9 073d 66d7 603d
00000100: f865 c73b 1303 92bd f59e 383d 4036 7ebb
00000110: 0546 9dbd 5d40 7b3c 2d01 3c3d acd8 4dbd
00000120: af1e 1fbd 7abe 61bd 8c3a 2ebc 8a30 0c3d
00000130: d652 5e3d f521 3f3d b350 9e3c a7f1 b9bc
00000140: 1bf8 36bc 1a43 f6bc b138 773d 81a0 f53c
00000150: 92dd 54bc 3457 873d 67e6 053d 0354 093d
00000160: cd91 9ebc 6731 773c a843 7c3d f3be 613d
00000170: 1ae6 c43c 0f60 47bd 8b33 2f3c 7f54 493d
00000180: cde8 a1bc 2f6a 76bc 1be0 243d 5e8b 33bd
00000190: 4024 a53d b646 ddbc 741e d3bd c448 ac3d
000001a0: 65f6 e63c 43a0 013d 2e8f 62bd f17e 01bd
000001b0: 1de5 75bd f006 b83c 773c 81bc a65b b13c
000001c0: a69b 013d 0e11 923c 237d 70bd a8e5 9c3d
000001d0: a5a1 203d 2c77 313d 4d23 ddba 4790 b03c
000001e0: 13c5 9eba 7bb7 82bc c8cd 383c 457d 1cbc
000001f0: b02e 753d d538 68bd 19d7 3dba 2758 e03c
00000200: 2cf9 de3d e46d 6e3c cd47 c23c 8c3c 1bbd
00000210: 6c73 93bb 3772 6bbc 0060 1bbd 7c51 a5bd
00000220: 995e 843d 892a 9c3c 9b2b 49bc fb0a ed3d
00000230: 78fb 0f3d b7e8 003d 2508 f5bc 2645 ebbc
00000240: 97cf 62bd cf66 4dbc 6bff 403d 58c4 62bc
00000250: 3b62 223d f9b4 86bd a20d 183d 6c76 1c3c
00000260: 0399 17bd 42be 9ebd 5e4f 1bbd 4e39 c3bd
00000270: 2a27 6dbc d17a a63c 39d5 67bd ea56 6c3d
00000280: a079 b9bc c38a 95bc af2b 3a3d 2167 023d
00000290: 0107 44bd eff9 6bbd e757 75bd 49bd 8ebc
000002a0: e131 803d df22 2b3d bd13 543c 3365 ea3c
000002b0: 95b7 b43c d00d afbb 5bf0 803c 9405 c2bc
000002c0: ba96 183d 59bd e5bc f52c 5abd 4253 083b
000002d0: 556d fd3c d874 593c 0f9c 34bd d211 093c
000002e0: 05ad 75bd cbaa 0bbd f0bf e63c 8ee9 7ebc
000002f0: 8b5c 6d3d 3c4a 673d f018 eb3c 5613 453d
00000300: e849 203d 2e83 7b3d 7d5f 1abd cd09 56bd
00000310: ca7b 33bd effd a9bb bccf 3a3d 7737 a13c
00000320: b431 7ebc c313 393d b1bc d53c 0747 f5bc
00000330: 362e 373d 2256 e1bc 6920 ce3c 6449 67bd
00000340: 398f 923b 0055 1abd 9d12 cb3d e89e feba
00000350: 8f8e 80bc e0eb 2c3c 7416 553c 2184 5c3c
00000360: 770f 61bd 0d31 813d 6050 9abd 323e 0bba
00000370: a2cb 073d cd78 f43c 9f22 fd3c 4467 cf3c
00000380: ed2f 77bd 761d 4ebd 20b8 96bd df6c ffbc
00000390: 4dcf 00bd cb6d 29bc 7272 42bd 71bd 193d
000003a0: c2e8 2bbd fd00 2e3d adc2 66bd 1767 113d
000003b0: bd6d 84bd 37ad 0c3d 2805 9cba 2346 2dbd
000003c0: 7e64 25bd f652 adbd 7676 8bbd 42fd 193d
000003d0: d075 22bd 2bce 41bd 798b 9fbd 6034 0bbd
000003e0: 54c5 173c 0040 c8bb 6241 823c 1c20 6abd
000003f0: eb0a 26bd 0b16 35bd cf24 d0bb 0b03 55bd

fc2_adv.bias f4 [128]
0.046968073 0.050712667 -0.032490786 -0.037738655 -0.0020111578 -0.037065204 -0.071383744 -0.056497507
-0.014097634 0.04015653 -0.07419083 0.06130029 -0.07218994 -0.09052294 -0.0029637741 -0.008190643
0.05191382 0.05358302 0.07178641 -0.014804665 0.033969864 0.019201772 0.016423374 -0.04034995
0.04652898 -0.017991075 0.051466227 -0.009430628 -0.012772614 -0.07056857 -0.05115872 0.045767248
0.032406066 0.02299901 -0.0593654 -0.040924236 -0.05114571 0.0026902123 -0.056454424 -0.065866195
-0.015946656 0.041076142 0.02274823 0.058472466 -0.05086104 0.018328134 0.014275908 0.05601795
-0.03394749 0.035978395 -0.065824285 0.026438227 -0.076993585 0.054892737 0.06953118 0.007841803
-0.009291659 0.018915415 0.0055707633 0.0029542167 0.01227161 -0.035649315 0.0026382077 -0.060421564
-0.025124216 0.07413011 -0.06180438 0.041787032 0.051754147 -0.061238922 0.023744266 -0.022833956
-0.011523032 0.03705516 0.056607224 -0.047260657 0.005277509 -0.0011355263 0.009438336 -0.0060126693
-0.07657754 0.061233085 -0.021708176 0.009336183 -0.003454105 -0.018848142 0.053762488 -0.011283703
0.030638348 0.021701727 0.03512915 -0.037769206 0.061304856 0.03252266 0.039687037 0.06104614
0.025707705 -0.027879499 -0.022572732 0.051025257 0.06268629 -0.027888 -0.028897217 -0.01806532
-0.018797195 0.069258936 0.04554478 0.05573508 0.023314878 0.0014330307 0.004208297 0.020575387
0.044488348 -0.051042996 -0.04267713 0.016390037 -0.037218764 -0.030891685 0.0057149157 0.071313925
-0.0047451747 0.014657732 0.012451343 -0.019126723 0.07578854 0.020241598 0.050119556 -0.02673609
00000000: 9861 403d 16b8 4f3d 0f15 05bd d993 1abd
00000010: a1cd 03bb afd1 17bd a431 92bd ee69 67bd
00000020: c3f9 66bc 2c7b 243d 5df1 97bd 0316 7b3d
00000030: 52d8 93bd 1764 b9bd e13b 42bb 0c32 06bc
00000040: 96a3 543d de79 5b3d c104 933d 448f 72bc
00000050: fc23 0b3d 094d 9d3c 508a 863c fd45 25bd
00000060: 2c95 3e3d 0562 93bc 40ce 523d ec82 1abc
00000070: 3a44 51bc 4186 90bd ce8b 51bd 7076 3b3d
00000080: 39bc 043d 6b68 bc3c 2229 73bd 2ca0 27bd
00000090: 2a7e 51bd 464e 303b c13c 67bd dbe4 86bd
000000a0: 90a2 82bc 753f 283d 7f5a ba3c d380 6f3d
000000b0: aa53 50bd e224 963c 7fe5 693c 1473 653d
000000c0: 860c 0bbd 155e 133d e2ce 86bd fb94 d83c
000000d0: d0ae 9dbd 35d7 603d 5d66 8e3d e87a 003c
000000e0: 0b3c 18bc 80f4 9a3c f38a b63b 889b 413b
000000f0: dd0e 493c 0405 12bd c8e5 2c3b 9a7c 77bd
00000100: 4dd1 cdbc 87d1 973d 9726 7dbd e128 2b3d
00000110: 28fc 533d aad5 7abd 5683 c23c 470e bbbc
00000120: 19cb 3cbc 27c7 173d fadc 673d 6494 41bd
00000130: f4ee ac3b f1d5 94ba 40a3 1a3c ed05 c5bb
00000140: afd4 9cbd 8bcf 7a3d 58d5 b1bc caf6 183c
00000150: 445e 62bb 6b67 9abc 0e36 5c3d 48df 38bc
00000160: 46fd fa3c d2c7 b13c 95e3 0f3d e2b3 1abd
00000170: cd1a 7b3d 7b36 053d e08e 223d 840b 7a3d
00000180: f798 d23c 8c63 e4bc 73ea b8bc dcff 503d
00000190: ab61 803d 6075 e4bc dbb9 ecbc b9fd 93bc
000001a0: 93fc 99bc a1d7 8d3d 2a8d 3a3d 784a 643d
000001b0: d8fe be3c 88d4 bb3a c1e5 893b b78d a83c
000001c0: 6a39 363d 7612 51bd 37ce 2ebd 6644 863c
000001d0: b472 18bd 8f10 fdbc 3044 bb3b 090d 923d
000001e0: 697d 9bbb fc26 703c b800 4c3c a5af 9cbc
000001f0: 0637 9b3d b5d1 a53c 2a4a 4d3d a505 dbbc
