src/nets/exp_graph_obs_10_agents100.pth (torch_old, 356653 bytes, 11 tensors)

fc1_val.weight f4 [256, 43]
0	0xbd99e6c8	-0.07514721
1	0xbd04c20a	-0.032411613
2	0xbd5dd623	-0.054159295
3	0xbd7b10f1	-0.061295453
4	0x3dc5ee78	0.09664625
5	0x3d09e8ab	0.033669155
6	0x3d862e92	0.06551851
7	0xbc954d0c	-0.018225215
8	0xbd293806	-0.041313194
9	0xbda8a355	-0.08234278
10	0xbde6f11a	-0.11276455
11	0xbd88ca20	-0.06679177
12	0xbdf8c8d1	-0.12147678
13	0x3e0f1d37	0.13975988
14	0x3df1d9fe	0.11809157
15	0xbb5c0e87	-0.0033577995
16	0xbe0a72f4	-0.13520414
17	0xbe238c26	-0.15971431
18	0x3c7cf205	0.015438561
19	0xbcee617b	-0.029099217
20	0x3e0bd1f2	0.13654307
21	0x3e05c628	0.13063872
22	0x3c7611d7	0.015018902
23	0x3d47de57	0.048796024
24	0xbd500ada	-0.0507916
25	0x3ccefafa	0.02526616
26	0x3d4af4a4	0.049549714
27	0xbd1a743c	-0.037708506
28	0xbd997b93	-0.07494273
29	0xbd8600df	-0.06543135
30	0x3dbed61b	0.09318181
31	0xbd48204f	-0.048858937
32	0x3e14646e	0.14491436
33	0x3dd41da9	0.1035722
34	0x3dee30f9	0.116304345
35	0xbd0322f5	-0.03201576
36	0x3d7e4033	0.062072944
37	0x3e0b9e8e	0.13634703
38	0x3caf7c9d	0.021421725
39	0xbd7321e1	-0.05935848
40	0xbdad4454	-0.08460298
41	0x3e15398c	0.14572734
42	0x3bdd4883	0.006753029
43	0x3d5e2818	0.054237455
44	0xbd4a75d1	-0.049428765
45	0xbce39bc9	-0.027784245
46	0xbe21a80d	-0.15786763
47	0xbd453495	-0.04814585
48	0xbda10fdb	-0.07864352
49	0xbd4e25b7	-0.050328936
50	0x3b532c2d	0.0032222376
51	0x3d5a3dbf	0.053281542
52	0xbd6f0b2c	-0.058360264
53	0x3bac0c8d	0.0052505196
54	0x3dd2c5c0	0.10291624
55	0xbddcd93f	-0.10783624
56	0xbc22f7df	-0.009946792
57	0xbbfdc6ee	-0.0077446615
58	0x3da874d2	0.08225407
59	0x3e07067d	0.13186069
60	0x3e39dde1	0.18151046
61	0xbdb8cd7a	-0.090235665
62	0xbdedeb90	-0.116171956
63	0xbde1948b	-0.110146604
64	0x3ce842cd	0.028352166
65	0x3d5ebd11	0.054379527
66	0xbe0b3276	-0.13593468
67	0xbd477c99	-0.04870281
68	0xbb81dd40	-0.0039631426
69	0x3e27ded9	0.16393603
70	0x3d1832f4	0.037157968
71	0x3e0f66ef	0.1400411
72	0x3d9498ee	0.072557315
73	0xbe085ab5	-0.13315852
74	0x3cbca38b	0.023027202
75	0xbdcb552e	-0.09928356
76	0xbe0ce897	-0.13760601
77	0x3c8d0be5	0.017217586
78	0xbd8159c0	-0.063159466
79	0xba90fb86	-0.0011061288
80	0x3d06d0a0	0.032913804
81	0xbda45c79	-0.0802545
82	0x3e0fe0cf	0.14050601
83	0x3cec04d0	0.028810889
84	0xbd7691c1	-0.060197596
85	0xbd9ec0d3	-0.07751622
86	0xbe27e71e	-0.16396758
87	0x3d461b74	0.048366025
88	0x3d627ada	0.05529294
89	0x3d90e71c	0.070753306
90	0x3d7e1db2	0.06204004
91	0xbdd68e0c	-0.10476312
92	0xbe37ca21	-0.179482
93	0xbb7e4cc8	-0.003880309
94	0x3e063db4	0.13109475
95	0xbdb50acb	-0.08839949
96	0xbd5a0975	-0.053231675
97	0xbe17f871	-0.14840867
98	0xbe1595fb	-0.14607994
99	0xbdd91ae2	-0.106008306
100	0xbdb9b573	-0.09067812
101	0xbbb5777e	-0.005537926
102	0x3dad0283	0.08447745
103	0x3dd6ac7c	0.104821175
104	0xbd88a589	-0.06672198
105	0x3d63c152	0.055604286
106	0xbdba90ac	-0.09109625
107	0xbdcb8ca4	-0.099389344
108	0x3d8dd48d	0.069253065
109	0xbe283d11	-0.16429545
110	0xbd83acb6	-0.06429426
111	0xbcf81a68	-0.030286029
112	0xbd655980	-0.055993557
113	0xbd3393d5	-0.043842155
114	0x3c476142	0.012169184
115	0x3d29cf54	0.04145749
116	0xbd9a94fb	-0.07547947
117	0xbd5b66a6	-0.05356469
118	0x3d87b74f	0.0662676
119	0x3e0e6f01	0.13909532
120	0x3dbb80d3	0.09155431
121	0xbdaa0481	-0.0830164
122	0x3dbaee36	0.091274664
123	0xbd8b2ac2	-0.06795265
124	0xbe1b3d05	-0.15159996
125	0xbe21e57b	-0.15810196
126	0xbe038d74	-0.12846929
127	0xbc9b4941	-0.018955829
128	0x3e0b1361	0.13581611
129	0x3da7fb0d	0.08202181
130	0x3dd6c28e	0.10486327
131	0xbe08b0de	-0.1334872
132	0xbdae8fe1	-0.085235365
133	0x3cf83ea0	0.0303033
134	0xbdd905c7	-0.10596805
135	0x3cbd7cdb	0.023130825
136	0xbe070fca	-0.13189617
137	0xbd521d02	-0.051297195
138	0xbc9280b2	-0.017883632
139	0x3ddcc9c5	0.10780672
140	0x3d05dfda	0.032684185
141	0x3d30d9a0	0.043176293
142	0x3e36d656	0.178552
143	0x3da70594	0.08155361
144	0xbc741e88	-0.014899857
145	0x3dc2ed67	0.09517937
146	0x3d509f0a	0.05093292
147	0xbc9e6cf0	-0.019339055
148	0xbd16bc68	-0.036800772
149	0x3ce4b30b	0.027917406
150	0x3e1d40c6	0.1535674
151	0xbc526b6c	-0.012842994
152	0x3db91cfe	0.09038733
153	0xbdf275ed	-0.11838899
154	0x3c4485bc	0.011994775
155	0xbcca5532	-0.024698827
156	0x3ddeeef8	0.108854234
157	0x3e188213	0.1489337
158	0x3e16526c	0.14679879
159	0x3e0266e4	0.12734562
160	0x3b9c23db	0.0047650165
161	0x3df420fb	0.11920353
162	0xbda325cf	-0.07966196
163	0xbd671af8	-0.056422204
164	0xbe122344	-0.14271265
165	0x3ccfdd80	0.025374174
166	0xbe296416	-0.16542086
167	0xbdadd68e	-0.08488189
168	0xbe19a0c8	-0.1500274
169	0xbd71b38c	-0.05900912
170	0x3d20a9ee	0.039224558
171	0xbdda03e0	-0.1064527
172	0x3d4c2a79	0.049845193
173	0x3c8fd004	0.017555244
174	0xbd1dadcc	-0.038495824
175	0xbce87138	-0.0283743
176	0x3cb0b765	0.021571824
177	0xbd768398	-0.06018409
178	0xbd9d0017	-0.07666033
179	0xbe1715f9	-0.14754476
180	0x3db3007d	0.087403275
181	0xbdbe53c6	-0.09293322
182	0x3dd56d26	0.10421209
183	0x3c021752	0.00794013
184	0x3e11e618	0.1424793
185	0xbc9e7abb	-0.019345632
186	0x3d9ff196	0.07809751
187	0x3dcd1a53	0.100147866
188	0x3cc9cb39	0.024633037
189	0xbde733ab	-0.11289152
190	0x3d935e14	0.07195678
191	0xbdc20102	-0.094728485
192	0xbdd5e806	-0.104446456
193	0xbc2f6037	-0.010704092
194	0xbdcb079b	-0.0991356
195	0xbd05990e	-0.032616667
196	0xbdcd6000	-0.10028076
197	0x3dc7e0ce	0.09759675
198	0x3c816648	0.015795842
199	0x3e0cd9b9	0.1375493
200	0xbd7fa3fa	-0.06241224
201	0x3de74755	0.112929024
202	0x3c1c9e0c	0.009559166
203	0x3e1ca574	0.1529749
204	0xbcf7c549	-0.03024544
205	0x3deb0bd7	0.11476868
206	0xbe150d9e	-0.14555976
207	0xbdbc19da	-0.09184618
208	0x3dcda371	0.100409396
209	0x3e08c36b	0.13355796
210	0x3dc516a6	0.096234605
211	0xbc5000a3	-0.012695464
212	0x3dff01f5	0.12451545
213	0xbe069843	-0.1314402
214	0xbe0ebc7c	-0.13939089
215	0xbccf4d72	-0.025305483
216	0x3d82ef6e	0.06393324
217	0x3e13c78c	0.1443159
218	0xbc2bceeb	-0.010486345
219	0xbd148dd2	-0.036268063
220	0xbd1b6296	-0.037935816
221	0xbd391012	-0.04518134
222	0xbdeac262	-0.11462857
223	0xbdfb504c	-0.12271175
224	0xbdd4d643	-0.1039243
225	0x3d13921e	0.03602802
226	0xbd593725	-0.053031106
227	0xbdeefbb1	-0.116691
228	0xbe12fc73	-0.14354114
229	0x3d72fce9	0.059323225
230	0xbd970418	-0.07373828
231	0xbd915836	-0.07096903
232	0xbd3a9f2c	-0.045561954
233	0x3e1924cb	0.14955442
234	0x3d8aad06	0.06771283
235	0x3e25f8cb	0.16208188
236	0x3e17e873	0.14834766
237	0x3e05be42	0.13060859
238	0xbc108d19	-0.008822703
239	0x3dc0b699	0.09409828
240	0x3db73cc6	0.089471385
241	0x3d90c89e	0.07069515
242	0x3c91c77c	0.017795317
243	0x3de09706	0.109663054
244	0xbdad2cbf	-0.084558
245	0xbc965614	-0.018351592
246	0x3da11f23	0.07867267
247	0x39c9419b	0.00038386587
248	0xbdf29907	-0.11845594
249	0xbdd857ff	-0.10563659
250	0xbd1df478	-0.03856322
251	0xbdbe0808	-0.092788756
252	0xbd2d3448	-0.042286187
253	0x3ddfb58b	0.109232984
254	0x3da184b2	0.07886638
255	0x3e3780c9	0.17920221

fc1_val.bias f4 [256]
0	0xbde0e72d	-0.10981593
1	0x3d2ddcc6	0.042446874
2	0xbe0f1cab	-0.1397578
3	0x3e034bb1	0.12821843
4	0xbd681708	-0.05666259
5	0x3e34ebd7	0.17668091
6	0xbe58a255	-0.21155675
7	0xbe051658	-0.12996805
8	0x3dbdfc55	0.09276644
9	0xbcd608d1	-0.02612725
10	0x3e598406	0.21241769
11	0x3d17f2a4	0.037096635
12	0x3d81b23e	0.06332825
13	0x3e155345	0.14582546
14	0xbe02a514	-0.12758285
15	0x3e2db449	0.16963305
16	0xbe28684a	-0.16446033
17	0x3d525f2c	0.051360294
18	0x3ca00dc7	0.01953782
19	0x3e2fb4f0	0.17158866
20	0x3c0286de	0.007966725
21	0x3df09433	0.11747017
22	0x3c47c926	0.012193954
23	0x3d468276	0.04846426
24	0xbc6058f2	-0.013693081
25	0x3ddf175c	0.10893127
26	0xbb8e6815	-0.0043459036
27	0x3c8601a7	0.01635821
28	0x3e8bbe77	0.2729375
29	0x3e096234	0.13416368
30	0x3d3f6f76	0.046737157
31	0x3db1b247	0.08676582
32	0x3df43c6b	0.11925586
33	0xbd912a7e	-0.07088183
34	0x3e111c6b	0.14170997
35	0xbe098911	-0.13431193
36	0xbd0582db	-0.032595497
37	0x3da5cbc3	0.08095505
38	0xbe128943	-0.14310174
39	0xbdd6b319	-0.10483379
40	0x3e23c12c	0.15991658
41	0xbdc871d6	-0.097873375
42	0x3da2f51c	0.07956907
43	0xbdc7cff8	-0.09756464
44	0x3dd71eb9	0.10503907
45	0x3e026417	0.12733494
46	0x3da7468f	0.08167755
47	0x3e1f8278	0.15577114
48	0xbd8d85db	-0.069102965
49	0x3c483d3f	0.012221633
50	0xbe115f4b	-0.14196508
51	0xbd105976	-0.035241567
52	0xb8aac5e3	-8.143091e-05
53	0xbd82caa6	-0.06386308
54	0xbc9d608e	-0.01921108
55	0x3dc68346	0.09693007
56	0x3df9effc	0.122039765
57	0x3e5f993d	0.218358
58	0x3d4cc853	0.04999573
59	0x3d65a68d	0.05606704
60	0xbdf92cde	-0.12166761
61	0xbd0480ee	-0.03234952
62	0xbe2bdd95	-0.16783746
63	0xbb5657bb	-0.00327061
64	0x3dc4b469	0.09604723
65	0x3dd3cee9	0.10342199
66	0x3ca5bc48	0.020231381
67	0xbe506b23	-0.2035337
68	0x3e13ae22	0.14421895
69	0x3c76e044	0.0150681175
70	0x3e19266f	0.14956068
71	0x3e1877a0	0.14889383
72	0x3e34a12f	0.17639612
73	0x3d9a00e6	0.075197026
74	0xbe6135fc	-0.2199325
75	0xbc39c9ce	-0.011339618
76	0xbc8320d4	-0.016006865
77	0xbcd9023a	-0.02649032
78	0x3d3100cf	0.04321366
79	0xbd261529	-0.040547524
80	0x3dbe5fe9	0.09295637
81	0x3e1727bf	0.14761256
82	0x3ea00422	0.31253153
83	0x3d73aaa6	0.059488915
84	0x3e213087	0.15741168
85	0x3db77de5	0.08959559
86	0xbd14e62f	-0.036352333
87	0x3cbfb638	0.023402318
88	0x3c94ea6b	0.018178185
89	0xbda4dd16	-0.08049981
90	0x3e2689d2	0.16263512
91	0x3e0f7930	0.14011073
92	0xbde670ec	-0.11252007
93	0xbcce9d81	-0.025221588
94	0xbd4f3f6e	-0.0505976
95	0xbcdca783	-0.026935345
96	0xbe390abb	-0.180705
97	0xbddfbd02	-0.10924722
98	0x3e12c69c	0.14333576
99	0x3e1b8034	0.15185624
100	0xbddebde3	-0.10876062
101	0x3d43c057	0.04779085
102	0xba283273	-0.0006416209
103	0x3e1643ba	0.14674273
104	0xbd84258b	-0.06452473
105	0xbe010cb0	-0.12602496
106	0x3db4b45e	0.08823465
107	0x3e272cd8	0.163257
108	0xbd748757	-0.059699383
109	0x3dcd4bde	0.10024236
110	0x3d5e29e3	0.054239165
111	0x3da21edf	0.079160444
112	0xbcad0ad0	-0.02112332
113	0xbd057fd2	-0.032592602
114	0x3cc98a8b	0.024602195
115	0x3e6a79c4	0.22898012
116	0xbe32b012	-0.17449978
117	0xbd1bb09a	-0.038010217
118	0xb88cd589	-6.715494e-05
119	0x3c2daf56	0.010600885
120	0x3d3c00db	0.045899253
121	0xbd529ae9	-0.051417265
122	0x3dd62145	0.104555644
123	0xbdbe1aee	-0.0928248
124	0x3e6fa696	0.23403391
125	0xbddebab5	-0.10875455
126	0xbdb13383	-0.08652403
127	0xbd66de3e	-0.05636429
128	0xbda677a8	-0.08128291
129	0x3daccebd	0.0843787
130	0xbd95349f	-0.07285427
131	0xbe02e795	-0.12783654
132	0x3e1bc227	0.15210782
133	0xbddf5002	-0.10903932
134	0x3df1d787	0.11808687
135	0x3df82e5c	0.12118217
136	0x3cbe57a6	0.023235153
137	0xbb7f0511	-0.0038912932
138	0xbe66f42c	-0.22554082
139	0x3e4a3aa0	0.19748926
140	0x3d28ee4f	0.041242894
141	0x3db8491b	0.08998319
142	0x3e0f13a7	0.1397234
143	0xbc494c39	-0.012286239
144	0x3c33ec1f	0.010981589
145	0x3e5dcfab	0.2166125
146	0x3d8aa278	0.0676927
147	0x3e026bfd	0.12736507
148	0xbce6950c	-0.028147243
149	0xbd0fd3c4	-0.035114065
150	0xbddeb12e	-0.10873638
151	0x3c2ed467	0.010670758
152	0xbe6a3f3b	-0.22875683
153	0x3e389477	0.18025385
154	0xbdd3003c	-0.10302779
155	0xbdc4ed82	-0.096156135
156	0xbd6a7194	-0.057237223
157	0xbd473f7f	-0.04864454
158	0xbdfefe11	-0.12450803
159	0xbe2bb14a	-0.16766849
160	0xbd05e493	-0.03268869
161	0xbe34af1f	-0.17644928
162	0xbe1a3e7c	-0.15062898
163	0xbdd3ef60	-0.103483915
164	0x3b87952e	0.0041376567
165	0x3df33b37	0.11876529
166	0x3cc2ad8d	0.023764396
167	0x3d9c5d93	0.07635035
168	0xbdc7ee9b	-0.09762307
169	0x3de994ac	0.1140531
170	0x3e492798	0.1964401
171	0xbcb92f27	-0.022605492
172	0xbdcabdb6	-0.09899466
173	0x3d0f1af2	0.034937806
174	0x3e087f64	0.13329846
175	0x3cf34f2f	0.029700844
176	0xbe41d4db	-0.18928854
177	0x3def9ad3	0.11699452
178	0xbd926ba8	-0.0714944
179	0x3dd18b1d	0.10231612
180	0xbd4b1c01	-0.049587253
181	0xbe3d5f11	-0.18493296
182	0x3c1a2756	0.0094087925
183	0x3d4f460e	0.05060392
184	0x3d58b745	0.052909154
185	0xbdcea2e0	-0.1008966
186	0x3e2927ce	0.1651909
187	0x3c944f2f	0.018104164
188	0xbd7eb7fe	-0.062187187
189	0x3d277beb	0.04088966
190	0xbdf4251a	-0.11921139
191	0x3e22bce4	0.15892369
192	0x3dac947c	0.08426759
193	0x3e093f5b	0.13403074
194	0x3be73f5b	0.007057113
195	0xbdc07cda	-0.093988135
196	0x3e49250c	0.19643039
197	0x3bb76631	0.005596899
198	0x3d8d36db	0.068952285
199	0xbe0f5dec	-0.14000672
200	0x3c9a9228	0.01886852
201	0xbd3eaf2b	-0.046553772
202	0x3d55f67e	0.052237026
203	0x3d6de7e8	0.05808249
204	0x3e1c7014	0.1527713
205	0x3d7a8bbc	0.061168417
206	0x3e389dd3	0.18028955
207	0xbda7047f	-0.081551544
208	0xbe07db10	-0.1326716
209	0x3d0b2e30	0.033979595
210	0xbcdf6456	-0.027269524
211	0xbe184063	-0.14868312
212	0xbe295668	-0.16536868
213	0xbd5fcccc	-0.05463867
214	0xbe0546d6	-0.13015303
215	0x3c2b53e3	0.010457012
216	0x3d45b155	0.04826482
217	0x3e1913d5	0.14948972
218	0xbdce89f6	-0.10084908
219	0xbe1075e7	-0.14107476
220	0xbc984f43	-0.018592482
221	0xbd368f63	-0.044570338
222	0x3dbc98a7	0.092088036
223	0xbe4bdcc2	-0.19908431
224	0xbd23683c	-0.039894328
225	0x3d48fec9	0.049071107
226	0xbdd16a02	-0.102252975
227	0xbe2cfda9	-0.16893639
228	0x3dd45931	0.103685744
229	0x3bf82098	0.007572245
230	0xbdf93247	-0.12167793
231	0x3d92e125	0.07171849
232	0xbc5ca197	-0.01346626
233	0x3e1e1fbc	0.15441793
234	0xbde99a87	-0.11406427
235	0x3e3afb19	0.18259849
236	0x3e1bd951	0.15219618
237	0xbca7def6	-0.020492058
238	0xbd67a456	-0.056553207
239	0xbdad630f	-0.084661596
240	0xbe0b0cca	-0.13579097
241	0xbde2e43f	-0.11078691
242	0xbe74884d	-0.2388012
243	0x3e326208	0.17420208
244	0xbc4a1cda	-0.01233598
245	0xbdc32f39	-0.095304914
246	0xbd40bd04	-0.04705526
247	0xbcb1a91a	-0.02168708
248	0x3e0f066c	0.13967294
249	0x3bf32dfe	0.007421254
250	0x3e12275e	0.1427283
251	0xbe47858f	-0.19484542
252	0xbca08add	-0.019597465
253	0xbc1462aa	-0.0090567265
254	0x3d8257a3	0.06364372
255	0x3d826afa	0.063680604

fc2_val.weight f4 [128, 256]
0	0xbc61a5b3	-0.013772416
1	0xbc57ce4e	-0.013171745
2	0x3c4328eb	0.011911611
3	0x3cc5cf31	0.024146648
4	0x3b030ca2	0.0019996543
5	0xbc0b472a	-0.008500854
6	0xbc633426	-0.013867414
7	0xbd645f20	-0.05575478
8	0x3c83e7c7	0.016101731
9	0x3d7532e4	0.059862986
10	0xbd46fad8	-0.048579067
11	0xbc95bb20	-0.018277705
12	0x3d206c34	0.03916569
13	0xbc7013bc	-0.014653143
14	0x3cf74344	0.030183442
15	0x3c69a5c1	0.01426071
16	0xbd33c5ee	-0.043889932
17	0x3737807e	1.0937567e-05
18	0xbc81dccc	-0.015852354
19	0xbd54b778	-0.051932782
20	0xbd43710e	-0.04771524
21	0x3d2696cf	0.040671166
22	0xb9659a97	-0.00021896731
23	0x3b885239	0.0041601923
24	0x3d06522a	0.0327932
25	0x3ca6aeee	0.020347085
26	0xbd236744	-0.039893404
27	0x3bc11aac	0.005893072
28	0xbd3f2e9d	-0.046675313
29	0xbcd0f96c	-0.025509559
30	0xbc001f10	-0.007819906
31	0x3cb24c14	0.021764793
32	0xbd16e38b	-0.036838096
33	0xbd7c68ec	-0.0616235
34	0xbd1c2c0b	-0.03812794
35	0xbd808b0f	-0.06276523
36	0xbb2f3520	-0.0026734546
37	0x3d3458b2	0.0440299
38	0xbdaec834	-0.085342795
39	0xbcaa91cd	-0.020821476
40	0xbdaaf00f	-0.08346569
41	0x3b52f7c4	0.0032191137
42	0x3d331af1	0.043726865
43	0x3d631f09	0.05544952
44	0xbd5c29e7	-0.0537509
45	0x3c8e38d0	0.017361075
46	0xbcb274a7	-0.02178414
47	0xbd7724b4	-0.060337737
48	0x3cf6b65f	0.030116258
49	0x397a2ced	0.00023858594
50	0x3c7ae69d	0.015313772
51	0x3c81a5bc	0.015826099
52	0x3d01d053	0.031692814
53	0xbd64895f	-0.05579507
54	0x3d042710	0.032263815
55	0xbd4a6e91	-0.04942185
56	0xbca64941	-0.020298602
57	0x3d01862a	0.03162209
58	0xbccc77a8	-0.0249594
59	0xbd07244b	-0.032993596
60	0xbc9ca135	-0.019119838
61	0xbd4dc544	-0.050236955
62	0x3d1032fb	0.03520487
63	0xbc6abf97	-0.014327905
64	0xbbc43545	-0.0059877955
65	0x3c905f68	0.017623618
66	0x3c35240e	0.011055959
67	0xbcf96388	-0.030442968
68	0xbc8fd083	-0.01755548
69	0x3d88d520	0.06681275
70	0x3c4d387f	0.012525677
71	0x3d4d4c33	0.050121497
72	0x3c0af6e6	0.008481717
73	0xbbb70c41	-0.0055861776
74	0x3c849051	0.016182097
75	0x3d56fa37	0.052484717
76	0x3cc6137e	0.024179216
77	0xbd65af01	-0.0560751
78	0x3c8a7976	0.01690362
79	0xbd54e5a9	-0.051976833
80	0xbd1b3ccb	-0.037899774
81	0xbca4521e	-0.020058688
82	0xbd4678bc	-0.048454985
83	0xbd01cb12	-0.031687804
84	0xbcd479af	-0.02593693
85	0xbd44f356	-0.048083626
86	0x3bfa1ae1	0.0076325987
87	0x3d54054c	0.051762864
88	0xbbd9da06	-0.006648305
89	0x3d1bfe61	0.03808439
90	0xbd8f2979	-0.06990332
91	0xbdb9a6b6	-0.09065001
92	0xbc8d2749	-0.017230647
93	0x3bc15097	0.0058994996
94	0x3c92883e	0.017887231
95	0xbb517651	-0.0031961391
96	0x3c522840	0.012826979
97	0x3a01c200	0.0004949868
98	0x3d34bbc3	0.044124376
99	0x3d7b3be2	0.061336406
100	0xbd59e928	-0.05320087
101	0xbd1a6ec5	-0.037703294
102	0xbb6d70bc	-0.0036230525
103	0xbcc9eccd	-0.024649048
104	0x3c984d6e	0.018591609
105	0xbb2ff620	-0.0026849583
106	0xbd1494f8	-0.03627488
107	0x3cf4435c	0.029817276
108	0xbcd53d40	-0.026030183
109	0x3d43c6df	0.04779708
110	0xbbbdcd54	-0.0057922993
111	0xbc2df72f	-0.010618015
112	0x3cdfdb98	0.02732639
113	0xbd04bdb3	-0.032407474
114	0x3d0598cd	0.032616425
115	0x3cb980f5	0.0226445
116	0xbcaa837b	-0.020814648
117	0x3c9dbc18	0.01925473
118	0x3ca90e4c	0.0206367
119	0xbd52c0aa	-0.05145327
120	0xbc9b1092	-0.0189288
121	0x3d243502	0.040089615
122	0x3d32cb34	0.04365082
123	0xbbd6cd49	-0.0065552336
124	0xbce9a158	-0.028519318
125	0x3d5603a3	0.052249562
126	0xbc734cd9	-0.014849865
127	0xbd7d70a1	-0.06187499
128	0x3d5ef8a4	0.05443634
129	0xbcb38740	-0.021915078
130	0x3d0595cf	0.03261357
131	0xbcf1c048	-0.029510632
132	0xbc80a7d1	-0.015705021
133	0x3c8ce831	0.017200561
134	0x3c5a5b9d	0.013327506
135	0x3c5b921a	0.013401533
136	0xbd9e9fe2	-0.07745339
137	0xbc1ed874	-0.009695161
138	0xbd797f2e	-0.060912304
139	0xbc527afb	-0.012846704
140	0xbd36d176	-0.04463335
141	0xbd34523d	-0.04402374
142	0x3d11efe1	0.035629157
143	0xbc3d08f0	-0.011537775
144	0x3d2eea08	0.04270366
145	0xbd274043	-0.04083277
146	0xbd37ba8d	-0.044855643
147	0xbd4d6650	-0.0501464
148	0x3ca16d24	0.019705363
149	0xbc9411ee	-0.018074956
150	0xbd498bbe	-0.049205534
151	0x3c502bb8	0.012705736
152	0xbd191612	-0.037374564
153	0xbd112700	-0.035437584
154	0x3ce27de8	0.027647927
155	0xbce66c33	-0.028127765
156	0xbc0ef720	-0.008725911
157	0x3cd795c0	0.026316524
158	0x3d56ecac	0.0524718
159	0xbdae1ccd	-0.08501587
160	0x3ca61a74	0.020276286
161	0xbd931d32	-0.07183303
162	0xbd78233c	-0.060580477
163	0xbd2d012c	-0.042237446
164	0x3d867630	0.06565511
165	0xbcb44a48	-0.022008076
166	0xbcde2b5a	-0.027120281
167	0x3c239359	0.009983861
168	0xbbfddc99	-0.0077472446
169	0xbd62ad60	-0.055341125
170	0xbcf7e546	-0.030260693
171	0xbd87e9cd	-0.06636391
172	0xbcb606ac	-0.022219978
173	0x39e18d25	0.00043020505
174	0xbca27d03	-0.019835
175	0x3bff1545	0.007784518
176	0xbd523254	-0.051317528
177	0x3d1d9702	0.03847409
178	0x3cfd1144	0.030892022
179	0xbd69eb53	-0.05710919
180	0xbd6d1284	-0.057878986
181	0x3ae71e40	0.0017632917
182	0x3d784cba	0.060620047
183	0xbd18ef56	-0.037337624
184	0x3b0f77fb	0.0021891582
185	0xbd943c5e	-0.072380766
186	0x3d60ec49	0.05491284
187	0xbd15efec	-0.03660576
188	0x3d5803c0	0.05273795
189	0xbd1705e9	-0.03687087
190	0xbd129a7c	-0.03579186
191	0x3c38a2e9	0.01126931
192	0xbd79b8d2	-0.060967274
193	0xbcdb6761	-0.026782693
194	0x3ce3da62	0.027814094
195	0xbd48d2af	-0.04902905
196	0x3c3def2f	0.01159267
197	0xbd2dafd9	-0.04240403
198	0x3d5a7be6	0.053340815
199	0xbd019d3e	-0.0316441
200	0x3c0a6588	0.0084470585
201	0xbd7b786f	-0.06139415
202	0x3d288484	0.041142
203	0x3d4be012	0.049774237
204	0x3c882007	0.016616834
205	0xbd5a7715	-0.05333622
206	0xbd2da9ce	-0.042398266
207	0x3d1c2315	0.038119394
208	0x3c43a0fc	0.011940237
209	0x3d152a1b	0.036417108
210	0x3bda557b	0.006663022
211	0xbd4ef122	-0.05052293
212	0x3d3ee04d	0.04660063
213	0x3d80b8fb	0.06285282
214	0xbdb58349	-0.08862931
215	0xbd71a473	-0.05899472
216	0xbb417c7f	-0.0029523668
217	0x3c9a919f	0.018868266
218	0x3d5000a0	0.050781846
219	0xbd35f9c2	-0.04442764
220	0x3d0f97b2	0.035056777
221	0xbd2294fc	-0.039692864
222	0xbc93ee55	-0.018057982
223	0xbd5203bf	-0.051273104
224	0xbcc95440	-0.024576306
225	0x3bdeb939	0.0067969826
226	0xbd85fc4a	-0.06542261
227	0x3c4701a3	0.012146386
228	0x3cae73b9	0.021295415
229	0xbc917d41	-0.017759921
230	0x3b14aa01	0.0022684338
231	0xbd5201ca	-0.051271237
232	0xbc9e4076	-0.019317847
233	0xbcdc0efe	-0.026862618
234	0x3c73872c	0.01486377
235	0x3d181daf	0.037137683
236	0x3c6472ea	0.013943413
237	0xbd375d71	-0.044766847
238	0x3b5a1586	0.003327699
239	0xbbf33987	-0.0074226293
240	0xbd81e787	-0.063429885
241	0x3cbb5b3b	0.02287065
242	0x3bcb0360	0.0061954707
243	0x3d215a75	0.039392907
244	0x3b5fb3ad	0.0034134195
245	0xbd77567f	-0.060385223
246	0xbd1a068b	-0.037603896
247	0xbd1191cf	-0.035539445
248	0xbd813182	-0.06308271
249	0xbc93fa06	-0.018063556
250	0xbc3124cb	-0.010811995
251	0xbcb15c40	-0.021650434
252	0x3c156aa0	0.00911966
253	0x3ce5c5af	0.028048364
254	0xbc8152a6	-0.01578648
255	0xbbd727f3	-0.0065660416

fc2_val.bias f4 [128]
0	0xbd37a2c5	-0.044832963
1	0x3d4277a2	0.047477372
2	0x3db2b302	0.08725549
3	0xbcc8570c	-0.02445557
4	0x3d28311e	0.041062467
5	0xbc83d904	-0.016094692
6	0xbd55a028	-0.05215469
7	0x3d0d9b5a	0.034571983
8	0xbcf69879	-0.030102002
9	0x3cd2fd68	0.0257556
10	0xbd0033a8	-0.031299263
11	0xbceba3fe	-0.028764721
12	0x3cd11a43	0.025525218
13	0x3ca92e3c	0.02065193
14	0x3d80ecb8	0.062951505
15	0x3d2c9334	0.04213257
16	0x3d1730fe	0.036911957
17	0x3cfb2469	0.03065701
18	0x3d32b073	0.043625306
19	0x3d76afd7	0.060226288
20	0xbd4a7416	-0.049427114
21	0x3d3e75d8	0.046499103
22	0x3d61853d	0.055058707
23	0x3c0ef7ab	0.008726041
24	0xbd15634f	-0.03647166
25	0xbd3b4ebc	-0.045729384
26	0xbd3e6bd5	-0.046489555
27	0x3c8e3d6b	0.01736327
28	0xbcf289c4	-0.029606707
29	0xbb1229c9	-0.0022302738
30	0x3d0584b3	0.032597255
31	0x3c21f53f	0.009885131
32	0xbdf19bc9	-0.11797292
33	0x3c58218f	0.013191595
34	0xbc01c5c5	-0.007920687
35	0xbc88d012	-0.016700778
36	0x3d8a0581	0.06739331
37	0x3d599a90	0.053125918
38	0xbc61b5b5	-0.0137762325
39	0x3cf9f5e7	0.030512763
40	0x3d4a51ea	0.049394526
41	0xbc20020f	-0.009766116
42	0x3b21f69c	0.002471364
43	0x3d86dad3	0.06584706
44	0xbbe65c54	-0.0070300493
45	0xbdb90ef8	-0.09036058
46	0xbbe9c9a2	-0.007134632
47	0xbce50d75	-0.027960518
48	0x3d19c0c8	0.037537366
49	0xbcfa5c2b	-0.030561527
50	0xbd66d94f	-0.056359585
51	0xbb2c5134	-0.0026293518
52	0x3d4b3539	0.049611304
53	0xbd04eb4f	-0.03245097
54	0x3d5e5dea	0.054288782
55	0xbceee306	-0.029160988
56	0x3c35df43	0.011100593
57	0x3cfbe03e	0.030746575
58	0xbd28178e	-0.04103809
59	0x3aa554ba	0.0012613751
60	0xbdc2fc6c	-0.09520802
61	0x3d9a43f2	0.07532491
62	0x3d31fbb8	0.04345295
63	0xbb946633	-0.0045287847
64	0xbcc9510f	-0.024574785
65	0xbdb6de31	-0.089290984
66	0xbd71bf50	-0.05902034
67	0xbcdb4062	-0.026764099
68	0x3d51f747	0.051261213
69	0x3c3c8dd7	0.011508427
70	0xbd689619	-0.05678377
71	0xbd7c1173	-0.06154008
72	0x3d78135b	0.060565334
73	0xbd046056	-0.032318436
74	0x3c9b56eb	0.018962344
75	0xbc3a11b9	-0.0113567645
76	0x3c46591b	0.012106205
77	0xbd33db90	-0.043910563
78	0x3dcdf7d2	0.100570336
79	0xbd1b35a7	-0.037892964
80	0xbd02e807	-0.03195956
81	0xbca7401b	-0.02041631
82	0xbd59cdf2	-0.05317492
83	0x3d49575f	0.04915559
84	0xbd3ebb56	-0.046565376
85	0x3d8dc404	0.06922153
86	0x3d220490	0.039555132
87	0x3d008949	0.031380925
88	0xbd674f34	-0.05647202
89	0x3caf51ff	0.021401403
90	0x3ccdee37	0.025138004
91	0x3d6ce618	0.057836622
92	0xbc4e44b2	-0.01258962
93	0xbcdf5c4d	-0.027265692
94	0xbccaad93	-0.02474097
95	0xbd501d69	-0.050809298
96	0x3cac3537	0.021021469
97	0x3d36b3d8	0.044605106
98	0xbd69c333	-0.057070922
99	0x3d31c4f5	0.043400723
100	0x3d5b2533	0.053502273
101	0xbcda7330	-0.026666254
102	0x3d17674d	0.03696375
103	0xbbf33cd2	-0.007423022
104	0x3d6f0ab2	0.05835981
105	0xbbc18fcc	-0.0059070345
106	0xbe09debe	-0.13463876
107	0xbd3d1d1c	-0.04617034
108	0x3d007b4d	0.03136759
109	0x3de87974	0.1135129
110	0x3dd6c62e	0.104870185
111	0x3c905c8e	0.017622259
112	0x3c4f620a	0.012657652
113	0x3c83b459	0.016077207
114	0x3d6ea852	0.05826599
115	0x3ca305d1	0.019900234
116	0xbca0d481	-0.01963258
117	0xbda3838d	-0.07984076
118	0x3ad05a2b	0.0015896013
119	0x3d711456	0.058857284
120	0x3d0e46b5	0.0347354
121	0x3d7b14ca	0.061299123
122	0x3d37420d	0.044740725
123	0x3d2174f6	0.039418183
124	0xbcebbe51	-0.028777273
125	0x3d810af5	0.06300918
126	0x3d0b239a	0.0339695
127	0x3ca5bac8	0.020230666

fc3_val.weight f4 [1, 128]
0	0x3e011670	0.12606215
1	0xbdc8aded	-0.09798799
2	0x3e6b586b	0.22982948
3	0xbe22742e	-0.15864632
4	0x3e13170b	0.14364259
5	0xbda961ac	-0.082705826
6	0x3e724e85	0.23662765
7	0xbd8d5eef	-0.06902873
8	0xbe214536	-0.15749058
9	0xbd4af3e4	-0.049549
10	0x3de532c4	0.111913234
11	0xbd8302f8	-0.063970506
12	0x3e3eb4f2	0.18623713
13	0x3bcf237f	0.00632137
14	0xbdd5236e	-0.10407148
15	0xbd9794c2	-0.0740142
16	0xbddab605	-0.10679249
17	0x3eacfd15	0.33786836
18	0xbda7b9bd	-0.08189724
19	0xbdea51c1	-0.114413746
20	0x3e51cbae	0.20487854
21	0xbdbd60b9	-0.09246964
22	0xbdfb65e5	-0.12275294
23	0xbd6296db	-0.05531965
24	0xbdf1f5f7	-0.11814492
25	0xbe040dbe	-0.12895867
26	0xbd90d7d5	-0.07072417
27	0xbdf53eb3	-0.119748496
28	0x3d9f6cb4	0.07784405
29	0x3daa6251	0.083195336
30	0x3e7ba6f6	0.2457541
31	0x3da82edf	0.08212065
32	0x3e87da26	0.26533622
33	0x3e1a877e	0.15090749
34	0xbdb5d9c3	-0.088794254
35	0xbdb58fb9	-0.088653035
36	0x3e6eb94b	0.23312871
37	0xbdd0b372	-0.101904765
38	0xbd28ebd5	-0.041240532
39	0x3e15f0f0	0.14642692
40	0x3e1be541	0.15224172
41	0x3e5d4e61	0.2161193
42	0xbda7e0f2	-0.08197202
43	0x3e9c9d02	0.30588537
44	0xbe48c8dd	-0.19607873
45	0x3e1cd324	0.15314919
46	0x3da27a65	0.07933501
47	0xbd85c5ac	-0.065318435
48	0xbdb6f12d	-0.089327194
49	0xbefe484d	-0.49664536
50	0x3d803882	0.06260778
51	0x3df10f6a	0.11770518
52	0xbd967cdd	-0.073480345
53	0xbdadea66	-0.084919736
54	0xbd7c7f0b	-0.061644595
55	0x3ded9aa5	0.11601762
56	0x3e402ab1	0.18766285
57	0x3e84b479	0.2591894
58	0xbd77c057	-0.060486164
59	0xbdbe89c8	-0.093036234
60	0x3e321d6d	0.17394038
61	0xbea070fc	-0.313362
62	0x3e684c3a	0.22685328
63	0xbe1510ca	-0.14557186
64	0xbd77ca31	-0.06049556
65	0x3e736ca7	0.23771916
66	0xbdae7475	-0.08518306
67	0x3e17a00f	0.14807151
68	0xbe851585	-0.2599298
69	0xbe7ec5c3	-0.24880128
70	0xbe3492e4	-0.1763416
71	0x3e88adb8	0.26695037
72	0xbd6851bd	-0.056718577
73	0xbdf7ff04	-0.12109187
74	0x3e17e28b	0.14832513
75	0x3e3d43ee	0.18482944
76	0xbe21c7fa	-0.15798941
77	0xbd13c603	-0.03607751
78	0x3e5c3eb5	0.21508296
79	0x3b383958	0.0028110351
80	0xbe1f6e40	-0.15569401
81	0xbda79e35	-0.081844725
82	0xbddb120d	-0.10696802
83	0xbd4c238d	-0.04983859
84	0xbcbf8580	-0.023379087
85	0xbdd2bd97	-0.10290068
86	0xbd5d3143	-0.054002058
87	0x3e7410a9	0.2383448
88	0xbddfd8a0	-0.1092999
89	0x3e067c86	0.1313344
90	0xbdf7c229	-0.1209758
91	0x3e42e092	0.1903098
92	0x3dd4e830	0.10395849
93	0xbd625e4d	-0.055265713
94	0xbd6bdd91	-0.05758435
95	0xbd3f090e	-0.046639495
96	0xbe454017	-0.1926273
97	0xbdfedc0e	-0.12444316
98	0xbd9b0360	-0.07569003
99	0x3e3db4a5	0.18525942
100	0xbdb55261	-0.08853603
101	0xbe13db2a	-0.14439073
102	0xbde6a21e	-0.1126139
103	0x3e2e7a78	0.17038906
104	0xbd7eae32	-0.062177844
105	0xbd482c41	-0.04887033
106	0x3e8fec28	0.2810986
107	0x3d2015e7	0.039083388
108	0xbe007c56	-0.1254743
109	0x3e9b4681	0.30327228
110	0x3e997ccf	0.29978034
111	0x3e0c3b50	0.13694501
112	0xbdf43bfc	-0.119255036
113	0xbdaebe7a	-0.08532424
114	0x3dd20efd	0.10256765
115	0xbe000d24	-0.12505013
116	0xbebe7c9d	-0.37204447
117	0x3e8d9841	0.27655223
118	0xbdb662e5	-0.089055814
119	0x3e4a3311	0.19746043
120	0x3e3a4cda	0.18193379
121	0xbd8f46f7	-0.06995957
122	0xbdd21b51	-0.102591164
123	0xbdd1278e	-0.102126226
124	0x3df93e67	0.121701054
125	0xbd3386bf	-0.043829676
126	0x3dd243fb	0.102668725
127	0xbdabf64c	-0.08396587

fc1_adv.weight f4 [256, 43]
0	0xbd21a23c	-0.03946136
1	0x3d561c1f	0.052272912
2	0x3de28abf	0.1106162
3	0x3e0ffa97	0.14060436
4	0x3e0ab7b2	0.13546637
5	0x3b904d93	0.004403779
6	0x3d8e9921	0.06962801
7	0xbd5b5158	-0.053544372
8	0x3b405b4f	0.00293513
9	0x3dff6d0c	0.12471971
10	0xbd133364	-0.03593768
11	0x3de9d15d	0.11416886
12	0x3cd842b7	0.026399
13	0x3e00de9e	0.12584922
14	0x3bee5899	0.0072737453
15	0x3e0e0bb3	0.1387165
16	0xbdd9c37d	-0.106329896
17	0xbca7e52c	-0.02049502
18	0x3d26ccd9	0.0407227
19	0xbd0d7676	-0.0345368
20	0xbcc4787f	-0.023983238
21	0xbd10c674	-0.03534551
22	0xbd16b6cd	-0.036795426
23	0xbddd4f00	-0.10806084
24	0x3cd07fca	0.02545156
25	0x3de4c5b5	0.11170522
26	0xbdf0557c	-0.11735055
27	0x3d8cd2f4	0.068761736
28	0x3ded3bcd	0.11583672
29	0xbe0633d3	-0.13105707
30	0x3d104e87	0.03523114
31	0x3c5fc56e	0.013657911
32	0xbdcab74f	-0.098982446
33	0xbe118553	-0.14211015
34	0xbdaf225c	-0.085514754
35	0xbdeaace9	-0.11458761
36	0x3db4ee90	0.08834565
37	0x3d867b50	0.06566489
38	0x3e10e889	0.14151205
39	0xbe0c0307	-0.1367303
40	0x3e2e925e	0.17048022
41	0xbddfbf37	-0.10925143
42	0x3d17c154	0.037049606
43	0xbdeeb48e	-0.11655532
44	0x3d968287	0.07349115
45	0x3d935557	0.07194012
46	0x3e11deda	0.14245167
47	0xbddef5e3	-0.10886743
48	0x3d8bcba5	0.068259515
49	0xbce2d318	-0.027688548
50	0x3d007b1b	0.031367403
51	0xbdd9f333	-0.1064209
52	0x3e4e3ac9	0.20139612
53	0x3df989a0	0.12184453
54	0x3e226bb0	0.15861392
55	0x3d785c95	0.060635168
56	0xbcbf6a01	-0.023365976
57	0xbdbc3efb	-0.091917
58	0x3ddd7fe9	0.108154126
59	0xbe1f9b09	-0.15586485
60	0xbdfd22c4	-0.12360147
61	0x3ce578fe	0.028011795
62	0x3ca63b19	0.020291852
63	0x3d7a54c6	0.061116003
64	0x3c415d8f	0.011802091
65	0x3e19d01a	0.1502079
66	0xbd2f766a	-0.042837538
67	0x3c4d3904	0.012525801
68	0xbd153589	-0.03642801
69	0xbe11b344	-0.1422854
70	0xbde8a50d	-0.11359606
71	0x3e0283e5	0.12745626
72	0x3e011ef1	0.1260946
73	0xbe24d6ee	-0.16097614
74	0xbd8de942	-0.06929256
75	0xbdbf3336	-0.093359396
76	0xbe3ce297	-0.18445812
77	0xbe2e4908	-0.17020047
78	0x3c75f0f3	0.01501106
79	0xbdca1a80	-0.09868336
80	0xbc2ad045	-0.010425632
81	0x3dfc5f8e	0.12322913
82	0x3e1abc13	0.15110807
83	0x3e148122	0.14502385
84	0xbdedeba4	-0.116172105
85	0xbdb88eda	-0.09011622
86	0x3cb5973f	0.022166846
87	0xbbfe921d	-0.007768883
88	0xbda85221	-0.0821879
89	0xbd5bf14f	-0.053696927
90	0x3e038404	0.12843329
91	0xbcd12164	-0.025528617
92	0xbe0a935a	-0.13532773
93	0xbe1685ea	-0.14699522
94	0xbdac3751	-0.08408988
95	0xbd706c6e	-0.058697157
96	0x3dade7b4	0.084914595
97	0x3dbf3d09	0.093378134
98	0x3dedf580	0.11619091
99	0x3e178712	0.14797619
100	0xbc9dca96	-0.01926164
101	0x3dbe9e83	0.093075775
102	0x3a2e9935	0.0006660403
103	0x3d9cfe29	0.07665665
104	0x3e1c9d2a	0.15294328
105	0xba2d979d	-0.00066220184
106	0x3dbbd67d	0.0917177
107	0xbd330f05	-0.043715496
108	0xbdb182e1	-0.08667541
109	0xbd7f5f36	-0.06234666
110	0x3d6a6aec	0.057230875
111	0x3cf3a6cb	0.029742619
112	0x3d68f73b	0.056876402
113	0x3e11bba5	0.14231737
114	0xbd307f85	-0.043090362
115	0x3e1279db	0.14304297
116	0xbdb513fb	-0.088417016
117	0xbd891032	-0.06692542
118	0x3db96ca8	0.09053928
119	0x3deb7e26	0.1149867
120	0x3e14d74e	0.14535257
121	0xbd19c664	-0.037542716
122	0x3c18cbd5	0.009325941
123	0x3c1b224c	0.009468626
124	0x3da6b202	0.08139421
125	0x3cdfe5a1	0.027331175
126	0x3de7a11e	0.113100275
127	0x3c57ca17	0.013170741
128	0xbbeb72ca	-0.007185315
129	0xbd8dc7bf	-0.06922864
130	0x3d7e3d00	0.062069893
131	0x3bdf521f	0.0068152095
132	0x3dfc1944	0.123095065
133	0x3d6e6652	0.05820305
134	0x3dd55d4c	0.104181856
135	0x3dd9ef36	0.10641329
136	0xbd078e0b	-0.033094447
137	0xbbc4c42b	-0.0060048304
138	0x3dee7d2d	0.11644969
139	0xbe083962	-0.1330314
140	0x3c87a60a	0.016558666
141	0xbb9d9225	-0.0048086816
142	0x3ca421b2	0.020035598
143	0x3d65cbe4	0.05610265
144	0x3df74838	0.120743215
145	0xbdc7eb51	-0.0976168
146	0xbd4bec73	-0.049786042
147	0x3c7f5878	0.015585057
148	0x3d46a51d	0.048497308
149	0x3c5c252c	0.013436597
150	0xbe1bf39f	-0.15229653
151	0xbe03e6a9	-0.12880959
152	0xbe0b6238	-0.13611686
153	0x3c034ec5	0.008014386
154	0xbc26ce6f	-0.010181054
155	0x3dfbaf10	0.1228925
156	0xbdf2a90f	-0.118486516
157	0xbe0f3a7a	-0.13987151
158	0xbd40a057	-0.047027912
159	0xbd001ff7	-0.031280484
160	0x3d9851a7	0.07437449
161	0x3dd8bdf1	0.105831034
162	0xbe1a8437	-0.15089498
163	0xbe11550f	-0.14192604
164	0x3caa849e	0.02081519
165	0x3d373cdf	0.044735786
166	0xbd33bf67	-0.043883707
167	0x3e1cb68d	0.15304013
168	0x3d21f40f	0.039539393
169	0x3dcefb04	0.10106471
170	0xbdb63aab	-0.08897909
171	0xbcab4753	-0.020908033
172	0xbe27405a	-0.16333142
173	0xbdc6ff0d	-0.09716616
174	0x3e1e34b5	0.15449794
175	0xbd39ac48	-0.045330316
176	0x3d17522b	0.036943596
177	0x3da6df2f	0.08148038
178	0xbd96089b	-0.0732586
179	0xbd3038cf	-0.043022927
180	0xbca884c4	-0.02057112
181	0x3d89e5c5	0.06733278
182	0xbd41a4cd	-0.047276307
183	0x3de90a63	0.11378934
184	0xbd767c08	-0.06017688
185	0xbe1de725	-0.15420206
186	0x3dad6c10	0.08467877
187	0xbde2fb4e	-0.11083089
188	0x3d2eceb8	0.04267761
189	0xbe218c1d	-0.15776105
190	0xbd11afea	-0.035568155
191	0xbdca12b5	-0.09866849
192	0x3dda6589	0.106638975
193	0xbd4bce29	-0.049757157
194	0xbd8638df	-0.06553816
195	0x3de5d82b	0.112228714
196	0xbd6cff02	-0.057860382
197	0xbde744cb	-0.11292418
198	0xbd1f8b90	-0.038951457
199	0xbd017848	-0.03160885
200	0xbd013992	-0.031549044
201	0x3c9fb474	0.019495226
202	0x3e03ccdb	0.12871115
203	0xbe0aaa3b	-0.135415
204	0xbdda91c0	-0.10672331
205	0x3dab3aba	0.083608106
206	0x3d479d15	0.04873379
207	0xbcb6ff1a	-0.022338439
208	0x3db6b277	0.08920758
209	0x3bfe987b	0.007769642
210	0xbd1aa739	-0.037757132
211	0x3de707f1	0.112808116
212	0x3ce2ba17	0.027676625
213	0x3d825ab3	0.06364956
214	0x3dbe063e	0.09278534
215	0xbbeb3f65	-0.007179188
216	0x3e0cb040	0.13739109
217	0xbd6e710c	-0.05821328
218	0x3e0d14e1	0.13777496
219	0xbd8be998	-0.06831664
220	0xbcec07a5	-0.028812239
221	0xbd9f5803	-0.07780459
222	0xbd1c45e6	-0.038152598
223	0x3e08f5ec	0.13375062
224	0x3ddf6de9	0.109096356
225	0x3df09b41	0.11748362
226	0x3db25cd2	0.0870911
227	0xbd739d3c	-0.059476122
228	0x3e0e0ce0	0.13872099
229	0xbd1a0bdb	-0.037608963
230	0xbe0a8366	-0.13526687
231	0x3dffe9ed	0.1249579
232	0x3df62efe	0.12020682
233	0x3e11b041	0.14227392
234	0x3cc32cb9	0.023825036
235	0x3d73cafc	0.059519753
236	0xbc0619f3	-0.008184898
237	0xbe03ed19	-0.12883414
238	0xbdbe6e16	-0.09298341
239	0xbdcfdc7a	-0.101494744
240	0xbd89f115	-0.06735436
241	0x3cfc0bb4	0.0307673
242	0x3db07eb5	0.086179174
243	0xbd84ae98	-0.064786136
244	0xbdc6e666	-0.09711914
245	0xbd5e066d	-0.054205347
246	0x3e04db0c	0.12974185
247	0xbdf1fdad	-0.11815963
248	0xbdf28bda	-0.11843081
249	0x3dd0d9b6	0.10197775
250	0xbdc764ff	-0.0973606
251	0x3d93da0f	0.07219326
252	0x3d943a52	0.07237686
253	0x3e0062f3	0.12537746
254	0xbde9dbe0	-0.11418891
255	0x3df02ef8	0.117277086

fc1_adv.bias f4 [256]
0	0x3d8fdc3f	0.070244305
1	0xbd43cfd9	-0.04780564
2	0x3dca79b0	0.09886491
3	0x3e3d8711	0.18508555
4	0x3d3a6a46	0.045511506
5	0xbe1f657a	-0.15566054
6	0x3db92611	0.09040464
7	0xbe38e156	-0.18054709
8	0xbe54712a	-0.20746294
9	0xbddabd20	-0.10680604
10	0xbd7b90cd	-0.06141739
11	0x3e3e7ab5	0.18601497
12	0xbde6df7d	-0.11273096
13	0x3e34e6e1	0.17666198
14	0xbda6b985	-0.08140854
15	0x3de910d6	0.11380164
16	0x3cd1f118	0.025627658
17	0xbd20e437	-0.039280143
18	0x3d6ebfa1	0.05828822
19	0x3e29ff7b	0.16601364
20	0xbc0eb894	-0.008710999
21	0xbda9535a	-0.08267851
22	0xbe589cbe	-0.21153542
23	0xbc41e6fd	-0.011834857
24	0xbe2ce917	-0.16885792
25	0x3e124e8e	0.14287779
26	0x3d3a9478	0.045551747
27	0x3e3c7419	0.18403663
28	0x3bd43f51	0.0064772745
29	0xbcc04eb9	-0.023475038
30	0xbd93d179	-0.07217688
31	0x3e22d973	0.15903263
32	0xbe7a2700	-0.2442894
33	0xbd1b3aee	-0.037897997
34	0x3da0e82e	0.07856785
35	0x3e39ac6e	0.18132183
36	0xbdf29e4c	-0.11846599
37	0x3e09b704	0.13448721
38	0x3dc36b9b	0.095420085
39	0x3df8e738	0.121534765
40	0xbd01a3ff	-0.03165054
41	0xbe4d3c63	-0.20042567
42	0x3df47cd9	0.11937875
43	0x3e494a96	0.19657359
44	0xbd2ecd2f	-0.042676147
45	0x3dd4b3d2	0.103858605
46	0xbe65e1d2	-0.22449425
47	0xbdb7b3ba	-0.08969827
48	0x3dbeb94a	0.09312685
49	0x3dc21123	0.09475925
50	0x3e0d256f	0.13783811
51	0x3e12ecfa	0.14348212
52	0xbe336a93	-0.17521124
53	0xbd36ee02	-0.044660576
54	0x3cafe82d	0.021473015
55	0xbdc1283f	-0.094315045
56	0xbdb5a94e	-0.08870183
57	0x3e1096e4	0.1412006
58	0xbe2f7353	-0.17133836
59	0x3c228bbb	0.00992101
60	0xbd01e18a	-0.03170923
61	0xbe11e662	-0.1424804
62	0xbe17bb73	-0.148176
63	0xbd9a6378	-0.075385034
64	0xbc814fef	-0.015785186
65	0xbdc82055	-0.09771792
66	0xbe47bab3	-0.19504814
67	0x3e08aea2	0.13347867
68	0x3d784984	0.060616985
69	0x3d701e2d	0.058622528
70	0x3d4ae887	0.04953816
71	0x3ccbbd36	0.024870496
72	0xbdf8c6e8	-0.12147313
73	0x3d19eee8	0.037581354
74	0xbd629a75	-0.055323083
75	0xbd56b4ef	-0.052418645
76	0xbdd9bd8d	-0.10631857
77	0x3e49119a	0.1963562
78	0x3d441c59	0.047878597
79	0xbe4a4d14	-0.19755965
80	0xbe408e87	-0.1880437
81	0xbdedd255	-0.11612383
82	0xbd8ba117	-0.06817835
83	0x3e0c71ca	0.13715282
84	0x3e62e06a	0.2215592
85	0xbda6c30d	-0.08142672
86	0x3e295931	0.1653793
87	0xbe29b39f	-0.16572426
88	0xbdde6f8c	-0.1086112
89	0x3e5b93d8	0.21443117
90	0x3d836e2a	0.064174965
91	0xbd8e14b2	-0.06937541
92	0x3d9a34a1	0.075295694
93	0x3dbe1a89	0.09282405
94	0xbc9cf880	-0.019161463
95	0x3d073e49	0.033018384
96	0x3d766f0c	0.060164496
97	0xbd6579b6	-0.056024276
98	0x3e8541f3	0.26026878
99	0xbc6aae58	-0.014323793
100	0x3e49fd89	0.19725622
101	0xbb4cbc2c	-0.003124009
102	0xbd845f0f	-0.064634435
103	0x3e613b15	0.21995194
104	0xbe12bc10	-0.14329553
105	0xbd86ce1f	-0.06582283
106	0x3cfcf357	0.030877752
107	0xbe5749fb	-0.21024315
108	0x3e3a4fe7	0.18194543
109	0x3d761cec	0.060086176
110	0xbd03f91a	-0.032219984
111	0xbdad2483	-0.0845423
112	0xbd3aa6d1	-0.045569245
113	0x3e0a76c7	0.13521872
114	0x3d224c29	0.039623413
115	0x3e801e23	0.25022992
116	0xbcb497d7	-0.02204506
117	0xbc491902	-0.012274029
118	0x3cdd3c12	0.027006183
119	0xbdc3fbbc	-0.09569499
120	0x3bcbca1a	0.0062191607
121	0x3d51b252	0.05119545
122	0xbbe98b0a	-0.0071271705
123	0x3e0188c6	0.12649831
124	0x3dc22c88	0.0948115
125	0xbdc6d005	-0.09707645
126	0xbdc243f4	-0.09485617
127	0x3c26c839	0.010179573
128	0xbe5a95ab	-0.21346156
129	0x3dbd8623	0.092541
130	0xbe4dbbd5	-0.20091183
131	0x3cdc5473	0.026895737
132	0xbe2c18f0	-0.16806388
133	0xbe19376a	-0.14962545
134	0x3d2af2e2	0.041735537
135	0xbc8ea80b	-0.017414114
136	0x3dd74092	0.10510363
137	0x3ea16d50	0.3152871
138	0x3dcca17c	0.09991738
139	0xbe12de82	-0.14342692
140	0x3d5291bb	0.05140851
141	0x3cce69ee	0.025196996
142	0xbe01f31f	-0.126904
143	0x3dc11cd4	0.09429327
144	0x3dd31f4c	0.10308704
145	0x3e1bd22d	0.15216894
146	0xbd9d0f90	-0.07668984
147	0x3d7c39f5	0.06157871
148	0x3c37fa5a	0.011229122
149	0xbd5397fb	-0.05165861
150	0x3e0b3fd2	0.13598564
151	0xbdfffa16	-0.12498872
152	0x3bd04957	0.006356399
153	0x3dc130bb	0.09433123
154	0x3e0670ab	0.13128917
155	0x3d733dcf	0.059385117
156	0x3c9fc662	0.019503776
157	0x3e0344c2	0.12819198
158	0x3e204199	0.15650024
159	0x3e72e904	0.23721701
160	0xb9a86cb6	-0.00032124453
161	0xbdd094b5	-0.101846136
162	0x3e1b302a	0.15155092
163	0xbddeaaa4	-0.10872391
164	0xbe456061	-0.19275047
165	0x3e53ce57	0.20684181
166	0xbe10d06f	-0.14142011
167	0x3e6148b6	0.22000393
168	0xbd9baaab	-0.07600912
169	0xbd9b5c07	-0.07585912
170	0xbe0d41c7	-0.13794623
171	0x3d0900e5	0.03344812
172	0xbe57110b	-0.21002595
173	0x3d6ea04e	0.058258347
174	0xbd16c032	-0.036804385
175	0xbe245a19	-0.16049995
176	0xbc88d9a9	-0.016705351
177	0x3dada57b	0.084788285
178	0xbdf0067c	-0.11719987
179	0x3cf924bb	0.030413022
180	0xbd2c9240	-0.042131662
181	0x3d7e540b	0.06209187
182	0x3e843ff6	0.25830048
183	0x3d09ffaa	0.033691086
184	0x3c8d4137	0.01724301
185	0xbe11f7b2	-0.14254645
186	0x3d87f933	0.06639328
187	0x3e16a3c8	0.14710915
188	0x3e18ae16	0.14910159
189	0xbd06522e	-0.032793216
190	0xbd94bd90	-0.07262719
191	0xbd9dd3ee	-0.07706438
192	0xbccbe9a7	-0.024891688
193	0x3e24e734	0.16103822
194	0x3d180fe8	0.037124544
195	0x3de71d9b	0.11284944
196	0xbd911560	-0.07084155
197	0x3e56a78d	0.20962353
198	0x3ddcfa68	0.10789949
199	0xbe470eed	-0.19439287
200	0x3e53f348	0.20698273
201	0xbdfd7720	-0.12376237
202	0x3db9ca8e	0.09071837
203	0xbe08bbce	-0.13352892
204	0xbe801f78	-0.2502401
205	0xbde18038	-0.11010784
206	0xbe895129	-0.26819733
207	0xbcda22de	-0.026627954
208	0xbd9077db	-0.070541106
209	0x3d6e9cb1	0.0582549
210	0xbe6a6b1b	-0.2289242
211	0xbe04ebe7	-0.12980615
212	0xbe1dcb21	-0.15409519
213	0x3d7c2c81	0.06156588
214	0x3e93bd03	0.28855142
215	0x3dd6f008	0.10495001
216	0x3e69963d	0.22811218
217	0x3e4e4576	0.20143685
218	0xbdbf8026	-0.09350614
219	0x3e531f4c	0.20617408
220	0x3e7e782a	0.24850526
221	0xbca2819b	-0.019837191
222	0x3dfcf8c5	0.123521365
223	0x3dcb7b59	0.09935636
224	0xbdf1bb2c	-0.11803278
225	0x3d6582f2	0.056033082
226	0x3d0be7a6	0.034156464
227	0xbd46034a	-0.04834298
228	0xbe1e4799	-0.15457
229	0xbde8b06d	-0.113617755
230	0x3e239d01	0.15977861
231	0xbe5d5bb5	-0.21617015
232	0xbdb89b18	-0.09013957
233	0x3b81edfe	0.0039651385
234	0x3e35e281	0.17762186
235	0x3e0bfe38	0.13671196
236	0x3dcb0c16	0.099144146
237	0xbe494afb	-0.19657509
238	0x3e46def3	0.19420986
239	0x3d180081	0.037109856
240	0x3d4a7346	0.04942634
241	0xbe257c43	-0.16160683
242	0xbda40f17	-0.08010691
243	0x3dcd7810	0.10032666
244	0xbe01dbf7	-0.12681566
245	0x3df7b79a	0.12095566
246	0x3b0d9963	0.0021606318
247	0xbe5fbf35	-0.21850283
248	0x3db2ffda	0.08740206
249	0xbe5e9624	-0.21736962
250	0x3d0d5589	0.0345054
251	0xbe17b7ff	-0.14816283
252	0xbe37b440	-0.17939854
253	0x3d5bf999	0.05370483
254	0xbe3e16c7	-0.18563376
255	0x3e5a6c17	0.21330296

fc2_adv.weight f4 [128, 256]
0	0xbd3ce4e7	-0.046116736
1	0xbd063097	-0.032761183
2	0x3c987e83	0.018615013
3	0xbc369a2c	-0.011145156
4	0xbd203efc	-0.039122567
5	0x3d598cd2	0.053112812
6	0x3d77b9c4	0.060479894
7	0x3d9111f8	0.070835054
8	0x3b83a0a1	0.004016951
9	0x3d983bfb	0.07433315
10	0x3d97923a	0.074009374
11	0x3cb0f733	0.021602249
12	0xbdc02dea	-0.093837574
13	0xbbe1c7a9	-0.0068902564
14	0xbd2f3718	-0.04277715
15	0x3d3bc736	0.04584428
16	0xbd310f13	-0.043227267
17	0x3d8c6694	0.06855503
18	0x3c8f9ab5	0.017529825
19	0x3d7dee50	0.06199485
20	0xbb917801	-0.0044393544
21	0xbccc232e	-0.024919119
22	0x3d4a6a10	0.049417555
23	0x3cb53d95	0.022124091
24	0x3de235f5	0.11045448
25	0xbb0098f2	-0.0019622413
26	0xbd8c99b3	-0.06865253
27	0x3bc29b78	0.0059389435
28	0xbbc65643	-0.0060527637
29	0x3e33f04b	0.17572133
30	0x3d7aa44a	0.061191835
31	0xbce6568c	-0.02811744
32	0x3d95bf14	0.07311836
33	0x3de1db56	0.11028163
34	0x3d3da87f	0.04630327
35	0x3c05e9ef	0.00817345
36	0xbce12380	-0.027482748
37	0x3d1e740c	0.03868489
38	0xbc6bbc2a	-0.0143881235
39	0x3d2567bb	0.04038213
40	0xbdb7aaef	-0.0896815
41	0xbab868a8	-0.0014069276
42	0x3c086b88	0.008326419
43	0x3c720f37	0.014774135
44	0x3d89abc8	0.06722218
45	0x3c9e4a0c	0.019322418
46	0x3d9b1653	0.075726174
47	0x3cce7a76	0.025204878
48	0x3c636507	0.013879067
49	0x3ce29215	0.027657548
50	0x3baab22d	0.0052092285
51	0x3ce48c13	0.027898824
52	0x3d5be57b	0.053685647
53	0x3ac20674	0.0014802949
54	0xbcb9f9cc	-0.02270212
55	0x3bef288e	0.0072985357
56	0xbd7a9ee9	-0.061186705
57	0x3da211f6	0.07913582
58	0x3d83b745	0.0643144
59	0xbcfd1ec0	-0.030898452
60	0xbc636a16	-0.013880273
61	0xbc88e7a3	-0.016712015
62	0xbd197940	-0.03746915
63	0xbd1bb5b2	-0.038015075
64	0xbcf89872	-0.03034613
65	0xbcd3b4c1	-0.025843026
66	0x3c876abf	0.016530393
67	0x3cf57f70	0.029967993
68	0xbcddaf8f	-0.027061252
69	0x3d7424d7	0.059605446
70	0xbccaf7b2	-0.024776313
71	0x3c3a73e6	0.011380171
72	0xbcd355c1	-0.025797727
73	0xbdba3a90	-0.09093201
74	0xbd14835f	-0.036258098
75	0xbdcc2516	-0.09968011
76	0xbc88bc6c	-0.016691409
77	0x3d0e552a	0.034749188
78	0xbd2db3b8	-0.04240772
79	0xbd041186	-0.032243274
80	0x3cc8d2f8	0.02451466
81	0x3d22a916	0.039712034
82	0xbe09f95e	-0.13474032
83	0x3d80e1c3	0.06293061
84	0x3d8c264e	0.068432435
85	0x3d9edf4a	0.07757433
86	0xbd82f7cb	-0.06394919
87	0x3ce0ced8	0.02744238
88	0xbdddf55e	-0.10837816
89	0x3d4d2d31	0.050091926
90	0xbd9488d6	-0.07252662
91	0x39f7dafa	0.00047274661
92	0x3cc7c810	0.02438739
93	0x3cdf06f5	0.027224997
94	0x3cd27f1c	0.025695376
95	0xbce9629f	-0.028489409
96	0xbcf0555d	-0.02933758
97	0xbb35f340	-0.0027763397
98	0x3c4a7497	0.012356899
99	0xbd8ceb94	-0.068808705
100	0x398a773f	0.00026410256
101	0xbcf40f45	-0.029792437
102	0x3d3cc6de	0.046088092
103	0x3c9473e5	0.01812167
104	0x3cf8938c	0.030343793
105	0x3de16b5d	0.11006806
106	0xbbe79eb9	-0.0070684818
107	0x3cfd8cab	0.030950865
108	0x3e76e382	0.24110225
109	0xbd2e5955	-0.042565662
110	0x3d8fac73	0.07015314
111	0x3dcce067	0.10003739
112	0x3d87929b	0.0661976
113	0x3c8092a1	0.015694918
114	0x3d9a6823	0.07539394
115	0xbe3457a3	-0.17611556
116	0x3cd9cf41	0.026588084
117	0xbd8d68db	-0.06904765
118	0x3d3b1017	0.04566964
119	0x3c2a76c2	0.010404291
120	0x3d0dde2b	0.034635704
121	0xbc4a295a	-0.012338961
122	0x3d93d818	0.07218951
123	0xbbcfb5a6	-0.006338793
124	0x3d86dc24	0.06584957
125	0xbd9da760	-0.0769794
126	0x3d3295cf	0.0435999
127	0x3d86960c	0.06571588
128	0x3dc30400	0.09522247
129	0x3d818061	0.063233145
130	0x3d896bee	0.06710039
131	0xbce16654	-0.027514614
132	0xba62a6d8	-0.00086460775
133	0xbb06c153	-0.0020562008
134	0x3dc65b53	0.096853875
135	0x3d8b8bde	0.06813787
136	0xbc997f07	-0.01873733
137	0x3c5be6a3	0.013421687
138	0x3da83cbe	0.08214711
139	0x3d9a3330	0.075292945
140	0x3e166090	0.14685273
141	0x3e07ec8f	0.13273834
142	0xbb870a92	-0.004121133
143	0xbd1d294d	-0.038369466
144	0x3c0ebb08	0.008711584
145	0xbd303260	-0.04301679
146	0x3d80d939	0.06291432
147	0xb8f03961	-0.000114547795
148	0xbc691ebd	-0.01422852
149	0xbcd79990	-0.026318341
150	0x3e126ca6	0.14299259
151	0x3c9dcf0a	0.019263763
152	0x3bc9546a	0.006144096
153	0xbd668f17	-0.056288805
154	0xbc779820	-0.015111953
155	0x3c9aab8a	0.018880624
156	0xbd551073	-0.05201764
157	0xb8871476	-6.441113e-05
158	0x3b5dfad8	0.0033871438
159	0xbbd22e81	-0.006414235
160	0xbd80cd84	-0.06289199
161	0xbdf988dc	-0.12184307
162	0xbc0f3e10	-0.008742824
163	0x3d98be61	0.07458187
164	0xbcca393c	-0.024685495
165	0xbd53fa4f	-0.051752385
166	0x3d3382b5	0.043825824
167	0x3ba7a801	0.005116463
168	0xb98b9bb4	-0.00026628154
169	0xbcda8d79	-0.026678788
170	0x3deb6255	0.11493365
171	0x3c60c1e5	0.013718103
172	0x3d619faa	0.05508391
173	0x3dc15116	0.09439294
174	0xbc3127bd	-0.010812697
175	0xbd3d5e99	-0.046232793
176	0xbd0e81b2	-0.034791656
177	0x3d254a85	0.04035427
178	0xbd0885a4	-0.033330575
179	0xbc85cb53	-0.016332304
180	0x3c6b068f	0.014344825
181	0x3cee3135	0.029076198
182	0x3d52a99f	0.051431295
183	0x3d97415e	0.07385515
184	0xbd9236c2	-0.071393505
185	0x3d6fd57b	0.0585532
186	0x3d4f0f3c	0.050551638
187	0x3d7b9f68	0.06143132
188	0xbc3a23c6	-0.011361068
189	0xbd08515e	-0.033280723
190	0x3c8917c9	0.016734974
191	0xba15741a	-0.00057011994
192	0xbc7132b7	-0.014721564
193	0xbb17881c	-0.00231219
194	0xbd905286	-0.0704699
195	0xbd26f584	-0.040761486
196	0x3d84e857	0.06489628
197	0x3d0688db	0.03284536
198	0x3c1624de	0.009164063
199	0xbcdceaaa	-0.026967365
200	0x3d300488	0.04297307
201	0x3d13eb86	0.036113285
202	0x3e0badd4	0.13640529
203	0xbd2c7d5a	-0.042111732
204	0x3daa2b50	0.083090425
205	0x3da1dd7f	0.07903575
206	0xbe963a6f	-0.29341456
207	0x3c09d93d	0.00841361
208	0x3db653ef	0.08902728
209	0x3d3458dc	0.044030055
210	0xbc64cebd	-0.013965306
211	0x3cc92f49	0.02455868
212	0xbd62cef1	-0.055373136
213	0x3c4163ba	0.011803562
214	0xbd848d6d	-0.06472287
215	0x3c550e74	0.013003934
216	0xbcbeae82	-0.023276571
217	0x3d8df732	0.069319144
218	0x3d2b9739	0.041892264
219	0x3d478afb	0.048716526
220	0xbc13824e	-0.009003235
221	0x3ce530a2	0.027977291
222	0x3d69cd32	0.057080455
223	0xbd2a0e1e	-0.04151737
224	0x3c996374	0.01872418
225	0x3dcc4cd0	0.09975588
226	0x3c418785	0.0118120955
227	0xbae0b7d0	-0.0017144624
228	0x3d0c8392	0.034305163
229	0xbd0ad753	-0.033896755
230	0xbd19231d	-0.037387002
231	0x3d90af44	0.07064679
232	0x3d420406	0.04736712
233	0x3da45b89	0.080252714
234	0xbca7cc9c	-0.020483308
235	0x3bcbea13	0.006222972
236	0xbd030315	-0.03198536
237	0x3d12c097	0.0358282
238	0x3e5a109e	0.21295401
239	0x3c8fb291	0.017541202
240	0xbd43fb86	-0.047847293
241	0xbd116c03	-0.0355034
242	0x3cb4b430	0.022058576
243	0xbbf57f77	-0.0074920016
244	0x3d45023d	0.048097838
245	0xbd56d8c3	-0.052452814
246	0x3d4eccc7	0.05048826
247	0x3bcfab48	0.006337557
248	0x3d37ea85	0.04490139
249	0x3d86b5f6	0.06577675
250	0xbcb83d8f	-0.02249029
251	0xbbefdf71	-0.0073203375
252	0x3c1e899d	0.009676364
253	0x3b992336	0.004673387
254	0x3dde864c	0.10865459
255	0xbd6a2ccc	-0.057171628
