src/nets/exp_graph_obs_4_agents_width_3050.pth (torch_old, 360749 bytes, 11 tensors)

fc1_val.weight f4 [256, 45]
0.0021915454 0.10156706 0.061178993 0.13490781 0.06877766 -0.026516117 0.05348476 -0.031140804
0.0005731052 -0.116614245 0.08945143 0.040193472 -0.0019102489 0.12976907 0.072254986 0.011720675
0.10220519 -0.10976748 -0.06594342 0.09268646 0.053250533 -0.049243968 -0.069369845 0.0432582
-0.05654834 0.07212993 -0.12568437 0.10414857 -0.04865894 -0.027401403 -0.12516756 -0.11801972
0.07669266 0.07796668 0.11537342 -0.08706334 -0.08396916 -0.00568646 0.06921472 -0.030735942
0.04245316 -0.124832824 -0.0019739463 0.07878217 0.03912777 -0.030910151 -0.06567386 -0.07015032
-0.02068887 -0.1299208 -0.026030067 -0.056682553 -0.0016150965 0.016999917 -0.15493499 0.042207647
-0.022915933 0.15512323 -0.034814328 0.068133265 -0.03119707 0.11537145 -0.114395835 -0.032016408
0.033169013 -0.11404357 -0.013446996 -0.14982712 0.10647943 -0.12608463 -0.121658675 0.050321802
0.015089061 0.14922625 0.063500635 -0.10387995 -0.06519231 0.0018536738 -0.10875404 -0.10569825
-0.04722145 -0.11655658 0.03253394 0.14344081 0.17318729 0.1184891 -0.08082412 -0.054103777
-0.15931419 -0.08529397 0.110448584 0.14291595 0.03396631 -0.12480229 -0.111753374 0.014734285
-0.13250361 0.13573861 0.0422203 0.0287582 0.04411344 0.025441207 0.12789899 0.047333796
-0.1022202 -0.01626551 -0.111348726 -0.05900501 0.0033766704 -0.055675443 0.05825651 -0.039712336
-0.057117954 0.050191484 -0.13651827 -0.07370217 0.1161041 0.122496165 0.093332 -0.014001905
0.10885324 -0.08158173 -0.11506009 -0.07351431 0.11176262 -0.029842786 0.11765343 -0.095534064
0.085428424 0.045638293 0.089670226 0.13701653 0.0063747354 0.0761641 -0.0014085495 0.08509701
-0.028115854 -0.033451762 0.14064054 -0.107965 -0.031533312 -0.04571705 0.14711726 0.113870315
0.13313998 -0.13987988 0.115157545 0.055649463 -0.041834846 0.09556623 0.01614766 0.032461204
-0.025253264 -0.103089765 -0.10646196 0.034249946 0.052354816 0.031218234 -0.08933916 0.115479246
0.13512506 0.022672653 0.02241099 0.010868001 0.12187024 -0.1260673 0.083498016 -0.014614073
0.01406115 -0.003629361 -0.046953067 -0.038948707 0.045972716 -0.05261155 0.048192088 0.04754801
0.038464017 0.08235169 0.06205431 0.13415155 0.052007053 0.14569972 -0.10611217 0.1399897
-0.07985607 -0.10008015 0.04414363 -0.12264459 -0.111473806 0.13875264 -0.0009882792 0.0841802
0.0829811 0.1510602 0.06380104 0.018493688 -0.033080712 -0.031069702 0.101244986 0.13502401
0.06555431 0.044586156 0.03872211 -0.0033448383 -0.113010645 0.13137583 -0.10572606 -0.14330219
0.11663317 0.09829495 -0.12892552 0.10430799 -0.05637393 0.12205174 -0.104636125 -0.07605039
0.11130264 0.03761163 0.056792624 -0.07487164 0.010054614 -0.009089076 0.0024575533 0.0059979283
-0.08617221 0.13517025 -0.04025286 0.072627895 0.055888105 -0.0509139 -0.07116471 0.092826195
-0.13612825 0.06463214 -0.031037157 0.08741717 -0.105860166 0.0453192 -0.01896787 0.1028114
-0.042732432 -0.07512299 -0.11979111 -0.05511969 0.014558878 -0.10598304 -0.113107964 0.10306957
0.077472 -0.07304038 0.07671189 0.04856707 0.14635713 0.033280917 0.03690114 -0.14042819
00000000: 08a0 0f3b 6402 d03d d396 7a3d 4625 0a3e
00000010: 4ddb 8c3d 5438 d9bc d612 5b3d 001b ffbc
00000020: 703c 163a 73d3 eebd 5032 b73d e9a1 243d
00000030: 5161 faba 2fe2 043e 6cfa 933d 1308 403c
00000040: f450 d13d c6cd e0bd 580d 87bd 66d2 bd3d
00000050: 3b1d 5a3d 0bb4 49bd c711 8ebd 832f 313d
00000060: 3b9f 67bd dbb8 933d 67b3 00be d84b d53d
00000070: 994e 47bd e878 e0bc ed2b 00be 53b4 f1bd
00000080: 0b11 9d3d ffac 9f3d e648 ec3d 444e b2bd
00000090: 06f8 abbd 7c55 babb 72c0 8d3d f1c9 fbbc
000000a0: 5de3 2d3d 5aa8 ffbd 535d 01bb 8c58 a13d
000000b0: 7144 203d 4937 fdbc 0480 86bd f9aa 8fbd
000000c0: b57b a9bc f509 05be 023d d5bc f72b 68bd
000000d0: a5b1 d3ba 6943 8b3c 47a7 1ebe ede1 2c3d
000000e0: 32ba bbbc a0d8 1e3e 7899 0ebd 7489 8b3d
000000f0: ff90 ffbc de47 ec3d 5d48 eabd a323 03bd
00000100: 3bdc 073d ad8f e9bd ca50 5cbc 486c 19be
00000110: e311 da3d 541c 01be 2f28 f9bd 3c1e 4e3d
00000120: 1c38 773c c4ce 183e 9f0c 823d 03bf d4bd
00000130: 8c83 85bd f9f6 f23a 70ba debd 5378 d8bd
00000140: 476b 41bd 37b5 eebd 4f42 053d 26e2 123e
00000150: 0258 313e 6aaa f23d 1e87 a5bd ec9b 5dbd
00000160: 4223 23be 9bae aebd de32 e23d 8f58 123e
00000170: 4220 0b3d 5898 ffbd f4de e4bd 1268 713c
00000180: 07af 07be 10ff 0a3e 31ef 2c3d 5196 eb3c
00000190: 4bb0 343d 146a d03c f4f7 023e 15e1 413d
000001a0: d358 d1bd 3f3f 85bc cd0a e4bd 3daf 71bd
000001b0: 214b 5d3b ef0b 64bd 619e 6e3d 67a9 22bd
000001c0: 84f4 69bd 9695 4d3d 72cb 0bbe 2af1 96bd
000001d0: fdc7 ed3d 45df fa3d d924 bf3d 3f68 65bc
000001e0: 73ee de3d 5214 a7bd a0a4 ebbd ac8e 96bd
000001f0: cde3 e43d dc78 f4bc 48f4 f03d 5da7 c3bd
00000200: 19f5 ae3d 38ef 3a3d 06a5 b73d 104e 0c3e
00000210: 28e3 d03b ecfb 9b3d 149f b8ba 5747 ae3d
00000220: 3853 e6bc b704 09bd 1304 103e c11c ddbd
00000230: 1329 01bd cd41 3bbd e8a5 163e d734 e93d
00000240: d955 083e ac3c 0fbe b8d7 eb3d b1f0 633d
00000250: 045b 2bbd 3ab8 c33d 1948 843c 0af6 043d
00000260: efdf cebc ba20 d3bd ba08 dabd ac49 0c3d
00000270: 0172 563d 62bd ff3c 73f7 b6bd 6280 ec3d
00000280: 395e 0a3e 00bc b93c 4197 b73c b30f 323c
00000290: 1b97 f93d c917 01be 0201 ab3d dd6f 6fbc
000002a0: bd60 663c 93da 6dbb dc51 40bd ae88 1fbd
000002b0: e34d 3c3d 357f 57bd 1165 453d b4c1 423d
000002c0: 728c 1d3d 01a8 a83d a92c 7e3d 065f 093e
000002d0: 5905 553d 4f32 153e 5651 d9bd 7659 0f3e
000002e0: 948b a3bd d2f6 ccbd f3cf 343d 162d fbbd
000002f0: 614c e4bd 2c15 0e3e 2689 81ba ab66 ac3d
00000300: fff1 a93d 86af 1a3e 1faa 823d 1380 973c
00000310: a47f 07bd e385 febc 8859 cf3d bc43 0a3e
00000320: 5741 863d f99f 363d 139b 1e3d 1335 5bbb
00000330: 2072 e7bd 6387 063e e886 d8bd cfbd 12be
00000340: 5fdd ee3d dd4e c93d 0d05 04be 6d9f d53d
00000350: 5ae8 66bd 43f6 f93d 774b d6bd 4fc0 9bbd
00000360: a3f2 e33d a70e 1a3d 629f 683d 4d56 99bd
00000370: 1cbc 243c 59ea 14bc e70e 213b 458a c43b
00000380: 0e7b b0bd 126a 0a3e 2fe0 24bd efbd 943d
00000390: edea 643d 188b 50bd cebe 91bd a91b be3d
000003a0: 3465 0bbe db5d 843d a341 febc c607 b33d
000003b0: 37cd d8bd a0a0 393d 8262 9bbc c98e d23d
000003c0: 3408 2fbd 15da 99bd 0b55 f5bd 2fc5 61bd
000003d0: 5c88 6e3c a30d d9bd 26a5 e7bd 2416 d33d
000003e0: a4a9 9e3d 3296 95bd 201b 9d3d 44ee 463d
000003f0: a5de 153e 9251 083d a625 173d 68cc 0fbe

fc1_val.bias f4 [256]
0.08940639 0.029718447 -0.009232457 0.013659012 0.0641233 0.117910795 -0.09348947 -0.11478093
-0.02210547 0.09059425 0.06983868 -0.120418474 0.05353044 -0.07751652 -0.009123082 -0.06323764
0.13826758 0.005327886 0.101146035 0.16977924 0.11917648 0.059458636 -0.026867839 -0.14877932
-0.0009394844 0.13531792 0.017910935 -0.013848288 -0.0546083 -0.057300787 -0.13614778 0.0029611157
0.03517644 0.030220672 0.057912048 -0.06814251 0.15166163 -0.067449465 -0.156907 0.035244763
-0.028939812 -0.029485118 -0.018397236 0.050296195 0.14607614 0.0473629 -0.087055705 -0.083315186
-0.117435426 0.009306249 0.12613292 0.0008523797 0.13125321 0.027608827 0.010210834 -0.088400275
-0.08676245 -0.069547 0.049102765 -0.112243906 0.06748489 -0.0021692538 0.13228185 -0.020234536
-0.06779404 0.091001175 -0.042784937 0.10474738 -0.11018062 -0.043006357 -0.06017686 -0.05661468
-0.03815976 -0.08962042 0.082509935 0.13065423 0.051861487 0.05355827 -0.023032377 -0.066837445
-0.03881075 -0.031032603 0.13165419 0.021925466 -0.14737 -0.103584014 -0.049682043 -0.08059467
0.15608329 0.031655066 -0.118032895 0.032494787 -0.017715244 -0.11818895 0.13530733 0.09938446
0.11737852 0.14513169 -0.15696174 0.068892084 0.014841146 0.05764962 0.074442305 -0.14523439
0.018897522 -0.10436594 -0.056446467 -0.13464274 0.13569398 -0.10044777 -0.020467505 0.13138174
-0.03845963 0.087281875 0.0029436538 0.0072102756 0.14997372 0.15300065 0.089204036 0.03725472
-0.07725869 0.054482505 -0.08539694 0.028860528 0.10762317 -0.11564631 -0.027385877 -0.06584564
-0.00025747882 -0.10794927 0.06285746 -0.014119052 -0.12333906 -0.01727207 0.13344389 -0.09267877
-0.008162794 -0.0059704594 -0.1417253 -0.06275613 -0.098642595 0.14838083 -0.09056882 -0.07999871
-0.11729364 0.050304297 0.07700914 0.14185166 -0.010171459 0.10524981 0.14454392 0.0015248321
0.06487375 -0.011971546 0.03584342 -0.1199227 -0.06877877 0.13780665 -0.060136627 0.03522061
-0.07447283 -0.087429695 0.097125635 0.07713227 0.1473502 -0.13394606 -0.11084954 -0.042511757
0.11267396 0.11228156 0.102775276 -0.063332014 -0.07719522 -0.1063583 0.12456927 0.059687473
0.036030803 -0.010765234 -0.015124327 -0.032080702 0.11519666 -0.022306748 0.11106026 -0.07369831
0.1385978 0.020114088 -0.042345896 -0.050186723 -0.14202696 0.13857506 -0.056062102 0.0714124
0.11314821 0.06269474 -0.13196664 0.118036695 -0.15163997 0.07760938 0.12090413 0.11340821
0.10717581 0.09520201 -0.105207175 -0.08083851 0.07855416 0.046146534 0.05415747 -0.11063102
-0.0836636 -0.0031817972 -0.16605718 0.024439594 -0.088325836 0.16093929 0.016995994 -0.088202
-0.11172756 0.09814196 0.07966954 0.09598216 -0.12319881 -0.05087006 0.017361328 -0.055770773
-0.14814453 -0.09700654 0.002696639 0.016794302 0.091636226 0.00695047 -0.018139802 -0.008632954
-0.11136256 0.017189594 0.030856509 0.10517337 0.12774588 0.1316128 -0.081960514 -0.12218015
-0.033350326 -0.11804794 -0.065032 0.12305715 0.055593368 -0.091278724 -0.09441544 -0.10624068
0.021092605 -0.13720608 0.077665105 0.03353729 0.07098881 -0.12682502 -0.10612099 -0.017746808
00000000: b31a b73d 1a74 f33c bb43 17bc 0cca 5f3c
00000010: 1453 833d 377b f13d 6877 bfbd 4412 ebbd
00000020: 8816 b5bc 7a89 b93d 9507 8f3d f69d f6bd
00000030: bc42 5b3d fbc0 9ebd fb78 15bc bc82 81bd
00000040: 0496 0d3e 8c95 ae3b a725 cf3d 9cda 2d3e
00000050: cc12 f43d e68a 733d f119 dcbc 9b59 18be
00000060: bb47 76ba c890 0a3e f4b9 923c eee3 62bc
00000070: f4ac 5fbd 3bb4 6abd 536a 0bbe 470f 423b
00000080: 2c15 103d 5891 f73c 2f35 6d3d 4d8e 8bbd
00000090: 304d 1b3e f222 8abd 3bac 20be d05c 103d
000000a0: 2f13 edbc c68a f1bc cdb5 96bc 6203 4e3d
000000b0: fc94 153e 9aff 413d 434a b2bd 27a1 aabd
000000c0: fc81 f0bd 3d79 183c fd28 013e 3c72 5f3a
000000d0: 3e67 063e e82b e23c 584b 273c 340b b5bd
000000e0: 83b0 b1bd a86e 8ebd fb1f 493d 22e0 e5bd
000000f0: 8535 8a3d 0a2a 0ebb e574 073e e6c2 a5bc
00000100: 9ad7 8abd d35e ba3d 423f 2fbd cb85 d63d
00000110: 60a6 e1bd 6f27 30bd 037c 76bd cbe4 67bd
00000120: 694d 1cbd e98a b7bd f8fa a83d 39ca 053e
00000130: b66c 543d eb5f 5b3d 65ae bcbc 12e2 88bd
00000140: 05f8 1ebd 1638 febc 5bd0 063e 099d b33c
00000150: 29e8 16be db23 d4bd 667f 4bbd d10e a5bd
00000160: 4cd4 1f3e bea8 013d 3bbb f1bd 4119 053d
00000170: 8f1f 91bc 0c0d f2bd 018e 0a3e 148a cb3d
00000180: 2664 f03d 679d 143e 94ba 20be 4b17 8d3d
00000190: 4728 733c 0222 6c3d 3575 983d 53b8 14be
000001a0: face 9a3c cfbd d5bd 6934 67bd c9df 09be
000001b0: 5df3 0a3e 8fb7 cdbd 78ab a7bc ef88 063e
000001c0: d887 1dbd d7c0 b23d 51ea 403b 2d44 ec3b
000001d0: b692 193e 34ac 1c3e 9bb0 b63d 6898 183d
000001e0: ce39 9ebd 0c29 5f3d 97e4 aebd ea6c ec3c
000001f0: 8969 dc3d f9d7 ecbd 5958 e0bc 14da 86bd
00000200: 39fe 86b9 8214 ddbd 69bb 803d 9953 67bc
00000210: 3099 fcbd 287e 8dbc 84a5 083e 5ece bdbd
00000220: 3dbd 05bc d8a3 c3bb 7020 11be 4986 80bd
00000230: 2105 cabd 25f1 173e 257c b9bd 5dd6 a3bd
00000240: a637 f0bd e10b 4e3d f8b6 9d3d 9041 113e
00000250: 31a6 26bc 368d d73d 5203 143e e0dc c73a
00000260: 87dc 843d 4e24 44bc 8dd0 123d 089a f5bd
00000270: e2db 8cbd 301d 0d3e d351 76bd 7d43 103d
00000280: 3685 98bd 570e b3bd cee9 c63d 86f7 9d3d
00000290: f9e2 163e 2829 09be 1505 e3bd cf20 2ebd
000002a0: 9bc1 e63d e0f3 e53d d87b d23d 37b4 81bd
000002b0: 8718 9ebd 61d2 d9bd 2c1e ff3d da7a 743d
000002c0: 0995 133d aa60 30bc 06cc 77bc 0e67 03bd
000002d0: 3aec eb3d a4bc b6bc 9073 e33d 24ef 96bd
000002e0: 95ec 0d3e 4dc6 a43c e472 2dbd 9890 4dbd
000002f0: 846f 11be 9fe6 0d3e 60a1 65bd aa40 923d
00000300: 40ba e73d 1a66 803d 4322 07be 39bd f13d
00000310: 8247 1bbe abf1 9e3d 969c f73d 9042 e83d
00000320: fe7e db3d 45f9 c23d dc76 d7bd a98e a5bd
00000330: 01e1 a03d 2604 3d3d 39d4 5d3d 8492 e2bd
00000340: d257 abbd b385 50bb e50a 2abe 8b35 c83c
00000350: 2de4 b4bd 45cd 243e 2f3b 8b3c 40a3 b4bd
00000360: 6bd1 e4bd a7fe c83d c929 a33d 4b92 c43d
00000370: a84f fcbd 205d 50bd 5839 8e3c e56f 64bd
00000380: 33b3 17be 5dab c6bd 18ba 303b 3494 893c
00000390: c6ab bb3d c5c0 e33b ec99 94bc 3c71 0dbc
000003a0: 0e12 e4bd 31d1 8c3c cac6 fc3c 2365 d73d
000003b0: d1cf 023e 81c5 063e eada a7bd 9639 fabd
000003c0: 5a9a 08bd 1ec3 f1bd 7f2f 85bd 6305 fc3d
000003d0: dfb5 633d 57f0 babd e25c c1bd b794 d9bd
000003e0: 66ca ac3c c07f 0cbe e20e 9f3d 665e 093d
000003f0: 9562 913d 6bde 01be f655 d9bd c161 91bc

fc2_val.weight f4 [128, 256]
-0.01784098 -0.048748747 0.03912658 -0.0054437183 -0.03519266 0.044677284 -0.047633834 -0.022169957
-0.03188841 -0.0035004914 0.009706535 -0.023580804 0.03360743 0.008197078 -0.057548787 0.0350047
0.03947574 -0.01636668 0.012023533 0.0014643297 0.019118682 -0.0016766277 0.026176669 -0.026880497
0.039185774 0.009691617 -0.0072396416 0.05844228 -0.057303943 0.014181916 -0.062049717 -0.0029432995
-0.060674485 -0.00010270715 -0.020325629 0.039729103 -0.019991457 0.014861099 0.023640139 0.042239744
-0.028438479 -0.009930321 0.016720966 -0.0336428 -0.04347965 -0.03352519 -0.018238116 -0.00035996267
0.035659008 -0.053714562 -0.053191468 0.038205348 -0.020292273 -0.060580693 -0.011829059 -0.05043355
0.022664271 0.034523185 0.018384524 -0.0075146435 -0.0037110364 0.03068751 0.014633541 0.048024602
-0.030979477 -0.03545785 0.041411012 -0.03830855 0.021872856 0.031712353 0.04442198 0.0076440275
-0.060791787 -0.00023156404 -0.062116344 0.02663668 -0.03512822 -0.043042183 -0.016542587 -0.0281881
-0.0418842 -0.025994003 -0.04293282 -0.046140816 -0.05771085 -0.046000775 0.04931385 -0.010905118
0.023848532 -0.054162588 -0.033270735 -0.016194455 -0.04974751 0.01748474 -0.038826905 -0.028263152
-0.05732584 -0.024079055 -0.005837247 -0.002409678 -0.061146818 0.023212865 0.025139611 0.045877688
0.009332098 -0.014869876 0.015653847 0.004631996 0.033934038 -0.03450659 -0.021352865 -0.0053117536
0.005722545 0.055301916 -0.026193067 0.04294845 -0.00046336983 0.0027460998 0.055087663 -0.053010125
-0.041857954 -0.00046762128 -0.02935858 -0.035942253 0.0067654788 -0.0023554661 -0.051912732 -0.049785726
-0.034857873 -0.058602378 -0.046596985 -0.018443206 0.029945074 -0.024440326 -0.047292694 -0.027598562
0.035367362 -0.0059364033 0.0028221277 0.013088146 0.044485062 -0.016352085 -0.0108310655 0.04647636
-0.027623553 -0.04598318 -0.02779553 -0.025582172 -0.021357512 -0.04061257 0.020849284 0.010794138
-0.011817072 0.015570284 0.017912826 -0.035043675 -0.021405486 -0.05856012 -0.040779386 0.042799484
-0.02008418 -0.046973854 -0.018777378 0.015989607 -0.034122664 -0.03956645 0.03515725 0.02319917
0.058676127 -0.032060094 0.027483003 -0.028760336 -0.0073834937 0.0005230829 -0.001777105 -0.007905304
-0.040051274 0.058009546 -0.035276532 0.051836528 -0.024370337 0.042037968 0.042652365 0.04269086
0.016621348 -0.056159563 -0.031164093 -0.008844644 -0.0048489724 -0.012267241 -0.030054633 0.057247676
0.052375235 -0.010311576 -0.035994023 0.039516635 -0.0391654 0.03150428 -0.009505741 -0.017215943
-0.053232156 0.017529806 0.0023880266 0.035187144 -0.05745193 -0.04207153 -0.016338723 0.027478341
0.028675437 -0.052067973 -0.039999563 -0.042208858 0.03337927 -0.014691263 0.019833528 -0.01773964
0.002543022 -0.055962477 -0.031002417 0.06090571 -0.03579911 -0.016278755 -0.014639185 -0.045393124
0.02314979 -0.015288122 0.04845004 0.012131734 -0.0029178336 0.0505302 0.055709615 0.0009403651
-0.035482604 0.020763338 0.047491543 -0.04132504 -0.007568748 -0.045458358 0.060062863 -0.018067524
-0.036774147 -0.04261332 -0.05972738 0.041432746 -0.05584806 -0.025452884 -0.05744651 0.056648444
0.05682662 0.058041565 -0.04280269 -0.010394055 0.034230433 -0.0057045966 0.009041599 0.01852397
00000000: 3f27 92bc c4ac 47bd 3143 203d 3861 b2bb
00000010: 2e26 10bd 87ff 363d b21b 43bd c59d b5bc
00000020: 6c9d 02bd 8068 65bb 2908 1f3c 882c c1bc
00000030: f2a7 093d 094d 063c 47b8 6bbd 1761 0f3d
00000040: 50b1 213d 6a13 86bc 5afe 443c c0ee bf3a
00000050: c89e 9c3c 4ac2 dbba 7470 d63c 7d34 dcbc
00000060: 4381 203d 97c9 1e3c 843a edbb 2c61 6f3d
00000070: 8ab7 6abd 445b 683c d827 7ebd 5fe4 40bb
00000080: cf85 78bd 7b64 d7b8 ef81 a6bc fcba 223d
00000090: 20c5 a3bc f87b 733c f7a8 c13c 9503 2d3d
000000a0: d0f7 e8bc c9b2 22bc 68fa 883c 08cd 09bd
000000b0: b817 32bd b651 09bd 1a68 95bc 5fb9 bcb9
000000c0: 2e0f 123d cd03 5cbd 4cdf 59bd 367d 1c3d
000000d0: fb3b a6bc 7623 78bd abce 41bc 6993 4ebd
000000e0: 6caa b93c 2f68 0d3d 249b 963c 663d f6bb
000000f0: dc34 73bb 5f64 fb3c 85c1 6f3c 72b5 443d
00000100: acc8 fdbc 403c 11bd 989e 293d 6de9 1cbd
00000110: b42e b33c d0e4 013d d2f3 353d c07a fa3b
00000120: cf00 79bd 00d0 72b9 b56d 7ebd 2b35 da3c
00000130: 9ce2 0fbd 004d 30bd 5284 87bc bbea e6bc
00000140: c48e 2bbd 60f1 d4bc 53da 2fbd 27fe 3cbd
00000150: 3662 6cbd 4f6b 3cbd 52fd 493d 61ab 32bc
00000160: ff5d c33c 97d9 5dbd e546 08bd 3caa 84bc
00000170: 0cc4 4bbd 283c 8f3c f608 1fbd 2088 e7bc
00000180: 80ce 6abd 7041 c5bc 6046 bfbb b0eb 1dbb
00000190: 1675 7abd e828 be3c 96f1 cd3c 3eea 3b3d
000001a0: a8e5 183c c8a0 73bc 7f3c 803c 00c8 973b
000001b0: 6bfe 0a3d c856 0dbd 34ec aebc 380e aebb
000001c0: 3084 bb3b 4384 623d d892 d6bc b7ea 2f3d
000001d0: 72f0 f2b9 e9f7 333b 9aa3 613d 2521 59bd
000001e0: 3f73 2bbd 112b f5b9 6881 f0bc 2f38 13bd
000001f0: f3b0 dd3b 2a5e 1abb 72a2 54bd 1eec 4bbd
00000200: 21c7 0ebd 0c09 70bd 7bdc 3ebd 3516 97bc
00000210: 5f4f f53c 1437 c8bc fcb5 41bd 6116 e2bc
00000220: 5edd 103d 2986 c2bb 72f3 383b aa6f 563c
00000230: f835 363d cff4 85bc c874 31bc ff5d 3e3d
00000240: ca4a e2bc dc58 3cbd 74b3 e3bc b491 d1bc
00000250: f3f5 aebc 5e59 26bd 1ecc aa3c e5d9 303c
00000260: 649c 41bc 811a 7f3c ebbd 923c f589 0fbd
00000270: 8f5a afbc bddc 6fbd 4908 27bd 834e 2f3d
00000280: 9487 a4bc a867 40bd 04d3 99bc a3fc 823c
00000290: 35c4 0bbd 6e10 22bd 0c01 103d 300c be3c
000002a0: 6156 703d 7251 03bd 0924 e13c cc9a ebbc
000002b0: 3cf1 f1bb 801f 093a c0ed e8ba 4085 01bc
000002c0: ce0c 24bd 6b9b 6d3d 207e 10bd 8a52 543d
000002d0: 4da4 c7bc 0130 2c3d 3fb4 2e3d 9cdc 2e3d
000002e0: 7e29 883c 9207 66bd d74b ffbc 20e9 10bc
000002f0: 21e4 9ebb 8afc 48bc 2235 f6bc 8a7c 6a3d
00000300: 6a87 563d e2f1 28bc 786e 13bd 32dc 213d
00000310: e66b 20bd a20a 013d f8bd 1bbc 7308 8dbc
00000320: f609 5abd ab9a 8f3c 7080 1c3b 6520 103d
00000330: b752 6bbd 3253 2cbd c9d8 85bc 421a e13c
00000340: c0e8 ea3c 3a45 55bd 95d6 23bd 32e3 2cbd
00000350: b4b8 083d a0b3 70bc ec79 a23c b952 91bc
00000360: d4a8 263b e938 65bd c8f8 fdbc 4478 793d
00000370: 16a2 12bd 065b 85bc 31d9 6fbc 24ee 39bd
00000380: a1a4 bd3c 087b 7abc 8d73 463d 2ec4 463c
00000390: 2039 3fbb c1f8 4e3d c42f 643d d582 763a
000003a0: 3556 11bd e017 aa3c 7e86 423d 7244 29bd
000003b0: 4303 f8bb 8b32 3abd 7a04 763d 5802 94bc
000003c0: 7da0 16bd 4e8b 2ebd b2a4 74bd 62b5 293d
000003d0: efc0 64bd 9182 d0bc 084d 6bbd 3308 683d
000003e0: 08c3 683d febc 6d3d e051 2fbd d44b 2abc
000003f0: 3635 0c3d a0ed babb 3723 143c 95bf 973c

fc2_val.bias f4 [128]
-0.060484402 -0.01631741 0.0110304905 0.016029824 0.034188982 -0.03279 0.037399333 0.0669418
0.014598729 0.05913165 0.017181437 -0.034242846 0.06736084 -0.062585436 -0.047454186 0.048188683
0.0091411825 0.057531185 -0.026505636 0.038713247 0.0016340121 0.052001417 -0.04756502 0.030415827
0.03421217 0.046015006 0.025272135 0.028045582 -0.05533398 0.0113190785 0.062365398 -0.031126752
0.059374064 0.038093626 -0.04284567 0.067316726 0.016710958 0.0026452134 -0.043631252 -0.0610094
0.0007905923 0.026191017 0.0016989508 0.05194565 -0.04488064 0.04253235 0.016118981 0.07029259
-0.07146013 0.014767274 -0.013206706 0.013638475 0.025256433 -0.0045104614 -0.01123287 0.048019927
0.012186614 0.058146883 -0.029588152 0.023138875 -0.017467968 0.04091193 0.05284157 0.048059095
0.013484287 0.008375121 0.039061707 0.0003795127 0.06598132 0.054266967 -0.032210015 -0.035322357
-0.02597616 0.050083637 0.012465615 -0.059878394 -0.0033639292 -0.049936116 -0.0042508016 0.018210784
0.048537068 0.0022081921 0.023810973 0.029451631 0.050408453 0.0046745595 -0.018917417 0.008057202
0.010201776 -0.024572903 -0.004212045 0.049458615 0.06619703 -0.014742058 0.008307354 0.01693532
0.03247199 0.042398624 0.060887784 -0.067267865 -0.06302034 -0.06274592 0.06851348 -0.05964563
-0.037830062 0.03460948 0.031242419 -0.058271777 0.050222944 -0.041970477 -0.026837597 -0.003395185
-0.036803167 -0.0064793928 -0.021864492 0.05790441 -0.03513575 -0.004018784 0.04124034 -0.020782722
-0.045898292 0.006095478 0.050860465 0.024553936 -0.0486653 -0.048545856 0.05516132 0.047918595
00000000: 7ebe 77bd 17ac 85bc 3bb9 343c fa50 833c
00000010: bf09 0c3d cf4e 06bd 0b30 193d c818 893d
00000020: 822f 6f3c 0734 723d 16c0 8c3c 3a42 0cbd
00000030: 7bf4 893d cb2c 80bd 525f 42bd 7f61 453d
00000040: e6c4 153c d2a5 6b3d 5922 d9bc c891 1e3d
00000050: 592c d63a 70ff 543d 8ad3 42bd 9d2a f93c
00000060: 0f22 0c3d 3b7a 3c3d 8207 cf3c d9bf e53c
00000070: e2a5 62bd a873 393c dc72 7f3d 88fd febc
00000080: 3832 733d 1008 1c3d f17e 2fbd 5add 893d
00000090: 6be5 883c 515b 2d3b afb6 32bd fee4 79bd
000000a0: c03f 4f3a 8b8e d63c 54af de3a f6c4 543d
000000b0: c3d4 37bd 6736 2e3d f40b 843c 90f5 8f3d
000000c0: b059 92bd 70f2 713c f160 58bc e973 5f3c
000000d0: 94e6 ce3c 7ecc 93bb 120a 38bc 8bb0 443d
000000e0: 5daa 473c 6d2b 6e3d da62 f2bc bd8d bd3c
000000f0: fc18 8fbc 4593 273d 6770 583d 9dd9 443d
00000100: 33ed 5c3c ce37 093c 2bff 1f3d 55f9 c639
00000110: 3721 873d 0a47 5e3d a6ee 03bd 2dae 10bd
00000120: f5cb d4bc 8024 4d3d 943c 4c3c 0c43 75bd
00000130: 5e75 5cbb d089 4cbd 4f4a 8bbb c82e 953c
00000140: cece 463d 51b7 103b 3b0f c33c 8c44 f13c
00000150: 1879 4e3d 0c2d 993b b3f8 9abc 5b02 043c
00000160: 5a25 273c 1d4d c9bc 3205 8abb 1e95 4a3d
00000170: 4f92 873d ac88 71bc 911b 083c f1bb 8a3c
00000180: 5901 053d 2eaa 2d3d 7865 793d bcc3 89bd
00000190: cf10 81bd ef80 80bd cc50 8c3d fa4e 74bd
000001a0: b2f3 1abd acc2 0d3d 1af0 ff3c 63ae 6ebd
000001b0: 93b6 4d3d 3ce9 2bbd 85da dbbc c181 5ebb
000001c0: ebbe 16bd 1651 d4bb 2a1d b3bc 2d2d 6d3d
000001d0: 81ea 0fbd 01b0 83bb a1eb 283d 8740 aabc
000001e0: d9ff 3bbd 93bc c73b 1053 503d 5625 c93c
000001f0: 4455 47bd 05d8 46bd d6f0 613d 4a46 443d

fc3_val.weight f4 [1, 128]
0.06088641 -0.06306841 0.0927564 -0.04600241 -0.10225953 -0.09493752 0.084238924 -0.022999419
0.12468703 -0.020527473 0.07840084 -0.085593596 -0.01561691 -0.07439812 -0.10528356 0.07408614
0.07139262 0.010438234 -0.026613284 -0.09541632 0.010764511 -0.045747716 -0.03196376 0.06452697
0.05906561 -0.08020433 0.040322136 -0.060449775 0.078953974 -0.101239294 0.119402215 0.1137825
0.0810141 -0.022161307 -0.08793903 -0.03447868 0.07256662 -0.064237066 -0.06057535 0.031369016
-0.033160124 -0.053826306 0.02574737 0.054018468 -0.09302983 -0.07543705 -0.0873917 -0.09250722
-0.15085837 0.033697415 0.06876789 0.052487828 0.074315734 -0.04368927 0.13031596 -0.0900171
-0.051475935 0.0059854463 0.06055908 -0.09430372 -0.12548852 0.06696091 0.07213606 -0.041536234
-0.031874415 -0.11007694 0.08812787 -0.04003476 -0.037097834 0.038132332 0.061650034 0.08206203
0.10351546 -0.056350384 0.05660913 0.03901944 0.11509854 -0.065590434 -0.0715654 0.0069793058
0.08763896 -0.092630826 -0.039179176 0.05366961 0.03972423 -0.082934774 -0.05859499 0.033568148
0.110577986 0.071316 -0.07682787 -0.07207497 -0.084501244 0.04165549 0.15209453 0.010108754
-0.05099075 0.026092887 0.05021952 0.1013677 0.095486216 0.06650502 -0.060925104 0.057818644
-0.067764595 0.017351873 -0.035912056 0.036919836 0.05651004 0.027172718 -0.077582076 0.055616386
0.052599613 0.0011302601 0.07489904 -0.05283194 0.121876165 0.01192694 0.012484201 0.06974344
0.021615721 -0.0717436 0.054799173 -0.09773284 -0.028989082 -0.1203765 -0.08918564 -0.056118783
00000000: 0764 793d 032a 81bd 11f7 bd3d 066d 3cbd
00000010: 726d d1bd 9a6e c2bd 7585 ac3d 4769 bcbc
00000020: ea5b ff3d 3b29 a8bc 9f90 a03d b24b afbd
00000030: 11de 7fbc 0b5e 98bd e89e d7bd 79ba 973d
00000040: 4b36 923d 2005 2b3c 1a04 dabc a269 c3bd
00000050: a25d 303c f561 3bbd 6eec 02bd b726 843d
00000060: c8ee 713d 2b42 a4bd d328 253d 2f9a 77bd
00000070: 9fb2 a13d 8c56 cfbd 2689 f43d cd06 e93d
00000080: b8ea a53d a18b b5bc 6119 b4bd 8439 0dbd
00000090: cf9d 943d b98e 83bd dc1d 78bd cc7c 003d
000000a0: e9d2 07bd f978 5cbd 26ec d23c 7842 5d3d
000000b0: 6c86 bebd bd7e 9abd 6bfa b2bd 6d74 bdbd
000000c0: 9e7a 1abe 4d06 0a3d 2ed6 8c3d 7afd 563d
000000d0: d932 983d 85f3 32bd 8c71 053e e35a b8bd
000000e0: 6ed8 52bd 9021 c43b cc0c 783d 4f22 c1bd
000000f0: 1080 00be cd22 893d 12bc 933d e621 2abd
00000100: bf8e 02bd 0570 e1bd 627c b43d 7dfb 23bd
00000110: e6f3 17bd a630 1c3d bf84 7c3d 2310 a83d
00000120: eaff d33d a9cf 66bd fade 673d d9d2 1f3d
00000130: c9b8 eb3d 4754 86bd e190 92bd a9b2 e43b
00000140: 0e7c b33d 3bb5 bdbd 587a 20bd aad4 5b3d
00000150: e0b5 223d b5d9 a9bd 4d01 70bd c17e 093d
00000160: b676 e23d 1f0e 923d ee57 9dbd 0b9c 93bd
00000170: fd0e adbd f29e 2a3d abbe 1b3e 309f 253c
00000180: addb 50bd c0c0 d53c fcb2 4d3d de99 cf3d
00000190: 478e c33d c933 883d 9a8c 79bd 3ed3 6c3d
000001a0: 2ac8 8abd 8425 8e3c 8518 13bd 4139 173d
000001b0: 1277 673d 5299 de3c 5ae3 9ebd 02ce 633d
000001c0: b172 573d 3c25 943a ab64 993d 4e66 58bd
000001d0: 369a f93d 3669 433c 898a 4c3c a6d5 8e3d
000001e0: 7413 b13c 4fee 92bd 1975 603d 2828 c8bd
000001f0: 837a edbc f487 f6bd f6a6 b6bd cfdc 65bd

fc1_adv.weight f4 [256, 45]
-0.06621562 0.05634918 -0.13674526 0.09793155 0.027301325 -0.109298244 0.05176155 -0.11443011
-0.0660176 -0.08180666 -0.0072224652 0.14863512 -0.1365833 -0.012391701 -0.1443982 -0.013383641
0.08822124 -0.0019619633 0.120703295 -0.06722994 0.03028673 0.059188038 -0.049952153 0.07684802
-0.1038658 0.12868753 0.11638952 0.14091082 -0.012487229 0.09500384 0.072432496 -0.13261904
0.14853752 -0.117308326 0.13407964 0.044745527 0.12324004 -0.1194802 -0.11349292 -0.02461152
0.071507625 -0.025128895 0.056637563 0.013169335 0.07436495 0.025335338 -0.13384272 0.116343826
0.1077762 -0.14464782 -0.11336872 -0.018103 -0.046771508 0.10970757 0.13595197 0.1625199
0.018874157 0.15201284 -0.11061104 0.1005021 -0.11442619 0.13398992 -0.037055243 0.095017165
0.05201047 0.10958321 0.064625524 0.11690369 -0.107894905 0.11320449 -0.06427213 -0.073829055
-0.12812066 0.07470286 -0.0133188795 -0.14552046 0.10471246 0.03992332 0.11215522 -0.13716602
-0.037062883 0.032558676 -0.07805406 0.13254996 0.04675316 0.076621436 -0.02808402 -0.007503551
0.12799934 -0.15926902 0.040104553 0.119365215 -0.06498351 0.0021258672 0.06348487 -0.0053246627
0.01632938 -0.0984153 -0.07645215 -0.025573038 0.083804354 -0.078722194 0.13824746 -0.08451027
-0.08390388 -0.09619816 0.0055312 0.13809824 -0.064775474 0.01973298 -0.11910784 0.021418937
0.015175133 0.13826992 0.124476254 -0.10879669 0.10297845 0.09016224 -0.12989527 -0.075160034
-0.0021713264 0.10050106 0.075985126 -0.094541214 0.109805174 -0.093979694 -0.0140498215 0.06829987
0.09566027 0.046927974 -0.13512856 -0.114015095 0.10852435 0.019539205 -0.08609866 0.032734904
0.07299332 -0.05985754 -0.059968263 0.14651039 -0.04070722 0.15003516 -0.005937767 -0.014521926
0.064609095 -0.14995985 0.10496882 0.10612515 0.08642705 0.03392051 -0.08087325 -0.07739562
-0.0768641 -0.03752303 0.12587325 -0.10338842 0.056311242 0.13630468 0.029713882 0.025792118
0.0072457213 0.0043039243 -0.060699232 -0.12600687 0.04594383 -0.03737537 -0.07360944 0.14230068
0.06521868 -0.11499078 -0.14847173 0.14784117 -0.09101684 0.15352122 0.08709456 0.044886038
0.14829744 0.12399585 -0.06730148 0.12866934 -0.05208133 0.14676404 -0.1410103 0.09605099
-0.008234541 -0.050153133 -0.03416262 -0.08478668 0.118797325 0.05627805 -0.015873376 0.09822341
-0.1570093 -0.049885124 -0.012601925 0.054475535 -0.03218835 -0.051765088 -0.0673247 0.14530033
0.11362357 -0.11795695 0.1543411 -0.13660589 -0.12886661 0.079630576 0.02471297 -0.038385205
7.664285e-05 0.0071119075 0.014565612 -0.0730696 0.15906428 -0.034512553 -0.13806657 -0.12640063
-0.02064401 -0.055799946 -0.0368611 -0.10399879 -0.16686942 -0.11337772 0.035476934 0.15163225
-0.118772924 0.09089659 0.121203154 0.056732327 0.054670617 0.11575622 0.13391595 -0.035089113
0.13612573 -0.067343846 -0.026561959 0.14747334 0.07952532 0.12709014 0.079137884 -0.09834807
-0.032161046 0.13057621 -0.11762458 0.113159634 -0.056817055 0.1421218 -0.049242396 0.07886344
-0.12844878 0.07203047 0.095317714 -0.09640402 0.13741829 0.0800683 0.0702328 0.05233985
00000000: 0e9c 87bd 66ce 663d f306 0cbe 5690 c83d
00000010: 07a7 df3c c2d7 dfbd eb03 543d 555a eabd
00000020: 3c34 87bd 408a a7bd 6eaa ecbb ce33 183e
00000030: 7edc 0bbe 9006 4bbc 1fdd 13be 0f47 5bbc
00000040: 56ad b43d 4894 00bb 4a33 f73d daaf 89bd
00000050: e01b f83c 286f 723d a19a 4cbd 7f62 9d3d
00000060: 98b7 d4bd aac6 033e a15d ee3d ed4a 103e
00000070: 3c97 4cbc 6091 c23d 7d57 943d 49cd 07be
00000080: 381a 183e 593f f0bd 2c4c 093e 1647 373d
00000090: 4665 fc3d 09b2 f4bd fa6e e8bd 199e c9bc
000000a0: 9772 923d 1ddb cdbc cafc 673d 32c4 573c
000000b0: a74c 983d 0e8c cf3c 110e 09be ac45 ee3d
000000c0: c5b9 dc3d 8f1e 14be dc2d e8bd be4c 94bc
000000d0: 7b93 3fbd 5dae e03d fe36 0b3e 9e6b 263e
000000e0: fa9d 9a3c 41a9 1b3e 0a88 e2bd 0cd4 cd3d
000000f0: 4758 eabd a734 093e 3dc7 17bd 5c98 c23d
00000100: ee08 553d 296d e03d 635a 843d 346b ef3d
00000110: 01f8 dcbd c1d7 e73d 1ba1 83bd b033 97bd
00000120: 1032 03be d0fd 983d 6e37 5abc 5103 15be
00000130: 7c73 d63d a386 233d a3b1 e53d 4075 0cbe
00000140: 40cf 17bd 3f5c 053d cfda 9fbd 2dbb 073e
00000150: 3e80 3f3d b3eb 9c3d 7510 e6bc 59e0 f5bb
00000160: 4212 033e 6b17 23be ac44 243d c075 f43d
00000170: 1316 85bd 2252 0b3b 5b04 823d 827a aebb
00000180: 31c5 853c f68d c9bd f292 9cbd 8c7e d1bc
00000190: 9ea1 ab3d 1a39 a1bd be90 0d3e b813 adbd
000001a0: ccd5 abbd 8a03 c5bd 123f b53b a069 0d3e
000001b0: 01a9 84bd 0fa7 a13c d0ee f3bd c476 af3c
000001c0: 1fa1 783c a196 0d3e 68ed fe3d cdd0 debd
000001d0: 5ee6 d23d fba6 b83d 4403 05be 81ed 99bd
000001e0: d04c 0ebb 80d3 cd3d 179e 9b3d d39e c1bd
000001f0: 89e1 e03d 6d78 c0bd 3931 66bc cde0 8b3d
00000200: 88e9 c33d 8c37 403d 245f 0abe bf80 e9bd
00000210: 0442 de3d af10 a03c 7f54 b0bd 0915 063d
00000220: 867d 953d 2e2d 75bd 48a1 75bd d206 163e
00000230: 9dbc 26bd d1a2 193e 9a91 c2bb 5fed 6dbc
00000240: c651 843d 138f 19be e5f9 d63d 2558 d93d
00000250: aa00 b13d 3cf0 0a3d e0a0 a5bd 9881 9ebd
00000260: ed6a 9dbd c0b1 19bd ebe4 003e 4fbd d3bd
00000270: 9ea6 663d 7493 0b3e 876a f33c fe49 d33c
00000280: 846d ed3b ef07 8d3b c29f 78bd f207 01be
00000290: 992f 3c3d ea16 19bd 8cc0 96bd 45b7 113e
000002a0: 5f91 853d 4980 ebbd f908 18be ad63 173e
000002b0: 0967 babd ab34 1d3e a25e b23d 6cda 373d
000002c0: 49db 173e 89f1 fd3d 5cd5 89bd e5c1 033e
000002d0: 3c53 55bd 5049 163e 0165 10be 62b6 c43d
000002e0: 2bea 06bc 5f6d 4dbd 1aee 0bbd a4a4 adbd
000002f0: 034c f33d d083 663d e208 82bc 5b29 c93d
00000300: 0cc7 20be 5854 4cbd 4e78 4ebc bd21 5f3d
00000310: eed7 03bd a107 54bd 88e1 89bd 9cc9 143e
00000320: 79b3 e83d 6a93 f1bd 980b 1e3e 6ae2 0bbe
00000330: 9cf5 03be 5b15 a33d db72 ca3c ce39 1dbd
00000340: 51bb a038 010b e93b 9ba4 6e3c 84a5 95bd
00000350: bfe1 223e 095d 0dbd 5361 0dbe 2b6f 01be
00000360: a01d a9bc 7c8e 64bd aafb 16bd 51fd d4bd
00000370: d1df 2abe 9432 e8bd 4350 113d 7c45 1b3e
00000380: 383f f3bd fe27 ba3d 5c39 f83d 2860 683d
00000390: 4cee 5f3d 9911 ed3d 4321 093e 9ab9 0fbd
000003a0: 8b64 0b3e 92eb 89bd 7798 d9bc 4003 173e
000003b0: 2cde a23d eb23 023e 0b13 a23d b76a c9bd
000003c0: 4dbb 03bd c5b5 053e 28e5 f0bd 3dc0 e73d
000003d0: 00b9 68bd 6188 113e 65b2 49bd 2883 a13d
000003e0: 1488 03be b684 933d ef35 c33d 796f c5bd
000003f0: 61b7 0c3e d9fa a33d 37d6 8f3d 5062 563d

fc1_adv.bias f4 [256]
-0.014657524 -0.10056281 -0.026412008 0.15564482 0.030071717 -0.007859119 -0.14520225 -0.010710486
0.05538568 0.14728007 0.047992554 -0.08830348 0.1532047 -0.055445697 -0.10292215 -0.024273379
0.011074363 0.13907295 -0.091795444 0.09444872 -0.10520059 0.08311101 0.10553726 0.077946134
0.06491643 0.1432712 -0.09649634 -0.10738162 0.04499303 -0.1423085 0.104618855 -0.1127482
-0.0731472 -0.08709667 -0.09164898 0.020291856 0.15343079 -0.03788248 0.14729498 0.11673026
0.16957691 0.08639037 0.007572938 0.094796285 -0.14989865 -0.12595089 0.00220409 0.1676984
0.12338822 -0.02261996 0.1569467 -0.06603018 0.0073771663 -0.099242136 0.13414824 -0.07751628
0.032782502 -0.003678036 -0.040095635 0.06898943 -0.14048396 -0.02926779 0.11491769 -0.13321796
-0.10543477 0.10692254 -0.12682611 0.07103946 0.058656882 0.049872342 -0.01536466 -0.03291711
0.1422096 -0.06985501 0.038044646 0.12007588 0.043574367 0.08352164 -0.07578987 -0.06431353
0.0987983 0.051163588 -0.07999688 0.07823563 0.16348244 -0.07223933 -0.0871591 -0.13316526
-0.029734725 0.15443449 -0.09516126 0.035716593 -0.07106697 -0.022842202 -0.1450384 -0.028156655
0.010768794 -0.10902395 0.061019905 0.046949368 -0.05042555 0.08374785 -0.082017444 -0.017478906
-0.05953988 -0.1294351 -0.12202191 -0.08770035 -0.1174028 0.054559164 0.09020255 0.15706228
0.008020846 0.031929888 -0.09793369 -0.14163521 0.0705226 0.12878038 -0.14047852 -0.030089041
0.11008923 -0.069498025 0.15478519 0.036077622 -0.059585083 0.09965576 0.019563239 -0.041684527
0.0831965 0.08631068 0.16834119 -0.12633184 0.055787362 -0.14068604 0.11146536 0.023182858
0.03362256 0.067180134 0.14750126 0.17099266 -0.009085811 0.08562085 0.072732 0.1212664
0.00818668 0.10467966 -0.08061198 -0.023536576 0.018122647 0.16445757 0.09003451 -0.09029405
-0.06250886 -0.013153503 -0.083525434 -0.033499688 -0.05587201 -0.08200658 -0.105698735 0.15031104
0.04207726 0.11875903 -0.022732196 -0.15384871 0.09173071 -0.06598531 0.057462327 -0.07295241
0.15723234 -0.018650504 0.022018122 0.07957131 -0.061276037 -0.012856714 -0.08322377 0.16483289
-0.10206911 0.027974987 -0.05029532 -0.026456742 0.06895672 -0.051606655 0.05455896 0.060207583
0.09911061 -0.11632405 0.14164321 -0.07097844 -0.13590436 -0.07563734 0.14417432 -0.09026032
0.07205322 0.058850892 -0.12541115 0.0035846354 0.045267597 -0.11378725 -0.1398776 0.12224058
-0.10842707 0.026495611 0.0731932 -0.09582581 0.0012592246 -0.060328078 0.10209672 0.17064974
0.048142675 0.0788665 0.09877871 0.044997517 -0.14435741 -0.07194549 -0.13823453 0.13985676
0.12829584 -0.1077566 -0.15038364 -0.13282315 0.09435723 -0.12873727 -0.052023947 -0.027984725
0.015455475 0.17422622 0.17001404 0.1784289 -0.07434155 0.14773048 -0.027490014 0.039346952
0.071253434 -0.1616716 -0.13675977 0.07262216 -0.0056392998 0.15804243 -0.09658182 -0.061170094
0.16846532 -0.04902038 0.08571406 -0.02954079 -0.115466036 -0.14429 0.08061447 0.1316952
-0.052855264 -0.11335048 0.115914896 0.038395036 0.097671576 0.048766147 -0.008453115 0.108033195
00000000: 1d26 70bc e0f3 cdbd ff5d d8bc 5b61 1f3e
00000010: f658 f63c 89c3 00bc e6af 14be 097b 2fbc
00000020: 18dc 623d 96d0 163e d793 443d 74d8 b4bd
00000030: b1e1 1c3e 071b 63bd d9c8 d2bd f7d8 c6bc
00000040: 3f71 353c 2469 0e3e 40ff bbbd 556e c13d
00000050: 6873 d7bd 1b36 aa3d eb23 d83d 39a2 9f3d
00000060: e8f2 843d afb5 123e e09f c5bd e5ea dbbd
00000070: 9d4a 383d 52b9 11be 6942 d63d 87e8 e6bd
00000080: 33ce 95bd bd5f b2bd 76b2 bbbd 1b3b a63c
00000090: f61c 1d3e a92a 1bbd 7fd4 163e 4610 ef3d
000000a0: 92a5 2d3e 6fed b03d 6926 f83b 8e24 c23d
000000b0: 087f 19be 45f9 00be 7e72 103b 21b9 2b3e
000000c0: f7b2 fc3d 7f4d b9bc a3b6 203e d53a 87bd
000000d0: 28bc f13b 763f cbbd 285e 093e dbc0 9ebd
000000e0: f246 063d 340b 71bb 523b 24bd 554a 8d3d
000000f0: 07db 0fbe 01c3 efbc f759 eb3d 4a6a 08be
00000100: 2fee d7bd 34fa da3d b4de 01be 237d 913d
00000110: 3342 703d f146 4c3d 0ebc 7bbc 17d4 06bd
00000120: 659f 113e 2510 8fbd b4d4 1b3d 58ea f53d
00000130: 097b 323d 650d ab3d b837 9bbd d0b6 83bd
00000140: c356 ca3d e990 513d 67d5 a3bd 013a a03d
00000150: f167 273e 37f2 93bd 7880 b2bd 795c 08be
00000160: 3d96 f3bc 1324 1e3e e8e3 c2bd 904b 123d
00000170: 8f8b 91bd 921f bbbc f284 14be c9a8 e6bc
00000180: 996f 303c f347 dfbd 02f0 793d fb4d 403d
00000190: 068b 4ebd fe83 ab3d c3f8 a7bd ec2f 8fbc
000001a0: 17e0 73bd a38a 04be a0e6 f9bd 3e9c b3bd
000001b0: e170 f0bd 6e79 5f3d 1dbc b83d efd4 203e
000001c0: de69 033c eac8 023d 7591 c8bd d208 11be
000001d0: 276e 903d 01df 033e 9ad9 0fbe 4b7d f6bc
000001e0: 7676 e13d fb54 8ebd 0280 1e3e 21c6 133d
000001f0: 7d0f 74bd 5218 cc3d 1643 a03c 65bd 2abd
00000200: ed62 aa3d a7c3 b03d a261 2c3e 225d 01be
00000210: 4a81 643d 0010 10be f347 e43d fae9 bd3c
00000220: cfb7 093d bd95 893d 920a 173e b318 2f3e
00000230: a7dc 14bc fc59 af3d 84f4 943d 855a f83d
00000240: 6d21 063c 4a62 d63d e517 a5bd c7cf c0bc
00000250: f275 943c 9167 283e 0364 b83d 16ec b8bd
00000260: a504 80bd ca81 57bc 620f abbd f836 09bd
00000270: 0cda 64bd 11f3 a7bd 9478 d8bd 23eb 193e
00000280: 3459 2c3d ef37 f33d df38 babc 848a 1dbe
00000290: 4fdd bb3d 4e23 87bd 9e5d 6b3d 1368 95bd
000002a0: 8401 213e f1c8 98bc 595f b43c 48f6 a23d
000002b0: 95fc 7abd f8a4 52bc 3971 aabd f4c9 283e
000002c0: 9c09 d1bd cd2b e53c 7702 4ebd cfbb d8bc
000002d0: 2e39 8d3d 8061 53bd 3779 5f3d 3a9c 763d
000002e0: 81fa ca3d 4e3b eebd eb0a 113e 255d 91bd
000002f0: 832a 0bbe c0e7 9abd 6fa2 133e 67da b8bd
00000300: a390 933d a20d 713d c86b 00be 34ec 6a3b
00000310: 846a 393d 4a09 e9bd 133c 0fbe 4559 fa3d
00000320: 030f debd 530d d93c 51e6 953d 5340 c4bd
00000330: 910c a53a 931a 77bd 1618 d13d cebe 2e3e
00000340: 4131 453d c284 a13d 7e4c ca3d 514f 383d
00000350: 6ed2 13be 2858 93bd 5a8d 0dbe 9c36 0f3e
00000360: fc5f 033e 7eaf dcbd 2bfe 19be cb02 08be
00000370: 5d3e c13d b4d3 03be 1017 55bd 3940 e5bc
00000380: f638 7d3c 5c68 323e 2918 2e3e 11b6 363e
00000390: 6240 98bd a946 173e bd32 e1bc 452a 213d
000003a0: 52ed 913d 3d8d 25be c10a 0cbe edba 943d
000003b0: e0c9 b8bb e0d5 213e b0cc c5bd 7e8d 7abd
000003c0: 2c82 2c3e 98c9 48bd da8a af3d 87ff f1bc
000003d0: 7579 ecbd c2c0 13be 3319 a53d 1bdb 063e
000003e0: c37e 58bd 4c24 e8bd ca64 ed3d 1d44 1d3d
000003f0: 0908 c83d 03bf 473d ef7e 0abc 8240 dd3d

fc2_adv.weight f4 [128, 256]
0.05951682 0.03789413 -0.019948894 -0.050580695 0.10845662 0.003933727 -0.0102188755 -0.032179046
0.04722365 -0.06434288 -0.011293107 -0.027069395 0.02130286 -0.044160955 -0.0213104 -0.050272934
-0.0042162808 0.013784414 0.05166296 -0.035401516 0.07127725 -0.021216042 -0.016403168 -0.053885344
0.053069573 0.008281411 0.014402019 0.061959997 -0.043952696 -0.00011723162 -0.048514944 0.045745112
-0.04315407 0.039139446 0.0107300235 0.023585597 0.074225046 0.07607711 0.020376243 -0.047594793
0.03851017 -0.10268005 -0.016238894 0.06546253 0.036874343 0.0017258811 -0.0019651165 -0.040490475
0.017319076 0.03635636 -0.06734817 0.030184804 0.039956857 -0.08059118 -0.0431578 0.03939025
0.014646622 0.05953446 0.016648207 0.054507025 -0.0001969144 0.036343675 0.03714606 0.016517533
0.01770525 0.046632376 -0.07269464 -0.02404371 0.043513212 -0.03177087 0.022758113 0.08079017
-0.013836171 -0.0151556935 0.01137565 -0.0033001346 0.045268048 -0.03054559 0.057834003 0.01740602
0.018047081 0.054688722 -0.030932762 0.033363387 -0.032443468 -0.0107805105 -0.008628134 0.05616251
0.01740696 -0.018437853 0.07059918 0.0007888709 -0.013929232 -0.07593167 -0.010086832 -0.0409431
0.10281383 -0.06246398 -0.041379463 -0.042534113 -0.015983623 -0.023869997 0.0145171685 -0.036913097
-0.08946589 0.06833669 0.07469534 0.065906 -0.109612964 -0.0148985125 0.04762872 -0.058713537
0.016136233 0.03592217 -0.033230994 0.13143384 -0.02698471 0.020927336 -0.04102541 0.047702115
0.06328345 -0.008133725 -0.008094587 0.13443317 -0.03787091 -0.030316347 0.058614265 -0.0066175256
0.009887064 0.057426732 -0.04989201 -0.055172082 0.03720769 0.027723521 0.03997392 -0.023973761
-0.05924312 0.06101019 0.010129986 0.04370595 -0.031030757 0.043283645 -0.015286064 -0.021061158
0.04949161 -0.07173568 0.048535746 0.07476847 -0.027401311 -0.079471 -0.0122857895 0.06020012
0.031706803 -0.006932016 -0.020649666 -0.013019642 0.08305164 0.058936205 0.06500011 -0.029402839
-0.06170329 0.020861939 0.039873797 -0.08234838 0.03472127 -0.010391867 0.061768334 0.004684083
-0.007281458 -0.0006829731 -0.04938567 0.010766707 0.021983417 0.016343947 -0.038354427 -0.0034787974
0.078974955 -0.048867837 -0.045030277 0.012665649 -0.035638534 -0.042416032 0.04242362 0.056780133
0.00471378 0.047388434 0.046124607 0.09302739 0.055079754 -0.0077264453 0.04867912 0.033857975
0.021682832 0.041391738 0.05092749 -0.0036433348 -0.018999055 -0.06020057 0.027572703 -0.07171769
-0.0023605528 -0.0022980685 0.01807134 -0.017342094 -0.059173234 -0.045077056 0.035457253 -0.0406958
-0.051414013 0.05753977 0.06843957 0.064199604 0.062593035 0.1092358 0.056153696 0.01817581
-0.06170696 -0.05846899 -0.07771074 0.03650631 0.0014535841 0.061978504 0.12352795 0.016456239
-0.02702481 -0.019197823 -0.016723568 -0.030534212 -0.003958181 0.007978268 -0.034872044 -0.02604573
0.05288593 -0.014252534 0.012308195 0.06578577 0.07650376 0.101365425 0.04500223 0.0134994965
0.029384496 0.052091103 0.019681245 -0.0067580137 -0.024546854 -0.046626434 -0.029232392 0.055467386
-0.036613256 0.030071419 0.0415429 -0.030830875 0.059680484 0.050527267 0.07275196 0.03951771
00000000: e9c7 733d e036 1b3d dd6b a3bc b42d 4fbd
00000010: 811e de3d 7ee6 803b 126d 27bc 2dce 03bd
00000020: 966d 413d 33c6 83bd b906 39bc a3c0 ddbc
00000030: 5683 ae3c 1ee2 34bd 2693 aebc feea 4dbd
00000040: ba28 8abb 06d8 613c 8a9c 533d 2e01 11bd
00000050: cff9 913d 44cd adbc f05f 86bc e1b6 5cbd
00000060: 7b5f 593d c1ae 073c 72f6 6b3c c4c9 7d3d
00000070: be07 34bd 3fda f5b8 9bb7 46bd 3a5f 3b3d
00000080: 52c2 30bd af50 203d fbcc 2f3c 9536 c13c
00000090: 4d03 983d 51ce 9b3d 14ec a63c c2f2 42bd
000000a0: d7bc 1d3d eb49 d2bd 6e07 85bc 3811 863d
000000b0: 8d09 173d f636 e23a 2fc9 00bb 57d9 25bd
000000c0: bce0 8d3c 68ea 143d d6ed 89bd 1f46 f73c
000000d0: cda9 233d fd0c a5bd 3cc6 30bd ac57 213d
000000e0: 63f8 6f3c 68da 733d d261 883c c242 5f3d
000000f0: cf7a 4eb9 1bdd 143d 7826 183d c74f 873c
00000100: 9a0a 913c 9701 3f3d ede0 94bd 51f7 c4bc
00000110: e93a 323d 2c22 02bd 396f ba3c 5175 a53d
00000120: 1bb1 62bc 964f 78bc ef60 3a3c 1247 58bb
00000130: fd6a 393d bf3a fabc 59e3 6c3d 1297 8e3c
00000140: 79d7 933c 4801 603d b466 fdbc 0ca8 083d
00000150: 71e3 04bd bda0 30bc 045d 0dbc a90a 663d
00000160: 0a99 8e3c fb0a 97bc 4e96 903d 3bcc 4e3a
00000170: 6f37 64bc 1082 9bbd 3d43 25bc f4b3 27bd
00000180: 0f90 d23d 3bda 7fbd 837d 29bd 4038 2ebd
00000190: 16f0 82bc 038b c3bc 6bd9 6d3c 3032 17bd
000001a0: e439 b7bd 1bf4 8b3d dff9 983d baf9 863d
000001b0: c37c e0bd e418 74bc 5516 433d 9b7d 70bd
000001c0: 2230 843c 2023 133d 391d 08bd 9896 063e
000001d0: 0a0f ddbc ce6f ab3c 430a 28bd 4b63 433d
000001e0: c19a 813d 5143 05bc 299f 04bc d9a8 093e
000001f0: 871e 1bbd fd59 f8bc 8315 703d d4d7 d8bb
00000200: 5afd 213c 4b38 6b3d 905b 4cbd 1ffc 61bd
00000210: 1767 183d 701c e33c b1bb 233d 9f64 c4bc
00000220: eaa8 72bd d2e5 793d 3ef8 253c 0305 333d
00000230: 3734 febc 314a 313d 6672 7abc 7388 acbc
00000240: b7b7 4a3d 28ea 92bd 6bcd 463d 3620 993d
00000250: b778 e0bc b1c1 a2bd 564a 49bc 6794 763d
00000260: fede 013d f725 e3bb 7d29 a9bc 5650 55bc
00000270: fa16 aa3d 1767 713d c71e 853d 39de f0bc
00000280: 97bc 7cbd a8e6 aa3c b552 233d 44a6 a8bd
00000290: e437 0e3d a642 2abc cb00 7d3d f07c 993b
000002a0: 4c99 eebb 8d09 33ba a148 4abd d866 303c
000002b0: 9116 b43c bee3 853c 8819 1dbd 89fc 63bb
000002c0: 9fbd a13d a429 48bd ab71 38bd 9583 4f3c
000002d0: b6f9 11bd 6fbc 2dbd 64c4 2d3d 4992 683d
000002e0: 0d76 9a3b 601a 423d 28ed 3c3d 2585 be3d
000002f0: 4f9b 613d 1f2e fdbb c263 473d a9ae 0a3d
00000300: 32a0 b13c 628a 293d 5899 503d 04c5 6ebb
00000310: e8a3 9bbc df94 76bd 26e0 e13c b9e0 92bd
00000320: 81b3 1abb 319b 16bb 590a 943c 0211 8ebc
00000330: a25f 72bd b8a2 38bd a03b 113d a4b0 26bd
00000340: 8097 52bd d2ae 6b3d 0c2a 8c3d 157b 833d
00000350: c730 803d 05b7 df3d 6b01 663d 70e5 943c
00000360: 70c0 7cbd 2e7d 6fbd cf26 9fbd a487 153d
00000370: 3086 be3a 2cdd 7d3d 39fc fc3d 3ccf 863c
00000380: 2263 ddbc c144 9dbc ddff 88bc e222 fabc
00000390: a1b3 81bb 48b7 023c fdd5 0ebd db5d d5bc
000003a0: eb9e 583d 7683 69bc 50a8 493c b1ba 863d
000003b0: 01ae 9c3d ad98 cf3d 4254 383d fe2c 5d3c
000003c0: c1b7 f03c 7b5d 553d 903a a13c 5472 ddbb
000003d0: 7c16 c9bc 5cfb 3ebd c578 efbc c531 633d
000003e0: c8f7 15bd 5658 f63c e328 2a3d 0891 fcbc
000003f0: 8673 743d aef5 4e3d fbfe 943d 53dd 213d

fc2_adv.bias f4 [128]
-0.05785947 -0.0010699779 -0.029901637 -0.022709936 0.054433912 0.037193008 0.042281285 0.0042988183
-0.013762209 -0.04899081 0.0188193 -0.03351363 -0.024894776 0.024563836 -0.0053155213 0.050821777
-0.013589186 -0.022138905 -0.00083020143 -0.037348576 -0.007049353 0.054917328 0.017913923 -0.02005669
0.052665886 0.06554772 -0.008427769 0.025323361 -0.00010202775 0.036793474 -0.051577177 0.02117106
-0.070774935 0.05552494 -0.02543866 -0.011315422 0.041517965 -0.03862689 -0.0002529174 -0.051550563
-0.014226721 -0.0051601483 0.023107054 -0.031624667 0.040246863 -0.012877117 0.075555675 0.007484765
-0.014197295 0.023870789 0.055198975 -0.059343815 -0.018018238 0.07341663 -0.034408707 -0.06197541
0.06632937 -0.025647694 0.047346905 0.040512793 -0.04815313 0.050574712 0.06793269 0.043729063
0.0060751387 -0.024120906 -0.039010607 8.603434e-05 0.01655382 0.049782187 -0.035469893 0.06841382
-0.028154852 0.04873619 -0.0047568893 -0.047463972 -0.02965308 0.050928816 -0.023046998 -0.045955222
0.06440564 0.055125937 -0.026478065 -0.0014674795 -0.013322007 0.05567119 -0.022723025 0.020857207
-0.022096217 -0.027131556 0.057995863 0.0030548002 -0.05617406 0.027457442 0.024254344 0.023681313
0.01796954 0.043593917 0.009128493 -0.063538454 0.03455873 -0.013269331 -0.035252716 -0.06069558
-0.0123684155 0.042877004 -0.001461238 0.032635476 0.032223396 0.002665332 0.050862152 0.03478634
0.0055341334 0.066444434 0.022628611 -0.0018110285 0.0004914351 0.05309245 -0.0072923517 0.013073606
0.027700767 -0.047932338 -0.07141767 -0.028382232 -0.019180028 -0.028186208 -0.034559365 0.0054220967
00000000: 0dfe 6cbd 803e 8cba 47f4 f4bc 300a babc
00000010: 18f6 5e3d b257 183d 242f 2d3d 1add 8c3b
00000020: e37a 61bc 96aa 48bd ef2a 9a3c 9745 09bd
00000030: 21f0 cbbc 193a c93c d32d aebb 7f2a 503d
00000040: 2da5 5ebc a65c b5bc e0a1 59ba d2fa 18bd
00000050: 42fe e6bb fef0 603d 38c0 923c ed4d a4bc
00000060: 2fb8 573d e23d 863d a014 0abc f072 cf3c
00000070: bbf7 d5b8 c1b4 163d 9742 53bd ee6e ad3c
00000080: 73f2 90bd 1f6e 633d bd64 d0bc 5264 39bc
00000090: be0e 2a3d 3b37 1ebd 009a 84b9 af26 53bd
000000a0: 3117 69bc 7616 a9bb 014b bd3c de88 01bd
000000b0: e5d9 243d 8bfa 52bc efbc 9a3d c242 f53b
000000c0: c59b 68bc ac8c c33c 5218 623d 8012 73bd
000000d0: fc9a 93bc 755b 963d 25f0 0cbd edd9 7dbd
000000e0: b1d7 873d 1d1b d2bc d4ee 413d bef0 253d
000000f0: 373c 45bd 6e27 4f3d 4b20 8b3d 3f1d 333d
00000100: f511 c73b 3599 c5bc 96c9 1fbd 566d b438
00000110: e09b 873c 68e8 4b3d e148 11bd 8b1c 8c3d
00000120: 01a5 e6bc 999f 473d aedf 9bbb 9569 42bd
00000130: 04eb f2bc bc9a 503d 0fcd bcbc 8b3b 3cbd
00000140: 1be7 833d bccb 613d 87e8 d8bc 7158 c0ba
00000150: 8c44 5abc 7907 643d a325 babc bcdc aa3c
00000160: 2003 b5bc ff42 debc 128d 6d3d 0b33 483b
00000170: c516 66bd 6eee e03c 0cb1 c63c 50ff c13c
00000180: db34 933c 898f 323d ad8f 153c 7320 82bd
00000190: 748d 0d3d 9c67 59bc 2765 10bd ee9b 78bd
000001a0: e5a4 4abc cc9f 2f3d 0387 bfba c7ac 053d
000001b0: aefc 033d daac 2e3b d554 503d 1f7c 0e3d
000001c0: ad57 b53b 0514 883d a35f b93c 0860 edba
000001d0: a7d3 003a 7877 593d aef4 eebb ae32 563c
000001e0: b8ec e23c b354 44bd 6d43 92bd db81 e8bc
000001f0: 6f1f 9dbc c3e6 e6bc 1f8e 0dbd d8ab b13b
