src/nets/exp_graph_obs_10_agents200.pth (torch_old, 356653 bytes, 11 tensors)

fc1_val.weight f4 [256, 43]
-0.08700679 -0.030144883 -0.06256963 -0.05721537 0.09656183 0.0339099 0.06763773 -0.01395948
-0.032471217 -0.075532325 -0.11078429 -0.06053733 -0.1230319 0.14480034 0.118156694 -0.0018851617
-0.13427599 -0.15949787 0.009678061 -0.025628576 0.13955267 0.13131447 0.00962075 0.040995516
-0.055066142 0.022763267 0.05227691 -0.034957197 -0.07747297 -0.061630465 0.09284447 -0.047771223
0.14685461 0.10650394 0.119840495 -0.029380726 0.059775367 0.13140239 0.016598472 -0.064081594
-0.10084887 0.1439601 0.003400041 0.08341006 -0.02418562 0.004763008 -0.13631444 -0.051605243
-0.0665634 -0.050652068 0.0024566194 0.045810077 -0.047286987 0.0015191656 0.09922707 -0.120406926
-0.0058572413 -0.019626435 0.058652796 0.13212988 0.1793543 -0.08345603 -0.12789114 -0.14306286
0.015475844 0.03095592 -0.1273471 -0.03777957 -0.0061454726 0.16074517 0.041711245 0.18327919
0.0855033 -0.12097439 0.015541722 -0.13742915 -0.1785551 -0.031638905 -0.091703616 -0.03806469
-0.0077586267 -0.0750819 0.1503457 0.03833857 -0.03136508 -0.05202826 -0.15100098 0.032792814
0.044353865 0.06688514 0.03901526 -0.09000989 -0.19313847 -0.041440286 0.09630244 -0.08545442
-0.034496933 -0.0888436 -0.17699769 -0.09454963 -0.10939479 -0.024470558 0.08766111 0.117916934
-0.06027415 0.07767057 -0.085382804 -0.07223858 0.08308133 -0.15902427 -0.073217876 -0.022067886
-0.040553495 -0.029445523 0.035053935 0.052327283 -0.07827191 -0.068271294 0.03742004 0.094636604
0.068822905 -0.096724175 0.07187723 -0.057113085 -0.13516282 -0.14975096 -0.13704899 -0.019844411
0.1473723 0.08214511 0.10716968 -0.13735308 -0.08426722 0.03037392 -0.10241404 0.026069583
-0.1301477 -0.046933644 -0.014555175 0.10928998 0.038339503 0.048099965 0.18607175 0.086964734
-0.014261845 0.09723586 0.0492734 -0.019488556 -0.039541997 0.02525916 0.15131502 -0.016527079
0.08876849 -0.12211277 0.0067048674 -0.02973555 0.109692074 0.1460128 0.14138836 0.12660214
0.0053488538 0.11410151 -0.08226334 -0.057689447 -0.14326286 0.024770496 -0.16701864 -0.088818945
-0.1547552 -0.056991 0.04715921 -0.108203545 0.06256912 0.030778522 -0.0142944185 -0.018944018
0.037290674 -0.051151976 -0.06500285 -0.13794433 0.09182766 -0.08628195 0.11238203 0.014878016
0.1518594 -0.013013957 0.09028575 0.11693933 0.039507728 -0.097854 0.0860252 -0.0910992
-0.0944683 -0.0054018954 -0.08808277 -0.024441153 -0.09008076 0.103349976 0.019963503 0.1375196
-0.05923915 0.11527038 0.015962651 0.1570714 -0.026705923 0.12585276 -0.1374913 -0.08189767
0.1095432 0.13990161 0.101289354 -0.0036856392 0.1321636 -0.14556664 -0.16223037 -0.039955344
0.06626373 0.13522002 -0.011100475 -0.0390818 -0.03633897 -0.037711516 -0.10092748 -0.10649718
-0.090391695 0.03457369 -0.05570556 -0.11467595 -0.14175877 0.06641041 -0.069810584 -0.06628713
-0.037940666 0.15397626 0.074188165 0.16003625 0.14807342 0.13628535 -0.0033525364 0.10023325
0.095308445 0.072194226 0.019728635 0.11396486 -0.08382901 -0.018822988 0.078243405 -0.0041819992
-0.11866561 -0.10956688 -0.04133656 -0.08690944 -0.041039307 0.114936106 0.08447948 0.20503046
00000000: 9e30 b2bd 67f2 f6bc 8224 80bd aa5a 6abd
00000010: 35c2 c53d 1be5 0a3d a685 8a3d 4eb6 64bc
00000020: 8a00 05bd b1b0 9abd e0e2 e2bd fef5 77bd
00000030: 26f8 fbbd 8a46 143e 23fc f13d 8817 f7ba
00000040: a57f 09be 6953 23be bb90 1e3c 05f3 d1bc
00000050: e5e6 0e3e 4d77 063e 5aa0 1d3c eaea 273d
00000060: 098d 61bd 087a ba3c 5020 563d 472f 0fbd
00000070: 26aa 9ebd 3a70 7cbd 3e25 be3d c2ab 43bd
00000080: 0e61 163e bd1e da3d ef6e f53d d9af f0bc
00000090: 04d7 743d 598e 063e 85f9 873c 363d 83bd
000000a0: da89 cebd 476a 133e 39d3 5e3b e5d2 aa3d
000000b0: ec20 c6bc 0213 9c3b 0396 0bbe 0560 53bd
000000c0: 6452 88bd 8b78 4fbd 3cff 203b 59a3 3b3d
000000d0: 00b0 41bd bd1e c73a 9037 cb3d e897 f6bd
000000e0: 1aee bfbb 9ec7 a0bc ea3d 703d 0e4d 073e
000000f0: a7a8 373e ffea aabd e5f5 02be 127f 12be
00000100: 658e 7d3c 4597 fd3c 4767 02be c0be 1abd
00000110: f65f c9bb 629a 243e 69d9 2a3d 8aad 3b3e
00000120: 5b1c af3d 6cc1 f7bd b5a2 7e3c 3aba 0cbe
00000130: 26d7 36be cc97 01bd 1bcf bbbd b8e9 1bbd
00000140: 143c febb 8ac4 99bd 39f4 193e e808 1d3d
00000150: ac78 00bd 961b 55bd 00a0 1abe c251 063d
00000160: 66ac 353d 14fb 883d 77ce 1f3d 1b57 b8bd
00000170: 17c6 45be 4abd 29bd 373a c53d ba02 afbd
00000180: a84c 0dbd a2f3 b5bd e23e 35be 3da3 c1bd
00000190: 600a e0bd 7b76 c8bc ab87 b33d 6f7e f13d
000001a0: 07e2 76bd bf11 9f3d 2edd aebd d2f1 93bd
000001b0: 8b26 aa3d 42d7 22be 41f3 95bd b6c7 b4bc
000001c0: 6c1b 26bd bd37 f1bc b794 0f3d 2255 563d
000001d0: 064d a0bd d2d1 8bbd c245 193d d6d0 c13d
000001e0: 06f3 8c3d 5317 c6bd 5f34 933d 69ef 69bd
000001f0: 1f68 0abe 5158 19be 9256 0cbe bf90 a2bc
00000200: c4e8 163e b23b a83d c77b db3d 49a6 0cbe
00000210: 4b94 acbd bad2 f83c 74be d1bd e18f d53c
00000220: 7045 05be 7e3d 40bd d478 6ebc 6dd3 df3d
00000230: e209 1d3d 7804 453d 9889 3e3e 911a b23d
00000240: 83aa 69bc 9823 c73d e8d2 493d 77a6 9fbc
00000250: caf6 21bd 4cec ce3c 53f2 1a3e cc63 87bc
00000260: 41cc b53d 4316 fabd 81b4 db3b f897 f3bc
00000270: 3da6 e03d 6184 153e 1cc8 103e fea3 013e
00000280: 7045 af3b 0dae e93d af79 a8bd c54b 6cbd
00000290: 80b3 12be 7feb ca3c ef06 2bbe b5e6 b5bd
000002a0: 2678 1ebe 656f 69bd 042a 413d d299 ddbd
000002b0: 3d24 803d 3d23 fc3c 2333 6abc 7c30 9bbc
000002c0: 1bbe 183d bc84 51bd 3720 85bd 4741 0dbe
000002d0: 2410 bc3d 97b4 b0bd 8d28 e63d ecc2 733c
000002e0: 0881 1b3e 7e38 55bc bce7 b83d e37d ef3d
000002f0: dbd2 213d ae67 c8bd fb2d b03d 3892 babd
00000300: 9978 c1bd 6202 b1bb bd64 b4bd d038 c8bc
00000310: 437c b8bd 27a9 d33d 808a a33c f0d1 0c3e
00000320: c0a4 72bd e112 ec3d 1bc4 823c 53d7 203e
00000330: 61c6 dabc 8cdf 003e 85ca 0cbe f7b9 a7bd
00000340: 2f58 e03d 5e42 0f3e cb70 cf3d c48a 71bb
00000350: e555 073e 6c0f 15be b81f 26be 37a8 23bd
00000360: 47b5 873d 1e77 0a3e c4de 35bc 3d14 20bd
00000370: 2cd8 14bd 6477 1abd 11b3 cebd 321b dabd
00000380: 481f b9bd 249d 0d3d 832b 64bd 39db eabd
00000390: 3629 11be 2e02 883d daf8 8ebd 8cc1 87bd
000003a0: ac67 1bbd f4ab 1d3e f7ef 973d 8be0 233e
000003b0: 8fa0 173e 638e 0b3e 3ab6 5bbb 1747 cd3d
000003c0: 1331 c33d 91da 933d f29d a13c 6966 e93d
000003d0: 8bae abbd ab32 9abc 143e a03d 2709 89bb
000003e0: f506 f3bd 9a64 e0bd 8650 29bd 94fd b1bd
000003f0: d518 28bd 9f63 eb3d 9403 ad3d 81f3 513e

fc1_val.bias f4 [256]
-0.09997478 0.043267272 -0.15075785 0.14293604 -0.03560231 0.20349811 -0.24931005 -0.1369096
0.07834064 -0.036163416 0.264838 0.046312228 0.06865066 0.1567338 -0.13936414 0.18428601
-0.20123631 0.047598477 -0.015817018 0.19354936 -0.008512307 0.11811832 0.008790415 0.049756814
-0.025340071 0.10564935 -0.044544905 0.0071411333 0.2940319 0.14052804 0.05446133 0.10826587
0.14941408 -0.08721374 0.14125353 -0.13789038 -0.039656445 0.10606731 -0.16691355 -0.11607347
0.18137203 -0.077909745 0.096732214 -0.10560087 0.09976865 0.15516594 0.10103333 0.17459549
-0.057610486 0.008781963 -0.12809543 -0.032335706 -0.003704176 -0.070222326 -0.010008746 0.10498506
0.12445667 0.24018294 0.06362933 0.06613346 -0.123270266 -0.035782922 -0.18917146 -0.016041912
0.11486514 0.12038228 0.023136912 -0.23972233 0.16276175 -0.002591756 0.16263264 0.1574208
0.19749731 0.0799305 -0.22503567 -0.015330816 -0.014273454 -0.026059218 0.025607862 -0.055471607
0.11576913 0.18138713 0.3447664 0.07334638 0.20042124 0.08346518 -0.025477437 0.016085979
-0.0009568374 -0.071704 0.19699411 0.15590024 -0.13218118 -0.016517514 -0.08614248 -0.015257665
-0.19230291 -0.09159034 0.1521571 0.1579582 -0.10308003 0.045396145 0.026945522 0.15754998
-0.08607037 -0.14863034 0.11073166 0.1904253 -0.06528187 0.11762688 0.050867453 0.07080893
-0.018615792 -0.040815268 0.011478129 0.2504811 -0.18181434 -0.03305385 -0.0021703078 0.0055610584
0.028489927 -0.03443153 0.16207208 -0.08641425 0.2574277 -0.14195126 -0.102154784 -0.058762707
-0.081238285 0.094111905 -0.058610175 -0.15339614 0.15927088 -0.11352979 0.11121507 0.116869174
0.02216969 -0.022297774 -0.25212696 0.22796166 0.047482774 0.08980191 0.14240043 0.0022827652
-0.0011280477 0.23748289 0.0795428 0.14093395 -0.033920787 -0.022739023 -0.11162091 0.031587828
-0.25720754 0.22622807 -0.115118645 -0.111754894 -0.06305036 -0.03076668 -0.14674355 -0.19479583
-0.040307578 -0.20648374 -0.162109 -0.08500821 0.0062531466 0.13474229 0.016296709 0.08243262
-0.11626074 0.1237316 0.22333871 -0.010173802 -0.08951782 0.04443318 0.13041444 0.02341186
-0.22581123 0.1231717 -0.09783187 0.103549786 -0.06446683 -0.21532764 0.010806463 0.03957255
0.04583169 -0.11002225 0.18135576 0.0073522213 -0.06073898 0.029567273 -0.10585351 0.17686471
0.090082616 0.15484232 -0.006537669 -0.1132365 0.21708047 0.009186576 0.06019043 -0.15834956
0.015067399 -0.06888851 0.06417013 0.07088588 0.17580253 0.06206874 0.19013499 -0.10713982
-0.13915795 0.03570753 -0.031216865 -0.15115125 -0.17355551 -0.06870314 -0.14164191 0.021631027
0.04015204 0.17763022 -0.10084908 -0.16344982 -0.025994021 -0.052644305 0.106976315 -0.2358159
-0.042528227 0.05327382 -0.11237034 -0.20751794 0.12311034 -0.0028351664 -0.13499045 0.08432858
-0.012082915 0.17844683 -0.12624925 0.20176065 0.15065776 -0.010232318 -0.043039195 -0.102127545
-0.16222797 -0.10623681 -0.2834151 0.16751468 -0.008697068 -0.08399215 -0.06358056 -0.033605594
0.14059263 -0.014911123 0.17491624 -0.25816247 -0.0052167135 -0.01130717 0.058739804 0.06611171
00000000: 94bf ccbd 0639 313d 4460 1abe d35d 123e
00000010: bad3 11bd cf61 503e 224b 7fbe 0832 0cbe
00000020: 0f71 a03d 1720 14bd d998 873e e4b1 3d3d
00000030: b898 8c3d d37e 203e 79b5 0ebe 79b5 3c3e
00000040: e410 4ebe 9ff6 423d b192 81bc ce31 463e
00000050: 3477 0bbc 05e8 f13d ac05 103c cdcd 4b3d
00000060: fb95 cfbc b05e d83d b874 36bd 2b00 ea3b
00000070: 598b 963e 95e6 0f3e d812 5f3d 7fba dd3d
00000080: 0100 193e 1e9d b2bd c4a4 103e 2333 0dbe
00000090: cc6e 22bd d139 d93d 63eb 2abe edb7 edbd
000000a0: 97b9 393e 258f 9fbd 8a1b c63d 4545 d8bd
000000b0: 8253 cc3d d2e3 1e3e 90ea ce3d 29c9 323e
000000c0: f9f8 6bbd 39e2 0f3c 732b 03be 7272 04bd
000000d0: c3c1 72bb b9d0 8fbd b9fb 23bc 6802 d73d
000000e0: 23e3 fe3d 84f2 753e 1850 823d fb70 873d
000000f0: 1f75 fcbd 1d91 12bd 2ab6 41be 546a 83bc
00000100: 6a3e eb3d fc8a f63d 9f89 bd3c c579 75be
00000110: 04ab 263e 73da 29bb 2c89 263e eb32 213e
00000120: bc3c 4a3e 9ab2 a33d c06f 66be 1a2e 7bbc
00000130: 35db 69bc 247a d5bc 94c7 d13c 3236 63bd
00000140: 5e18 ed3d 8cbd 393e 3985 b03e a036 963d
00000150: 3a3b 4d3e cbef aa3d 0fb6 d0bc bec6 833c
00000160: 45d4 7aba 8cd9 92bd d3b8 493e 50a4 1f3e
00000170: 815a 07be bd4f 87bc 786b b0bd 49fb 79bc
00000180: 0eeb 44be b793 bbbd 12cf 1b3e cbbf 213e
00000190: 9f1b d3bd 4ff1 393d dbbc dc3c c854 213e
000001a0: aa45 b0bd 8d32 18be 48c7 e23d dafe 423e
000001b0: 80b2 85bd 5de6 f03d 645a 503d 4604 913d
000001c0: 2580 98bc e92d 27bd c30e 3c3c 0f3f 803e
000001d0: 8a2d 3abe 7963 07bd b93b 0ebb 8a39 b63b
000001e0: b563 e93c 1308 0dbd 39f6 253e f4f9 b0bd
000001f0: 90cd 833e ac5b 11be 8736 d1bd 2ab1 70bd
00000200: 4260 a6bd bebd c03d 3911 70bd e113 1dbe
00000210: e817 233e 4e82 e8bd bac4 e33d 1b59 ef3d
00000220: 369d b53c d2a9 b6bc c916 81be c86e 693e
00000230: 4c7d 423d 10ea b73d 6bd1 113e 729a 153b
00000240: 00db 93ba b72e 733e 56e7 a23d fd50 103e
00000250: 86f0 0abd 3047 babc 8199 e4bd 3d62 013d
00000260: b5b0 83be 55a8 673e 53c3 ebbd c0df e4bd
00000270: 8c20 81bd 680a fcbc f143 16be 8f78 47be
00000280: 8f19 25bd 7970 53be e7ff 25be c918 aebd
00000290: 32e7 cc3b e2f9 093e ad80 853c 6fd2 a83d
000002a0: 1c1a eebd fe66 fd3d e7b2 643e 05b0 26bc
000002b0: 1e55 b7bd 91ff 353d 5d8b 053e 3bca bf3c
000002c0: 0f3b 67be 7241 fc3d 135c c8bd e911 d43d
000002d0: 2f07 84bd d97e 5cbe 970d 313c d416 223d
000002e0: 03ba 3b3d 5853 e1bd 53b5 393e e7ea f03b
000002f0: 70c9 78bd 1137 f23c bac9 d8bd 061c 353e
00000300: 3c7d b83d fc8e 1e3e f139 d6bb 8ae8 e7bd
00000310: 584a 5e3e 4b83 163c 3e8a 763d 6326 22be
00000320: 40dd 763c 6b15 8dbd a16b 833d 9e2c 913d
00000330: 9405 343e cb3b 7e3d bfb2 423e 1f6c dbbd
00000340: 6c7f 0ebe 0f42 123d 83ba ffbc 65c7 1abe
00000350: 89b8 31be 3bb4 8cbd 940a 11be 8d33 b13c
00000360: 7776 243d b2e4 353e f689 cebd 645f 27be
00000370: 6af1 d4bc 8ea1 57bd 6616 db3d b979 71be
00000380: 1432 2ebd a635 5a3d 6c22 e6bd 957f 54be
00000390: 4621 fc3d 33ce 39bb f03a 0abe 76b4 ac3d
000003a0: 6bf7 45bc c4ba 363e 7c47 01be 589a 4e3e
000003b0: 0746 1a3e 74a5 27bc de49 30bd 3f28 d1bd
000003c0: 171f 26be af92 d9bd c91b 91be f888 2b3e
000003d0: 267e 0ebc 1404 acbd 8636 82bd 05a6 09bd
000003e0: 84f7 0f3e c84d 74bc 3e1d 333e df2d 84be
000003f0: f7f0 aabb b541 39bc 2699 703d 9465 873d

fc2_val.weight f4 [128, 256]
-0.013772416 -0.013171745 0.011911611 0.024146648 0.0019996497 -0.008500854 -0.013867414 -0.05575478
0.016101731 0.059862986 -0.048579067 -0.018277705 0.03916569 -0.0146531435 0.030183442 0.01426071
-0.043889932 1.0931864e-05 -0.015852354 -0.051932782 -0.04771524 0.040671166 -0.00021896731 0.0041601923
0.0327932 0.020347085 -0.039893404 0.005893072 -0.046675313 -0.025509559 -0.007819906 0.021764793
-0.036838096 -0.0616235 -0.03812794 -0.06276523 -0.0026734546 0.0440299 -0.085342795 -0.020821476
-0.08346569 0.0032191137 0.043726865 0.05544952 -0.0537509 0.017361075 -0.02178414 -0.060337737
0.030116258 0.00023858594 0.015313772 0.015826099 0.031692814 -0.05579507 0.032263815 -0.04942185
-0.020298602 0.03162209 -0.0249594 -0.032993596 -0.019119838 -0.050236955 0.03520487 -0.014327905
-0.0059877974 0.017623618 0.011055959 -0.030442968 -0.01755548 0.06681275 0.012525677 0.050121497
0.008481717 -0.0055861785 0.016182097 0.052484717 0.024179216 -0.0560751 0.01690362 -0.051976833
-0.037899774 -0.020058688 -0.048454985 -0.031687804 -0.02593693 -0.048083626 0.0076325987 0.051762864
-0.0066483095 0.03808439 -0.06990332 -0.09065001 -0.017230647 0.0058994982 0.017887231 -0.0031961391
0.012826979 0.0004949868 0.044124376 0.061336406 -0.05320087 -0.037703294 -0.0036230525 -0.024649048
0.018591609 -0.0026849583 -0.03627488 0.029817276 -0.026030183 0.04779708 -0.0057922993 -0.010618015
0.02732639 -0.032407474 0.032616425 0.0226445 -0.020814648 0.01925473 0.0206367 -0.05145327
-0.0189288 0.040089615 0.04365082 -0.0065552355 -0.028519318 0.052249562 -0.014849865 -0.06187499
0.05443634 -0.021915078 0.03261357 -0.029510632 -0.015705021 0.017200561 0.013327506 0.013401528
-0.07745339 -0.009695161 -0.060912304 -0.0128467055 -0.04463335 -0.04402374 0.035629157 -0.011537775
0.04270366 -0.04083277 -0.044855643 -0.0501464 0.019705363 -0.018074956 -0.049205534 0.012705736
-0.037374564 -0.035437584 0.027647927 -0.028127765 -0.008725911 0.026316524 0.0524718 -0.08501587
0.020276286 -0.07183303 -0.060580477 -0.042237446 0.06565511 -0.022008076 -0.027120281 0.009983861
-0.0077472446 -0.055341125 -0.030260693 -0.06636391 -0.022219978 0.00043020505 -0.019835 0.007784518
-0.051317528 0.03847409 0.030892022 -0.05710919 -0.057878986 0.0017632917 0.060620047 -0.037337624
0.0021891575 -0.072380766 0.05491284 -0.03660576 0.05273795 -0.03687087 -0.03579186 0.01126931
-0.060967274 -0.026782697 0.027814094 -0.04902905 0.01159267 -0.04240403 0.053340815 -0.0316441
0.0084470585 -0.06139415 0.041142 0.049774237 0.016616834 -0.05333622 -0.042398266 0.038119394
0.011940237 0.036417108 0.0066630207 -0.05052293 0.04660063 0.06285282 -0.08862931 -0.05899472
-0.002952368 0.018868266 0.050781846 -0.04442764 0.035056777 -0.039692864 -0.018057982 -0.051273104
-0.024576306 0.0067969807 -0.06542261 0.012146386 0.021295415 -0.017759921 0.0022684338 -0.051271237
-0.019317847 -0.026862618 0.01486377 0.037137683 0.013943413 -0.044766847 0.003327699 -0.0074226293
-0.063429885 0.02287065 0.0061954707 0.039392907 0.0034134195 -0.060385223 -0.037603896 -0.035539445
-0.06308271 -0.018063556 -0.010811995 -0.021650434 0.00911966 0.028048364 -0.01578648 -0.0065660425
00000000: b3a5 61bc 4ece 57bc eb28 433c 31cf c53c
00000010: 8e0c 033b 2a47 0bbc 2634 63bc 205f 64bd
00000020: c7e7 833c e432 753d d8fa 46bd 20bb 95bc
00000030: 346c 203d bd13 70bc 4443 f73c c1a5 693c
00000040: eec5 33bd 0068 3737 ccdc 81bc 78b7 54bd
00000050: 0e71 43bd cf96 263d 979a 65b9 3952 883b
00000060: 2a52 063d eeae a63c 4467 23bd ac1a c13b
00000070: 9d2e 3fbd 6cf9 d0bc 101f 00bc 144c b23c
00000080: 8be3 16bd ec68 7cbd 0b2c 1cbd 0f8b 80bd
00000090: 2035 2fbb b258 343d 34c8 aebd cd91 aabc
000000a0: 0ff0 aabd c4f7 523b f11a 333d 091f 633d
000000b0: e729 5cbd d038 8e3c a774 b2bc b424 77bd
000000c0: 5fb6 f63c ed2c 7a39 9de6 7a3c bca5 813c
000000d0: 53d0 013d 5f89 64bd 1027 043d 916e 4abd
000000e0: 4149 a6bc 2a86 013d a877 ccbc 4b24 07bd
000000f0: 35a1 9cbc 44c5 4dbd fb32 103d 97bf 6abc
00000100: 4935 c4bb 685f 903c 0e24 353c 8863 f9bc
00000110: 83d0 8fbc 20d5 883d 7f38 4d3c 334c 4d3d
00000120: e6f6 0a3c 430c b7bb 5190 843c 37fa 563d
00000130: 7e13 c63c 01af 65bd 7679 8a3c a9e5 54bd
00000140: cb3c 1bbd 1e52 a4bc bc78 46bd 12cb 01bd
00000150: af79 d4bc 56f3 44bd e11a fa3b 4c05 543d
00000160: 10da d9bb 61fe 1b3d 7929 8fbd b6a6 b9bd
00000170: 4927 8dbc 9450 c13b 3e88 923c 5176 51bb
00000180: 4028 523c 00c2 013a c3bb 343d e23b 7b3d
00000190: 28e9 59bd c56e 1abd bc70 6dbb cdec c9bc
000001a0: 6e4d 983c 20f6 2fbb f894 14bd 5c43 f43c
000001b0: 403d d5bc dfc6 433d 54cd bdbb 2ff7 2dbc
000001c0: 98db df3c b3bd 04bd cd98 053d f580 b93c
000001d0: 7b83 aabc 18bc 9d3c 4c0e a93c aac0 52bd
000001e0: 9210 9bbc 0235 243d 34cb 323d 4dcd d6bb
000001f0: 58a1 e9bc a303 563d d94c 73bc a170 7dbd
00000200: a4f8 5e3d 4087 b3bc cf95 053d 48c0 f1bc
00000210: d1a7 80bc 31e8 8c3c 9d5b 5a3c 1592 5b3c
00000220: e29f 9ebd 74d8 1ebc 2e7f 79bd fd7a 52bc
00000230: 76d1 36bd 3d52 34bd e1ef 113d f008 3dbc
00000240: 08ea 2e3d 4340 27bd 8dba 37bd 5066 4dbd
00000250: 246d a13c ee11 94bc be8b 49bd b82b 503c
00000260: 1216 19bd 0027 11bd e87d e23c 336c e6bc
00000270: 20f7 0ebc c095 d73c acec 563d cd1c aebd
00000280: 741a a63c 321d 93bd 3c23 78bd 2c01 2dbd
00000290: 3076 863d 484a b4bc 5a2b debc 5993 233c
000002a0: 99dc fdbb 60ad 62bd 46e5 f7bc cde9 87bd
000002b0: ac06 b6bc 258d e139 037d a2bc 4515 ff3b
000002c0: 5432 52bd 0297 1d3d 4411 fd3c 53eb 69bd
000002d0: 8412 6dbd 401e e73a ba4c 783d 56ef 18bd
000002e0: f877 0f3b 5e3c 94bd 49ec 603d ecef 15bd
000002f0: c003 583d e905 17bd 7c9a 12bd e9a2 383c
00000300: d2b8 79bd 6367 dbbc 62da e33c afd2 48bd
00000310: 2fef 3d3c d9af 2dbd e67b 5a3d 3e9d 01bd
00000320: 8865 0a3c 6f78 7bbd 8484 283d 12e0 4b3d
00000330: 0720 883c 1577 5abd cea9 2dbd 1523 1c3d
00000340: fca0 433c 1b2a 153d 7855 da3b 22f1 4ebd
00000350: 4de0 3e3d fbb8 803d 4983 b5bd 73a4 71bd
00000360: 847c 41bb 9f91 9a3c a000 503d c2f9 35bd
00000370: b297 0f3d fc94 22bd 55ee 93bc bf03 52bd
00000380: 4054 c9bc 35b9 de3b 4afc 85bd a301 473c
00000390: b973 ae3c 417d 91bc 01aa 143b ca01 52bd
000003a0: 7640 9ebc fe0e dcbc 2c87 733c af1d 183d
000003b0: ea72 643c 715d 37bd 8615 5a3b 8739 f3bb
000003c0: 87e7 81bd 3b5b bb3c 6003 cb3b 755a 213d
000003d0: adb3 5f3b 7f56 77bd 8b06 1abd cf91 11bd
000003e0: 8231 81bd 06fa 93bc cb24 31bc 405c b1bc
000003f0: a06a 153c afc5 e53c a652 81bc f527 d7bb

fc2_val.bias f4 [128]
-0.044832963 0.04504303 0.11833473 -0.026839023 0.044916738 -0.016094692 -0.047685 0.032077774
-0.032482397 0.02319411 -0.03178581 -0.03126583 0.030159887 0.02065193 0.060527377 0.039660715
0.034490865 0.0439486 0.041162394 0.057810232 -0.046635248 0.044061333 0.050574124 0.008726041
-0.038880624 -0.04812605 -0.04896963 0.014952313 -0.021309892 0.0033677092 0.06406258 0.020987578
-0.11277675 0.026485799 -0.0124896765 -0.019150397 0.0992421 0.05069557 -0.016375778 0.040236223
0.058113106 -0.011036422 1.1036027e-05 0.07483318 -0.0095086945 -0.08788278 -0.0071357954 -0.030460536
0.03509239 -0.005200727 -0.056359585 0.0016612875 0.047136396 -0.036888145 0.05177741 -0.06949483
0.021586131 0.039951593 -0.04354282 -0.0011810524 -0.0877976 0.09898968 0.03998713 -0.0069189765
-0.027092366 -0.08779701 -0.061458 -0.021106761 0.07570708 0.034162413 -0.063832134 -0.080658175
0.058034107 -0.03472492 0.021157708 0.0051695323 0.018560857 -0.046557773 0.12981485 -0.037892964
-0.0033015867 -0.022875572 -0.055597913 0.046588525 -0.048234433 0.06679446 0.037015587 0.03586026
-0.058888488 0.02876653 0.02273041 0.05753047 -0.0033181068 -0.029793052 -0.027261188 -0.04647795
0.04625123 0.042198453 -0.059542026 0.045288518 0.051055156 -0.029055065 0.034551177 0.00087714806
0.055858985 -0.008466492 -0.12986684 -0.04617034 0.02896684 0.14770584 0.11092556 0.023424119
0.010252109 0.01362292 0.06465514 0.017496368 -0.008940056 -0.06996752 -0.000861142 0.08175996
0.038403496 0.05881289 0.042317815 0.03699513 -0.026508836 0.060419243 0.036397483 0.017772412
00000000: c5a2 37bd 0a7f 383d 7b59 f23d 83dd dbbc
00000010: 9dfa 373d 04d9 83bc 5951 43bd fc63 033d
00000020: 430c 05bd 9301 be3c d631 02bd 9910 00bd
00000030: de11 f73c 3c2e a93c 8eeb 773d 4673 223d
00000040: 4b46 0d3d 7203 343d e699 283d 6cca 6c3d
00000050: 9a04 3fbd a879 343d d026 4f3d abf7 0e3c
00000060: 4a41 1fbd d21f 45bd 6194 48bd 8cfa 743c
00000070: 1592 aebc c9b4 5c3b 3e33 833d 24ee ab3c
00000080: 7ff7 e6bd bff8 d83c 80a1 4cbc 4be1 9cbc
00000090: 713f cb3d 28a6 4f3d 7f26 86bc bdce 243d
000000a0: 0208 6e3d 1cd2 34bc 6027 3937 2342 993d
000000b0: 5bca 1bbc e3fb b3bd 64d3 e9bb 6088 f9bc
000000c0: 0abd 0f3d dc6a aabb 4fd9 66bd 8fbf d93a
000000d0: 1812 413d 0618 17bd 8d14 543d 4e53 8ebd
000000e0: 66d5 b03c 48a4 233d f559 32bd 8bcd 9aba
000000f0: 3acf b3bd 1abb ca3d 8bc9 233d 95b8 e2bb
00000100: cff0 ddbc ebce b3bd 62bb 7bbd 16e8 acbc
00000110: 500c 9b3d e3ed 0b3d 6cba 82bd 1d30 a5bd
00000120: 2cb5 6d3d b83b 0ebd ee52 ad3c 2e65 a93b
00000130: f00c 983c 5db3 3ebd 2fee 043e a735 1bbd
00000140: 6f5f 58bb 8d65 bbbc a3ba 63bd 9cd3 3e3d
00000150: 7891 45bd 89cb 883d a89d 173d 35e2 123d
00000160: 0e35 71bd c9a7 eb3c 2035 ba3c 12a5 6b3d
00000170: 9874 59bb 8f10 f4bc db52 dfbc aa5f 3ebd
00000180: ee71 3d3d 49d8 2c3d 57e2 73bd 7480 393d
00000190: 361f 513d e304 eebc 8985 0d3d 69f0 653a
000001a0: 64cc 643d 0bb7 0abc d0fb 04be 1c1d 3dbd
000001b0: de4b ed3c 3340 173e f12c e33d f0e3 bf3c
000001c0: 76f8 273c ab32 5f3c ea69 843d 8b54 8f3c
000001d0: 5079 12bc 224b 8fbd 43be 61ba c471 a73d
000001e0: fc4c 1d3d c9e5 703d 7255 2d3d 3588 173d
000001f0: 0f29 d9bc 2b7a 773d 8715 153d 7397 913c

fc3_val.weight f4 [1, 128]
0.12606215 -0.11318806 0.4008988 -0.17767093 0.20018621 -0.082705826 0.28487408 -0.08788326
-0.17803241 -0.065672465 0.21167473 -0.080085866 0.24579884 0.00632137 -0.11596829 -0.088194594
-0.12182501 0.45100886 -0.09826416 -0.13124835 0.27019814 -0.10811531 -0.14397848 -0.05531965
-0.13310811 -0.14467949 -0.08718052 -0.13600609 0.19600303 0.141924 0.3807417 0.13021368
0.33678904 0.20459588 -0.11358253 -0.10298536 0.38762763 -0.11925278 -0.056829017 0.2522934
0.22407529 0.28368822 -0.09721319 0.4280886 -0.2402508 0.22012204 0.115379125 -0.08001298
-0.10592446 -0.7749241 0.06260778 0.14217779 -0.087508276 -0.10933669 -0.07876544 0.2542015
0.2592263 0.37412286 -0.07573798 -0.111404024 0.23380782 -0.42035103 0.2953175 -0.16133624
-0.07670551 0.30062476 -0.09840552 0.184239 -0.32202435 -0.31489295 -0.20965645 0.39481953
-0.0728764 -0.13999046 0.23046923 0.22833139 -0.1767231 -0.04915977 0.3819709 0.0028110351
-0.23267806 -0.09770627 -0.13007201 -0.06960874 -0.03642024 -0.11717858 -0.06910511 0.28714266
-0.12429091 0.16191733 -0.13609353 0.24422461 0.17378621 -0.0716295 -0.073933505 -0.059876204
-0.25198737 -0.14124772 -0.09177434 0.24826655 -0.1021557 -0.15956518 -0.12838027 0.22422457
-0.07637769 -0.064550966 0.36137217 0.039083388 -0.14066009 0.40917307 0.40871134 0.16524056
-0.13507333 -0.10053535 0.14617316 -0.14241084 -0.59614104 0.35637635 -0.10760755 0.2946908
0.24907409 -0.08378937 -0.11916105 -0.117764354 0.15967521 -0.05831416 0.14528432 -0.10057684
00000000: 7016 013e 24cf e7bd 9c42 cd3e 5eef 35be
00000010: 9dfd 4c3e ac61 a9bd 04db 913e 23fc b3bd
00000020: 214e 36be 497f 86bd 43c1 583e 0f04 a4bd
00000030: b1b2 7b3e 7f23 cf3b c880 edbd 5e9f b4bd
00000040: 647f f9bd a2ea e63e b83e c9bd f865 06be
00000050: 6957 8a3e 8f6b ddbd 186f 13be db96 62bd
00000060: 7e4d 08be dc26 14be b38b b2bd 2e45 0bbe
00000070: 05b5 483e 8654 113e 93f0 c23e bc56 053e
00000080: 9d6f ac3e 9581 513e f59d e8bd fde9 d2bd
00000090: 2177 c63e cd3a f4bd 8bc5 68bd 9a2c 813e
000000a0: fe73 653e 953f 913e b517 c7bd 6e2e db3e
000000b0: 4e04 76be ac67 613e e44b ec3d d8dd a3bd
000000c0: ecee d8bd 6d61 46bf 8238 803d 0e97 113e
000000d0: 8a37 b3bd eaeb dfbd c64f a1bd b326 823e
000000e0: 4fb9 843e 088d bf3e 841c 9bbd cb27 e4bd
000000f0: 516b 6f3e 4038 d7be db33 973e 5435 25be
00000100: c717 9dbd 7deb 993e d588 c9bd 26a9 3c3e
00000110: 60e0 a4be a639 a1be 2eb0 56be c925 ca3e
00000120: 3940 95bd a959 0fbe 2000 6c3e b4cf 693e
00000130: e6f6 34be c15b 49bd b191 c33e 5839 383b
00000140: 2843 6ebe 3a1a c8bd 9931 05be 078f 8ebd
00000150: 642d 15bd 53fb efbd fb86 8dbd 5d04 933e
00000160: 3c8c febd a8cd 253e 1a5c 0bbe 0416 7a3e
00000170: 03f5 313e 7db2 92bd 736a 97bd c040 75bd
00000180: 7d04 81be 3ea3 10be 2ff4 bbbd 9639 7e3e
00000190: 0237 d1bd 0e65 23be 1e76 03be 209b 653e
000001a0: e86b 9cbd 4c33 84bd c605 b93e e715 203d
000001b0: 3309 10be 227f d13e 9d42 d13e d234 293e
000001c0: aa50 0abe 7ae5 cdbd 6bae 153e 26d4 11be
000001d0: b39c 18bf f676 b63e 5961 dcbd b6e1 963e
000001e0: 470d 7f3e c399 abbd b50a f4bd 702e f1bd
000001f0: e681 233e d4da 6ebd 6ac5 143e 3bfb cdbd

fc1_adv.weight f4 [256, 43]
-0.046051122 0.064439125 0.11300986 0.14233142 0.13348255 0.01332611 0.07178724 -0.054158192
0.0024736547 0.12905723 -0.036340516 0.11432806 0.03337985 0.12452175 0.0141910175 0.14067335
-0.107325375 -0.022818593 0.04155747 -0.029129738 -0.014645945 -0.029051017 -0.031416576 -0.101393744
0.030838577 0.1055628 -0.118605204 0.07176266 0.12102607 -0.12963599 0.046124645 0.025050834
-0.09039223 -0.13139382 -0.07988107 -0.10007066 0.09619129 0.0673897 0.13932155 -0.13828902
0.23057595 -0.12466791 0.039348196 -0.1264771 0.09318227 0.085668914 0.16266689 -0.100198455
0.066655725 -0.020501766 0.04418343 -0.10635007 0.20163208 0.117141485 0.1542422 0.046901774
-0.040509336 -0.09808367 0.093123235 -0.17895515 -0.13987194 0.028108886 0.017793177 0.057585523
0.005122953 0.1520766 -0.023082575 0.015162349 -0.040605232 -0.15251273 -0.12039858 0.12933074
0.13453236 -0.13361546 -0.053224303 -0.07763988 -0.18617256 -0.15904757 0.00083214795 -0.11496815
-0.012894485 0.124052994 0.13943915 0.15936546 -0.1039101 -0.10490674 0.02726981 0.010174879
-0.080739036 -0.050815012 0.12583387 -0.030724293 -0.1356155 -0.14838351 -0.08723728 -0.047016658
0.084993355 0.10166883 0.126398 0.1564512 -0.009559198 0.09125692 0.0026743975 0.07612044
0.15733297 -0.0014971485 0.09949071 -0.044779733 -0.083348386 -0.05303145 0.06906441 0.030352997
0.06209979 0.15179712 -0.036344305 0.14341874 -0.08234051 -0.062315125 0.08734621 0.1146987
0.14647019 -0.027504101 0.010567494 0.0039195516 0.083553284 0.034543384 0.12468242 0.008140044
-0.0141062 -0.07059281 0.08165718 0.019172467 0.12860025 0.06523406 0.107705995 0.11206936
-0.028617138 -0.0024766233 0.1279677 -0.122737944 0.020825382 0.00432141 0.024281403 0.068661064
0.1232046 -0.091864906 -0.051355377 0.020065822 0.04507251 0.017170621 -0.15580651 -0.12654763
-0.13625164 0.012423898 -0.008609028 0.121189445 -0.12368658 -0.15065865 -0.05881975 -0.038126152
0.06570664 0.0949435 -0.1612362 -0.14729476 0.035399817 0.047998622 -0.044087127 0.14695285
0.044177916 0.11839423 -0.08715198 -0.035288475 -0.1765626 -0.09492673 0.14624123 -0.055653032
0.029872503 0.08128199 -0.07296573 -0.039004516 -0.020377796 0.073651254 -0.0431913 0.12557273
-0.06798699 -0.16953635 0.08058658 -0.12470826 0.022420082 -0.17917153 -0.06742502 -0.11517005
0.097573854 -0.063435525 -0.083099164 0.09886964 -0.04980755 -0.10998041 -0.03188657 -0.021132061
-0.039774586 0.018982828 0.13488016 -0.12959577 -0.1078906 0.08043018 0.043822788 -0.012384872
0.087772645 0.009197507 -0.031323116 0.12286603 0.00057973043 0.08504824 0.09504201 -0.012497646
0.12961842 -0.059773855 0.13233133 -0.07305979 -0.029745493 -0.08438647 -0.042035263 0.1290815
0.104888014 0.111501485 0.08261802 -0.06252617 0.13582134 -0.039712556 -0.13466305 0.11965539
0.11886918 0.13679437 0.022113457 0.05387922 -0.012157311 -0.13162579 -0.10217951 -0.109255865
-0.071526915 0.03314583 0.07760691 -0.07166885 -0.10509091 -0.061692297 0.12540644 -0.118022196
-0.11364104 0.09741913 -0.10689786 0.06747655 0.06841795 0.124082394 -0.11835195 0.152662
00000000: 1aa0 3cbd a9f8 833d b771 e73d 54bf 113e
00000010: a6af 083e c255 5a3c 3005 933d fbd4 5dbd
00000020: 0a1d 223b 9427 043e cbd9 14bd d424 ea3d
00000030: 4fb9 083d 4205 ff3d 7181 683c ad0c 103e
00000040: 68cd dbbd 0fee babc 2a38 2a3d 7da1 eebc
00000050: 8cf5 6fbc 66fc edbc abae 00bd 86a7 cfbd
00000060: 2fa1 fc3c 4f31 d83d 49e7 f2bd 4df8 923d
00000070: 84dc f73d 4cbf 04be 32ed 3c3d 6837 cd3c
00000080: 901f b9bd 1a8c 06be b098 a3bd d9f1 ccbd
00000090: f0ff c43d 9c03 8a3d 4faa 0e3e a39b 0dbe
000000a0: 1a1c 6c3e e451 ffbd 932b 213d 3783 01be
000000b0: 59d6 be3d 2f73 af3d 2692 263e d934 cdbd
000000c0: cc82 883d 52f3 a7bc aff9 343d 11ce d9bd
000000d0: a478 4e3e e0e7 ef3d abf1 1d3e 131c 403d
000000e0: 1eed 25bd 17e0 c8bd 65b7 be3d 0540 37be
000000f0: 973a 0fbe 9b44 e63c ffc2 913c ccde 6b3d
00000100: 72de a73b f8b9 1b3e ab17 bdbc 806b 783c
00000110: ac51 26bd 4c2c 1cbe 8893 f6bd 476f 043e
00000120: dac2 093e 7ed2 08be ba01 5abd a801 9fbd
00000130: 05a4 3ebe 5edd 22be 8124 5a3a 6c74 ebbd
00000140: 6443 53bc 7f0f fe3d 23c9 0e3e b330 233e
00000150: d2ce d4bd 58d9 d6bd f064 df3c 89b4 263c
00000160: 825a a5bd 6723 50bd 98da 003e 83b1 fbbc
00000170: cade 0abe d9f1 17be 76a9 b2bd 8a94 40bd
00000180: ff10 ae3d bf37 d03d 7a6e 013e be34 203e
00000190: 2f9e 1cbc e8e4 ba3d f244 2f3b 09e5 9b3d
000001a0: e51b 213e f83b c4ba c9c1 cb3d f46a 37bd
000001b0: 8fb2 aabd 8137 59bd a471 8d3d d9a6 f83c
000001c0: 595c 7e3d b470 1b3e c4dd 14bd 5ddc 123e
000001d0: 24a2 a8bd 253e 7fbd 92e2 b23d 27e7 ea3d
000001e0: 48fc 153e 4850 e1bc 4823 2d3c 956f 803b
000001f0: fc1d ab3d 5d7d 0d3d 7f59 ff3d d25d 053c
00000200: b11d 67bc f792 90bd e13b a73d 940f 9d3c
00000210: c9af 033e 6f99 853d f694 dc3d 9f84 e53d
00000220: 7d6e eabc d84e 22bb f709 033e 085e fbbd
00000230: fe99 aa3c 9d9a 8d3b cbe9 c63c 2c9e 8c3d
00000240: b152 fc3d ab23 bcbd 045a 52bd 1461 a43c
00000250: f49d 383d 67a9 8c3c be8b 1fbe b495 01be
00000260: 8d85 0bbe 9b8d 4b3c e10c 0dbc 2c32 f83d
00000270: 644f fdbd 4346 1abe faec 70bd 2b2a 1cbd
00000280: 3491 863d bd71 c23d 1a1b 25be 70d4 16be
00000290: 66ff 103d 349a 443d b494 34bd cf7a 163e
000002a0: e7f3 343d ad78 f23d bd7c b2bd a68a 10bd
000002b0: d4cc 34be f268 c2bd 43c0 153e 6ff4 63bd
000002c0: 2eb7 f43c 2c77 a63d 0f6f 95bd 33c3 1fbd
000002d0: 56ef a6bc 78d6 963d 5ce9 30bd 2396 003e
000002e0: c33c 8bbd f09a 2dbe 940a a53d 0b67 ffbd
000002f0: 52aa b73c be78 37be 2116 8abd 46de ebbd
00000300: cdd4 c73d 7cea 81bd e52f aabd 2a7c ca3d
00000310: 0003 4cbd 693d e1bd 7e9b 02bd 251d adbc
00000320: adea 22bd e081 9b3c 061e 0a3e c1b4 04be
00000330: bff5 dcbd 94b8 a43d 867f 333d ebe9 4abc
00000340: 25c2 b33d 24b1 163c ab4c 00bd 2fa1 fb3d
00000350: 0df9 173a c62d ae3d 63a5 c23d edc2 4cbc
00000360: b1ba 043e 6ed5 74bd dd81 073e 5fa0 95bd
00000370: d2ac f3bc d0d2 acbd 2b2d 2cbd f12d 043e
00000380: 87cf d63d e45a e43d a333 a93d b80d 80bd
00000390: c014 0b3e a2a9 22bd 1ce5 09be e30d f53d
000003a0: af71 f33d d313 0c3e 4827 b53c 75b0 5c3d
000003b0: 752f 47bc e9c8 06be 7e43 d1bd 8ac1 dfbd
000003c0: b47c 92bd ecc3 073d 5ff0 9e3d 1ec7 92bd
000003d0: e739 d7bd 10b1 7cbd 8c6a 003e 9fb5 f1bd
000003e0: a2bc e8bd ae83 c73d 44ed dabd 2531 8a3d
000003f0: b61e 8c3d e91e fe3d 8262 f2bd 6d53 1c3e

fc1_adv.bias f4 [256]
0.07172884 -0.03712702 0.13105355 0.20843264 0.08630071 -0.15111075 0.089975715 -0.24565189
-0.24776374 -0.11047939 -0.099219754 0.2051993 -0.095319524 0.1999012 -0.114342436 0.14284308
0.023392055 -0.05317298 0.063619815 0.1773006 -0.034044825 -0.09574404 -0.26351762 -0.022438183
-0.20782554 0.23288739 0.024852755 0.20774433 0.022764912 -0.00529854 -0.06345357 0.18630871
-0.29583108 -0.020029662 0.062322672 0.19931605 -0.14662527 0.15069135 0.11757528 0.14113465
-0.02996447 -0.2372 0.13069035 0.2465898 -0.0034091936 0.11749292 -0.27758318 -0.12849444
0.09539755 0.10393325 0.14892398 0.15788874 -0.2164708 -0.052283093 0.019426439 -0.09306174
-0.07922316 0.14301641 -0.20618297 0.03426917 -0.03444474 -0.19847924 -0.17413014 -0.06703493
0.007789999 -0.115160525 -0.23977913 0.14813265 0.08354361 0.06753075 0.052260373 0.029486287
-0.110799834 0.057746492 -0.058152843 -0.048230506 -0.1391552 0.2138147 0.05591692 -0.2669963
-0.25924578 -0.1641448 -0.06310149 0.18969157 0.26829442 -0.16994888 0.16919462 -0.1934059
-0.09796678 0.2533492 0.08662605 -0.073234476 0.10227539 0.09254023 0.001469941 0.054715417
0.085523345 -0.048522417 0.31948444 0.0033400932 0.22538486 0.007789019 -0.13137832 0.26426864
-0.17462571 -0.071632326 0.051541664 -0.24999964 0.21535315 0.05816506 -0.049702417 -0.10390824
-0.018377906 0.16762453 0.046230603 0.31484488 -0.0125202425 -0.0033222805 -0.004968972 -0.10926844
0.019304227 0.06187561 0.0016266186 0.14376159 0.11253331 -0.056056794 -0.16863774 0.003681092
-0.2564858 0.1582411 -0.25513026 0.034033373 -0.20642686 -0.19343092 0.03953439 -0.038563352
0.11748265 0.40383655 0.09947717 -0.18461807 0.03305164 0.011562694 -0.15566655 0.12484115
0.11179786 0.15482971 -0.0678986 0.07171065 0.030921433 -0.06939078 0.16943909 -0.16458544
0.010347519 0.09406851 0.13178955 0.05193644 0.024674244 0.13849388 0.17345189 0.27428684
0.018050555 -0.09389312 0.18233542 -0.12853153 -0.21684141 0.28019494 -0.21988688 0.27381885
-0.13090207 -0.07692499 -0.11866391 0.018254405 -0.26779032 0.04103162 -0.047179475 -0.19085385
-0.013882798 0.094708025 -0.17602193 0.04241667 -0.048481014 0.09433782 0.34430337 0.02958701
0.009667122 -0.13509247 0.05804336 0.17487459 0.16736929 -0.034067098 -0.07350432 -0.124169745
-0.025454475 0.21172403 0.057864062 0.117095634 -0.11216576 0.23312046 0.08664243 -0.23564002
0.24208471 -0.15745798 0.119668074 -0.15833297 -0.30836728 -0.14009605 -0.34018168 -0.016501077
-0.0826101 0.062100735 -0.28508455 -0.1325114 -0.19262542 0.061191734 0.36045066 0.11229317
0.2777787 0.2879576 -0.090255626 0.2312591 0.33300304 -0.065144435 0.14751257 0.12107546
-0.09453862 0.06252857 0.027486254 -0.02797882 -0.20431389 -0.09713592 0.17234983 -0.26346675
-0.16075225 -0.006729098 0.20163427 0.14272344 0.081017576 -0.23731473 0.23854055 0.026942978
0.062365577 -0.18458638 -0.09854895 0.14196457 -0.13808648 0.16841224 -0.0028053732 -0.2763348
0.10236791 -0.26033592 0.040465593 -0.1759373 -0.23081721 0.042757127 -0.22550371 0.2586997
00000000: 92e6 923d 8112 18bd e732 063e 5e6f 553e
00000010: 6dbe b03d c7bc 1abe 3045 b83d 2b8c 7bbe
00000020: c7b5 7dbe 0543 e2bd ba33 cbbd c41f 523e
00000030: e236 c3bd e6b2 4c3e 5e2c eabd 7545 123e
00000040: b2a0 bf3c e9cb 59bd 1b4b 823d 4a8e 353e
00000050: 9672 0bbd 7415 c4bd c8eb 86be 48d0 b7bc
00000060: 38d0 54be 087a 6e3e 0198 cb3c eeba 543e
00000070: 7b7d ba3c 609f adbb f2f3 81bd b6c7 3e3e
00000080: 2c77 97be 3f15 a4bc 0f46 7f3d 8219 4c3e
00000090: ef24 16be d54e 1a3e 4fcb f03d 9a85 103e
000000a0: 0c78 f5bc 8fe4 72be b1d3 053e 0982 7c3e
000000b0: c76c 5fbb 21a0 f03d 621f 8ebe 0c94 03be
000000c0: ca5f c33d f5da d43d 877f 183e 96ad 213e
000000d0: 85aa 5dbe cc26 56bd 3224 9f3c 2797 bebd
000000e0: c13f a2bd e572 123e a121 53be d45d 0c3d
000000f0: ed15 0dbd 243e 4bbe 2c4f 32be 9c49 89bd
00000100: 3f43 ff3b 48d9 ebbd a988 75be 16b0 173e
00000110: ea18 ab3d 904d 8a3d f90e 563d 3a8d f13c
00000120: 06eb e2bd 9687 6c3d ad31 6ebd 5a8d 45bd
00000130: b37e 0ebe 3ef2 5a3e 2409 653d bdb3 88be
00000140: ddbb 84be 9315 28be 5b3b 81bd 823e 423e
00000150: e35d 893e 1407 2ebe 5b41 2d3e 320c 46be
00000160: cfa2 c8bd fdb6 813e 0069 b13d f5fb 95bd
00000170: c275 d13d bb85 bd3d 09ab c03a 461d 603d
00000180: dd26 af3d 71bf 46bd 7793 a33e 77e5 5a3b
00000190: 4acb 663e 073b ff3b 0a88 06be 384e 873e
000001a0: 15d1 32be f8b3 92bd 5a1d 533d e8ff 7fbe
000001b0: 8985 5c3e 7c3e 6e3d c394 4bbd d8cd d4bd
000001c0: 438d 96bc c4a5 2b3e 4d5c 3d3d 5933 a13e
000001d0: b421 4dbc 9eba 59bb c2d2 a2bb 22c8 dfbd
000001e0: e623 9e3c 4871 7d3d 4334 d53a 3d36 133e
000001f0: dd77 e63d cf9b 65bd 5faf 2cbe 7a3e 713b
00000200: 1b52 83be f409 223e 6fa0 82be 9466 0b3d
00000210: 9061 53be c112 46be d0ee 213d 9bf4 1dbd
00000220: be9a f03d aac3 ce3e b0ba cb3d 850c 3dbe
00000230: 2861 073d 7471 3d3c 0d67 1fbe b8ac ff3d
00000240: 47f6 e43d ae8b 1e3e 6c0e 8bbd 09dd 923d
00000250: f24e fd3c c11c 8ebd 7181 2d3e 1689 28be
00000260: a488 293c fea6 c03d d7f3 063e 4ebb 543d
00000270: a421 ca3c 57d1 0d3e 5f9d 313e 536f 8c3e
00000280: c2de 933c 094b c0bd 23b6 3a3e c59d 03be
00000290: ad0b 5ebe b675 8f3e 072a 61be fc31 8c3e
000002a0: 310b 06be d98a 9dbd 1006 f3bd 438a 953c
000002b0: d01b 89be c610 283d 443f 41bd 316f 43be
000002c0: ad74 63bc 48f6 c13d 183f 34be 1abd 2d3d
000002d0: 0794 46bd 3034 c13d 8848 b03e 7560 f23c
000002e0: d962 1e3c ae55 0abe e0be 6d3d 5312 333e
000002f0: db62 2b3e f189 0bbd 6f89 96bd b54c febd
00000300: e785 d0bc 2fce 583e de02 6d3d d6cf ef3d
00000310: 29b7 e5bd 21b7 6e3e 9671 b13d 9e4b 71be
00000320: 0ee5 773e aa3c 21be 8914 f53d 0a22 22be
00000330: 51e2 9dbe 5775 0fbe 4b2c aebe 442d 87bc
00000340: 7c2f a9bd 575d 7e3d 9af6 91be 12b1 07be
00000350: 993f 45be 2fa4 7a3d fd8c b83e f6f9 e53d
00000360: 0339 8e3e 2e6f 933e f1d7 b8bd 2fcf 6c3e
00000370: 607f aa3e 726a 85bd 890d 173e 69f6 f73d
00000380: 779d c1bd fb0e 803d da2a e13c d733 e5bc
00000390: a937 51be 32ef c6bd 797c 303e 1de5 86be
000003a0: 3d9c 24be c47f dcbb 3779 4e3e 1826 123e
000003b0: 8bec a53d a202 73be f943 743e 85b7 dc3c
000003c0: 0c73 7f3d 3604 3dbe 08d4 c9bd 295f 113e
000003d0: 8b66 0dbe 4274 2c3e 5ada 37bb c17b 8dbe
000003e0: 44a6 d13d c04a 85be 40bf 253d e828 34be
000003f0: 595b 6cbe 1922 2f3d 72ea 66be 4974 843e

fc2_adv.weight f4 [128, 256]
-0.046461437 -0.0500544 0.021068832 -0.018051915 -0.03317473 0.048303008 0.06383401 0.07384046
0.05017623 0.08117847 0.07797523 0.020825922 -0.10741575 0.045597885 -0.03791278 0.0496216
-0.036922984 0.074891806 0.013526814 0.071084835 0.00012143271 -0.022166025 0.06730304 0.025261324
0.1316224 0.003383832 -0.12067347 0.008433726 -0.0067173336 0.2756161 0.19711727 -0.024650011
0.09994072 0.14855692 0.047689345 0.009699248 0.023273185 0.059860308 -0.042323653 0.043096323
-0.07489069 0.0058100186 -0.0077785878 0.02125952 0.07260864 0.0030022275 0.11132788 0.039206304
0.016745223 0.030582752 0.008812382 0.028816996 0.09576167 0.009346332 -0.019555014 -0.0012212701
-0.06637616 0.08718166 0.07977549 -0.032726124 -0.0072936644 -0.0062895697 -0.035786707 -0.03460899
-0.059491962 -0.019093018 0.026519574 0.036117584 -0.05905108 0.059284095 -0.056590784 0.013292039
-0.029506838 -0.117760696 -0.036550056 -0.10146854 -0.011757667 0.038215026 -0.039359707 -0.023473062
0.03321712 0.041045666 -0.128966 0.06991229 0.066608205 0.0856693 -0.073727235 0.04304752
-0.107935555 0.055168517 -0.0803854 0.004461654 0.031531036 0.033191785 0.034299992 -0.058837958
-0.027910978 0.0020989056 -0.0020108414 -0.07677798 0.013367283 -0.018522043 0.055274695 0.01933116
0.052130472 0.1511581 -0.00950017 0.061709374 0.3262748 -0.04802833 0.08490282 0.10282914
0.10478219 0.009899919 0.07516873 -0.27106562 0.02766711 -0.111669116 0.04759546 0.01734194
0.0867761 -0.012093393 0.07653299 -0.0150449 0.062388893 -0.147137 0.04560031 0.06496801
0.13341242 0.065481596 0.081602916 -0.024395788 0.005915236 0.040389623 0.10080495 0.07725338
-0.00959343 -0.0046379413 0.081284285 0.087257236 0.16142711 0.14597178 0.0061033247 -0.032684516
0.010524303 -0.03716083 0.07171541 0.0026872223 -0.0129644545 -0.01839365 0.19600752 0.024593407
0.003741153 -0.05500131 -0.00030066323 -0.01128517 -0.051816523 0.004834443 0.007981347 -0.019331489
-0.0832986 -0.12400033 -0.004247854 0.08258392 -0.021297205 -0.05028791 0.051808782 0.008644013
0.0063178916 -0.025206652 0.17636003 0.014036394 0.06579251 0.10803581 -0.025580786 -0.03617866
-0.04461799 0.04379664 -0.033186268 0.05242472 0.012967491 0.023104683 0.040184136 0.063669346
-0.068023734 0.009672963 0.057134658 0.06669879 -0.0128472205 -0.025954073 0.022830646 0.0024127155
-0.008904231 -0.001798669 -0.086625 -0.03741774 0.08014607 0.03637289 0.008159622 -0.016108524
0.10143914 0.04133829 0.12716001 -0.024033936 0.09654835 0.087173425 -0.49365893 -0.015205684
0.117246315 0.022071075 0.0040939497 0.032974403 -0.059473753 0.023210496 -0.1086515 0.024425937
-0.030556252 0.070011154 0.011954952 0.05502852 -0.008855936 0.03479905 0.121807314 -0.041621428
0.0074645136 0.10775477 0.018915053 -0.0024528126 0.05054805 -0.07363928 -0.03245833 0.09052575
0.055949893 0.07868101 -0.019066744 0.012454374 -0.02828713 0.054966755 0.3152111 0.034099855
-0.050235074 -0.027414236 0.030796666 -0.012685713 0.056733612 -0.059684027 0.05579266 0.03152859
0.018758474 0.071759805 -0.027046265 0.004097824 0.027961768 0.008645084 0.12128688 -0.08576375
00000000: 594e 3ebd d805 4dbd 8b98 ac3c 9ce1 93bc
00000010: 3ae2 07bd 60d9 453d 68bb 823d ab39 973d
00000020: 9785 4d3d e640 a63d 7ab1 9f3d 209b aa3c
00000030: cafc dbbd d9c4 3a3d 6e4a 1bbd 0540 4b3d
00000040: 8e3c 17bd e060 993d 929f 5d3c ed94 913d
00000050: b1a9 fe38 8695 b5bc 2dd6 893d d6f0 ce3c
00000060: 06c8 063e 48c3 5d3b a723 f7bd 9c2d 0a3c
00000070: 141d dcbb 8e1d 8d3e 1cd9 493e d2ee c9bc
00000080: b8ad cc3d 4e1f 183e e755 433d 98e9 1e3c
00000090: 68a7 be3c 1530 753d 915b 2dbd c585 303d
000000a0: 4a60 99bd f861 be3b 86e3 febb 7228 ae3c
000000b0: d7b3 943d 05c1 443b dfff e33d ca96 203d
000000c0: 472d 893c ae88 fa3c cf61 103c 9f11 ec3c
000000d0: b21e c43d 5c21 193c d631 a0bc 0613 a0ba
000000e0: 39f0 87bd 4c8c b23d 5561 a33d d40b 06bd
000000f0: b1ff eebb bc18 cebb 1595 12bd 28c2 0dbd
00000100: d8ad 73bd f668 9cbc 943f d93c 08f0 133d
00000110: 8cdf 71bd e1d3 723d bdcb 67bd dac6 593c
00000120: 53b8 f1bc 852c f1bd 83b5 15bd bdce cfbd
00000130: 3ba3 40bc 5c87 1c3d a537 21bd 944a c0bc
00000140: ad0e 083d 801f 283d aa0f 04be 2d2e 8f3d
00000150: e269 883d 6373 af3d 4efe 96bd 9952 303d
00000160: 510d ddbd 62f8 613d 1aa1 a4bd 1133 923b
00000170: b026 013d 1cf4 073d 267e 0c3d 1200 71bd
00000180: 90a5 e4bc cb8d 093b 52c8 03bb c63d 9dbd
00000190: 7302 5b3c 8abb 97bc b867 623d 615c 9e3c
000001a0: c386 553d 30c9 1a3e 9aa6 1bbc f8c2 7c3d
000001b0: 7e0d a73e 5bb9 44bd 88e1 ad3d 1698 d23d
000001c0: 0b98 d63d 4533 223c 10f2 993d 1dc9 8abe
000001d0: 23a6 e23c c7b2 e4bd 75f3 423d af10 8e3c
000001e0: abb7 b13d 5e23 46bc 54bd 9c3d e27e 76bc
000001f0: 7f8b 7f3d 15ab 16be 64c7 3a3d f30d 853d
00000200: 449d 083e 371b 863d 6e1f a73d add9 c7bc
00000210: 99d4 c13b 976f 253d d372 ce3d 0537 9e3d
00000220: c32d 1dbc dff9 97bb 6078 a63d ecb3 b23d
00000230: 264d 253e a079 153e 66fe c73b 33e0 05bd
00000240: 206e 2c3c f435 18bd 87df 923d 1c1c 303b
00000250: dd68 54bc 48ae 96bc 32b6 483e 1d78 c93c
00000260: 222e 753b 0e49 61bd 56a2 9db9 6fe5 38bc
00000270: 903d 54bd 3f6a 9e3b 32c4 023c 125d 9ebc
00000280: 7598 aabd e3f3 fdbd 9531 8bbb c221 a93d
00000290: 7a77 aebc b2fa 4dbd 7235 543d 9e9f 0d3c
000002a0: 5106 cf3b 2e7e cebc b997 343e e7f8 653c
000002b0: 39be 863d e141 dd3d cc8e d1bc 1330 14bd
000002c0: 5ac1 36bd 1b64 333d 53ee 07bd 4ebb 563d
000002d0: 9975 543c 0846 bd3c 1f98 243d 1365 823d
000002e0: 0750 8bbd 597b 1e3c 0806 6a3d 6099 883d
000002f0: 267d 52bc a39d d4bc 5607 bb3c a61e 1e3b
00000300: 0de3 11bc 51c1 ebba 7368 b1bd 5843 19bd
00000310: 9f23 a43d bdfb 143d efaf 053c 06f6 83bc
00000320: 53bf cf3d 5752 293d 3c36 023e d1e2 c4bc
00000330: 24bb c53d fb87 b23d ddc0 fcbe 4321 79bc
00000340: d61e f03d 66ce b43c 8a26 863b 2b10 073d
00000350: c09a 73bd f023 be3c ad84 debd e718 c83c
00000360: 1b51 fabc 0262 8f3d b4de 433c 9665 613d
00000370: 7d18 11bc 7389 0e3d 1d76 f93d 3b7b 2abd
00000380: e198 f43b 88ae dc3d bef3 9a3c 5ebf 20bb
00000390: 790b 4f3d 31d0 96bd 07f3 04bd 9065 b93d
000003a0: b72b 653d 8223 a13d dc31 9cbc 6e0d 4c3c
000003b0: 69ba e7bc d224 613d 5963 a13e 4aac 0b3d
000003c0: 4bc3 4dbd d293 e0bc 4a49 fc3c bdd7 4fbc
000003d0: 8161 683d 3d77 74bd d886 643d 1f24 013d
000003e0: 5fab 993c cef6 923d 2190 ddbc 0a47 863b
000003f0: 1410 e53c 1ca4 0d3c 4165 f83d e8a4 afbd

fc2_adv.bias f4 [128]
0.03132193 0.2238708 -0.024806881 0.09474574 0.027805064 -0.06099705 0.06524994 0.087551564
0.13286562 -0.12307927 0.1998664 0.027112784 -0.055116452 0.11042829 -0.025296463 0.03029865
-0.024524054 -0.017708242 0.06372273 0.05741692 0.07493062 0.032381807 -0.0881685 -0.07567596
0.20618562 0.02946847 -0.068623774 -0.0087796915 -0.044264972 0.062213622 0.007469823 0.11975045
0.17825915 -0.11253008 0.059460443 -0.013424083 0.021591641 0.1084827 0.06662584 -0.07163054
-0.019698959 -0.04955455 -0.04193935 0.044854026 -0.020815544 0.010793459 0.009933598 -0.033025127
-0.03614743 0.10002137 -0.035280798 -0.040210623 0.024275685 0.13226844 -0.032240186 0.0358069
0.2124784 0.030073525 -0.15558067 -0.022573946 0.13522819 0.09595914 0.018702567 -0.061530624
0.03660929 -0.024731502 -0.057411678 0.047150437 0.027204864 0.007573541 -0.1173975 -0.117519565
-0.05562094 -0.0057029743 -0.008742916 0.13133076 0.049147837 -0.15084992 0.1497847 -0.05118712
-0.042667784 -0.0010850983 -0.0008013401 -0.02991442 -0.027113827 -0.017604044 -0.05702647 -0.002464439
-0.009709528 0.037420787 0.0010643766 0.037375405 0.12308881 0.15440688 0.09748318 0.028366944
-0.08043688 0.08075486 -0.042333137 0.028385177 -0.08191334 -0.0030035954 0.051749498 -0.050023414
0.058835957 0.05722457 -0.015780196 0.049662348 0.004140144 0.061707173 0.0831338 0.014814759
0.034437895 -0.047371324 0.018456737 -0.078720145 -0.034479424 -0.0155640775 0.013697781 0.029287912
0.07565089 0.03006169 0.0030506623 -0.029739778 -0.09883683 0.08303334 -0.11020112 -0.096382
00000000: 6d4b 003d 633e 653e cd37 cbbc 0e0a c23d
00000010: 72c7 e33c 0bd8 79bd c3a1 853d 3c4e b33d
00000020: ed0d 083e fc10 fcbd c7a9 4c3e a11b de3c
00000030: cac1 61bd 3a28 e23d 873a cfbc e034 f83c
00000040: abe6 c8bc e010 91bc 1081 823d 012e 6b3d
00000050: 3a75 993d c9a2 043d b091 b4bd fffb 9abd
00000060: 5322 533e dc67 f13c 9f8a 8cbd b2d8 0fbc
00000070: 304f 35bd b6d3 7e3d 6bc5 f43b b93f f53d
00000080: 9189 363e 2c76 e6bd cb8c 733d aff0 5bbc
00000090: f4e0 b03c 2e2c de3d 2173 883d 08b3 92bd
000000a0: b65f a1bc b6f9 4abd 99c8 2bbd dbb8 373d
000000b0: 5c85 aabc 0cd7 303c 88c0 223c 5b45 07bd
000000c0: 540f 14bd 01d8 cc3d 9982 10bd e5b3 24bd
000000d0: cddd c63c 6171 073e 490e 04bd 42aa 123d
000000e0: f093 593e c15c f63c 8a50 1fbe ffec b8bc
000000f0: 4279 0a3e 3a86 c43d 2036 993c 8907 7cbd
00000100: 9ff3 153d b899 cabc 8228 6bbd d120 413d
00000110: bcdc de3c 772b f83b 1a6e f0bd 19ae f0bd
00000120: c8d2 63bd 04e0 babb 733e 0fbc 927b 063e
00000130: 3e4f 493d 6778 1abe 2961 193e 96a9 51bd
00000140: 6ac4 2ebd db39 8eba 0611 52ba 160f f5bc
00000150: d11d debc 5b36 90bc 9694 69bd 6d82 21bb
00000160: b614 1fbc 8a46 193d 8d82 8b3a f416 193d
00000170: fc15 fc3d d61c 1e3e 43a5 c73d cb61 e83c
00000180: 17bc a4bd ce62 a53d 8365 2dbd 0888 e83c
00000190: 2ec2 a7bd f8d7 44bb 48f7 533d 5ae5 4cbd
000001a0: f9fd 703d 5064 6a3d 7845 81bc bf6a 4b3d
000001b0: 0caa 873b a9c0 7c3d 0e42 aa3d 9ab9 723c
000001c0: c00e 0d3d 6f08 42bd 9532 973c 0738 a1bd
000001d0: 4c3a 0dbd 7900 7fbc a86c 603c 34ed ef3c
000001e0: dbee 9a3d ef43 f63c 9fed 473b d6a0 f3bc
000001f0: f76a cabd 620d aa3d 20b1 e1bd ed63 c5bd
