src/nets/exp_graph_obs_4_agents_width_30100.pth (torch_old, 360749 bytes, 11 tensors)

fc1_val.weight f4 [256, 45]
0	0x3bb1dec5	0.0054281675
1	0x3ddc14b8	0.10746139
2	0x3d85159d	0.06498263
3	0x3e0ba7a9	0.13638176
4	0x3d9316d6	0.0718209
5	0xbcd0f13e	-0.025505658
6	0x3d5fb6fb	0.054617863
7	0xbcf711d7	-0.030159874
8	0xbab71a7f	-0.0013969688
9	0xbe006da4	-0.12541825
10	0x3db37eb4	0.08764401
11	0x3d219f8b	0.039458793
12	0x3b8b2ff7	0.004247661
13	0x3e03a7bb	0.12856953
14	0x3d9c8573	0.07642641
15	0x3c40421a	0.01173451
16	0x3dcbe92c	0.099565834
17	0xbde4da09	-0.111743994
18	0xbd934013	-0.071899556
19	0x3db8e2b4	0.09027615
20	0x3d52852d	0.051396538
21	0xbd58b144	-0.05290343
22	0xbd90923e	-0.070591435
23	0x3d26a9f2	0.040689416
24	0xbd79cbf7	-0.06098553
25	0x3d8381a0	0.064212084
26	0xbe0701c3	-0.13184266
27	0x3dcb9558	0.099405944
28	0xbd47ec7a	-0.048809506
29	0xbce518dc	-0.027965955
30	0xbe02a89d	-0.12759633
31	0xbdf31cc9	-0.11870725
32	0x3d9daa5a	0.076985076
33	0x3da22e94	0.0791904
34	0x3df3e6c1	0.11909247
35	0xbdab5fe3	-0.08367898
36	0xbd9f28b3	-0.07771435
37	0x3b033d23	0.0020025454
38	0x3d9628e2	0.073320165
39	0xbcb138d3	-0.021633541
40	0x3d3472a3	0.04405464
41	0xbe087fa5	-0.13329943
42	0x3c1712b9	0.009220772
43	0x3d7977cf	0.060905274
44	0x3d59fecb	0.053221505
45	0xbd209472	-0.03920407
46	0xbd8dcc57	-0.0692374
47	0xbda21f5b	-0.07916137
48	0xbd01aa2b	-0.031656425
49	0xbe0e4d8e	-0.13896772
50	0xbcc80c06	-0.024419796
51	0xbd2a4029	-0.041565094
52	0xbb08cb94	-0.0020873295
53	0x3c1f016c	0.009704929
54	0xbe23c8a7	-0.15994512
55	0x3d60cd6d	0.05488341
56	0xbc8efd8f	-0.01745489
57	0x3e21d534	0.15803987
58	0xbd201266	-0.039080046
59	0x3da9cb70	0.08290756
60	0xbcdca136	-0.02693234
61	0x3dd2d54c	0.102945894
62	0xbdefff21	-0.11718584
63	0xbcd20007	-0.025634779
64	0x3d09ea2b	0.033670586
65	0xbdb93666	-0.09043579
66	0x3c0a8288	0.008453973
67	0xbe14c3ae	-0.14527771
68	0x3df19388	0.117957175
69	0xbdee5976	-0.11638157
70	0xbdf29b0a	-0.118459776
71	0x3d7dcc36	0.06196233
72	0x3cc66464	0.024217792
73	0x3e2cc2f1	0.16871239
74	0x3d90ad3a	0.0706429
75	0xbddb1603	-0.10697558
76	0xbd8bda8c	-0.06828794
77	0x3c39a99a	0.01133194
78	0xbdd35852	-0.1031958
79	0xbda9fa07	-0.08299642
80	0xbd285fa5	-0.04110684
81	0xbdd16e65	-0.10226134
82	0x3d12bf05	0.0358267
83	0x3e1ad932	0.15121916
84	0x3e432f54	0.19061023
85	0x3e0db515	0.13838609
86	0xbdb32ed4	-0.08749166
87	0xbd2b844e	-0.041874222
88	0xbe35f3f7	-0.17768846
89	0xbdcfb1df	-0.10141348
90	0x3de3196d	0.11088834
91	0x3e141dc1	0.14464475
92	0x3d012064	0.03152503
93	0xbe00cbf2	-0.12577799
94	0xbde6f3be	-0.11276959
95	0x3c4faea0	0.012675911
96	0xbe0aa16f	-0.13538145
97	0x3e07a270	0.13245559
98	0x3d146593	0.03622968
99	0x3cbe1e8a	0.023207922
100	0x3d226f86	0.03965714
101	0x3ca82280	0.020524263
102	0x3dff8d9f	0.12478184
103	0x3d2971d4	0.04136832
104	0xbdd95a7b	-0.10612961
105	0xbca43949	-0.020046847
106	0xbde92a71	-0.11385048
107	0xbd7f2cc3	-0.062298547
108	0x3a12b3ef	0.000559627
109	0xbd6a97a7	-0.057273533
110	0x3d6bb4ca	0.05754546
111	0xbd34a3d7	-0.044101562
112	0xbd73eb63	-0.059550654
113	0x3d476a85	0.04868557
114	0xbe0a1c36	-0.13487324
115	0xbd981290	-0.074254155
116	0x3dea24e6	0.11432819
117	0x3df671cc	0.12033424
118	0x3dbf7719	0.09348888
119	0xbc6be287	-0.01439727
120	0x3ddc2540	0.107492924
121	0xbda9986c	-0.08281025
122	0xbdec03f2	-0.1152419
123	0xbd9732f8	-0.073827684
124	0x3de38e71	0.11111153
125	0xbd0561cb	-0.032563966
126	0x3defa2fa	0.11701007
127	0xbdc438b8	-0.09581131
128	0x3dac74af	0.08420693
129	0x3d35fcec	0.04443066
130	0x3db930be	0.090425
131	0x3e127155	0.14301045
132	0x3b9faa1e	0.0048725745
133	0x3da0dc2d	0.07854495
134	0x3bce746d	0.0063005
135	0x3dbf4757	0.09339779
136	0xbc80e26b	-0.015732965
137	0xbcecf5bb	-0.028925767
138	0x3e14c513	0.14528303
139	0xbdcea66e	-0.10090338
140	0xbcf33f19	-0.029693173
141	0xbd33366d	-0.043753076
142	0x3e159abe	0.1460981
143	0x3de01e5d	0.10943291
144	0x3e058f93	0.1304305
145	0xbe109264	-0.14118344
146	0x3de573da	0.112037376
147	0x3d5f3926	0.05449786
148	0xbd495374	-0.049151853
149	0x3dbd5750	0.09245169
150	0x3c56d0e7	0.01311133
151	0x3ce14e89	0.027503269
152	0xbcf95aec	-0.030438863
153	0xbdda6c5f	-0.106652014
154	0xbde0ae10	-0.109707
155	0x3cf397b2	0.02973542
156	0x3d2c2b63	0.042033564
157	0x3cda22f8	0.026628003
158	0xbdbc351f	-0.091898195
159	0x3de73d0e	0.11290942
160	0x3e0598e0	0.13046598
161	0x3c865f28	0.016402796
162	0x3c7a7661	0.015287013
163	0x3bf71564	0.0075403918
164	0x3df35ee1	0.11883331
165	0xbe063e4e	-0.13109705
166	0x3da0c0af	0.078492515
167	0xbc8a46b0	-0.01687941
168	0x3c42ed11	0.011897341
169	0xbbb5c44e	-0.005547083
170	0xbd5a26f9	-0.053259823
171	0xbd2bf243	-0.041979086
172	0x3d31e6b2	0.0434329
173	0xbd694b39	-0.056956504
174	0x3d484c75	0.04890104
175	0x3d4820bd	0.048859347
176	0x3d293d3f	0.041318174
177	0x3dc45bc5	0.09587816
178	0x3d73723a	0.059435107
179	0x3e198cdb	0.14995138
180	0x3d48b74a	0.049002923
181	0x3e13ed52	0.14446
182	0xbde8418e	-0.113406286
183	0x3e0e5609	0.13900007
184	0xbda6fbd2	-0.081535
185	0xbdd1e82b	-0.10249361
186	0x3d23d9db	0.040002685
187	0xbe0143ac	-0.12623471
188	0xbded0943	-0.11574032
189	0x3e0b7e1e	0.13622329
190	0xbb19686c	-0.0023408188
191	0x3da70ab8	0.08156341
192	0x3dab9bef	0.08379351
193	0x3e1784a9	0.147967
194	0x3d7d4c81	0.061840538
195	0x3c8817c2	0.016612891
196	0xbd0e3114	-0.034714773
197	0xbd0810ba	-0.033219077
198	0x3dcecc4a	0.10097559
199	0x3e09641c	0.13417095
200	0x3d8a9bff	0.06768035
201	0x3d3261fc	0.043550476
202	0x3d2549fa	0.040353753
203	0xbacfd489	-0.0015856187
204	0xbde07c9c	-0.10961267
205	0x3e07f040	0.13275242
206	0xbdd4c4f6	-0.1038913
207	0xbe102dc1	-0.14079954
208	0x3df7670c	0.120802015
209	0x3dccb555	0.09995524
210	0xbe01e1a5	-0.12683733
211	0x3dd7e88b	0.10542401
212	0xbd5f5727	-0.054526474
213	0x3dfed020	0.124420404
214	0xbdd17d63	-0.10228994
215	0xbd9a8ec9	-0.07546765
216	0x3de93974	0.113879114
217	0x3d279aa0	0.040918946
218	0x3d7146d5	0.05890544
219	0xbd9087c0	-0.07057142
220	0x3c1af1c4	0.0094570555
221	0xbbb52333	-0.0055278777
222	0x3babbd19	0.005241048
223	0x3be5f741	0.0070180004
224	0xbdca3c3e	-0.098747715
225	0x3dee6bd6	0.11641662
226	0xbd46042a	-0.048343815
227	0x3d8334ae	0.06406532
228	0x3d3fad15	0.046795923
229	0xbd8472ca	-0.06467207
230	0xbda9cd80	-0.08291149
231	0x3db8c05b	0.09021064
232	0xbe131396	-0.1436294
233	0x3d71b264	0.059008017
234	0xbcf39170	-0.029732436
235	0x3db5cd58	0.08877057
236	0xbdd05e57	-0.10174244
237	0x3d409955	0.04702123
238	0xbca96def	-0.020682303
239	0x3dc674a0	0.09690213
240	0xbd2fc6c0	-0.042914152
241	0xbd95fa62	-0.07323147
242	0xbdee5054	-0.11636415
243	0xbd498cf8	-0.049206704
244	0x3cc3474f	0.023837714
245	0xbdbaeb64	-0.091269284
246	0xbdde5a71	-0.10857094
247	0x3ddb458b	0.10706624
248	0x3da7b343	0.08188488
249	0xbd933f43	-0.071898006
250	0x3d9ce8f7	0.07661622
251	0x3d40d02c	0.04707353
252	0x3e1673ec	0.14692658
253	0x3d4ae69b	0.04953633
254	0x3d29781d	0.041374315
255	0xbe0d9d9c	-0.13829654

fc1_val.bias f4 [256]
0	0x3da737da	0.0816495
1	0x3c06f48c	0.008237015
2	0xbb7389ea	-0.003716106
3	0x3bdbd88f	0.0067091654
4	0x3d98ce85	0.074612655
5	0x3e0c0400	0.13673401
6	0xbdc11de5	-0.0942953
7	0xbddf110b	-0.108919226
8	0xbd02c90a	-0.031930007
9	0x3dc2cc30	0.09511602
10	0x3d9468e2	0.07246567
11	0xbe1225af	-0.14272188
12	0x3d3bd00d	0.04585271
13	0xbdb5914e	-0.08865605
14	0xbbc51022	-0.006013886
15	0xbd884440	-0.06653643
16	0x3e152157	0.145635
17	0x3c8b52db	0.017007282
18	0x3dbc0380	0.09180355
19	0x3e38a7ba	0.18032733
20	0x3e05a454	0.13050967
21	0x3d83c15e	0.06433366
22	0xbd45bc17	-0.04827508
23	0xbe1dacb7	-0.15397917
24	0x3ce602cf	0.028077511
25	0x3e09fb58	0.13474786
26	0x3c725a8f	0.014792099
27	0xbc09622f	-0.008385225
28	0xbd616547	-0.055028226
29	0xbd8ef426	-0.06980161
30	0xbe0637b6	-0.1310719
31	0x3ac1faf9	0.0014799527
32	0x3cb549a5	0.022129843
33	0x3d007422	0.031360753
34	0x3d866dac	0.06563887
35	0xbd7cd3cf	-0.061725434
36	0x3e22f0ca	0.15912166
37	0xbda54d68	-0.08071405
38	0xbe371d03	-0.17882161
39	0x3d1b26e8	0.0378789
40	0xbd1f1443	-0.038837682
41	0xbcedc3db	-0.029024055
42	0xbcf47c80	-0.029844522
43	0x3d7e260e	0.06204801
44	0x3e1d72cb	0.15375821
45	0x3d34ab9f	0.044108983
46	0xbdd09bed	-0.101859905
47	0xbda766eb	-0.08173927
48	0xbe07af77	-0.13250528
49	0x3cc1d48a	0.023660917
50	0x3e02d157	0.1277517
51	0x3ba47b75	0.0050196
52	0x3e00b2cc	0.12568206
53	0x3cc4239f	0.023942767
54	0x3b030ec1	0.0019997808
55	0xbdbd6eec	-0.09249672
56	0xbdd2038b	-0.10254582
57	0xbda2f89a	-0.07957573
58	0x3d6de780	0.058082104
59	0xbe008fce	-0.12554857
60	0x3d845418	0.06461352
61	0x3c8f17ec	0.017467462
62	0x3e0e2550	0.13881421
63	0xbcda7cc1	-0.026670815
64	0xbda1041b	-0.07862111
65	0x3db79795	0.08964459
66	0xbd35b9a5	-0.044366498
67	0x3dff1640	0.12455416
68	0xbdca03ef	-0.098640315
69	0xbd3f0c29	-0.046642456
70	0xbd6f0c33	-0.058361243
71	0xbd9e4076	-0.07727139
72	0xbd49f368	-0.049304396
73	0xbdd707cf	-0.10499536
74	0x3dc63544	0.09678128
75	0x3e072199	0.1319641
76	0x3d508aa3	0.050913464
77	0x3d8a983d	0.067673184
78	0xbcbeb65f	-0.02328032
79	0xbd9ffef0	-0.07812297
80	0xbd44f887	-0.048088577
81	0xbd3b7edb	-0.045775276
82	0x3e157767	0.1459633
83	0x3cd25258	0.02567403
84	0xbe184c94	-0.14872962
85	0xbdf0bb2c	-0.1175445
86	0xbd53a370	-0.051669538
87	0xbdc4cb66	-0.09609108
88	0x3e38ef45	0.18060024
89	0x3cfc28cb	0.03078117
90	0xbe047dd1	-0.1293862
91	0x3d32887e	0.0435872
92	0xbb5d760f	-0.0033792292
93	0xbe04c6a1	-0.12966396
94	0x3e1bdc6b	0.15220802
95	0x3dc72344	0.09723523
96	0x3df1abe5	0.118003644
97	0x3e1c16f3	0.1524313
98	0xbe2df6fc	-0.16988748
99	0x3db2debf	0.08733892
100	0x3a9d0866	0.0011980652
101	0x3d490861	0.049080256
102	0x3da24b2d	0.07924495
103	0xbe2506fd	-0.16115947
104	0x3c07f148	0.008297272
105	0xbdaf4054	-0.085571915
106	0xbd76d0c1	-0.060257677
107	0xbe16b9b2	-0.14719275
108	0x3e0eaccc	0.13933104
109	0xbdc3e258	-0.09564656
110	0x3ad499ab	0.0016220113
111	0x3e081205	0.13288124
112	0xbd3d503d	-0.0462191
113	0x3dbca477	0.09211057
114	0x3bbae856	0.005703966
115	0xbcd481da	-0.025940824
116	0x3e1ca29b	0.15296404
117	0x3e20f33b	0.15717785
118	0x3ddda774	0.10822955
119	0x3d1f5aff	0.03890514
120	0xbd99227a	-0.07477279
121	0x3d79aab6	0.06095382
122	0xbdc1e4f3	-0.09467497
123	0x3ce23a20	0.027615607
124	0x3de4cfdc	0.111724585
125	0xbe037649	-0.12838091
126	0xbd346235	-0.04403897
127	0xbd7997b5	-0.060935695
128	0x3c02fc76	0.007994762
129	0xbde5d166	-0.1122158
130	0x3d8f1cc1	0.06987906
131	0xbc4335dc	-0.011914697
132	0xbdf706d0	-0.12061846
133	0xbcc3663c	-0.02385246
134	0x3e168a40	0.14701176
135	0xbdd07f5d	-0.101805426
136	0xbc48d82e	-0.0122585725
137	0xbca9e810	-0.020740539
138	0xbe1bb39e	-0.15205237
139	0xbd77eac1	-0.060526613
140	0xbddbf88a	-0.107407644
141	0x3e27919a	0.16364136
142	0xbdca6907	-0.098833136
143	0xbdcadf08	-0.09905821
144	0xbe020c2b	-0.12699954
145	0x3d6e3da0	0.05816424
146	0x3d935a9e	0.07195018
147	0x3e1ed7e3	0.15512042
148	0xbbf69fc9	-0.007526372
149	0x3e03564a	0.12825885
150	0x3e1c9f82	0.15295222
151	0x3c1e2b4e	0.009653879
152	0x3da9f048	0.08297783
153	0xbc42b18a	-0.011883149
154	0x3cd518f4	0.026012875
155	0xbe01e90f	-0.12686561
156	0xbdc5d11d	-0.09659026
157	0x3e16b75c	0.14718384
158	0xbd9b06dd	-0.075696684
159	0x3d2c0fc6	0.04200723
160	0xbda09fd6	-0.07842986
161	0xbdc62906	-0.09675793
162	0x3de2573c	0.11051795
163	0x3d91c1d5	0.07117049
164	0x3e1f48e5	0.15555151
165	0xbe0e942b	-0.13923709
166	0xbe002444	-0.12513834
167	0xbd6a8992	-0.057260104
168	0x3ddfcc32	0.10927619
169	0x3de8c883	0.113663696
170	0x3dc83d21	0.097772844
171	0xbd98084c	-0.074234575
172	0xbdabfaeb	-0.08397468
173	0xbdf6f48a	-0.12058361
174	0x3e0083f6	0.12550339
175	0x3d6efe6d	0.058348108
176	0x3d683401	0.05669022
177	0xbd097423	-0.033558022
178	0xbce01fa9	-0.027358847
179	0xbd34e8fd	-0.044167507
180	0x3e09587a	0.13412657
181	0xbcd70b74	-0.026250578
182	0x3e040ea1	0.12896205
183	0xbdc97e74	-0.09838572
184	0x3e10c5fb	0.14138024
185	0x3ca2c902	0.019871239
186	0xbd488688	-0.048956424
187	0xbd74238b	-0.05960421
188	0xbe177f80	-0.14794731
189	0x3e14d4c6	0.14534292
190	0xbd7e7edd	-0.062132705
191	0x3da04829	0.078262635
192	0x3de7ef34	0.11324921
193	0x3d835778	0.06413168
194	0xbe1842e7	-0.14869271
195	0x3dfe4f76	0.124175
196	0xbe14a0fe	-0.14514539
197	0x3d9f24cd	0.07770691
198	0x3df4eed7	0.119596176
199	0x3dd81c71	0.105523
200	0x3dbd8f3c	0.092558354
201	0x3dbb05ad	0.09131942
202	0xbdf7320a	-0.12070091
203	0xbda7344c	-0.08164272
204	0x3dc03886	0.09385781
205	0x3d576f87	0.052596595
206	0x3d7b4d6c	0.061353132
207	0xbdf581e9	-0.11987669
208	0xbdcf63a1	-0.101264246
209	0xbb18a69f	-0.0023292673
210	0xbe3d1c7d	-0.18467899
211	0x3bbc6878	0.0057497583
212	0xbd8e919a	-0.06961365
213	0x3e36e324	0.17860085
214	0x3c13e9c9	0.009027907
215	0xbdb5f259	-0.08884115
216	0xbdfb6031	-0.122742064
217	0x3dce5992	0.10075678
218	0x3dbe8301	0.09302331
219	0x3db087a0	0.086196184
220	0xbe073940	-0.13205433
221	0xbd4b9798	-0.049705118
222	0x3c7ed723	0.015554222
223	0xbd66d495	-0.056355078
224	0xbe1dc2f9	-0.15406407
225	0xbdbc2efc	-0.09188649
226	0xba658632	-0.00087556534
227	0x3c930c32	0.017950151
228	0x3dd00c94	0.10158649
229	0x3bc8d8bd	0.006129353
230	0xbc55aab8	-0.013041191
231	0xbc8e0138	-0.017334566
232	0xbdf3ab2b	-0.11897882
233	0x3d448d95	0.047986586
234	0x3ca81891	0.020519527
235	0x3e061d74	0.13097173
236	0x3df5df47	0.120054774
237	0x3e075766	0.13216934
238	0xbda85666	-0.08219604
239	0xbe0000b7	-0.12500273
240	0xbd01e8e1	-0.03171623
241	0xbe14df9a	-0.14538422
242	0xbd95521b	-0.07291051
243	0x3e0be4d4	0.1366151
244	0x3d5c3528	0.05376163
245	0xbdd6702c	-0.10470614
246	0xbdacdd4a	-0.08440645
247	0xbdfd6f33	-0.12374725
248	0x3cf530ce	0.029930498
249	0xbe1f905a	-0.1558241
250	0x3d96b97f	0.07359599
251	0x3d0898a2	0.033348687
252	0x3d8908fe	0.06691168
253	0xbdfead74	-0.12435427
254	0xbdecfeff	-0.11572074
255	0xbcd9ebda	-0.02660172

fc2_val.weight f4 [128, 256]
0	0xbc92273f	-0.01784098
1	0xbd47acc4	-0.048748747
2	0x3d204331	0.03912658
3	0xbbb26138	-0.0054437183
4	0xbd10262e	-0.03519266
5	0x3d36ff87	0.044677284
6	0xbd431bb2	-0.047633834
7	0xbcb59dc5	-0.022169957
8	0xbd029d6c	-0.03188841
9	0xbb656880	-0.0035004914
10	0x3c1f0829	0.009706535
11	0xbcc12c88	-0.023580804
12	0x3d09a7f2	0.03360743
13	0x3c064d09	0.008197078
14	0xbd6bb847	-0.057548787
15	0x3d0f6117	0.0350047
16	0x3d21b150	0.03947574
17	0xbc86136a	-0.01636668
18	0x3c44fe5a	0.012023533
19	0x3abfeec0	0.0014643297
20	0x3c9c9ec8	0.019118682
21	0xbadbc24a	-0.0016766277
22	0x3cd67074	0.026176669
23	0xbcdc347d	-0.026880497
24	0x3d208143	0.039185774
25	0x3c1ec997	0.009691617
26	0xbbed3a84	-0.0072396416
27	0x3d6f612c	0.05844228
28	0xbd6ab78a	-0.057303943
29	0x3c685b44	0.014181916
30	0xbd7e27d8	-0.062049717
31	0xbb40e45f	-0.0029432995
32	0xbd7885cf	-0.060674485
33	0xb8d7647b	-0.00010270715
34	0xbca681ef	-0.020325629
35	0x3d22bafc	0.039729103
36	0xbca3c520	-0.019991457
37	0x3c737bf8	0.014861099
38	0x3cc1a8f7	0.023640139
39	0x3d2d0395	0.042239744
40	0xbce8f7d0	-0.028438479
41	0xbc22b2c9	-0.009930321
42	0x3c88fa68	0.016720966
43	0xbd09cd08	-0.0336428
44	0xbd3217b8	-0.04347965
45	0xbd0951b6	-0.03352519
46	0xbc95681a	-0.018238116
47	0xb9bcb95f	-0.00035996267
48	0x3d120f2e	0.035659008
49	0xbd5c03cd	-0.053714562
50	0xbd59df4c	-0.053191468
51	0x3d1c7d36	0.038205348
52	0xbca63bfb	-0.020292273
53	0xbd782376	-0.060580693
54	0xbc41ceab	-0.011829059
55	0xbd4e9369	-0.05043355
56	0x3cb9aa6c	0.022664271
57	0x3d0d682f	0.034523185
58	0x3c969b24	0.018384524
59	0xbbf63d66	-0.0075146435
60	0xbb7334dc	-0.0037110364
61	0x3cfb645f	0.03068751
62	0x3c6fc185	0.014633541
63	0x3d44b572	0.048024602
64	0xbcfdc8ac	-0.030979477
65	0xbd113c40	-0.03545785
66	0x3d299e98	0.041411012
67	0xbd1ce96d	-0.03830855
68	0x3cb32eb4	0.021872856
69	0x3d01e4d0	0.031712353
70	0x3d35f3d2	0.04442198
71	0x3bfa7ac0	0.0076440275
72	0xbd7900cf	-0.060791787
73	0xb972d000	-0.00023156404
74	0xbd7e6db5	-0.062116344
75	0x3cda352b	0.02663668
76	0xbd0fe29c	-0.03512822
77	0xbd304d00	-0.043042183
78	0xbc878452	-0.016542587
79	0xbce6eabb	-0.0281881
80	0xbd2b8ec4	-0.0418842
81	0xbcd4f160	-0.025994003
82	0xbd2fda53	-0.04293282
83	0xbd3cfe27	-0.046140816
84	0xbd6c6236	-0.05771085
85	0xbd3c6b4f	-0.046000775
86	0x3d49fd52	0.04931385
87	0xbc32ab61	-0.010905118
88	0x3cc35dff	0.023848532
89	0xbd5dd997	-0.054162588
90	0xbd0846e5	-0.033270735
91	0xbc84aa3c	-0.016194455
92	0xbd4bc40c	-0.04974751
93	0x3c8f3c28	0.01748474
94	0xbd1f08f6	-0.038826905
95	0xbce78820	-0.028263152
96	0xbd6ace80	-0.05732584
97	0xbcc54170	-0.024079055
98	0xbbbf4660	-0.005837247
99	0xbb1debb0	-0.002409678
100	0xbd7a7516	-0.061146818
101	0x3cbe28e8	0.023212865
102	0x3ccdf196	0.025139611
103	0x3d3bea3e	0.045877688
104	0x3c18e5a8	0.009332098
105	0xbc73a0c8	-0.014869876
106	0x3c803c7f	0.015653847
107	0x3b97c800	0.004631996
108	0x3d0afe6b	0.033934038
109	0xbd0d56c8	-0.03450659
110	0xbcaeec34	-0.021352865
111	0xbbae0e38	-0.0053117536
112	0x3bbb8430	0.005722545
113	0x3d628443	0.055301916
114	0xbcd692d8	-0.026193067
115	0x3d2feab7	0.04294845
116	0xb9f2f072	-0.00046336983
117	0x3b33f7e9	0.0027460998
118	0x3d61a39a	0.055087663
119	0xbd592125	-0.053010125
120	0xbd2b733f	-0.041857954
121	0xb9f52b11	-0.00046762128
122	0xbcf08168	-0.02935858
123	0xbd13382f	-0.035942253
124	0x3bddb0f3	0.0067654788
125	0xbb1a5e2a	-0.0023554661
126	0xbd54a272	-0.051912732
127	0xbd4bec1e	-0.049785726
128	0xbd0ec721	-0.034857873
129	0xbd70090c	-0.058602378
130	0xbd3edc7b	-0.046596985
131	0xbc971635	-0.018443206
132	0x3cf54f5f	0.029945074
133	0xbcc83714	-0.024440326
134	0xbd41b5fc	-0.047292694
135	0xbce21661	-0.027598562
136	0x3d10dd5e	0.035367362
137	0xbbc28629	-0.0059364033
138	0x3b38f372	0.0028221277
139	0x3c566faa	0.013088146
140	0x3d3635f8	0.044485062
141	0xbc85f4cf	-0.016352085
142	0xbc3174c8	-0.0108310655
143	0x3d3e5dff	0.04647636
144	0xbce24aca	-0.027623553
145	0xbd3c58dc	-0.04598318
146	0xbce3b374	-0.02779553
147	0xbcd191b4	-0.025582172
148	0xbcaef5f3	-0.021357512
149	0xbd26595e	-0.04061257
150	0x3caacc1e	0.020849284
151	0x3c30d9e5	0.010794138
152	0xbc419c64	-0.011817072
153	0x3c7f1a81	0.015570284
154	0x3c92bdeb	0.017912826
155	0xbd0f89f5	-0.035043675
156	0xbcaf5a8f	-0.021405486
157	0xbd6fdcbd	-0.05856012
158	0xbd270849	-0.040779386
159	0x3d2f4e83	0.042799484
160	0xbca48794	-0.02008418
161	0xbd4067a8	-0.046973854
162	0xbc99d304	-0.018777378
163	0x3c82fca3	0.015989607
164	0xbd0bc435	-0.034122664
165	0xbd22106e	-0.03956645
166	0x3d10010c	0.03515725
167	0x3cbe0c30	0.02319917
168	0x3d705661	0.058676127
169	0xbd035172	-0.032060094
170	0x3ce12409	0.027483003
171	0xbceb9acc	-0.028760336
172	0xbbf1f13c	-0.0073834937
173	0x3a091f80	0.0005230829
174	0xbae8edc0	-0.001777105
175	0xbc018540	-0.007905304
176	0xbd240cce	-0.040051274
177	0x3d6d9b6b	0.058009546
178	0xbd107e20	-0.035276532
179	0x3d54528a	0.051836528
180	0xbcc7a44d	-0.024370337
181	0x3d2c3001	0.042037968
182	0x3d2eb43f	0.042652365
183	0x3d2edc9c	0.04269086
184	0x3c88297e	0.016621348
185	0xbd660792	-0.056159563
186	0xbcff4bd7	-0.031164093
187	0xbc10e920	-0.008844644
188	0xbb9ee421	-0.0048489724
189	0xbc48fc8a	-0.012267241
190	0xbcf63522	-0.030054633
191	0x3d6a7c8a	0.057247676
192	0x3d56876a	0.052375235
193	0xbc28f1e2	-0.010311576
194	0xbd136e78	-0.035994023
195	0x3d21dc32	0.039516635
196	0xbd206be6	-0.0391654
197	0x3d010aa2	0.03150428
198	0xbc1bbdf8	-0.009505741
199	0xbc8d0873	-0.017215943
200	0xbd5a09f6	-0.053232156
201	0x3c8f9aab	0.017529806
202	0x3b1c8070	0.0023880266
203	0x3d102065	0.035187144
204	0xbd6b52b7	-0.05745193
205	0xbd2c5332	-0.04207153
206	0xbc85d8c9	-0.016338723
207	0x3ce11a42	0.027478341
208	0x3ceae8c0	0.028675437
209	0xbd55453a	-0.052067973
210	0xbd23d695	-0.039999563
211	0xbd2ce332	-0.042208858
212	0x3d08b8b4	0.03337927
213	0xbc70b3a0	-0.014691263
214	0x3ca279ec	0.019833528
215	0xbc9152b9	-0.01773964
216	0x3b26a8d4	0.002543022
217	0xbd6538e9	-0.055962477
218	0xbcfdf8c8	-0.031002417
219	0x3d797844	0.06090571
220	0xbd12a216	-0.03579911
221	0xbc855b06	-0.016278755
222	0xbc6fd931	-0.014639185
223	0xbd39ee24	-0.045393124
224	0x3cbda4a1	0.02314979
225	0xbc7a7b08	-0.015288122
226	0x3d46738d	0.04845004
227	0x3c46c42e	0.012131734
228	0xbb3f3920	-0.0029178336
229	0x3d4ef8c1	0.0505302
230	0x3d642fc4	0.055709615
231	0x3a7682d5	0.0009403651
232	0xbd115635	-0.035482604
233	0x3caa17e0	0.020763338
234	0x3d42867e	0.047491543
235	0xbd294472	-0.04132504
236	0xbbf80343	-0.007568748
237	0xbd3a328b	-0.045458358
238	0x3d76047a	0.060062863
239	0xbc940258	-0.018067524
240	0xbd16a07d	-0.036774147
241	0xbd2e8b4e	-0.04261332
242	0xbd74a4b2	-0.05972738
243	0x3d29b562	0.041432746
244	0xbd64c0ef	-0.05584806
245	0xbcd08291	-0.025452884
246	0xbd6b4d08	-0.05744651
247	0x3d680833	0.056648444
248	0x3d68c308	0.05682662
249	0x3d6dbcfe	0.058041565
250	0xbd2f51e0	-0.04280269
251	0xbc2a4bd4	-0.010394055
252	0x3d0c3536	0.034230433
253	0xbbbaeda0	-0.0057045966
254	0x3c142337	0.009041599
255	0x3c97bf95	0.01852397

fc2_val.bias f4 [128]
0	0xbd77be7e	-0.060484402
1	0xbc829550	-0.015940338
2	0x3c9624fa	0.018328179
3	0x3c86657a	0.01640581
4	0x3d0d9995	0.034570295
5	0xbd046d18	-0.032330602
6	0x3d45200c	0.048126265
7	0x3d89d054	0.067291886
8	0x3cc4d862	0.02402896
9	0x3d73d13d	0.059525717
10	0x3c901111	0.017586263
11	0xbd0a5c53	-0.033779453
12	0x3d8aac45	0.06771139
13	0xbd95d2cb	-0.07315596
14	0xbd4097cd	-0.04701977
15	0x3d44910b	0.047989886
16	0x3c2ca1f0	0.010536656
17	0x3d6cfb52	0.057856865
18	0xbcd5b847	-0.026088847
19	0x3d202208	0.039094955
20	0x3c1fbf70	0.009750232
21	0x3d5692ef	0.05238622
22	0xbd3a063c	-0.0454161
23	0x3d2326f9	0.03983209
24	0x3d119f04	0.03555204
25	0x3d3e0ec5	0.046400804
26	0x3cd1082a	0.025516588
27	0x3ce8da75	0.02842448
28	0xbd8888c3	-0.0666671
29	0x3c400128	0.011719026
30	0x3d9e3a70	0.0772599
31	0xbd37b862	-0.044853576
32	0x3d876e9f	0.06612896
33	0x3d1dbc1a	0.038509466
34	0xbd2dab52	-0.042399712
35	0x3d8aa3d8	0.06769532
36	0x3cd83a4e	0.02639499
37	0x3b4ae770	0.0030960701
38	0xbd30eda8	-0.043195397
39	0xbd79e4fe	-0.0610094
40	0x3a9f207b	0.0012140417
41	0x3cda2eb2	0.026633594
42	0x3c619d83	0.013770464
43	0x3d5a7323	0.05333246
44	0xbd3614e4	-0.044453517
45	0x3d2fc789	0.0429149
46	0x3c87b8c6	0.016567599
47	0x3d90dc60	0.07073283
48	0xbd9c7980	-0.07640362
49	0x3c764c95	0.015032907
50	0xbc571381	-0.013127209
51	0x3ca28458	0.019838497
52	0x3cb64ce8	0.022253469
53	0xbb85f09f	-0.004087522
54	0xbcb1c33b	-0.021699538
55	0x3d463980	0.04839468
56	0x3c4ecee6	0.012622571
57	0x3d8a4dea	0.06753142
58	0xbca4761f	-0.020075856
59	0x3cc1270f	0.023578195
60	0xbc8b6527	-0.017016007
61	0x3d2b6b01	0.041850094
62	0x3d697d34	0.05700417
63	0x3d46839e	0.048465364
64	0x3c63c0fc	0.0139009915
65	0x3c10686c	0.008813959
66	0x3d24b009	0.040206943
67	0x3ade671e	0.0016967987
68	0x3d96e7ef	0.073684566
69	0x3d57f66b	0.052725237
70	0xbcacafc7	-0.02107991
71	0xbd002815	-0.031288225
72	0xbd0f0ad7	-0.034922447
73	0x3d4d97c9	0.05019358
74	0x3c877789	0.016536491
75	0xbd6348ba	-0.05548928
76	0xbc7c22ac	-0.015389126
77	0xbd48fafd	-0.049067486
78	0xbb7e02f1	-0.0038759077
79	0x3cc7f0ba	0.02440678
80	0x3d80dcdc	0.062921256
81	0x3b2b7f1e	0.0026168297
82	0x3cc69fad	0.024246061
83	0x3d07045d	0.032963146
84	0x3d4f4d32	0.05061073
85	0x3ba61c19	0.0050692675
86	0xbc9754e3	-0.018473094
87	0x3b972726	0.004612821
88	0x3bfd6720	0.0077332407
89	0xbca60e1d	-0.020270402
90	0xbb7733a7	-0.0037719996
91	0x3d49a517	0.049229708
92	0x3d8855fb	0.066570245
93	0xbd05df43	-0.032683622
94	0x3cadc28c	0.021210931
95	0x3c964b72	0.018346522
96	0x3d06a497	0.03287181
97	0x3d2e63ff	0.042575832
98	0x3d79247d	0.060825814
99	0xbdad2bf6	-0.084556505
100	0xbd8d1ed4	-0.068906456
101	0xbd79174e	-0.06081324
102	0x3d8d1eff	0.06890678
103	0xbd744efa	-0.05964563
104	0xbd191a00	-0.03737831
105	0x3d20efbd	0.039291132
106	0x3d01976c	0.031638548
107	0xbd6ec7bd	-0.058295954
108	0x3d5a07d6	0.05323013
109	0xbd888d60	-0.0666759
110	0xbcfe1d84	-0.031019934
111	0x3b9f3736	0.0048588766
112	0xbd3bb078	-0.04582259
113	0xbbde4e53	-0.0067842393
114	0xbcdea1f9	-0.027176844
115	0x3d6ea163	0.05825938
116	0xbcc89b3f	-0.02448809
117	0xbb87e709	-0.0041474146
118	0x3d1d827a	0.03845451
119	0xbcf46068	-0.029831126
120	0xbd398492	-0.045292445
121	0x3bd6384d	0.0065374733
122	0x3d834aa9	0.06410725
123	0x3ccc36e3	0.024928516
124	0xbd458753	-0.04822476
125	0xbd44e8f5	-0.048073728
126	0x3d63c6b8	0.055609435
127	0x3d45d935	0.048302848

fc3_val.weight f4 [1, 128]
0	0x3d796407	0.06088641
1	0xbd95153a	-0.07279439
2	0x3e095914	0.13412887
3	0xbd663bf9	-0.056209538
4	0xbde8bd40	-0.113642216
5	0xbde500cf	-0.11181795
6	0x3dfb7343	0.12277844
7	0xbcfa4e7d	-0.030555004
8	0x3e31724e	0.1732876
9	0xbd04fbdc	-0.032466754
10	0x3db87045	0.09005789
11	0xbdd405f3	-0.10352697
12	0xbcc5fae3	-0.024167484
13	0xbe3155f2	-0.17317942
14	0xbdefbdd6	-0.1170613
15	0x3db1119f	0.08645939
16	0x3dd43f25	0.10363606
17	0x3cdfb4f1	0.02730796
18	0xbd1f197e	-0.03884267
19	0xbddaa386	-0.10675721
20	0x3c96068a	0.018313665
21	0xbd6b73de	-0.057483546
22	0xbd111384	-0.035419002
23	0x3dc36911	0.09541524
24	0x3dbb6ce9	0.09151632
25	0xbdbc7405	-0.092018165
26	0x3d83179a	0.06400986
27	0xbd926a60	-0.07149196
28	0x3dec2c9c	0.11531946
29	0xbdecf8b7	-0.11570876
30	0x3e4093c0	0.18806362
31	0x3e278fe8	0.1636349
32	0x3dd6e4f1	0.10492886
33	0xbd0cecc4	-0.034405485
34	0xbdcebd81	-0.10094739
35	0xbd3b2940	-0.045693636
36	0x3df922bf	0.121648304
37	0xbda7220c	-0.08160791
38	0xbd9ed6a0	-0.0775578
39	0x3d007ccc	0.031369016
40	0xbd3b8dec	-0.045789644
41	0xbd8b890d	-0.0681325
42	0x3d654695	0.055975515
43	0x3d966cc4	0.07344964
44	0xbddb04b6	-0.10694258
45	0xbdb26bff	-0.08712005
46	0xbdd08ee1	-0.10183502
47	0xbddb1cc2	-0.106988445
48	0xbe4ab5d6	-0.19795927
49	0x3d287bb2	0.04113359
50	0x3d955e1f	0.07293343
51	0x3dca3da9	0.09875042
52	0x3ddced08	0.107873976
53	0xbd63b606	-0.055593513
54	0x3e326c8a	0.17424217
55	0xbdcb1da6	-0.09917764
56	0xbd89b21b	-0.06723424
57	0x3d020bb5	0.031749446
58	0x3de1bb42	0.11022045
59	0xbde195e2	-0.11014916
60	0xbe0e3a07	-0.13889323
61	0x3dc90462	0.09815289
62	0x3dc787b3	0.097426794
63	0xbd5e8218	-0.054323286
64	0xbd37e3c3	-0.044894945
65	0xbdfb32a0	-0.12265515
66	0x3ddc8102	0.10766794
67	0xbdb109a0	-0.08644414
68	0xbd9c3a63	-0.07628324
69	0x3d15eab9	0.036600802
70	0x3dc3efc3	0.09567215
71	0x3ddc8eac	0.107694
72	0x3e145745	0.14486416
73	0xbd8da91a	-0.06917019
74	0x3d959e92	0.073056355
75	0x3d5fea6c	0.05466692
76	0x3e1f0947	0.15530883
77	0xbda74eee	-0.081693515
78	0xbda4e854	-0.080521256
79	0x3d2659c7	0.040612962
80	0x3e15e61f	0.14638565
81	0xbdd9bc2c	-0.10631594
82	0xbd55d4de	-0.05220496
83	0x3d83f618	0.06443423
84	0x3d977ff6	0.073974535
85	0xbdc34a5d	-0.09535668
86	0xbd947ad3	-0.07249989
87	0x3d4d5365	0.05012836
88	0x3e1afce3	0.15135531
89	0x3dbf896d	0.09352384
90	0xbdb8fd09	-0.090326376
91	0xbdcbead4	-0.09956899
92	0xbdc04d1a	-0.09389706
93	0x3dc9e4e8	0.098581135
94	0x3e618f0e	0.22027227
95	0x3cca9a12	0.02473167
96	0xbd834a81	-0.06410695
97	0x3cdd12cd	0.026986504
98	0x3d4d6c9c	0.050152406
99	0x3e1aafa8	0.1510607
100	0x3e02b38e	0.12763807
101	0x3d9d4f64	0.07681158
102	0xbd96c65d	-0.073620535
103	0x3d6cd33e	0.057818644
104	0xbda7d416	-0.08194749
105	0x3d56b848	0.052421838
106	0xbd4b81ca	-0.049684323
107	0x3d1b26c4	0.037878767
108	0x3de25001	0.11050416
109	0x3db63f98	0.08898848
110	0xbdcc84be	-0.09986256
111	0x3dc07269	0.09396822
112	0x3dc8a275	0.09796611
113	0x3a71d13d	0.00092245993
114	0x3dd89420	0.105751276
115	0xbd84c70d	-0.064832784
116	0x3e4b44cf	0.19850467
117	0x3c6734f0	0.014111742
118	0x3d18e0b1	0.037323657
119	0x3de4a69e	0.11164592
120	0x3cbcf4bd	0.023065919
121	0xbda9b3a0	-0.08286214
122	0x3de3fe46	0.11132483
123	0xbddac8c4	-0.10682824
124	0xbd346405	-0.0440407
125	0xbe0b247b	-0.13588135
126	0xbdd517e8	-0.104049504
127	0xbd8cb4f4	-0.068704516

fc1_adv.weight f4 [256, 45]
0	0xbd886d1c	-0.06661436
1	0x3d7d6516	0.06186398
2	0xbe0ba453	-0.13636903
3	0x3dc13381	0.09433652
4	0x3cded840	0.027202725
5	0xbde3a344	-0.11115125
6	0x3d51608f	0.051117476
7	0xbdeaee48	-0.1147123
8	0xbd8d807f	-0.06909274
9	0xbd9e7501	-0.077371605
10	0xbb92e566	-0.004482913
11	0x3e176c73	0.14787464
12	0xbe073708	-0.13204587
13	0xbc240847	-0.010011739
14	0xbe14f323	-0.14545874
15	0xbc42dbde	-0.011893241
16	0x3dafea6b	0.085896336
17	0xbb2ea469	-0.002664829
18	0x3e05203e	0.1300058
19	0xbd8279d9	-0.06370897
20	0x3cf59a92	0.029980931
21	0x3d7ca221	0.061678056
22	0xbd32f165	-0.043687243
23	0x3da79cc3	0.08184197
24	0xbdc4c2af	-0.096074454
25	0x3e0c26d6	0.1368669
26	0x3df5ead1	0.12007678
27	0x3e1211f9	0.14264669
28	0xbc4c88ef	-0.012483819
29	0x3dbdb879	0.09263701
30	0x3d9664ed	0.07343469
31	0xbe073d56	-0.13206992
32	0x3e1ddfc7	0.15417396
33	0xbde8db2e	-0.1136993
34	0x3e0f5166	0.13995895
35	0x3d4bd2ca	0.04976157
36	0x3e04ae19	0.12957038
37	0xbde06768	-0.10957223
38	0xbdda07ec	-0.10646042
39	0xbc7cfaad	-0.015440625
40	0x3d9ae688	0.075635016
41	0xbd059177	-0.03260943
42	0x3d98b020	0.07455468
43	0x3cbd335a	0.023095775
44	0x3daff3d2	0.08591427
45	0x3cb787f5	0.022403697
46	0xbe08f349	-0.13374056
47	0x3de56cea	0.11202414
48	0x3dd510a6	0.10403566
49	0xbe13b65d	-0.14425035
50	0xbdebe55a	-0.11518355
51	0xbcc97fec	-0.02459713
52	0xbd592f03	-0.05302335
53	0x3dd28428	0.10279113
54	0x3e0700f9	0.13183965
55	0x3e27cba7	0.16386281
56	0x3c89c779	0.016818749
57	0x3e251913	0.16122846
58	0xbde20360	-0.110358
59	0x3dc6f4e7	0.0971468
60	0xbdef6430	-0.11689031
61	0x3e089058	0.13336313
62	0xbd1ed4f2	-0.0387773
63	0x3dbe2bd7	0.092857055
64	0x3d5640e7	0.05230799
65	0x3dd9efe0	0.10641456
66	0x3d7d17ce	0.06179028
67	0x3de8ed61	0.113734014
68	0xbde801f5	-0.11328498
69	0x3de23922	0.110460535
70	0xbd88cf34	-0.06680146
71	0xbd9e8c78	-0.07741636
72	0xbe0719df	-0.13193463
73	0x3d94db56	0.072683975
74	0xbc83cb52	-0.016088162
75	0xbe179609	-0.14803328
76	0x3dcf0ae5	0.101095
77	0x3d2a47b5	0.04157229
78	0x3de7d2ca	0.11319502
79	0xbe09bba7	-0.1345049
80	0xbd0aecc6	-0.03391721
81	0x3d02047f	0.03174257
82	0xbda1bbaf	-0.07897126
83	0x3e0698fd	0.13144298
84	0x3d44eee7	0.048079398
85	0x3db2da78	0.08733076
86	0xbc9ea48e	-0.019365575
87	0xba97121d	-0.0011525784
88	0x3de5c822	0.11219813
89	0xbe38c23b	-0.18042843
90	0x3d2b2beb	0.04178993
91	0x3df59524	0.11991337
92	0xbd82d224	-0.063877374
93	0x3b550233	0.0032502532
94	0x3d861869	0.065476246
95	0xbb97511d	-0.0046178238
96	0x3c81b3d8	0.015832826
97	0xbdc757a2	-0.097335115
98	0xbd9538d7	-0.07286232
99	0xbcc29ff4	-0.023757912
100	0x3dae505e	0.085114226
101	0xbd9f5281	-0.07779408
102	0x3e0cac6b	0.13737647
103	0xbdaedc5c	-0.08538124
104	0xbdafc194	-0.08581844
105	0xbdc4d6f8	-0.096113145
106	0x3b9de576	0.0048186136
107	0x3e0cd562	0.13753274
108	0xbd8708a0	-0.06593442
109	0x3c953e34	0.018218137
110	0xbdf71766	-0.1206501
111	0x3ca58614	0.020205535
112	0x3c613ac7	0.013746924
113	0x3e0e15a7	0.13875447
114	0x3df9fa7f	0.122059815
115	0xbde1c309	-0.11023528
116	0x3dd05e17	0.10174196
117	0x3db56af4	0.0885829
118	0xbe05d09c	-0.1306786
119	0xbd995af6	-0.074880525
120	0x3a778883	0.0009442644
121	0x3dcd8a93	0.100361966
122	0x3d994b0b	0.074850164
123	0xbdc279bb	-0.094958745
124	0x3de00a01	0.10939408
125	0xbdbffd1b	-0.09374448
126	0xbc6d4f56	-0.014484247
127	0x3d8b313c	0.067965
128	0x3dc6c699	0.09705848
129	0x3d53ce88	0.051710635
130	0xbe180f8a	-0.14849678
131	0xbde3744e	-0.11106168
132	0x3df34262	0.11877896
133	0x3c77e042	0.015129151
134	0xbda1ed0c	-0.07906541
135	0x3d0c4fe8	0.034255892
136	0x3d9ea160	0.077456236
137	0xbd70b114	-0.058762625
138	0xbd687896	-0.056755625
139	0x3e192d2a	0.14958635
140	0xbd212210	-0.039339125
141	0x3e1cdbe3	0.15318255
142	0xbb7df856	-0.0038752756
143	0xbc7104a4	-0.014710579
144	0x3d8314db	0.06400462
145	0xbe19813d	-0.14990707
146	0x3dd6445d	0.10462258
147	0x3dd62e83	0.1045809
148	0x3dabe4e5	0.083932675
149	0x3d0d9753	0.034568142
150	0xbda5e659	-0.08100576
151	0xbd9f1d63	-0.07769277
152	0xbd9ffdcb	-0.07812079
153	0xbd201a5a	-0.03908763
154	0x3e00677a	0.12539473
155	0xbdcf98fb	-0.101366006
156	0x3d569d16	0.052395903
157	0x3e0b5cc4	0.13609606
158	0x3cfad0d0	0.030617148
159	0x3cea478d	0.028598571
160	0x3bf59670	0.00749474
161	0x3b89389f	0.004187658
162	0xbd7817a8	-0.060569435
163	0xbdfd2a63	-0.123616
164	0x3d43883a	0.047737338
165	0xbd1a9767	-0.037742045
166	0xbd9503f9	-0.07276148
167	0x3e118e34	0.14214402
168	0x3d87ac16	0.0662462
169	0xbde9dcd4	-0.11419073
170	0xbe1a1464	-0.15046841
171	0x3e18f727	0.14938031
172	0xbdb6a144	-0.08917478
173	0x3e1c7fab	0.15283076
174	0x3db35f93	0.08758464
175	0x3d410256	0.04712137
176	0x3e1e173b	0.15438549
177	0x3e023e16	0.12718996
178	0xbd7ec151	-0.06219608
179	0x3e0da65c	0.13832992
180	0xbd82c370	-0.06384933
181	0x3e0a3c6c	0.13499612
182	0xbe1e4e75	-0.15459616
183	0x3da8e541	0.08246852
184	0xbc181440	-0.009282172
185	0xbd51b7d7	-0.051200714
186	0xbcacc7b5	-0.021091321
187	0xbd927d4f	-0.07152807
188	0x3e045354	0.12922412
189	0x3d702310	0.05862719
190	0xbc6c6ce1	-0.014430256
191	0x3dcc1e0b	0.09966668
192	0xbe162d8f	-0.14665817
193	0xbd21ee38	-0.039533824
194	0x3bfe5cd2	0.00776253
195	0x3d991627	0.07474928
196	0xbcc6cfc2	-0.024268989
197	0xbd339785	-0.043845672
198	0xbd896d74	-0.0671033
199	0x3e150381	0.14552118
200	0x3dfabf70	0.12243545
201	0xbdd921ac	-0.106021255
202	0x3e18a915	0.1490825
203	0xbe1113f0	-0.14167762
204	0xbe0fb0a1	-0.14032222
205	0x3d8b9f44	0.06817487
206	0x3c71e48f	0.014763965
207	0xbd43d02f	-0.04780596
208	0x3ae619ea	0.001755533
209	0x3c100748	0.0087907985
210	0x3c759db2	0.014991211
211	0xbd94c64e	-0.07264386
212	0x3e247dd4	0.16063625
213	0xbce9ca0b	-0.028538724
214	0xbe0d617f	-0.13806723
215	0xbe016f57	-0.12640129
216	0xbca91da0	-0.02064401
217	0xbd648e7c	-0.055799946
218	0xbd16fbaa	-0.0368611
219	0xbddb0240	-0.106937885
220	0xbe4cb1fe	-0.19989774
221	0xbe0929f4	-0.1339491
222	0x3d0c936e	0.034320287
223	0x3e132663	0.14370112
224	0xbdb99297	-0.09061163
225	0x3dbc5a1f	0.09196877
226	0x3dfc4140	0.12317133
227	0x3d81a78a	0.06330784
228	0x3d6d105d	0.057876933
229	0x3dee39cb	0.11632117
230	0x3e092f76	0.13397011
231	0xbd0e3ec2	-0.03472782
232	0x3e0b72ba	0.13617983
233	0xbd817c61	-0.063225515
234	0xbcd7e9a0	-0.026356518
235	0x3e190264	0.14942318
236	0x3da9f550	0.08298743
237	0x3e065b2c	0.13120717
238	0x3da75f05	0.081724204
239	0xbdc31db9	-0.095271535
240	0xbceb828e	-0.028748777
241	0x3e076f08	0.13225949
242	0xbdedcaef	-0.11610972
243	0x3de919a8	0.11381847
244	0xbd69d1e1	-0.05708492
245	0x3e1018cc	0.1407196
246	0xbd48aedc	-0.048994884
247	0x3da273e1	0.079322584
248	0xbe038fb4	-0.12847787
249	0x3d8c1ff9	0.06842036
250	0x3dc3d08a	0.0956126
251	0xbdc56ca3	-0.096398614
252	0x3e0c3ceb	0.13695113
253	0x3da17b42	0.07884838
254	0x3d91d58b	0.07120808
255	0x3d5c3d7e	0.05376958

fc1_adv.bias f4 [256]
0	0xbcc5de3f	-0.024153827
1	0xbdc82638	-0.09772915
2	0xbc96dd02	-0.018415932
3	0x3e1d4259	0.15357341
4	0x3c56501d	0.013080624
5	0x3b975158	0.004617851
6	0xbe092d6b	-0.13396232
7	0x3b3587ce	0.0027699354
8	0x3d4a81dd	0.049440254
9	0x3e1eade6	0.15496024
10	0x3d51d869	0.051231775
11	0xbdd525cf	-0.10407602
12	0x3e26aee3	0.16277651
13	0xbd92f722	-0.07176043
14	0xbddf55e8	-0.10905057
15	0xbd0b133a	-0.033953883
16	0x3d0226f5	0.031775434
17	0x3e0d6aaa	0.1381022
18	0xbdc59879	-0.096482225
19	0x3dace628	0.08442336
20	0xbde9c0e1	-0.11413742
21	0x3db9ac8a	0.09066112
22	0x3df190ee	0.11795221
23	0x3db820bc	0.089906186
24	0x3d51109d	0.051041234
25	0x3e1a57fc	0.15072626
26	0xbdc965ee	-0.09833895
27	0xbde7af35	-0.11312715
28	0x3d8ec648	0.06971413
29	0xbe0b346f	-0.1359422
30	0x3e05bddc	0.13060707
31	0xbde6c918	-0.11268824
32	0xbdb418b3	-0.087937735
33	0xbdcd6809	-0.10029609
34	0xbdf20d61	-0.11818958
35	0x3ccfbffa	0.025360096
36	0x3e265065	0.16241606
37	0xbcf1eb42	-0.029531125
38	0x3e20cc4a	0.1570293
39	0x3dd9a8ad	0.106278755
40	0x3e2f0777	0.17092691
41	0x3dcfd9ea	0.10148986
42	0xbb1f984c	-0.002435225
43	0x3dd3dea7	0.10345202
44	0xbe28c6fb	-0.16482155
45	0xbe181479	-0.1485156
46	0xbbb74985	-0.005593481
47	0x3e32ef9e	0.17474219
48	0x3dfd3129	0.12362892
49	0xbcabeced	-0.020986998
50	0x3e2c7b49	0.16843905
51	0xbd996e1b	-0.07491704
52	0x3c3cab79	0.011515492
53	0xbdd8e65a	-0.10590811
54	0x3df92d95	0.12166897
55	0xbd959492	-0.07303728
56	0x3d24a886	0.04019978
57	0xba8922f1	-0.0010462684
58	0xbd31111d	-0.04322921
59	0x3d66f857	0.05638918
60	0xbe06c22f	-0.13160013
61	0xbd5b37b4	-0.05351992
62	0x3ddf247c	0.10895631
63	0xbdf916d2	-0.12162556
64	0xbddbb6c4	-0.10728219
65	0x3df983ee	0.12183367
66	0xbe22b532	-0.15889433
67	0x3da25277	0.07925885
68	0x3d80d8ff	0.06291389
69	0x3d1867f7	0.037208524
70	0xbbfcc740	-0.007714182
71	0xbcc7162c	-0.024302565
72	0x3e0d9473	0.1382616
73	0xbdaceec4	-0.084439784
74	0x3d5d2c03	0.05399705
75	0x3dea3abc	0.11436984
76	0x3d3b40dd	0.045716155
77	0x3dbee6c3	0.09321358
78	0xbd9d09e5	-0.07667903
79	0xbda297bc	-0.07939097
80	0x3db8ff41	0.09033061
81	0x3d78f549	0.060780797
82	0xbdc09d5e	-0.094050154
83	0x3db93573	0.09043398
84	0x3e386c06	0.18009958
85	0xbd82c999	-0.06386108
86	0xbdce8d39	-0.1008553
87	0xbe1ae80e	-0.15127584
88	0xbd0dd42e	-0.03462618
89	0x3e26fcb9	0.16307344
90	0xbdce143a	-0.10062452
91	0x3d471b5d	0.04861008
92	0xbd93b54c	-0.07212314
93	0xbc8b024e	-0.016968872
94	0xbe20eb5a	-0.1571478
95	0xbd2f5e08	-0.042814285
96	0x3cc53d8b	0.024077198
97	0xbde7b615	-0.11314026
98	0x3d6fa3ee	0.058505945
99	0x3d75e474	0.060032323
100	0xbd5827a7	-0.05277219
101	0x3db062fb	0.08612629
102	0xbd88956c	-0.06669125
103	0xbcf27a80	-0.029599428
104	0xbd7c5a94	-0.06160982
105	0xbe1f843b	-0.15577786
106	0xbdfcb9c5	-0.1234012
107	0xbdd52cb5	-0.10408918
108	0xbdfe58ce	-0.12419282
109	0x3d58c5f5	0.05292316
110	0x3dac060f	0.08399593
111	0x3e39571d	0.18099637
112	0x3cc8e91b	0.024525216
113	0x3ce38797	0.027774615
114	0xbddca181	-0.10772992
115	0xbe26788d	-0.16256924
116	0x3d906cdc	0.07052013
117	0x3e06a8d6	0.13150343
118	0xbe0f5ab8	-0.1399945
119	0xbd3a61a5	-0.045503277
120	0x3ddadec6	0.10687022
121	0xbdb2f18e	-0.08737479
122	0x3e2cfb36	0.16892704
123	0x3d4d93da	0.05018983
124	0xbdaac673	-0.083386324
125	0x3dfaf76d	0.12254224
126	0x3ce0e042	0.027450684
127	0xbd4fb8d4	-0.050713375
128	0x3dc5085c	0.09620735
129	0x3da795a1	0.08182836
130	0x3e396189	0.18103613
131	0xbdfa651d	-0.12226317
132	0x3d47bacd	0.04876213
133	0xbe12b0c8	-0.14325249
134	0x3de81178	0.11331457
135	0x3d0cc9f3	0.03437228
136	0x3d59581b	0.05306254
137	0x3d7f9591	0.062398497
138	0x3e2d36a0	0.16915369
139	0x3e554f33	0.20830993
140	0xbbab6723	-0.0052308007
141	0x3dbcf4e3	0.09226396
142	0x3d80856c	0.06275448
143	0x3dec57ba	0.1154017
144	0xbc38c57e	-0.011277555
145	0x3df56cb1	0.11983622
146	0xbd9ed753	-0.077559136
147	0xbcdd3fa3	-0.027007883
148	0x3ca51b7e	0.02015471
149	0x3e430d07	0.19047938
150	0x3dac4459	0.08411474
151	0xbddc6eb1	-0.107633
152	0xbd843edf	-0.06457304
153	0xbbeae8d1	-0.007168867
154	0xbdbfe0a5	-0.093690194
155	0xbd435388	-0.047687083
156	0xbd99fc29	-0.07518799
157	0xbd9cf806	-0.07664494
158	0xbe0396b1	-0.12850453
159	0x3e286db3	0.16448097
160	0x3d49500c	0.049148604
161	0x3e0290f4	0.12750608
162	0xbca412a2	-0.020028416
163	0xbe276434	-0.16346818
164	0x3dd7e2d3	0.1054131
165	0xbdb47931	-0.08812178
166	0x3d6e6a92	0.058207102
167	0xbda9094f	-0.082537286
168	0x3e253ab2	0.16135672
169	0xbcce317b	-0.025170079
170	0x3d2b6114	0.041840628
171	0x3dafb308	0.085790694
172	0xbd86b565	-0.06577567
173	0xbc5c5307	-0.01344753
174	0xbd87b53b	-0.06626364
175	0x3e422061	0.18957664
176	0xbddf4271	-0.109013446
177	0x3be15a73	0.0068772375
178	0xbd74ba3b	-0.059747916
179	0xbd0c4117	-0.034241762
180	0x3d8f2473	0.06989374
181	0xbd7c03ec	-0.061527178
182	0x3db35fc4	0.087585
183	0x3d8e8264	0.06958464
184	0x3dd44b87	0.10365968
185	0xbe0710ce	-0.13190004
186	0x3e18e215	0.14929993
187	0xbd99a453	-0.075020455
188	0xbe10fde8	-0.14159358
189	0xbda8402f	-0.08215367
190	0x3e209c78	0.15684688
191	0xbdb4e60c	-0.088329405
192	0x3d81b581	0.06333447
193	0x3d916307	0.07098966
194	0xbe006bc8	-0.12541115
195	0x3babb121	0.0052396213
196	0x3d7c3d78	0.06158206
197	0xbdf88b27	-0.12135916
198	0xbe10fc58	-0.14158762
199	0x3e102eee	0.14080402
200	0xbddf9641	-0.109173305
201	0x3cd970c8	0.026543036
202	0x3da21e5e	0.07915948
203	0xbda0d85e	-0.07853769
204	0x3b7e5ae2	0.0038811495
205	0xbd9347d6	-0.07191436
206	0x3dd26b1e	0.10274337
207	0x3e387e6c	0.18016976
208	0x3d23709d	0.03990232
209	0x3db7be42	0.08971836
210	0x3dd81335	0.105505385
211	0x3d3f1733	0.046652984
212	0xbe212b2e	-0.15739128
213	0xbdd03874	-0.101670176
214	0xbe086b09	-0.1332208
215	0x3e0b4218	0.13599432
216	0x3e29acdb	0.16569845
217	0xbe018985	-0.12650116
218	0xbe2630ea	-0.16229597
219	0xbe08bbf3	-0.13352947
220	0x3dffc2db	0.124883376
221	0xbdef9a9b	-0.116994105
222	0xbd889d26	-0.06670599
223	0xbd00fcb8	-0.03149101
224	0xbc88f946	-0.016720425
225	0x3e3179c4	0.17331606
226	0x3e426ae9	0.18986095
227	0x3e50abf0	0.20378089
228	0xbd9ec6e6	-0.077527806
229	0x3e1f1cb2	0.1553829
230	0xbcacc1b4	-0.021088459
231	0x3d0c3e71	0.034239236
232	0x3d9974dc	0.07492992
233	0xbe3639d1	-0.17795493
234	0xbe0c54a3	-0.13704161
235	0x3d7e9206	0.062150978
236	0xbc688525	-0.0141919
237	0x3e2a2d9c	0.16618961
238	0xbdc0053f	-0.093760006
239	0xbda10006	-0.078613326
240	0x3e36b9f2	0.1784437
241	0xbd6dd4dd	-0.05806433
242	0x3da19c08	0.07891089
243	0xbce0cf64	-0.027442642
244	0xbe068ae2	-0.13138917
245	0xbe13c0c2	-0.14429
246	0x3d9cfed4	0.07665792
247	0x3e1249af	0.1428592
248	0xbd8103af	-0.06299531
249	0xbdfbc72d	-0.12293849
250	0x3dfeaff8	0.12435907
251	0x3d4bf75d	0.04979645
252	0x3db4df54	0.08831659
253	0x3d2ae462	0.04172171
254	0x3cf8088a	0.03027751
255	0x3df122ee	0.117742404

fc2_adv.weight f4 [128, 256]
0	0x3d84aca0	0.06478238
1	0x3d28c82c	0.041206524
2	0xbc9d81fb	-0.019227019
3	0xbd462d52	-0.048383065
4	0x3df06e97	0.11739843
5	0x3afb8a0e	0.0019190924
6	0x3b643a3e	0.0034824754
7	0xbd06d65d	-0.032919277
8	0x3d7d538e	0.061847262
9	0xbd85fbc1	-0.06542159
10	0xbafd8c72	-0.0019344224
11	0xbd7b40b5	-0.061341006
12	0x3dbf4e0e	0.093410596
13	0xbd9c9dbb	-0.07647272
14	0xbc7dc734	-0.015489388
15	0xbd396f48	-0.04527214
16	0xbcacccb8	-0.021093711
17	0x3c67f4c8	0.0141574815
18	0x3d715688	0.058920413
19	0xbced3055	-0.02895371
20	0x3da6d6c5	0.08146433
21	0xbc9d4fcf	-0.019203095
22	0xbc86d990	-0.016461164
23	0xbd9197a3	-0.071090005
24	0x3d6fbac2	0.058527716
25	0x3bf9d5c2	0.007624359
26	0x3cc63dc7	0.02419938
27	0x3d7f3914	0.062310293
28	0xbd26886b	-0.040657442
29	0x3b25875d	0.0025257685
30	0xbd82b11f	-0.063814394
31	0x3d885bd5	0.066581406
32	0xbd5d1592	-0.05397565
33	0x3cab3315	0.020898381
34	0x3c55c3fb	0.013047214
35	0x3cdf59de	0.027264532
36	0x3d8bce46	0.06826453
37	0x3d46cd00	0.048535347
38	0x3ca32731	0.019916149
39	0xbd32747a	-0.043568112
40	0x3d30f595	0.043202955
41	0xbdf9fdd6	-0.122066185
42	0x3bd09011	0.0063648303
43	0x3dfe10fb	0.124055825
44	0x3d4edef2	0.050505586
45	0x3b93ec70	0.0045142695
46	0x3be008a0	0.0068369657
47	0xbd1da169	-0.03848401
48	0x3ca033b2	0.0195559
49	0x3d1f2bb4	0.038860038
50	0xbd976b9e	-0.07393573
51	0x3d13d7a7	0.036094334
52	0x3d505618	0.050863355
53	0xbdfa5987	-0.12224107
54	0xbd1e6606	-0.038671516
55	0x3d149551	0.03627521
56	0x3cf7bc79	0.030241238
57	0x3d8088ca	0.062760904
58	0x3d2a95be	0.04164671
59	0x3d837a5b	0.06419822
60	0x3aee45ee	0.00181788
61	0x3d2ff68c	0.042959735
62	0x3d23e64f	0.04001456
63	0x3c4fc859	0.012682044
64	0x3c9337ac	0.017970882
65	0x3cf4f954	0.029904045
66	0xbdba636a	-0.09100993
67	0xbcc55be0	-0.024091661
68	0x3d5e0cac	0.054211304
69	0xbd4297da	-0.0475081
70	0x3c8370b2	0.016044948
71	0x3dc310c3	0.095246814
72	0xbc14ea83	-0.009089115
73	0xbcc0d6b7	-0.023539884
74	0x3b349ef3	0.0027560561
75	0xbacad362	-0.0015474374
76	0x3d44dabc	0.048060164
77	0xbcea3025	-0.02858741
78	0x3d744a78	0.05964133
79	0x3cc71738	0.024303064
80	0x3cdf7575	0.027277688
81	0x3dff4433	0.1246418
82	0xbccade4b	-0.0247642
83	0x3d234041	0.0398562
84	0xbd4a1afc	-0.04934214
85	0xbc02ceea	-0.0079839025
86	0xbb2a14ab	-0.002595226
87	0x3d753683	0.05986644
88	0x3c79ee17	0.015254519
89	0xbc89d4db	-0.01682513
90	0x3d994df7	0.07485574
91	0xbc3eade8	-0.011638142
92	0xbc525c19	-0.012839341
93	0xbda9749d	-0.08274195
94	0x3b7562f8	0.0037443023
95	0xbd320e6c	-0.043470785
96	0x3de54790	0.1119529
97	0xbdcb3826	-0.09922819
98	0xbd1e0015	-0.038574297
99	0xbd36d248	-0.044634134
100	0xbcc67ec3	-0.024230367
101	0xbce51935	-0.027966121
102	0x3ccc4b31	0.024938198
103	0xbd141f1c	-0.03616248
104	0xbde87364	-0.11350134
105	0x3d9f9f23	0.07794025
106	0x3dac2f82	0.08407499
107	0x3d9e45db	0.077281676
108	0xbe0a741e	-0.13520858
109	0xbc71c329	-0.014756002
110	0x3d4b949f	0.049702283
111	0xbdd7c21d	-0.10535071
112	0x3c43f85e	0.011961071
113	0x3d28cb73	0.04120965
114	0xbd0fdf10	-0.03512484
115	0x3e45acac	0.1930415
116	0xbcaf2922	-0.021381918
117	0x3cbf1c4a	0.023328919
118	0xbd23fd13	-0.040036272
119	0x3d44cb51	0.04804546
120	0x3d88b8cb	0.066758715
121	0x3c013ccc	0.00788803
122	0xbbfe70b6	-0.007764901
123	0x3e186939	0.1488389
124	0xbcdbc28d	-0.026826167
125	0xbd3af8e8	-0.04564753
126	0x3d4053c6	0.046954893
127	0xbd061a3d	-0.032739867
128	0x3c79bf34	0.01524334
129	0x3d701cbb	0.05862115
130	0xbd541992	-0.0517822
131	0xbd7ac371	-0.061221544
132	0x3d44caf7	0.048045125
133	0x3ca2ec5c	0.019888096
134	0x3d2f1ded	0.04275315
135	0xbccdd25b	-0.02512472
136	0xbd6c11bd	-0.057634104
137	0x3d844689	0.06458766
138	0x3c47a39e	0.0121850055
139	0x3d287b3e	0.041133158
140	0xbcfab041	-0.030601623
141	0x3d4200b6	0.04736396
142	0xbca1fd4a	-0.019774098
143	0xbc89f02a	-0.016838152
144	0x3d0f39a7	0.03496709
145	0xbd95b097	-0.073090725
146	0x3d38ace9	0.045086775
147	0x3df12102	0.11773874
148	0xbce5e1b6	-0.028061729
149	0xbdbe471b	-0.09290906
150	0xbb0c4abe	-0.0021406855
151	0x3d4adfee	0.049529962
152	0x3cc1aed0	0.023642927
153	0xbb533c4b	-0.0032231982
154	0xbbe76b8c	-0.007062381
155	0xbbe25edd	-0.0069082812
156	0x3dba9c37	0.09111827
157	0x3d6100c8	0.054932386
158	0x3d973672	0.073834315
159	0xbd05d120	-0.03267014
160	0xbd85df3c	-0.06536719
161	0x3c22f4df	0.009946077
162	0x3d250f4b	0.040297788
163	0xbe0207c8	-0.12698281
164	0x3ce34f26	0.027747702
165	0xbca5804b	-0.020202776
166	0x3d83b191	0.064303525
167	0x3cb0220c	0.02150061
168	0xbbbff725	-0.0058583193
169	0x3c3efe03	0.011657241
170	0xbd8af5bf	-0.067851536
171	0x3c16ddb8	0.009208135
172	0x3cec0d6e	0.028814998
173	0x3bc7ecf4	0.006101245
174	0xbd18ba93	-0.037287306
175	0xbc15feb2	-0.009154962
176	0x3da8facb	0.0825096
177	0xbd99e7e0	-0.0751493
178	0xbd2ecd14	-0.042676046
179	0x3b155b7e	0.002279013
180	0xbd155a45	-0.03646304
181	0xbd49b7ce	-0.049247555
182	0x3d2587c5	0.040412683
183	0x3d68f526	0.056874417
184	0x3bca1eda	0.0061682286
185	0x3d5af2a9	0.053454075
186	0x3d34e990	0.044168055
187	0x3deba4ef	0.11506068
188	0x3d87ba98	0.06627387
189	0x3b0153fc	0.0019733896
190	0x3d46a1b4	0.048494056
191	0x3d2af97e	0.04174184
192	0x3cce7b2b	0.025205215
193	0x3d247b4d	0.04015665
194	0x3d509958	0.05092749
195	0x3b930deb	0.004487743
196	0xbd00597d	-0.031335343
197	0xbdc55f25	-0.09637288
198	0x3cd26af8	0.025685772
199	0xbdb3e608	-0.08784109
200	0xbaf58c9c	-0.0018733921
201	0xbbc64e30	-0.006051801
202	0x3d7fa8cc	0.062416837
203	0xbc7bbd9b	-0.01536503
204	0xbd7cf727	-0.06175914
205	0xbd88aa73	-0.066731356
206	0x3d1725b6	0.0369012
207	0xbd36eec2	-0.04466129
208	0xbd457b3d	-0.048213232
209	0x3d2e957c	0.04262303
210	0x3d6c4982	0.05768729
211	0x3d89be05	0.067256965
212	0x3d891d3f	0.066950314
213	0x3e0c1c68	0.13682711
214	0x3d70de43	0.058805715
215	0x3cb45198	0.022011563
216	0xbda4fbf4	-0.08055869
217	0xbd9c42df	-0.07629942
218	0xbdbd90b0	-0.092561126
219	0x3d40e2e6	0.047091387
220	0xbc2df13c	-0.010616597
221	0x3d72acb2	0.059246726
222	0x3e16c054	0.14721805
223	0x3cd3c0f6	0.025848847
224	0xbcb8be19	-0.022551583
225	0xbc708521	-0.014680178
226	0xbc76804a	-0.015045235
227	0xbd265257	-0.04060587
228	0xbc2459c7	-0.01003117
229	0x3ca26983	0.019825703
230	0xbd131b6b	-0.03591482
231	0xbcc2ed14	-0.023794688
232	0x3d748191	0.059693877
233	0xbbdbebb4	-0.0067114476
234	0x3c878e7d	0.016547436
235	0x3d91f765	0.07127265
236	0x3da47f6c	0.08032116
237	0x3e25db81	0.16197015
238	0x3d5cb8df	0.053887244
239	0x3cafab15	0.021443883
240	0x3cf37ca8	0.029722527
241	0x3d8025a9	0.06257183
242	0x3ccf1c2b	0.025281986
243	0xbbeee7e4	-0.007290827
244	0xbd646e54	-0.05576928
245	0xbd3efb5c	-0.046626434
246	0xbcd01c81	-0.025404217
247	0x3d6bd0e9	0.05757228
248	0xbd0e9d42	-0.03481794
249	0x3ca227cb	0.019794365
250	0x3d479a6f	0.048731264
251	0xbd00087b	-0.031258088
252	0x3d86e525	0.065866746
253	0x3d65edef	0.056135114
254	0x3d95d86e	0.07316671
255	0x3d2e8d78	0.042615384
