src/nets/exp_graph_obs_5_agents100.pth (torch_old, 356653 bytes, 11 tensors)

fc1_val.weight f4 [256, 43]
000000 8c 87 97 3d 4a bb 2c bc dc d8 93 bd 6f 53 0a 3e
       0.073989004 -0.0105427 -0.07219097 0.1350839
000010 4a 26 bd bd ec b4 11 be c2 05 92 3d 0a f4 8d 3d
       -0.09235819 -0.14229172 0.071300045 0.069313124
000020 8a 28 20 bb 14 5e d4 3d cc ed f2 3d 8d e4 b4 bc
       -0.0024438226 0.103695065 0.118617624 -0.022081638
000030 3f 33 cd 3d ac 00 85 3d e1 37 cf bd b0 63 16 bd
       0.1001954 0.06494269 -0.1011808 -0.036716163
000040 a9 23 5a 3c 8b f0 c2 bd b8 ff b3 bc ae ee 29 be
       0.013314166 -0.09518536 -0.021972522 -0.16594955
000050 e6 c5 52 3d 0d 6c 3f bd 98 8a ee bd 4b 73 95 3d
       0.051458262 -0.046733905 -0.116475284 0.07297381
000060 b6 58 08 3d 98 b8 05 be 96 e0 e5 3d bf a9 15 be
       0.033287726 -0.13058698 0.11224477 -0.14615534
000070 34 78 80 bd 29 57 f9 3d 46 13 06 3e a8 97 d7 bd
       -0.06272927 0.121748276 0.1309329 -0.10526973
000080 53 fc e8 3d 92 ca f6 3b 17 0b 17 be 71 f4 06 be
       0.11376252 0.0075314725 -0.14750324 -0.13179184
000090 17 94 08 be ff a8 03 be 71 d9 a7 bd 5d d4 1a bc
       -0.13337742 -0.12857436 -0.081957705 -0.009450045
0000a0 bd 2f 17 be 86 53 17 be 9b 3e f6 3d e5 3a 90 bd
       -0.14764304 -0.14777955 0.1202366 -0.07042483
0000b0 64 0a cd 3c 6d 78 9c 3d eb a6 8f bd d7 56 0a be
       0.025029369 0.07640157 -0.07014259 -0.1350969
0000c0 78 9e 0c be 6f a6 c0 bd 92 a2 9b bc 15 47 40 3d
       -0.13732326 -0.09406745 -0.018998418 0.04694279
0000d0 be 81 a0 bd ec 0c 0e 3e 0b a1 23 bd 0f 44 b2 bd
       -0.07837246 0.13872117 -0.039948504 -0.087043874
0000e0 4c 82 a3 3d 57 4a 35 3d 2d 9a a4 3b 49 b5 a6 bc
       0.079838365 0.04426035 0.005023262 -0.020350115
0000f0 de 61 9b 3d 25 7a b0 bd 47 5a 26 3d d3 cf 8a bd
       0.07587026 -0.08617047 0.04061344 -0.067779206
000100 09 c5 b5 3d 54 f4 fe 3c a0 24 f7 bd 62 4f 06 be
       0.08875472 0.031122364 -0.120675325 -0.1311622
000110 73 45 f5 3d 68 46 0d 3e d0 82 26 3b ba 55 79 bd
       0.11976137 0.13796389 0.002540756 -0.06087277
000120 84 b6 96 bd 4e d6 a1 3b 36 89 9c bd 7a 8f c1 3c
       -0.07359031 0.004938877 -0.076433584 0.023627985
000130 85 d3 0e 3e 46 89 96 bd 99 6d 87 3d 3e ef 0c 3e
       0.13947876 -0.073504016 0.06612701 0.13763139
000140 a0 8a 88 3c b0 c7 ca 3d ec e0 7c 3d b3 4d ea 3c
       0.016667664 0.099013686 0.06173794 0.028601503
000150 b4 ea 87 bd 0e e1 2b 3e d9 8c 0d 3d 9b 26 4a bd
       -0.06636563 0.1678507 0.03455815 -0.049353223
000160 89 97 1e be 54 05 cc bd 95 49 30 3d e0 92 69 3d
       -0.15487494 -0.09961954 0.043038923 0.057024837
000170 9e 18 f9 bd 53 e0 8f bb 36 35 77 bd 84 43 23 bd
       -0.121628985 -0.004390755 -0.06035348 -0.03985931
000180 0b 86 0b be 9c 0b e0 bd 23 35 0e be fc f3 80 bd
       -0.13625352 -0.10939714 -0.13887458 -0.06296536
000190 de 55 87 bd db 7a f0 3d 1c 94 dd 3d f2 8d 25 be
       -0.06608175 0.11742183 0.10819265 -0.16167429
0001a0 8c ae 99 bc bd 06 0d be e7 7d f9 3d 85 09 e3 3d
       -0.018759988 -0.13772102 0.12182217 0.110858
0001b0 9d f9 11 3d 94 06 c2 3c 1f 4e 03 bd 31 90 69 3d
       0.03563844 0.023684777 -0.032056924 0.057022277
0001c0 59 b8 ad bd f9 64 97 bd 65 b9 24 be ac bc 83 3d
       -0.08482427 -0.07392306 -0.16086347 0.06432471
0001d0 c0 bc 79 3c c2 e4 80 3d de c3 28 3d 02 58 74 3d
       0.015242755 0.06293632 0.04120242 0.059654243
0001e0 33 6a 8a 3c bb 51 08 be f9 3b b3 bd 82 5d 2f bc
       0.016896343 -0.13312428 -0.08751673 -0.010703446
0001f0 0d 7c ac 3d 03 a2 75 ba 24 35 27 be 20 6b 16 3e
       0.08422098 -0.000937015 -0.16328865 0.14689302
000200 5d db 15 be 52 1f e5 bd 05 16 c1 3c c5 96 62 3c
       -0.14634462 -0.111876145 0.02357007 0.013829892
000210 f0 00 1c bd 23 e9 df 3d 52 3e 55 3d a1 e3 28 be
       -0.03808683 0.10933139 0.052061386 -0.16493084
000220 69 62 ff 3d e2 3b 00 be b6 b8 ba bc 5a 95 bd ba
       0.12469942 -0.12522843 -0.022793155 -0.0014464066
000230 c9 1e 83 bd 6d 07 7b 3c cb ef b9 3d 7d 41 73 3d
       -0.06402356 0.015321595 0.0907894 0.059388626
000240 a1 2b 0a bd 17 5c ba bb 51 78 be bd 40 e3 fb bd
       -0.033733014 -0.0056872475 -0.09300292 -0.12299204
000250 a9 a3 a1 bd aa 96 d7 bd c0 72 db bd a0 28 a8 3c
       -0.07892544 -0.10526784 -0.10715246 0.020527184
000260 58 be 8c 3c 29 ec 45 3d 1f 21 13 bd 47 8e e7 3d
       0.017180607 0.048320923 -0.03592026 0.11306434
000270 6f 0a fb bd 3c 3c d3 bd 00 05 ce bb b0 fb c8 bc
       -0.122578494 -0.10314223 -0.006287217 -0.024534076
000280 b6 28 89 3d da 6b 93 bd 36 ef ed bd 2f 33 ba bd
       0.06697218 -0.071983054 -0.116178915 -0.09091794
000290 5e 69 d1 bd 54 6d 2d bd e0 93 bb 3b f8 e2 44 bd
       -0.10225175 -0.04234059 0.005724415 -0.048068017
0002a0 71 e5 bb 3d 71 22 56 be 53 e6 00 3e de cc dc bd
       0.09174622 -0.20911576 0.12587862 -0.10781263
0002b0 20 c4 54 3c 84 13 29 bd 18 bb 8a bd 1e 3f 0c 3e
       0.012986213 -0.041278377 -0.067739666 0.13695952
0002c0 81 ca 02 be e5 34 61 3d 5a e5 df 3d 83 63 c7 3b
       -0.12772562 0.054982085 0.10932417 0.006084861
0002d0 c1 90 bb bc 80 01 17 3e 19 e3 f9 bd 33 5a 26 3e
       -0.022896172 0.14746666 -0.122015186 0.16245346
0002e0 9b b7 ff bd 7e 2f 56 bb 92 32 99 bd b4 b1 26 3d
       -0.12486192 -0.0032682116 -0.07480349 0.040696815
0002f0 7c a9 ac bd 9a db 2a 3d 78 5b 55 3d d2 e6 0c 3d
       -0.08430764 0.041713335 0.052089185 0.034399815
000300 71 74 92 3d f1 43 25 bd cf e8 0c 3d dd fd dd 3c
       0.07151116 -0.040347997 0.03440171 0.02709859
000310 c8 05 89 3c e2 36 59 bc b7 f9 2e 3b f2 ea c5 3d
       0.01672639 -0.013257714 0.0026699135 0.09663953
000320 1f 70 51 bd e4 b4 9a 3c 1b 3d 9e 3c 36 a8 d7 3b
       -0.051132318 0.018885083 0.019316247 0.0065813316
000330 66 32 66 bd 3a 39 d5 bd 5e 44 1f 3d 5d 1a 43 bd
       -0.056200407 -0.10411306 0.03888356 -0.047632564
000340 d8 0c e0 bd 03 60 34 3d f2 d9 09 3e 9a 5e 03 3e
       -0.1093995 0.044036876 0.13462046 0.12829056
000350 0e f7 b0 3c 54 22 b8 3d 9d b2 a5 3d cb c3 07 3e
       0.02160218 0.089909226 0.080907084 0.13258283
000360 c2 1b 04 3e b5 97 94 3c 94 c0 61 bc a5 38 2f bd
       0.12901214 0.018138746 -0.013778824 -0.04277863
000370 ea d2 a5 bd a1 18 3d 3c bb a3 2f 3d 95 49 09 be
       -0.08096869 0.0115415165 0.042880755 -0.13406976
000380 4e 5b 5b 3b 11 2a 48 bd 7f df e1 bd 0f c9 b6 bd
       0.003347117 -0.048868243 -0.110289566 -0.08925068
000390 45 3e d8 3d cd c1 ee 3d 7c 37 c7 3c 9f bc e7 bd
       0.10558752 0.11658058 0.02431845 -0.113152735
0003a0 f6 62 73 bd ca d8 8a bd 31 37 fb bd 8d af 4d 3d
       -0.05942055 -0.067796305 -0.12266386 0.050216246
0003b0 09 ad c7 bd 13 af 22 3e 5d 26 67 3d 36 4e f7 bd
       -0.09749801 0.15887098 0.05643307 -0.120754644
0003c0 64 86 8a 3d e2 a7 0a be b4 2d ad 3d 3f 8e 55 3c
       0.06763914 -0.13540605 0.08455983 0.013034402
0003d0 83 26 58 3d 49 b1 72 3d a3 75 39 bd 4a f8 f9 3d
       0.052771103 0.059251104 -0.045278203 0.122055605
0003e0 78 14 dd 3c b8 98 14 be 59 d6 27 3c d5 80 d0 3c
       0.0269873 -0.14511383 0.010243976 0.025452057
0003f0 30 f6 e2 3d 49 f9 66 bc 8c 26 bd 3c 88 82 1c 3e
       0.11082113 -0.01409752 0.02308967 0.15284169

fc1_val.bias f4 [256]
000000 ed 50 be bd ea 2a 63 bd a1 74 0b 3d 93 b6 bf bd
       -0.09292779 -0.055460848 0.034046773 -0.09360995
000010 18 93 1b 3d c8 8b f0 3d bd 25 0b be 4c c8 07 3d
       0.037982076 0.11745411 -0.13588615 0.033150002
000020 23 64 15 3e 31 44 12 3e 98 7e 5e 3d a0 e8 c4 3b
       0.1458898 0.14283825 0.054319948 0.0060091764
000030 44 b4 28 3d f6 cf ba 3b 9f 30 cd bd 68 e4 cc bb
       0.04118754 0.0057010604 -0.10019039 -0.006252814
000040 8f 63 f6 bc 62 9c 14 be e9 65 d5 bd 1a 45 1b bc
       -0.03007677 -0.1451278 -0.104198284 -0.009476924
000050 05 1c f8 bd 8a f1 c8 ba 72 b4 d6 ba 80 c4 ed 3d
       -0.12114719 -0.0015330773 -0.0016380681 0.11609745
000060 6b ae 22 3d 4c 0a 11 3e 21 22 0a 3b df 59 65 bd
       0.03971712 0.14164084 0.0021077471 -0.05599391
000070 ba 03 de bc 82 27 1a be e1 da b6 3d 19 43 ae 3d
       -0.027101386 -0.15054134 0.089284666 0.085088916
000080 78 0a 9f 3d 59 75 e9 bd 6c 99 16 3e 3d aa 3e 3d
       0.07765669 -0.113993354 0.14706963 0.04654907
000090 67 8c 6a 3d b0 fd 1a 3e 78 64 cf 3d 05 c9 1d 3e
       0.057262804 0.15135837 0.10126585 0.15408714
0000a0 22 10 1f 3e ae 82 db bd ff db eb bd bc 63 94 3d
       0.15533498 -0.107182845 -0.1151657 0.07245585
0000b0 ec 21 29 3c 49 8a 17 be 95 a4 07 be ec 7d 12 3d
       0.010323029 -0.14798845 -0.13246377 0.03576462
0000c0 49 f6 56 3d 47 bc e2 3d 0e ad 0e bd af 50 24 3d
       0.05248097 0.11071067 -0.034833007 0.04011601
0000d0 4e 63 30 3d be dd 07 3e e4 79 e5 3d 3f 42 9c 3c
       0.043063454 0.13268182 0.112048894 0.019074557
0000e0 0a e5 40 3c 1d 40 bf bd 5b ab 19 3e cf 03 1a 3e
       0.011773357 -0.093384005 0.15006773 0.15040515
0000f0 3f ab 02 3e 4e 31 4d 3d 1b 13 24 3e ac a9 78 3c
       0.12760638 0.05009585 0.16022913 0.015177172
000100 e9 31 e1 bd f9 a7 12 3d d7 e4 91 bd e2 03 50 3c
       -0.10995848 0.035804722 -0.07123726 0.012696238
000110 4a 97 0d bd 77 3e 01 be 26 c0 03 3e 1a 60 57 bd
       -0.03456811 -0.12621485 0.12866268 -0.052581884
000120 fb f6 96 bd 04 00 35 3e 7d 11 15 bd 9b d5 f5 3d
       -0.073713265 0.17675787 -0.03639363 0.12003633
000130 4d 3a 09 3e c7 be 01 bd 07 5c 9c 3d 4c 7f 00 3e
       0.13401146 -0.03167608 0.0763474 0.1254856
000140 7d 54 96 bd 37 ff fc bc 79 7f d2 3d b8 05 08 3e
       -0.073403336 -0.030883415 0.1027822 0.13283432
000150 2f 73 b8 3c 36 57 7a 3d 53 d8 18 3e 9b 7b 0a 3e
       0.022515861 0.061118327 0.14926271 0.13523714
000160 0d 38 81 bd c0 30 a4 bc c1 6b 37 bd 4a 8c 09 be
       -0.06309519 -0.020042777 -0.044780497 -0.13432422
000170 d5 bd f4 3d 4c a5 38 bd 73 bf 8c bd 74 43 81 3d
       0.1195027 -0.045079514 -0.068724535 0.06311694
000180 fd 2f 89 3d 36 01 e6 bd f4 2f 27 bd 9e c5 81 3c
       0.06698606 -0.112307 -0.040817216 0.015841302
000190 e7 09 e6 bd f7 53 75 bd c0 40 ae bd d3 0d 09 3e
       -0.112323575 -0.05989453 -0.08508444 0.1338418
0001a0 fa 16 bc 3d 9b c8 07 be cc 53 2c bd 7c fd 92 bd
       0.0918407 -0.13260119 -0.042072102 -0.071772546
0001b0 50 5f 07 bd 49 b9 22 3e d6 c9 7c bd ca 12 e5 bd
       -0.03304988 0.15890993 -0.061715923 -0.11185224
0001c0 11 c0 d8 3d 08 10 ef bd bd 64 56 3c 20 3f 13 3e
       0.10583509 -0.116729796 0.013085541 0.14379549
0001d0 d8 72 33 3d 56 10 9e 3d 94 58 f9 bd 41 67 18 3e
       0.043810695 0.077179596 -0.12175098 0.14883138
0001e0 67 7f 01 bd fa 1f 9e 3c 3e 7e 1b bd 7d 6d de 3a
       -0.03161564 0.019302357 -0.03796219 0.0016969886
0001f0 a9 ab 05 be 94 66 ea bd d5 f1 5a 3d 51 21 b7 3c
       -0.13053764 -0.114453465 0.053453285 0.022354754
000200 0f a5 41 3d 00 f1 86 bd 6a 90 12 be 8a a2 28 3e
       0.047276553 -0.06588936 -0.14312902 0.16468254
000210 1f e2 c3 3d 10 77 e0 3d 9c 1c f3 3d 61 68 d3 bd
       0.095646136 0.10960209 0.11870691 -0.10322643
000220 16 02 43 bd a6 38 a2 bd 41 9b 30 3d bc 9f b0 bd
       -0.04760941 -0.07920961 0.04311681 -0.08624217
000230 5f c1 df bd 57 de a9 bd 5e da fe 3c 87 a2 0e 3c
       -0.109255545 -0.08294361 0.031109985 0.008705742
000240 1a 5b f5 3c 85 f1 98 3d 57 70 1d 3b 49 0e bd bd
       0.029950667 0.07467941 0.0024023259 -0.0923124
000250 81 0e 5e bd 98 47 74 bd cb a2 08 3e 5a c2 c1 3c
       -0.05421305 -0.05963859 0.1334335 0.023652244
000260 34 67 b6 bb 16 db 8b 3c e4 55 1e 3e 78 b4 17 bd
       -0.005566502 0.017072242 0.15462452 -0.037037343
000270 b5 9e bd 3d 7e 01 8e bd 45 a0 5e bd 28 ce 01 3e
       0.092587866 -0.06933878 -0.054352064 0.12676299
000280 b2 a7 58 bd a9 53 a7 3d 46 80 bc 3d 63 71 10 3e
       -0.0528943 0.08170254 0.09204154 0.14105754
000290 7c 75 90 bd 56 3b 00 3d d3 18 35 bd f7 78 ac 3d
       -0.07053658 0.031306587 -0.044213127 0.0842151
0002a0 68 32 f2 3d 94 e0 55 bd 13 3b 18 3e d5 99 1c be
       0.118260205 -0.052216128 0.14866285 -0.15293057
0002b0 94 7f 03 3d d6 b3 07 3b 14 88 10 3d 5c ca 87 3c
       0.03210409 0.0020706556 0.035286024 0.016575985
0002c0 77 6e f9 3d e1 a7 c7 bd 0a d2 d5 3d 14 ee 81 3d
       0.121792726 -0.09748817 0.104404524 0.06344238
0002d0 a2 39 c3 bd e1 41 bd bd 07 9c 98 3c 64 61 ab bc
       -0.09532477 -0.09241081 0.018629087 -0.020920463
0002e0 ce 0f ac bd 58 ca 12 3b 0e f1 60 39 74 2a 3d 3c
       -0.08401452 0.0022398438 0.00021452105 0.011545766
0002f0 69 d1 08 3e 46 f7 16 3e 7c 63 13 bd 13 e0 26 3e
       0.13361134 0.14742765 -0.035983548 0.16296415
000300 49 85 c9 3d 7e 63 1a 3e e2 35 b0 bd e3 84 42 3d
       0.09839875 0.15077016 -0.08604027 0.047490012
000310 f7 c1 c4 3c fc 06 3f bc f9 f8 c6 3c 5f 94 b0 3d
       0.02401827 -0.01165938 0.024288641 0.086220495
000320 fa ea e1 bd 7f 02 1a 3e b5 41 bf 3b 61 c9 c4 bd
       -0.11031146 0.15040015 0.0058366903 -0.096087225
000330 65 a1 1a 3d 29 53 07 be 5f c1 27 3d 37 f8 4f 3c
       0.037751574 -0.13215317 0.040955897 0.012693456
000340 43 c2 bc ba 05 2a 1d 3d 48 4f 01 be 0a f7 a2 3d
       -0.0014401156 0.03837015 -0.126279 0.07957275
000350 be cf 5d bd ff e3 ba bd 35 bf 90 3d 76 75 c6 3d
       -0.054153197 -0.09125518 0.0706772 0.09690373
000360 1d c6 81 3d 71 c6 6a bd 9b a2 0a 3e 4a 8a 5d 3c
       0.06336615 -0.057318155 0.13538592 0.01352174
000370 c0 0d e2 bd 17 19 f7 bc c9 ab 00 bc be 1d ca 3d
       -0.11037779 -0.030163331 -0.007853457 0.09868954
000380 9d 36 e4 3c 3b 5e 82 bd e6 2f 13 be e4 eb 27 3e
       0.027858073 -0.06365629 -0.1437374 0.16398579
000390 98 64 91 bd 63 8c 3d bd 2b e3 e8 3d fb 93 5c bd
       -0.07099265 -0.04627646 0.11371454 -0.053852063
0003a0 f7 08 9e bd 7f af ea 3d f3 02 14 be 7b f7 a0 bd
       -0.07716554 0.114592545 -0.1445425 -0.07859703
0003b0 1b a2 d9 3c cc db 90 3d f4 e8 e2 bd b4 90 f4 3b
       0.026566556 0.07073173 -0.110795885 0.007463539
0003c0 5f 72 b0 3d e0 b7 82 3d d4 84 41 3c 62 a6 e0 bd
       0.086155646 0.063827276 0.011811454 -0.10969235
0003d0 64 2a d3 3a 8e 2e 19 be 79 29 9b bd 5f f9 0c bd
       0.0016110656 -0.14959165 -0.0757627 -0.034417506
0003e0 ad 94 39 bc 15 06 8d bd 31 08 1e 3c 82 29 17 bd
       -0.011326951 -0.06885926 0.009645508 -0.03690482
0003f0 17 42 75 bd b2 62 05 3d 34 09 eb 3d 52 25 b1 3d
       -0.05987748 0.032564826 0.11476365 0.086496964

fc2_val.weight f4 [128, 256]
000000 f8 5d e1 3c d1 e3 52 3c d7 35 7b 3c 1e a9 0c bd
       0.027510628 0.0128716985 0.015332661 -0.03434097
000010 e8 ad 20 3d 32 fc e5 3c b0 6a 34 39 04 cf 80 3d
       0.03922835 0.028074358 0.00017205882 0.06289485
000020 6d 96 c4 3c c1 67 b0 bc 45 c7 1d 3d 36 62 bc 3c
       0.02399751 -0.021533849 0.038520116 0.02299605
000030 67 c9 2e 3d f4 60 32 bd ce fa e6 bc 1a eb e1 3c
       0.04267254 -0.043549493 -0.028195765 0.027577925
000040 20 d3 81 bc fa 9a 46 bd b3 67 25 3d 47 b6 e4 bc
       -0.015847743 -0.04848764 0.0403821 -0.027918948
000050 0c c2 36 3d 46 08 02 3a 3c fb 90 bc 49 21 f0 3c
       0.04461865 0.0004960339 -0.017697923 0.029312747
000060 60 d1 5f bc 25 0a e1 bb 13 dd 77 bd b0 17 1d bc
       -0.013660759 -0.0068676644 -0.060513567 -0.009588167
000070 87 31 28 3d c2 76 12 bd e1 b9 7e 3d 7d fd 8c bb
       0.041062858 -0.035757788 0.062188987 -0.004302679
000080 df 4a 3c 3c 8a a1 47 bd 1f 2b 2e bd d9 67 9f bd
       0.01149246 -0.04873804 -0.042521592 -0.07783479
000090 f8 2c 9f 3c be 8e 70 3c b2 0a 57 3d 07 21 1d bc
       0.019430622 0.01468247 0.052500434 -0.009590394
0000a0 7b 52 3b 3d ec 2b 62 bd 4f dc b0 bb 34 aa d9 3c
       0.045732956 -0.05521767 -0.0053973566 0.026570417
0000b0 88 f3 57 3d 8a 62 77 bd 6d 8d 0b 3c b8 29 d7 bc
       0.052722484 -0.06039671 0.008517605 -0.02626501
0000c0 f5 87 46 bd c1 3a 36 3d 95 06 ec bc 18 22 fd b8
       -0.048469502 0.044489626 -0.028811732 -0.000120703306
0000d0 e7 b2 23 3c 94 13 f2 bc 92 9a 53 3d 32 da 28 bd
       0.009991384 -0.029550351 0.05166108 -0.041223712
0000e0 24 01 18 3d d5 c8 82 3c cb 55 75 bd 5f 1d 84 bd
       0.037110463 0.015964905 -0.05989627 -0.064509146
0000f0 90 d1 6b bd 4e b5 19 3d 76 e0 cc 3b af 39 d4 3b
       -0.0575729 0.03752642 0.0062523438 0.006476603
000100 95 6b 17 bd 11 2a 6d bd 5f 26 3e bd b9 49 88 3c
       -0.036967833 -0.057901446 -0.046423312 0.016636716
000110 1b c5 11 3d f6 3e e6 3b f7 6d 75 bc 4d 49 25 bc
       0.035588365 0.0070265485 -0.014979831 -0.010088277
000120 92 3b a8 3c b2 16 72 bd 67 1c 9a bb d0 d8 71 bb
       0.020536218 -0.059103675 -0.004703093 -0.0036902912
000130 55 37 32 3c 08 09 95 3c 66 2b 78 3d 2d 43 65 3d
       0.01087745 0.018192783 0.060588263 0.055972267
000140 ad f4 d3 bc d4 63 3b 3d f5 a4 bd 39 36 39 04 bd
       -0.025873506 0.0457495 0.00036171792 -0.032281123
000150 ea 82 93 3b 2a 60 86 bd c0 fb e3 3c 3a 1e 13 bb
       0.00450169 -0.065613106 0.027830005 -0.0022448436
000160 e5 be 8b 3d 61 70 ff bc a0 8e 8a 3c 65 83 a1 bb
       0.068235196 -0.031181516 0.016913712 -0.0049289935
000170 6d d2 3b 3d 03 f5 37 3c c8 06 23 3d e9 8b c8 bd
       0.045854975 0.011227849 0.03980139 -0.09792311
000180 75 da 11 3d 08 29 9a 3d 87 08 2b 3d d0 8c 23 bd
       0.035608727 0.07527357 0.04175618 -0.03992921
000190 80 5c 01 bd 50 11 1d ba da 94 35 bd 9c 8b 48 bd
       -0.031582355 -0.00059916545 -0.04433141 -0.048961267
0001a0 a1 8c 0b bc e1 5f 05 bd 99 36 f6 ba 50 cb 9f 3d
       -0.008517415 -0.03256214 -0.0018784582 0.07802451
0001b0 85 d6 5f bd 40 ec 36 bd cb 9a 67 bc ef 50 8b 3c
       -0.05464794 -0.0446589 -0.014136027 0.017006366
0001c0 f5 bd 85 3c 50 1d 1a bd c1 cc 55 3d e0 87 23 3d
       0.01632593 -0.03762561 0.05219722 0.039924502
0001d0 09 26 6e 3c 6d 10 62 3d c7 d1 71 bd f5 61 05 bd
       0.0145354355 0.055191446 -0.05903795 -0.032564122
0001e0 a7 c3 b9 bc 00 f0 78 3b d2 70 02 bd e1 05 1d bd
       -0.022676302 0.0037984848 -0.031845875 -0.038335685
0001f0 86 01 3f 3c 93 d4 3f 3d 3a 59 83 3d a6 5f 83 3d
       0.011658078 0.046833586 0.06413503 0.06414728
000200 3f bc 62 bd 74 5d ab bd 05 fb 4f bd b8 84 95 bb
       -0.055355307 -0.08367434 -0.0507765 -0.0045629404
000210 ef 69 3c 3d 4e df 04 bc 43 bf 2e bd 61 ea ff 3c
       0.045999464 -0.008109881 -0.04266287 0.03123969
000220 fe ed b5 3c 41 ff a1 3b 25 83 35 3c 8a 4b 10 3b
       0.02220821 0.0049437587 0.011078631 0.002201768
000230 e0 96 13 bd 26 73 14 3b 15 7d 32 bd 7f e7 72 bc
       -0.036032557 0.0022651642 -0.04357632 -0.014825701
000240 ea 1d 3e bd 95 d9 1b 3d 7a d6 f2 bc 46 29 4f bd
       -0.046415247 0.0380493 -0.029643286 -0.05057647
000250 ce 0f 81 bd 87 35 94 3b a7 d2 a7 bc 7d ce 49 bd
       -0.06301843 0.0045229825 -0.020486189 -0.04926919
000260 2e 09 df bc 2b f7 89 bd 02 c1 cf bc 24 f8 43 bd
       -0.027226057 -0.06736597 -0.025360588 -0.047844067
000270 f3 1f e0 bc cb 1e a0 3d 1c a0 4e 3d a5 23 99 ba
       -0.027358985 0.07818373 0.05044566 -0.0011683597
000280 24 6b 0f bd 0d 42 be bb 03 b0 74 bd 60 11 bb 3c
       -0.035014287 -0.0058062137 -0.05973817 0.022835433
000290 39 dd 33 bd 24 f4 2a bd b2 15 28 bd d1 ef c0 b9
       -0.043912146 -0.041736737 -0.041036315 -0.0003679977
0002a0 5f a5 67 3d 6c 08 6d 3d c8 72 9e bc e3 82 2a 3d
       0.056554195 0.05786936 -0.019341841 0.04162873
0002b0 0f 00 85 bd c6 fc 44 3c b5 be 5e bb c1 1d 2c 3d
       -0.06494152 0.0120231565 -0.0033988182 0.042020563
0002c0 83 72 41 bd c6 c1 b5 bc 8e a9 6d 3c f3 a9 d1 3c
       -0.047228348 -0.022187125 0.014505757 0.025593733
0002d0 2e 19 43 bd cf 22 c2 3c 8d 57 cd 3b f7 e0 01 3d
       -0.047631435 0.023698239 0.0062665404 0.031708684
0002e0 d1 6e 74 3d c0 7d 12 3c 83 69 35 3c 04 52 5c bd
       0.059675995 0.008941114 0.011072519 -0.053789154
0002f0 35 79 46 3c f1 e8 11 3d 0b 14 d2 39 09 81 e5 bb
       0.012113859 0.03562254 0.00040069254 -0.0070039076
000300 52 39 c8 3c 56 84 33 3d 4e 55 94 bc 60 2d 9c 3b
       0.024441395 0.043827377 -0.018107083 0.0047661513
000310 0f b2 17 3d 87 1f 72 3b e1 bc b1 3c 78 53 89 bd
       0.037035044 0.0036945061 0.02169651 -0.067053735
000320 63 1d f5 3a 8b e9 7f 3c b1 4e 5d bd 30 28 b1 bb
       0.0018700775 0.015619646 -0.054030124 -0.005406402
000330 b3 90 11 bd 14 cc 12 3d ff 55 f3 bc 20 b6 52 bd
       -0.035538387 0.035839155 -0.029704092 -0.05144322
000340 94 ab 5c bd c5 80 3e bb 2f 20 57 3d 5d 4f 50 3c
       -0.053874567 -0.0029068452 0.052520927 0.012714234
000350 e6 87 25 3c 74 63 9c 3c 99 49 39 3d f7 91 5a bb
       0.0101032015 0.019090392 0.045236204 -0.0033351162
000360 ad 6a 15 bc 36 9c ad 3d ab 37 b1 3c da 90 29 bd
       -0.009119672 0.084770605 0.02163299 -0.041397907
000370 90 86 72 3d d9 b9 e8 bc 31 fb 86 3c 8b b4 5d bd
       0.05921036 -0.028408932 0.0164772 -0.054127257
000380 b0 17 ca bc db 34 99 3d fa 16 81 bc 03 b7 5c bc
       -0.024669498 0.074807845 -0.015758026 -0.013471368
000390 fa df 5d 3d 4a ce 47 3d bf 0f 66 bc f3 b7 b3 b9
       0.05416868 0.048780717 -0.01404184 -0.00034278593
0003a0 e7 17 38 bc bd c9 c3 bc 1c 49 7d bc 75 a9 b8 bb
       -0.0112361675 -0.023899907 -0.015459325 -0.005635435
0003b0 4c 2c fc 3a ae ab a4 bc 6b 2f b6 bd c9 d8 04 bd
       0.0019239276 -0.020101395 -0.08895763 -0.032433305
0003c0 d3 1c c0 bc 0e 0c b7 3a cc 77 9e bc 70 77 32 3d
       -0.023451244 0.0013965385 -0.019344233 0.043570936
0003d0 7d b3 64 3d 41 bd 53 3c 05 c8 dd 3c b0 4d 3a bd
       0.055835236 0.01292354 0.027072916 -0.045484245
0003e0 f6 78 01 bd da 0e 30 3d 21 c7 17 3d 8d c3 7a bd
       -0.031609498 0.042982914 0.03705514 -0.061221648
0003f0 df 09 48 3d f0 88 57 3b d7 d2 e0 bc 35 ed fa 3c
       0.04883754 0.0032888018 -0.027444286 0.030630687

fc2_val.bias f4 [128]
000000 71 d8 6e 3c 81 f2 28 bd 3d a2 62 3b bc af f0 bc
       0.014577971 -0.041246895 0.0034581565 -0.029380672
000010 50 5c 49 3c d3 4e aa bb 7f 61 80 3b 59 1c 60 bd
       0.012290075 -0.005197385 0.0039178724 -0.054714534
000020 18 80 59 3c 28 b5 3a 3d 8f ec c3 bc 79 ed 18 bd
       0.013275169 0.04558292 -0.02391651 -0.037335847
000030 f4 58 90 3d f3 a1 15 3d bd 14 43 3d b9 25 06 bd
       0.070482165 0.0365314 0.0476272 -0.03275082
000040 a7 19 29 bd a2 17 a1 3b f6 2a 8a 3d d7 b7 2b bb
       -0.04128423 0.0049161473 0.067464754 -0.0026202106
000050 41 cf 1e 3c ea ad 98 3c 86 81 89 3d d6 b2 cc 3b
       0.009692968 0.018637616 0.06714158 0.006246905
000060 77 da e3 bb 8c c9 94 3d f8 92 1c 3d ed cb 2e bc
       -0.0069535333 0.072650045 0.038226098 -0.010668737
000070 f4 82 07 bd d7 af c5 3c 27 85 83 3d eb c5 09 3d
       -0.03308387 0.024131699 0.06421881 0.033636015
000080 d7 37 b9 bb fa 1f 86 bd d3 54 b0 bc cc 14 20 3d
       -0.0056524086 -0.06549068 -0.021524822 0.039082333
000090 34 8d 1a bd 20 15 20 bc 3e 9a 11 3c 76 5a 4a 3c
       -0.037732318 -0.009770662 0.008886872 0.012350669
0000a0 73 db bf 3c 46 98 17 bd 88 ca 29 bc b0 44 0d 3d
       0.023420071 -0.037010454 -0.010363229 0.034489334
0000b0 13 11 d1 bc f3 e1 ed bc c4 e3 83 bb e2 61 29 3d
       -0.025520837 -0.029038405 -0.0040249545 0.041353114
0000c0 8e 45 72 b9 05 44 60 bd f7 51 67 3c 61 e7 85 3d
       -0.0002310483 -0.05475237 0.014118663 0.06538273
0000d0 b5 61 4f 3c bc 81 4f 3c c5 89 0f bd 09 26 9a 3d
       0.0126575725 0.012665208 -0.035043497 0.07526786
0000e0 af 7a ab 3c 97 a4 33 bd fc 63 1f 3d 9c 44 b2 3c
       0.020932524 -0.043858137 0.038913712 0.021761231
0000f0 79 5b 84 bc 31 73 af bc e7 3b 0f bd 19 46 4d bd
       -0.016156899 -0.021417232 -0.034969237 -0.05011568
000100 8a 84 9c bc a1 f9 b1 bc 37 88 93 3d f6 d4 ab bc
       -0.019106168 -0.021725478 0.07203715 -0.020975571
000110 27 8f 76 3d fc bf 38 3d 1f da 86 3d 8e 64 43 bd
       0.060195114 0.045104966 0.06584572 -0.04770332
000120 c4 4a 25 bd 49 fe 89 bd 93 e7 3c bc 28 f3 3e bc
       -0.040354505 -0.06737954 -0.011529821 -0.011654653
000130 3a 7f 58 3c 18 64 5f bd e0 f0 2f 3d 3a 6b 08 bd
       0.013213927 -0.054538816 0.042954326 -0.033305384
000140 da bb e0 3c f0 a2 ff 3c 8f e3 5d 3d dd 01 f9 3c
       0.027433325 0.031205624 0.054172095 0.030396396
000150 3a aa 2c 3d 8e f6 30 bd 39 01 79 bc f5 4b c5 bc
       0.04215453 -0.043203883 -0.015198045 -0.02408407
000160 5e b5 80 bc c5 d5 59 3d 53 53 97 bc 17 69 36 3d
       -0.015711483 0.053182382 -0.01847235 0.044533815
000170 26 97 07 bd bf 2d e1 3b 39 43 90 3d 2c 09 12 3c
       -0.03310313 0.0068719084 0.07044072 0.00891332
000180 f3 9a b8 bc 52 48 44 3d c0 03 ae bb 67 70 38 3d
       -0.022534823 0.047920533 -0.0053105056 0.04502907
000190 a0 c9 0d 3d 8f 2e 7a 3d eb 44 8d bc 9f dc cf bb
       0.034616113 0.061079558 -0.017244777 -0.0063434388
0001a0 fb 5a 3d 3d 2b cb 9c bb 9c 75 72 3b 10 47 41 bd
       0.046229344 -0.0047849617 0.003699637 -0.04718691
0001b0 ad 20 91 3d d6 e3 ff bc d7 bd a6 bc 74 24 08 3d
       0.070863105 -0.03123657 -0.020354195 0.03323789
0001c0 4a 0a 85 bc 09 93 73 3d e4 22 41 3d 2f 87 22 bd
       -0.016240258 0.059466396 0.047152415 -0.039679702
0001d0 67 50 8f bd ad 6e 5b bd 78 8f 3a bc 70 90 80 bd
       -0.069977574 -0.053572346 -0.011386745 -0.06277549
0001e0 4b f5 3d 3d 21 ae 0f 3d 12 cf f2 bc 14 5c 84 3c
       0.046376508 0.03507817 -0.029639754 0.016157188
0001f0 1f 85 98 b9 6f 87 78 bc b0 3c 05 bd cb 67 50 bc
       -0.00029090882 -0.015169009 -0.03252858 -0.012720059

fc3_val.weight f4 [1, 128]
000000 98 74 cf 3d 3c 89 88 bd f2 5a 44 3d c7 d4 e3 3d
       0.1012966 -0.066668004 0.047938295 0.111245684
000010 d2 22 50 bd 25 16 9c 3d bc 48 ae bd 50 cb 5e 3c
       -0.050814457 0.07621411 -0.08509967 0.013598278
000020 e2 66 cf bd a5 d7 a0 bd 76 39 96 bd 70 d6 79 3d
       -0.10127045 -0.07853631 -0.073351786 0.06099552
000030 19 1b b2 bd ef 3e be 3d dc 59 a8 bd b1 f3 95 3d
       -0.08696575 0.092893474 -0.08220264 0.07321871
000040 51 45 38 bd 07 bb 00 3e ab 53 9f bd 7a 89 d1 bd
       -0.04498798 0.12571345 -0.0777963 -0.102313
000050 09 05 a7 3d 76 15 99 bd cc 49 ca bd 47 c4 be bd
       0.08155257 -0.074747965 -0.09877357 -0.09314781
000060 96 64 af 3d 7e bd 83 bd c4 9e 68 bd 9e 71 ad 3d
       0.08564107 -0.06432627 -0.056792036 0.084689364
000070 05 74 e8 3d 16 bb 97 3c ea 60 56 bd 07 30 12 bd
       0.11350254 0.018521827 -0.05233852 -0.035690334
000080 90 82 d3 bc d9 db c2 bd 26 51 bd 3d de ec cf bd
       -0.025819093 -0.09514589 0.092439935 -0.10152601
000090 f7 51 59 3d 4b 6c e2 bd 2f 83 e2 3d 1d d3 07 3e
       0.053056683 -0.110558115 0.110601775 0.13264127
0000a0 f3 33 8f 3d 22 51 7b 3d 19 c2 6d 3d 21 ea ae 3d
       0.069923304 0.06135667 0.058046434 0.0854075
0000b0 ac f2 54 3d fd 39 9b 3d 24 67 4b 3d 09 c3 79 bd
       0.051989242 0.0757942 0.04965891 -0.060977016
0000c0 20 de 87 3d f4 90 fb 3d 8d 86 7b bd 54 5f b5 bd
       0.06634164 0.12283507 -0.061407614 -0.08856073
0000d0 91 96 ec bd 18 d7 b7 bd 38 1d f9 bc 2e 52 96 bd
       -0.11552156 -0.08976573 -0.03040944 -0.07339893
0000e0 39 41 da bd 5a c3 11 3e 9d 94 e5 3c 14 dd fd 3d
       -0.106569715 0.14234677 0.028024966 0.12395683
0000f0 be 95 44 3d a2 72 3c bd 83 af 1c 3e 31 38 d4 bd
       0.047994368 -0.04600776 0.15301327 -0.1036228
000100 e8 7c 1e 3d 08 49 ad 3d 5b 8b 01 be df 3a 1c 3e
       0.03869334 0.08461195 -0.12650816 0.15256833
000110 84 f3 87 bd 6b 78 62 3d 54 a4 ff 3d 22 c8 bd 3d
       -0.06638244 0.05529062 0.12482515 0.09266688
000120 02 74 3f bd 4f 22 26 3e 84 e9 a0 bd c6 27 98 bd
       -0.046741493 0.16224025 -0.078570396 -0.07429461
000130 f2 49 25 3d 54 a5 b5 3d fc ce 42 3d 69 8a c3 bd
       0.040353723 0.088694245 0.047560677 -0.09547884
000140 a9 84 14 bd 20 f1 3a bc 34 13 23 bd 38 d2 52 bd
       -0.036259327 -0.011410028 -0.039813235 -0.05147001
000150 3f 6c ee bd 2d 6e de bd 97 97 8e bd e4 2f 29 bd
       -0.1164174 -0.10860858 -0.06962507 -0.041305438
000160 56 4f e7 3d c8 3a 81 bd ee 36 08 bd 80 09 d0 3d
       0.11294429 -0.0631004 -0.03325551 0.10158062
000170 62 89 81 3a ee 83 0f be f9 44 93 bd de 99 fc 3d
       0.0009882862 -0.14015171 -0.0719089 0.12334035
000180 c2 85 a1 bd 9b c1 98 3d e9 9d ea bd 62 78 85 bd
       -0.078868404 0.07458802 -0.114559 -0.06517102
000190 a3 e9 13 bd 3d a2 82 bd f6 ef 00 3e b1 f3 6a bd
       -0.036111485 -0.06378601 0.12591538 -0.05736131
0001a0 89 6b 0e 3e 9d f8 c8 bd a9 bc ae bd c8 99 ec 3c
       0.13908209 -0.09813044 -0.08532078 0.028881922
0001b0 df 91 c1 bd 2e c3 1c 3e b7 9f e5 bd bc 37 95 bd
       -0.09451651 0.1530883 -0.11212104 -0.07286021
0001c0 fe 51 ef bd f1 72 55 bd 85 98 b4 3b d9 5e 41 3d
       -0.11685561 -0.05211157 0.005511346 0.047209594
0001d0 14 f7 e9 3d 92 78 8f 3d bb 90 bc 3d f6 9d e2 3c
       0.114240795 0.07005419 0.09207293 0.027663212
0001e0 ed aa 5a bd 7d 45 86 bd 95 59 ed bd 19 98 cd bd
       -0.053385664 -0.065562226 -0.11589352 -0.10038776
0001f0 98 ba 41 3d eb 8c 4f bd e8 aa 27 3e 24 62 dc bd
       0.04729709 -0.0506715 0.1637379 -0.10760906

fc1_adv.weight f4 [256, 43]
000000 1a a7 ff bd 08 79 2f 3e 42 86 13 be 2b c3 b5 3d
       -0.12483044 0.17136014 -0.14406684 0.08875116
000010 43 97 03 3e 84 a3 04 3e 6d 92 02 3e c0 7e f7 3c
       0.1285067 0.12953001 0.1275117 0.030211806
000020 aa a3 0d bc 99 e9 75 3c c9 e7 c1 3d 65 d6 c5 3c
       -0.008644978 0.015009307 0.09468038 0.024150083
000030 22 7f 9b bd d7 fc 2c be ff 1a 09 3d cc 97 25 3c
       -0.07592608 -0.16893326 0.03347301 0.010106992
000040 f0 52 0f bd dd 95 ee bd 09 91 18 be 54 e2 8b 3d
       -0.034991205 -0.11649678 -0.14899077 0.06830278
000050 2d 9c e6 bb bf a6 98 3d 99 55 e6 bd ce 95 a4 bd
       -0.0070376606 0.07453679 -0.11246795 -0.080363855
000060 f1 07 d2 3d a7 da 26 bd ef 17 13 bd 1f e8 0f 3e
       0.10255421 -0.040735867 -0.035911497 0.14053391
000070 05 b9 b6 3d 99 78 a0 bd 43 f9 60 bd f9 e9 24 bd
       0.089220084 -0.07835502 -0.054925214 -0.040262196
000080 e5 4a 03 be e0 0b b9 3d 0a 29 ca 3d cf df b5 3c
       -0.12821539 0.09035468 0.09871109 0.022201447
000090 36 ea 48 bb 65 d0 26 bd 97 10 08 be cf 4d aa 3b
       -0.0030657179 -0.040726084 -0.13287579 0.005197264
0000a0 76 ea b1 bd 3a 07 11 be 17 a6 60 3d 23 38 cc bd
       -0.08687298 -0.14162913 0.054845896 -0.09971645
0000b0 73 dc 95 bd 37 be 81 3d aa a9 a1 3c 16 2e ad bc
       -0.07317438 0.06335109 0.019734222 -0.02114014
0000c0 b3 d6 5c 3d de 26 47 3d 6f 96 89 3d 0d 49 5e bd
       0.05391569 0.04862105 0.06718146 -0.054268885
0000d0 9b 73 43 bd a5 71 51 3d 17 4f 3d bd 31 4c a6 bd
       -0.04771767 0.05113377 -0.046218004 -0.08120001
0000e0 e6 4b 02 be ae b2 e4 3b b8 1b 42 3b aa a2 a3 3d
       -0.12724265 0.006979308 0.0029618572 0.0799001
0000f0 70 f1 5d bd 28 8b 40 bd 44 66 dd bd 07 ff 19 3b
       -0.05418533 -0.04700771 -0.10810521 0.0023497955
000100 f0 3c a4 3c 9b 81 fc 3d 35 0d fd bd 76 66 bf 3d
       0.020048589 0.12329408 -0.12356035 0.09345715
000110 9b f7 03 3d f7 43 9b bb f7 ad 4b 3c ff c6 dd bb
       0.032218557 -0.0047383267 0.012431613 -0.006768107
000120 e6 0e cb bd 67 5a 5c bc 5b 5d 2d bc 45 5e b3 3c
       -0.09914951 -0.013449288 -0.01058134 0.021895537
000130 f6 59 3b 3d af 70 da 3c 21 6c 15 be 1b db 90 bd
       0.04574009 0.02666506 -0.14592029 -0.07073041
000140 84 4e 06 3e 44 91 30 bd 04 00 52 3d 1c 0b 38 3e
       0.13115889 -0.043107286 0.051269546 0.17972988
000150 58 a5 da 3d 8b cc 11 3e d3 d0 ae bd f5 b3 1f 3e
       0.10676068 0.14238183 -0.08535924 0.15595992
000160 bc fb 96 bc c2 cb a0 3d 5b 6c 0e 3e 58 ae 45 3d
       -0.018430583 0.07851364 0.13908522 0.04826197
000170 03 1a 81 bd 01 15 43 bd 3c 4a b8 3d 3c 2b ea 3d
       -0.063037895 -0.047627453 0.08998534 0.114340276
000180 37 5c 09 bd aa bb 4e 3c 7d 39 ff bd 86 bb ea bd
       -0.03353521 0.012617985 -0.12462137 -0.114615485
000190 16 23 f7 3d 2f 8f ed bc e6 d5 e3 3d 35 f5 1c be
       0.12067239 -0.02899894 0.11124782 -0.15327914
0001a0 b5 47 f9 bd 3b e1 28 bd bd 91 e0 3d 1a 42 f8 3a
       -0.1217188 -0.04123042 0.10965297 0.0018940598
0001b0 3c f0 cc 3d 72 94 af bd 47 36 8e bc 23 ac a4 bd
       0.100067586 -0.085732356 -0.017359866 -0.08040645
0001c0 c5 9e f9 bd 8b 02 d4 3d 78 f1 e8 bd 76 11 06 3e
       -0.12188486 0.103520475 -0.113741815 0.13092598
0001d0 7f 92 14 be 39 3f df 3c ba 85 7c 3d b0 59 1a 3e
       -0.14509009 0.027251827 0.06165097 0.15073276
0001e0 42 96 dd 3d 7a 04 ce 3d 41 c3 a5 3d aa 48 14 3e
       0.10819675 0.100594476 0.08093882 0.14480844
0001f0 ad e5 06 be 94 f4 ca bd de 04 f5 bc 0c f6 21 bd
       -0.13173552 -0.09909931 -0.029909547 -0.03954129
000200 7c ee e4 bd 5c 01 dc 3d bd be b2 bd 26 c3 91 bd
       -0.111783 0.10742447 -0.08727787 -0.071173
000210 db 60 ff 3c c1 34 09 be d1 07 4d 3b 25 c4 9f 3d
       0.031174114 -0.1339903 0.0031285177 0.078010835
000220 71 ed 10 3e 6f 5a 98 3c 81 a3 5c 3c 1c eb 9b 3d
       0.14153077 0.01859781 0.013466717 0.07613203
000230 f9 c5 17 3e cd 17 49 bd 89 b5 01 be 25 8c 93 3d
       0.14821614 -0.049094964 -0.12666906 0.07204465
000240 dd 3d 1e 3e 45 e4 d7 3d 82 a5 84 3d f3 43 47 3d
       0.15453286 0.10541586 0.064768806 0.048648786
000250 e1 a9 16 3e 8d 50 b6 bd 3b 26 42 3d 65 e6 3f bc
       0.14713241 -0.089020826 0.04739974 -0.011712645
000260 71 7b 71 bc 0b 63 f3 3d 58 a4 9d bc 44 40 17 3e
       -0.014738903 0.11884125 -0.019243404 0.14770609
000270 97 24 01 3e 2d c5 87 bd 91 b5 cf bc 74 3b f6 bd
       0.12611614 -0.06629405 -0.025355132 -0.120230585
000280 bb 2a b7 bd ef c6 b6 bb be 55 d3 3d cd e8 2d 3d
       -0.08943697 -0.005577914 0.103190884 0.042458344
000290 e1 e6 0c 3d 1d 44 64 3c bc d6 fa bd d0 9a 82 3c
       0.03439987 0.013932255 -0.122479886 0.015942961
0002a0 fa 2d 96 bd 03 4c 1a 3c da 1d e8 3d 4c 29 ee 3d
       -0.07332988 0.009417537 0.11333819 0.116289705
0002b0 14 07 68 3a 57 6c 33 3d c8 64 b4 bd c7 5f b7 3d
       0.00088511524 0.043804493 -0.08808285 0.08953815
0002c0 a8 03 9d 3d 30 41 b0 bd bb 1b 96 3c d2 83 e6 bd
       0.07666713 -0.086061835 0.01832377 -0.112556115
0002d0 07 88 21 3e bc a3 a4 bd 13 90 01 3e d8 aa b4 bd
       0.15774547 -0.08039042 0.12652616 -0.08821648
0002e0 f5 1f 30 bd 5e 1d 8a 3c ce e1 b5 3c d9 3e c0 b9
       -0.042999227 0.016859706 0.022202399 -0.0003666792
0002f0 6e 8b e9 3d 6b 5e a8 bc 9a 89 d6 3d cf 20 0c 3e
       0.11403547 -0.020552834 0.10475464 0.1368439
000300 68 fd 69 3d e6 e7 14 be 21 b9 a1 bd e2 05 fd 3d
       0.057126433 -0.14541587 -0.07896639 0.12354638
000310 81 cf e9 3d 3d af cc bd 2e 5c db 3d 37 c0 cf 3d
       0.11416531 -0.099943615 0.10710941 0.10144084
000320 d2 eb cf bd 96 dd 91 bc 75 a9 3b bc 5f d9 5f 3d
       -0.10152401 -0.017805856 -0.011453976 0.05465066
000330 b8 f7 a5 3d 0e 99 e4 bd 87 26 64 bd c0 42 e1 bd
       0.08103889 -0.11162005 -0.055700805 -0.1099906
000340 fe 8b 41 3d 47 a9 25 3e 65 c3 92 bd b7 d2 ee 3d
       0.047252648 0.16177855 -0.07166175 0.116612844
000350 82 08 8e 3c 7a 55 0a 3e 11 bb 0d be 6d 27 c9 3c
       0.017338041 0.13509169 -0.13840891 0.024554932
000360 1c b9 bf bd 3a 59 a6 3c 92 be bd 3c ff 71 03 be
       -0.09361479 0.020306218 0.02316216 -0.12836455
000370 31 5a 0a be 7b 13 d7 bb 47 ba 19 3d 02 12 d0 3d
       -0.13510968 -0.0065636015 0.037531164 0.10159685
000380 3b ee d1 3d cf cb 8f bc 23 c4 41 3d 4c 65 16 3e
       0.10250517 -0.017553238 0.04730619 0.14687079
000390 ad f5 ae bd 5e c2 b1 3d d9 41 b7 3d 31 db e9 bd
       -0.08542953 0.08679651 0.08948106 -0.114187606
0003a0 94 8c 20 3d fd a4 83 bd 7d a5 80 bd ba 87 12 3b
       0.039196566 -0.064279534 -0.062815644 0.0022358731
0003b0 94 ef ec 3d c7 52 ec 3d c3 62 f0 3d de 92 c3 bc
       0.115691334 0.11539226 0.11737587 -0.023873743
0003c0 15 76 42 3c 41 7a e1 3d 4d 07 21 3d 55 ae fd 3d
       0.011868973 0.11009646 0.039313603 0.12386767
0003d0 49 8d 88 3d 37 14 cc bd 35 8b 55 bd 71 1a ff bd
       0.06667573 -0.09964793 -0.05213471 -0.12456215
0003e0 a1 fe 12 be 55 4c b3 bd 4a e0 0d be 70 83 b2 3d
       -0.14354946 -0.087547936 -0.1385509 0.08716476
0003f0 f9 06 ab bc 34 eb 0e bd 06 17 ac bd 74 86 87 bc
       -0.020877348 -0.034892276 -0.08402829 -0.016543604

fc1_adv.bias f4 [256]
000000 d1 be 02 3d 11 37 1f bc d2 d6 88 bd 67 dc d0 3d
       0.031920258 -0.009717719 -0.06681599 0.101982884
000010 02 7b 92 3d fa 26 3e 3e b6 eb b6 bc 10 6f 8d bd
       0.07152368 0.18569556 -0.022329193 -0.06905949
000020 b5 0d 54 3d 43 8c 84 3c b5 0f 98 bd 0a 5d 9d bd
       0.051770885 0.016180163 -0.07424871 -0.076837614
000030 3c 5a e8 bd 66 0f ce bd b4 85 85 bd 58 33 8b bd
       -0.11345336 -0.10061531 -0.065196425 -0.067969024
000040 77 e2 84 3d b0 61 f8 bd 51 4f e2 bd 80 67 51 bd
       0.06488507 -0.121280074 -0.11050285 -0.051124096
000050 cd 8b f6 3d 87 6b 59 3e 32 95 94 bd c4 05 6c bd
       0.12038384 0.21232425 -0.07255019 -0.057622686
000060 ed 90 9a bd e4 e7 27 3e 3b 23 d3 3c 47 36 f4 bc
       -0.07547174 0.16397053 0.025773635 -0.029811038
000070 bf 24 17 3e 8e 36 24 be cc 36 81 bd 74 0b 56 bd
       0.14760111 -0.16036436 -0.0630928 -0.052257016
000080 f6 4a 3e bd f1 1f 95 3d ea bc ce bd a4 a0 66 3d
       -0.046458207 0.07281483 -0.10094626 0.056305543
000090 6f ea ef bd a8 e8 d6 3d 0a 47 14 3d cf 92 3d 3c
       -0.117146365 0.104935944 0.03620056 0.011570646
0000a0 4f ab 12 bd 5f ff e4 3c 2d d9 2b 3e bc dc f1 bd
       -0.035807904 0.027953802 0.16782065 -0.1180968
0000b0 d0 f4 fa bd a1 74 aa bd 9a b0 0c 3e 5b 25 04 3d
       -0.122537255 -0.083230264 0.13739243 0.032262187
0000c0 ed 77 10 bd 2a 0b 51 3e 54 e1 d7 3d f7 3a ae bd
       -0.03527062 0.20414415 0.10541025 -0.085073404
0000d0 96 69 bf bd 93 03 1e 3d 7f f6 be 3d 8c 78 6e 3d
       -0.09346311 0.038577627 0.09324359 0.05822043
0000e0 a8 d3 d3 bd 2f 62 9f 3d ae 68 0d bd cd 95 29 3e
       -0.103431046 0.07782399 -0.03452366 0.1656105
0000f0 ab f4 16 be 1c f3 d0 3d f5 e2 b4 3a a6 e0 f1 3d
       -0.14741771 0.102026194 0.0013800549 0.118104264
000100 8e 0e a4 bc 09 6a 2d 3d 39 15 05 be cc 4d 2a be
       -0.020026471 0.04233745 -0.12996377 -0.1663124
000110 c1 25 75 bd 8e b5 98 3d 3e 85 f1 3c 2e 28 9c bd
       -0.059850458 0.07456504 0.02948248 -0.07624851
000120 67 bc 26 bd 9c 42 cb bd be 3c 99 3d 1e df 29 3e
       -0.04070702 -0.09924814 0.07482289 0.16589019
000130 c9 ed 54 bc b4 5b 21 bd f9 b8 aa 3d 2c fb d3 bb
       -0.0129961455 -0.039394096 0.08336062 -0.006469151
000140 1a d7 87 bd 26 82 90 3d 02 7c 73 bc fe e5 1a be
       -0.06632824 0.07056074 -0.014861109 -0.15126798
000150 7b da 34 bd 45 0b c1 3c f9 1e 0e 3e 15 28 a1 3d
       -0.04415367 0.023564944 0.13879003 0.07868973
000160 32 23 c3 3d b6 9b 1a 3e 90 b0 f7 3d a2 44 c7 bd
       0.09528197 0.15098462 0.120942235 -0.097298875
000170 55 df 19 bd 5d ed 92 bd d4 4f 88 bd 4b 02 bd bd
       -0.0375665 -0.0717418 -0.06655851 -0.09228953
000180 2c 3a ad 3c 0f 4e 39 bc 50 49 61 3d 86 e5 59 3c
       0.021145903 -0.0113101145 0.055001557 0.013299352
000190 dd 86 2c 3d 8e c0 ec 3d 96 54 fa 3d 8d 62 ee 3d
       0.042120803 0.115601644 0.12223165 0.11639891
0001a0 97 eb a0 3d b5 9e e8 3b 24 88 82 bd 35 fa 04 3d
       0.07857435 0.0070989975 -0.06373623 0.03246518
0001b0 1b 51 08 be a3 a5 30 be 3d 96 a1 bd c6 f0 1f 3a
       -0.1331219 -0.17250685 -0.07889984 0.00061012467
0001c0 88 53 80 3d ae d8 e8 bd 8a cb 16 3d 62 11 8e 3d
       0.06265932 -0.11369453 0.036815204 0.06936909
0001d0 ce 06 b9 bd c1 03 54 3d 45 48 92 3d c8 62 d8 bd
       -0.09034501 0.051761393 0.071426906 -0.10565716
0001e0 b6 06 f7 bd c4 16 d2 bd 6a 57 56 bc 3a ec ec bd
       -0.12061827 -0.102582484 -0.013082365 -0.11568494
0001f0 c4 93 19 bc 63 58 5d bd 17 18 de bd cf bb df bd
       -0.009373609 -0.05403937 -0.108444385 -0.109244935
000200 ff a6 97 3d c0 3b 4d 3e 99 f3 d7 bd 04 d2 02 3a
       0.07404899 0.20042324 -0.105445094 0.0004990401
000210 c7 10 dc bd 9c db 1f 3d 1d a5 d0 3c 0a 5e 5a bd
       -0.107453875 0.039027795 0.025469357 -0.05331234
000220 c5 d4 0d 3e db 9f b6 bd a0 79 cb 3d e3 5b 90 bd
       0.13850696 -0.08917209 0.099353075 -0.07048776
000230 25 a7 36 3c c5 72 1c be f4 38 df bc 98 06 c7 bd
       0.011148249 -0.15278156 -0.027248837 -0.097180545
000240 d1 77 16 3e d9 8c c6 bd 3d de 60 3d 4a 44 c9 3d
       0.14694144 -0.09694833 0.054899443 0.09827478
000250 cf 1e e0 bd f4 39 b3 bc 0b 46 48 3d 28 d8 b2 bc
       -0.10943376 -0.02187822 0.048894923 -0.021831587
000260 d7 8e a1 3c b9 81 d1 bc 8d 87 14 be 85 b6 e1 bd
       0.019721432 -0.025574552 -0.14504834 -0.11021141
000270 a6 1b ab 3c 46 87 b1 3d f9 1e 0b 3e 7d 89 87 3d
       0.020887207 0.086683795 0.13586034 0.06618021
000280 ba 02 04 be 2c 33 82 bc f9 a5 0a 3e 70 58 72 3c
       -0.12891665 -0.015893541 0.13539876 0.014791593
000290 e7 2d 08 be 02 6e c0 3d 8d 8d 7e bd e0 a6 27 3d
       -0.1329876 0.09395982 -0.062146712 0.04093063
0002a0 1f 0b 10 3d 6b 94 dc 3d df 06 0b be 41 2f 0b 3e
       0.035166856 0.10770496 -0.1357684 0.13592245
0002b0 7e 2f 83 3c e9 70 d3 bd 58 d0 55 3d 2a d1 9c 3d
       0.016013857 -0.1032427 0.052200645 0.076570824
0002c0 31 64 d2 bc e1 f1 96 3d 3b e6 22 3e ff 5e ca 3d
       -0.02568254 0.073703535 0.15908138 0.098814
0002d0 2f b6 0f 3e bb ab 9d bd d6 aa 06 3d fc 72 94 3d
       0.14034341 -0.076987706 0.032877766 0.07248494
0002e0 f4 28 96 3d d3 ae 62 bc 6b 98 37 bd f3 16 ac bc
       0.0733203 -0.013835627 -0.04482309 -0.021007037
0002f0 ad c0 08 3e 64 d9 71 bc 9a a6 30 3e a6 cc 05 3e
       0.1335475 -0.014761303 0.17251053 0.13066348
000300 8c 36 18 be 41 92 66 bd f3 99 07 3c e9 0a 92 bc
       -0.14864558 -0.056291822 0.00827645 -0.017827468
000310 d6 29 f2 bd d4 72 97 bc 55 d2 fc bd 9d 53 53 bc
       -0.11824386 -0.018487372 -0.12344805 -0.012898353
000320 f7 74 8b bd 25 d5 de bc ec fe 09 3e 69 de be 3d
       -0.06809419 -0.027201245 0.13476151 0.09319765
000330 d4 29 bf 3d 7b 79 4f 3e aa 00 a3 3d b8 18 cc 3b
       0.0933415 0.20261185 0.07959111 0.0062285326
000340 aa 01 09 be 66 04 13 bd 1f dd ac 3c 3c 99 97 3c
       -0.13379541 -0.035892867 0.021101533 0.018505685
000350 d4 05 d1 bd b2 4f 51 3e 69 a0 b5 bd 9f 48 b2 bd
       -0.1020619 0.20440558 -0.088684864 -0.087052576
000360 49 1b 2c bc e8 28 f1 3c 0c 78 eb 3d 9d 83 be 3d
       -0.010504552 0.029438451 0.114975065 0.09302447
000370 dc 7c 9b 3d 35 a0 f2 3d 11 18 6e bd 4f 19 b2 3c
       0.075921744 0.11846963 -0.05812842 0.021740584
000380 11 4e 2f 3b d2 ef 21 be a5 49 22 be 4e fb 37 3d
       0.0026749412 -0.1581414 -0.15848406 0.044917397
000390 e3 d4 9d bd d0 88 05 be 72 f9 20 be ad e7 0c 3d
       -0.077066205 -0.13040471 -0.15720156 0.03440063
0003a0 88 47 87 bd ab f5 ca 3d 5f fc 45 3d 2b 91 7c bd
       -0.066054404 0.09910139 0.048336383 -0.06166188
0003b0 0e f1 f3 3d dc d6 da bd 71 a9 ed bd e0 0e 2d bd
       0.11911212 -0.106855124 -0.11604584 -0.042250514
0003c0 f5 2b c5 3c bf a9 55 3e d8 b2 08 3e f2 cb 0d 3e
       0.024068812 0.20865534 0.13349473 0.1384733
0003d0 41 4a 09 3e 8a 9b f2 bd 6a 4e 94 bc 5b 82 39 bd
       0.13407232 -0.11846073 -0.018103797 -0.045290332
0003e0 07 ab 11 be 38 9f d9 bc 2c 43 20 3e 17 38 b5 bd
       -0.14225398 -0.02656518 0.15650624 -0.08848589
0003f0 8b 90 89 3d 09 fd 2c 3e f0 51 18 3e 11 25 e8 3d
       0.067170225 0.168934 0.14875007 0.11335195

fc2_adv.weight f4 [128, 256]
000000 f0 8f 73 3d 2a cd 35 3d 2b d7 ab 3a 51 99 75 bb
       0.05946344 0.044385113 0.001311039 -0.0037475417
000010 6e 7d 2b bc 0a f5 a8 bd 55 73 8b 3d cb c3 c1 3c
       -0.0104669165 -0.082498625 0.06809107 0.023652932
000020 a2 e6 14 bd d2 a6 88 bd aa cc fb bc 91 37 5e bc
       -0.03635276 -0.066724434 -0.03073724 -0.013563053
000030 e8 17 23 3e 18 a7 20 be dd 58 9e 3c 08 98 ab ba
       0.15927088 -0.15688741 0.019329483 -0.0013091573
000040 0f 5f d0 bb 74 fc cc bc 9d 91 b1 3d 9e 5f ee 3c
       -0.006358988 -0.025022723 0.08670352 0.029098328
000050 ff 05 cf bd 47 25 32 bd 5a 8d bf 3c 25 9f a4 bd
       -0.101085655 -0.04349258 0.023382831 -0.08038167
000060 b4 d6 f8 bc bf 3b 0e bd ae a6 a4 3b 60 a1 df bc
       -0.030375816 -0.034724947 0.0050247526 -0.02729863
000070 76 88 e7 bd b4 a7 ab 3d 6d ee c1 bb f9 fb c2 3b
       -0.11305325 0.08381596 -0.005918315 0.0059504476
000080 ce f0 3f bb 5c b1 83 3b a0 7b d1 3b 92 4b 98 3c
       -0.0029287818 0.0040189456 0.006392911 0.018590722
000090 bd d8 b2 bd df e4 04 bd 74 a2 1c bd ba a2 a8 3c
       -0.08732746 -0.03244483 -0.038240865 0.020585407
0000a0 93 da b8 bc c9 f8 60 3c b8 7a 16 3d 00 92 36 3d
       -0.022565162 0.01373119 0.036738127 0.04457283
0000b0 e7 2d 54 3d 80 0e c9 3b ae 27 90 3d e5 98 fd bc
       0.05180159 0.0061357617 0.07038818 -0.030956695
0000c0 b9 aa dc 3d 3e c9 64 bd 2a fd 86 3d 79 c0 01 be
       0.1077475 -0.055855982 0.06591256 -0.12671079
0000d0 7a 02 db bd 77 1e 74 3c de 5d 79 3a e1 1f 22 bd
       -0.10693832 0.0148998415 0.00095125835 -0.039581183
0000e0 c0 57 28 ba ef ba 30 bd ee 9e 3e 3c 41 7e 05 be
       -0.0006421767 -0.043147024 0.0116345715 -0.13036443
0000f0 1d 8b c0 3d 51 b5 3c bd 21 07 af 3c 0a 04 6e bd
       0.09401534 -0.046071354 0.021365704 -0.05810932
000100 8a 82 6a 3c c8 65 a6 3d 4e 68 6c bc 87 42 05 3d
       0.0143133495 0.08124882 -0.014429165 0.03253415
000110 8c ba d1 bb d7 01 2d bd 74 65 6d bd 5f f0 a3 bc
       -0.006400412 -0.042238083 -0.05795808 -0.020012079
000120 f8 89 71 bd ac eb c1 bd 12 a9 14 bd e1 f7 06 3b
       -0.058969468 -0.09468779 -0.03629405 0.0020594525
000130 d7 e8 b3 3c c0 8f d4 3d 9b cf 3f bd 43 6f 05 3d
       0.021961613 0.10378981 -0.046828847 0.03257681
000140 c4 5d 2c 3d 93 8b e5 bc 65 9c c2 3c e1 5b 8b 3d
       0.04208161 -0.028020656 0.023756215 0.06804634
000150 98 68 ab bd 03 36 d3 bd 4f ea 46 3c 66 f1 da 3c
       -0.08369559 -0.10313036 0.012140824 0.026726436
000160 3e 52 ae bb 0d 0e 67 3d 92 85 3f 3d 65 42 b8 bc
       -0.0053198626 0.056409884 0.046758242 -0.022492597
000170 dc 77 f4 3d 2d 7a 80 bd b6 44 73 bd f9 01 a3 3d
       0.11936924 -0.06273303 -0.0593917 0.07959361
000180 30 cc 09 bd ab c9 4d 3d 1b be e6 3c 04 aa 54 bc
       -0.033641994 0.050241154 0.028166821 -0.012979988
000190 ab 5a b8 3b 6e e7 03 3b 59 d2 85 3d fa 6c 3e 3d
       0.005626043 0.0020126957 0.06534261 0.046490647
0001a0 d2 61 2c bd 2e bc 5f bd d4 ba 7f bc d1 20 4a 3c
       -0.042085476 -0.05462282 -0.015608508 0.012336926
0001b0 cb 4b f1 3d 81 4a b5 3d 7f 47 75 bc fb 41 45 3d
       0.117820345 0.08852101 -0.014970659 0.048158627
0001c0 7c fd 0c 3d ea 14 22 3e 90 32 d5 3b 40 45 7d 3c
       0.03442143 0.1582829 0.0065062717 0.015458405
0001d0 f9 58 96 3d 02 4a e5 ba 43 3a 47 bd 1c a7 5a 3c
       0.07341189 -0.001749337 -0.048639547 0.013345506
0001e0 7c f7 33 3d 57 4c 2a 3d e0 14 7d 3d 57 48 a7 3d
       0.04393719 0.04157671 0.061787486 0.081680946
0001f0 4a 88 aa 3c 22 58 b1 bd 34 93 ad bd 29 36 73 3b
       0.02081694 -0.08659388 -0.084753424 0.003711114
000200 54 45 c6 bd 25 e3 c6 bc 40 8e 21 3d 35 9e 39 3c
       -0.09681192 -0.024278233 0.0394423 0.011329223
000210 d9 42 b6 3d 6a 9e 48 bd 4b ec a1 3d b3 3c d1 3d
       0.08899469 -0.0489792 0.079063974 0.102166556
000220 9e 04 b6 bd 19 9a c4 3c 17 dc c0 3b 6d 28 31 bd
       -0.088875994 0.02399926 0.0058856118 -0.043251444
000230 44 05 a5 3b 1f 56 8b 3d 31 8b 8a 3d 50 8f ad bc
       0.005036028 0.06803536 0.0676483 -0.0211865
000240 31 f3 86 3d 60 5f 08 3d 88 5a 0e 3d 57 71 7c 3d
       0.06589354 0.03329408 0.034754306 0.061631527
000250 da af a7 bc 5c 1a 43 3d 15 49 cc bb cc 0c 40 3d
       -0.020469595 0.04763256 -0.006234298 0.046887204
000260 63 63 44 3d 59 3a 9d bc c7 51 d2 3d 9c ad 43 bd
       0.047946345 -0.019192861 0.10269504 -0.04777299
000270 88 ea a5 3d 70 f8 13 bd c8 8e 4f 3d fd 66 89 3d
       0.08101374 -0.0361256 0.050673276 0.067090966
000280 f5 3c a4 3b 9b 73 10 3d 88 2c ac bd cc b1 fc 3d
       0.0050121495 0.0352665 -0.08406931 0.123385996
000290 ca f0 7c bd 57 d2 7a bc 25 d2 46 3d 1c ba 70 bd
       -0.06175307 -0.015308938 0.048540253 -0.058771238
0002a0 21 56 67 3d 88 31 51 bd 16 b1 59 bd 82 d0 cf bc
       0.056478623 -0.051072627 -0.053147398 -0.025367979
0002b0 34 89 0a 3d f9 48 c5 3c 12 4c b5 3b 25 f7 98 bd
       0.033822253 0.024082648 0.00553275 -0.07469014
0002c0 ec 01 45 bd 87 bd cf 3b 84 c2 be bd 4e 07 58 3d
       -0.048097536 0.006339732 -0.09314445 0.05274134
0002d0 5a 07 3a bd 22 11 b2 bd 54 b6 ba 3c 6f 6b 7b bd
       -0.045417167 -0.08694674 0.022792019 -0.061381754
0002e0 d7 f0 23 3d 9d b9 b5 3c fe 80 8c 3d 99 0f 8e 3d
       0.040024605 0.022183234 0.06860541 0.06936569
0002f0 5c d9 b1 3b fb 86 4e bc d6 32 bc bc e7 d5 f0 bc
       0.0054275226 -0.012605424 -0.02297346 -0.029398872
000300 9c e0 d1 bd 5f 27 0e 3d c0 dc 7a 3d 59 6a 0f bd
       -0.10247919 0.034705516 0.06124568 -0.03501353
000310 5a 7b ca bd 2c 8c 3c 3d fd 93 11 3d aa 39 b0 3d
       -0.09886809 0.046032116 0.035541523 0.086047485
000320 f8 d4 d8 3d cb 3a ad bd 7b 9b 1b 3d 46 3f 36 bd
       0.105874956 -0.084584795 0.037990075 -0.044493936
000330 4c 61 29 bc 74 dc c0 bd 67 31 43 3d eb a4 23 bd
       -0.010338139 -0.09417048 0.047654536 -0.0399522
000340 4c 56 f0 bb b4 2c 49 3c 4b 94 3a 3d fc be 3b bd
       -0.007334506 0.012278724 0.04555158 -0.045836434
000350 40 81 53 bd 80 20 a7 bc 76 95 9d bc 7b ff 21 bc
       -0.051636934 -0.02040124 -0.019236308 -0.009887571
000360 63 1d c6 bd 5a a3 90 bc 0c 61 c9 3c 79 e2 fa bc
       -0.09673574 -0.017656017 0.024582408 -0.030625569
000370 63 e4 c0 bc 53 65 0d bc f9 a5 65 3d 76 25 36 bc
       -0.023546403 -0.008630115 0.056066487 -0.01111733
000380 0d e2 ae 3d 5e 03 b9 bd 2e 42 2a bc d8 7d 7e 3d
       0.085392095 -0.09033845 -0.010391755 0.062131733
000390 b9 72 5e 3d 3c af 02 3a 97 66 8b bd 9d a2 6c 3b
       0.054308627 0.00049852184 -0.06806677 0.0036107667
0003a0 5f 6b 18 bc 16 01 07 3d 19 f0 99 bc ab 2d cd 3c
       -0.009302943 0.03296002 -0.018791245 0.02504619
0003b0 2c 5d 89 3d 74 0b aa bc a8 04 c7 bd 33 0c 3f 3d
       0.06707224 -0.020757414 -0.09717685 0.046642493
0003c0 da 31 17 bd 8c 67 13 bc 35 3f da bc 8d 5e 30 bc
       -0.036912777 -0.0089968555 -0.026641468 -0.01076473
0003d0 b6 3b 53 bc 9c 25 19 3d 96 02 5e 3c 01 22 1b be
       -0.012892654 0.037389383 0.013550421 -0.1514969
0003e0 df 24 b1 3c 08 92 cd bc 77 e4 06 bd e2 76 9f 3a
       0.021624027 -0.025094047 -0.032932725 0.0012166167
0003f0 3c 3d f6 bc cf 4d 09 bc c2 69 a0 3c 57 88 d6 3a
       -0.030058496 -0.008380367 0.01958168 0.0016367537
