src/nets/exp_graph_obs_4_agents200.pth (torch_old, 356653 bytes, 11 tensors)

fc1_val.weight f4 [256, 43]
000000 e7 7d 05 3e 0f 93 b9 bd bf 0e 36 bd 20 07 a0 3d
       0.13036309 -0.09061252 -0.044447657 0.07813859
000010 f5 e3 48 3d 07 3e 29 3d 3c be 84 bb 56 9a 99 bd
       0.04904552 0.04131892 -0.004050998 -0.0750014
000020 ab be 8d 3d 58 ab c1 bd 39 8c 24 3e db 37 12 3e
       0.06921133 -0.09456509 0.16069116 0.1427912
000030 ce 07 9a 3d 48 67 9a 3d 10 73 a9 bd 2a ba ae bd
       0.0752102 0.075392306 -0.082738996 -0.08531602
000040 38 5f 4f 3d 15 3d 66 bd 8f f2 fb 3d 26 60 0c be
       0.050627917 -0.056210596 0.12302124 -0.13708553
000050 42 43 73 bd bf 75 10 be 50 b4 4a bd 47 77 0c be
       -0.059390314 -0.14107417 -0.049488366 -0.13717376
000060 8e c1 eb 3d 4d e8 5d bd 24 48 a9 bd 72 65 30 3b
       0.11511527 -0.054176617 -0.08265713 0.0026915935
000070 58 da 1c be 13 37 49 3d dc 74 05 bd e7 76 0d be
       -0.15317667 0.04912479 -0.03258215 -0.13814889
000080 32 7a 0d bd 21 97 8f 3b 8a 2b 98 bd ff 08 19 3e
       -0.034540363 0.0043820296 -0.074301794 0.14944838
000090 5d 61 9f 3d 8e 37 cb 3d bf 53 4a bd 5d 53 b0 3c
       0.077822424 0.099227056 -0.049396273 0.021524126
0000a0 c1 19 55 3d 66 08 70 bd 01 2e 39 3d f3 30 9e 3d
       0.052026514 -0.05860176 0.04520989 0.0772418
0000b0 ec 02 3d bb 30 25 95 bc 1b cc 5b bc e1 8c 10 be
       -0.0028840853 -0.018206209 -0.013415362 -0.14116241
0000c0 b8 9a 06 be d7 5b 0f 3c 42 61 20 be 26 56 e3 bd
       -0.13144958 0.008749924 -0.15662101 -0.11100416
0000d0 9c 2f cf 3c d1 72 71 bd b5 f3 10 3a 83 f6 d8 3c
       0.025291257 -0.058947388 0.0005529479 0.026484733
0000e0 93 9c 94 bd 8e 48 f5 3d ff 68 e6 bb f2 8b 3f bd
       -0.07256427 0.11976729 -0.0070315595 -0.04676432
0000f0 c8 0c c0 bd 1b 92 f2 3c e7 84 f1 bc 7a c0 7a bb
       -0.09377438 0.029610684 -0.029482318 -0.0038261698
000100 83 a2 82 3d 44 8b bb bc 2a 0e 2f be 44 b6 eb bd
       0.06378653 -0.022893555 -0.17095247 -0.11509374
000110 30 9e 82 3d b0 74 fc 3d 1a c7 d6 b9 b1 62 1b bd
       0.06377828 0.12326944 -0.00040965603 -0.037935916
000120 0c 71 80 3d 7e 0e e8 3d 92 1c 77 bd ad 35 c7 3d
       0.06271562 0.11330889 -0.06032998 0.09727035
000130 8b 61 85 3c 31 02 90 bd eb 83 e3 3d 13 28 ef bd
       0.016281864 -0.07031668 0.11109146 -0.116775654
000140 d2 06 39 be be e6 16 be cd b5 66 bc d4 28 25 be
       -0.18069008 -0.14736459 -0.014081431 -0.16128856
000150 33 2f 26 be 2b 3b 0c 3e ee 5e 79 bd 55 ed 0c 3d
       -0.16228943 0.13694446 -0.060881548 0.034406025
000160 1c 01 89 bd 41 18 fe 3c 46 77 a0 bd 3a 69 a7 3d
       -0.06689665 0.031017425 -0.078352496 0.08174367
000170 e3 5e 1f 3d 93 e6 f3 3d 8b 2c 1a bd a0 d2 a7 3d
       0.03890885 0.11909213 -0.037640136 0.081944704
000180 82 2e 6c 3c 9a ec 1e bd 1a d7 95 3a f9 8a 0f 3e
       0.014415385 -0.03879986 0.0011431903 0.14017858
000190 18 ef a0 3d 71 70 10 be 9f 8a 9e bc d3 4a 60 bd
       0.078581035 -0.14105393 -0.019353209 -0.054758858
0001a0 e5 7f ef 3c 70 64 03 be 63 9d 16 bd 02 fd 74 3d
       0.02923579 -0.12831283 -0.03677119 0.0598116
0001b0 ea b3 cc 3d 7b b2 9e bc b8 f2 12 3e 07 b6 83 ba
       0.099952534 -0.019372215 0.14350402 -0.0010048755
0001c0 32 5b 07 3e c5 47 fd 3c 9a 19 e4 3d 5a 69 5f bd
       0.13218382 0.030918011 0.111376956 -0.05454383
0001d0 d8 a6 b6 3d 2f ba bd 3d 38 d7 8b bb fb d8 05 be
       0.08918542 0.09264027 -0.0042675994 -0.13071053
0001e0 48 97 e3 bd 5a 90 45 bc cc a5 66 bd e9 9c 9e 3d
       -0.11112839 -0.012058342 -0.05631046 0.07744772
0001f0 16 dc de 3d 77 c9 ed 3d 85 25 08 3e a6 68 aa 3d
       0.10881822 0.11610692 0.13295563 0.08320741
000200 d2 a2 2c 3e f2 21 da bd a4 a9 60 bd 0f 6d 01 be
       0.16858986 -0.10651006 -0.054849282 -0.12639259
000210 c1 2c a1 bc 79 d2 3d 3d c9 f4 01 3d 49 6a bb bd
       -0.01967466 0.0463433 0.031727586 -0.09151132
000220 f8 c7 15 3d eb b1 90 bb 33 52 64 bd 57 90 fc bc
       0.03656766 -0.0044157407 -0.055742454 -0.030830545
000230 e1 fe f6 3d 63 b3 a0 3d d4 c6 14 3e 7d e9 a9 3b
       0.12060333 0.07846715 0.14528972 0.0051853047
000240 5b 4c 89 3d 2c 37 b0 bb 8a ad 1f 3c 11 6d 16 bb
       0.06704017 -0.0053776708 0.009745965 -0.0022953192
000250 1e 6d a3 bd d9 96 aa 3d 6b 2b 31 bd 46 b8 89 3d
       -0.07979797 0.08329553 -0.043254297 0.067246005
000260 a1 08 b5 3c 2e 49 36 bd 03 81 90 3d a9 52 21 3e
       0.022098841 -0.044503383 0.07055857 0.15754189
000270 0c 17 c8 3b 01 2b 01 be 69 33 92 bd 67 9b e2 bc
       0.006106263 -0.12614061 -0.07138712 -0.027661992
000280 dd 5f 0d 3e 1e d6 46 3c bf d2 5f bc db 0f 4b bd
       0.138061 0.01213601 -0.013661086 -0.049575668
000290 7f bb 2d 3d ef eb 3d be 73 25 19 be ed 90 e7 bd
       0.04241514 -0.18547033 -0.14955692 -0.11306939
0002a0 ac 7c 04 be 03 6f 7a 3d 22 99 4b 3e 56 bc d4 bd
       -0.12938184 0.061141025 0.19882634 -0.10387485
0002b0 cf 84 14 3e 9b 88 0c 3e 65 e9 c9 3b 22 d1 c7 bd
       0.14503787 0.13723986 0.006161856 -0.09756686
0002c0 d7 50 5d bc 71 65 76 3d d3 bc 5b 3c 8d 41 69 3d
       -0.013508043 0.060155336 0.013411718 0.05694728
0002d0 63 9b e0 bd 0f ca d0 bd a4 9a 24 3d 20 bf fb 3d
       -0.10967138 -0.101947896 0.04018654 0.122923136
0002e0 d1 ed 0a be 18 a4 b0 bd e4 76 0e 3e 86 61 23 3d
       -0.13567282 -0.086250484 0.1391254 0.039887927
0002f0 aa 82 04 3e 6c 6c 0a bd 41 81 1e bd c5 51 4f bd
       0.1294047 -0.033794805 -0.038697485 -0.05061509
000300 32 c4 27 3d 28 69 08 3e a5 e9 36 bd 6c 52 36 bd
       0.04095859 0.13321364 -0.044656415 -0.044512197
000310 e3 4c 02 3d 2e 70 67 bd 97 a2 35 bd ab 27 85 bc
       0.031811606 -0.056503467 -0.04434451 -0.016254267
000320 f0 b4 06 be 57 88 b7 3d 0b f4 c4 bd 00 18 89 3d
       -0.1315496 0.08961552 -0.0961686 0.06694031
000330 e5 53 0c 3e 5f 85 f9 3d d0 37 46 3d a3 f7 a9 bd
       0.13703878 0.12183642 0.04839307 -0.08299186
000340 e1 38 72 bc 40 d5 cb bd df 6d ad 3d 3d cc fa 3d
       -0.014784069 -0.099527836 0.08468222 0.122459866
000350 f4 c5 48 3d 76 aa b5 3d 99 cb ce 3d 0c e4 92 3d
       0.049016908 0.088704035 0.10097427 0.07172403
000360 cb d4 72 bc b0 c1 5d 3d d2 42 e7 bd b8 85 d6 3d
       -0.014821242 0.054139793 -0.11292042 0.104747236
000370 68 94 0c be 90 d7 51 bc 9e 6f 0e 3e 06 85 24 be
       -0.13728487 -0.012807742 0.13909766 -0.1606637
000380 0e 30 04 3d 78 dd dd 3d 26 64 04 3e 68 6d 50 bc
       0.03227239 0.108332574 0.12928829 -0.012721397
000390 96 1e bb 3d 71 84 da bd fc bd 9f 3d 45 e4 7a bd
       0.09136693 -0.106697924 0.077999085 -0.06125285
0003a0 63 36 47 bd 4e 6e 76 bd ae 7c e1 3d 91 18 1a 3a
       -0.04863585 -0.06016379 0.11010109 0.00058782945
0003b0 c1 e8 c4 bd b5 24 b7 bc 59 2e 19 3d 6b 6d 1b bd
       -0.09614707 -0.02235637 0.037397716 -0.037946146
0003c0 cf 14 55 bd 5a ff 13 be 14 2e eb 3d cf df 13 3e
       -0.052021798 -0.14452878 0.11483398 0.14440845
0003d0 a8 dc 16 be b0 e1 01 be 91 b0 c6 3c 85 f2 00 3e
       -0.14732611 -0.12683749 0.024254115 0.12592514
0003e0 49 39 00 3e 02 5f c7 bd f4 84 43 3d 9e 2e 5a 3d
       0.12521853 -0.09734918 0.047734216 0.053267114
0003f0 1e bc 3a 3c f3 5e b0 bc b3 c9 1f 3e dc 66 0e bd
       0.01139739 -0.02152965 0.15604286 -0.034766063

fc1_val.bias f4 [256]
000000 7a 52 49 bd e4 92 e6 bd 79 54 1d be 88 84 5b bd
       -0.04915092 -0.11258486 -0.15364255 -0.05359319
000010 17 d7 87 3d d4 30 8d bd de 76 3b bd fd 7b 06 3e
       0.06632822 -0.06894079 -0.045767657 0.13133235
000020 06 d7 08 3d 6b f2 0b 3e 49 f5 1b 3e 60 1c 86 bd
       0.033408187 0.13666694 0.15230288 -0.06548381
000030 32 06 09 3c 02 c9 de 3c c2 0b 0d bd 08 fd b8 3d
       0.0083632935 0.027195457 -0.03443504 0.09032637
000040 5f e8 f0 bd ba d4 9c 3d c2 f9 df bd d4 3d 7c bc
       -0.11763071 0.07657762 -0.109363094 -0.0153956
000050 bd f2 54 bd bd 55 0d be 8d 73 76 3d f4 23 0b 3d
       -0.051989306 -0.13802238 0.06016879 0.033969834
000060 7d 2a 11 bd bb b4 c9 bc 15 9b 9e bd 91 52 6f bd
       -0.03544091 -0.024622312 -0.07744423 -0.05842835
000070 24 c8 86 bd 17 61 b8 3c 59 eb cc bc df ee 17 bd
       -0.065811425 0.022507234 -0.025014566 -0.03709304
000080 e3 eb f7 3d 85 79 d2 bd 12 c2 fe 3d 3a 18 2f 3d
       0.12105539 -0.10277084 0.1243936 0.042747714
000090 c5 56 04 be 57 44 c9 bd 37 6d 8c 3d 2e ba 13 3d
       -0.12923725 -0.09827488 0.068567686 0.036066227
0000a0 82 ce 68 bd 2a 76 9e 3d 3b be 93 3a 9c f2 f9 bc
       -0.056837566 0.07737382 0.0011271903 -0.030511193
0000b0 6c ac 18 3e 05 0b ca 3b 37 a9 55 bd 3a 18 38 bd
       0.14909524 0.0061658644 -0.05216333 -0.04494498
0000c0 8f 4b 08 be 56 63 2d 3d c6 d5 f9 3d 75 fd f1 3d
       -0.13310073 0.042331062 0.12198977 0.11815921
0000d0 b9 b6 73 3d b2 87 2d 3e f7 a1 30 3d 16 41 f3 bc
       0.05950043 0.16946295 0.04312321 -0.029694121
0000e0 19 cd 28 bd 6a 65 e9 bd 12 c3 03 3e 5c 32 7c 3d
       -0.04121122 -0.11396296 0.12867382 0.061571464
0000f0 b8 fe 19 3c 5e c2 a7 3d d5 b4 3d be 5c a8 34 3d
       0.009399109 0.081913695 -0.18526013 0.044105873
000100 a3 11 e9 3c 16 5f db bd 97 68 f1 3d 6f c8 3c bd
       0.028450793 -0.107114956 0.11787527 -0.046089586
000110 85 cc aa bd 80 ee 12 bd 43 0b bb 3d 7b 98 11 3e
       -0.0833979 -0.035871983 0.091330074 0.14218323
000120 96 b3 f6 bd 2f e2 30 3e a3 56 00 3e 0f e6 0f 3b
       -0.12045972 0.17273782 0.1253305 0.0021957194
000130 aa 39 98 3d b5 26 0a be 1a aa 13 3e 9a 03 a1 bd
       0.074328735 -0.13491328 0.14420357 -0.07862015
000140 b1 fc b6 3d f4 28 2a 3d 12 0a f4 3d 8a 48 31 be
       0.08934916 0.041542962 0.11915983 -0.17312828
000150 b4 ba 0a 3e b6 cc a0 3d bf 1f 7c 3d dd c8 3d bd
       0.13547784 0.078515455 0.061553713 -0.046334136
000160 74 6f ef bd 5d 35 24 3e 91 6c 8f bc 47 15 50 3e
       -0.1169118 0.16035981 -0.017507823 0.20320617
000170 e0 4e 27 3e d4 b6 22 ba 07 b5 1e 3e 8a 9a e1 bd
       0.16338682 -0.0006207053 0.15498744 -0.11015804
000180 5b a4 06 3d 37 92 85 bd 0d 97 0c 3e 38 8a 8e 3d
       0.032871585 -0.06522029 0.13729496 0.06959957
000190 2d 34 71 bd 78 9b 08 3e f2 fa 06 3e 21 17 b9 bc
       -0.05888765 0.13340557 0.13181666 -0.022594037
0001a0 99 22 7b bc 12 e6 a5 3d 80 35 e0 bd d7 92 85 bd
       -0.015328073 0.08100523 -0.10947704 -0.06522148
0001b0 cd 92 56 bd f6 4b bf bd 9e 72 d4 bd b2 2e cd 3d
       -0.052386094 -0.0934066 -0.10373424 0.10018672
0001c0 ec f8 d3 3d b9 4d 4b 3d 19 66 0c 3d 94 26 ac bc
       0.103502125 0.04963467 0.034277055 -0.02101449
0001d0 c0 1a 31 3d e0 fc 0d be cc c1 24 be fc 2d 02 3e
       0.0432384 -0.13865995 -0.16089553 0.12712854
0001e0 d0 40 9e bd ad 05 16 3e e8 b6 98 bd fe 2f 63 bd
       -0.07727206 0.14650603 -0.074567616 -0.05546569
0001f0 10 b3 d0 3c ad 42 c6 3c cb 7c 5d bd 08 fb 53 3c
       0.025476009 0.024201715 -0.05407409 0.0129382685
000200 c7 d2 dd bd 39 54 45 bd 0e de cf 3d 62 9d c4 3d
       -0.10831218 -0.048176024 0.101497754 0.09600331
000210 17 8b 40 bd 3d 78 fb bc c3 ad 87 bd ff 2c 36 3d
       -0.047007646 -0.030696983 -0.06624939 0.044476505
000220 35 4e 23 3e 0b 0b e2 3d ed 1e 2f 3e 04 c0 20 3c
       0.15947802 0.110372625 0.17101641 0.009811405
000230 29 e1 ae bc 85 09 f0 3d f2 02 97 bd 60 91 df 3d
       -0.0213476 0.11720566 -0.07373609 0.109164
000240 b5 ca b8 3d dd 82 bc bd d1 75 b6 bd 2e d1 70 bd
       0.09023038 -0.09204648 -0.089091904 -0.05879324
000250 81 e8 c8 3d f3 01 71 3d 96 a8 d9 bd 0d 06 d7 3d
       0.098099716 0.05883975 -0.10627858 0.10499201
000260 50 31 58 bd 29 db 0f be cf eb 7e 3d 59 52 02 3e
       -0.052781403 -0.14048447 0.062236603 0.12726726
000270 b5 72 37 3d 93 12 21 bd 2b f3 b5 3c 15 a1 3c 3d
       0.044787128 -0.039324354 0.022210678 0.046052057
000280 e5 fa b8 3d 1e fd 6f bd 9b 9b d1 bc 50 5a 0b 3e
       0.09032229 -0.058591 -0.025586894 0.1360867
000290 e9 55 5e bd 94 69 59 3c ab 7c 0f be 4a 89 c6 3d
       -0.05428115 0.013269801 -0.14012401 0.096941546
0002a0 1a 0e 89 3d 44 c8 b2 bb 11 aa 5f bc 89 ac a0 3d
       0.06692143 -0.0054560024 -0.013651387 0.078454085
0002b0 09 bf ac bd 6c d1 14 bd 90 d0 a5 bd 59 00 39 3d
       -0.084348746 -0.036332533 -0.08096421 0.045166347
0002c0 52 f6 b0 bd 58 68 e4 3a f6 e2 24 3e 2f 9a 21 3e
       -0.08640732 0.0017426116 0.16102204 0.15781473
0002d0 15 a4 31 bd b9 f9 6a bd 92 6f e8 3b 13 0b 1b 3e
       -0.04336937 -0.05736706 0.0070933783 0.15140943
0002e0 96 f1 60 3d b8 b7 1d 3e ba c7 1a 3e 6e f4 aa 3d
       0.054917894 0.15402114 0.15115252 0.083474025
0002f0 95 09 0b 3e 0b b1 90 bd 7c 76 17 3c d9 47 d3 bd
       0.13577874 -0.07065018 0.0092445575 -0.10316438
000300 28 b2 6d bd c8 f3 1b 3e 73 f1 3f be 8d 39 f2 3c
       -0.05803123 0.15229714 -0.1874445 0.029568458
000310 dc e9 f9 3d a8 ce 2e bb 6b 23 b0 bd f1 2b f9 bd
       0.12202808 -0.002667347 -0.086005054 -0.12166584
000320 e5 10 b7 3d 16 13 d8 3c b2 d9 b2 bd f8 14 90 bd
       0.08938769 0.026376288 -0.08732928 -0.070352495
000330 18 9a 77 3d d2 bc 04 3e 84 d0 a2 bd c6 88 c3 bd
       0.06044969 0.12962654 -0.079499274 -0.09547572
000340 a1 53 0c 3e 90 d2 27 3e 47 d3 2a be e5 52 3d 3d
       0.13703777 0.16388917 -0.16682158 0.046221633
000350 93 b5 ca bd 75 f0 64 3d 34 17 a7 bd 5b 3b 2f be
       -0.09897914 0.05589338 -0.081587225 -0.17112486
000360 eb c0 8b bd 81 1f d8 bd 68 34 d3 3d 15 5a b4 bd
       -0.068239056 -0.10552884 0.1031273 -0.08806244
000370 f3 1f aa bd 59 79 2a bd e8 61 c2 3c d8 3d 81 bd
       -0.08306875 -0.041619632 0.023728326 -0.06310624
000380 d3 2e 85 bd 53 28 c4 3c 3d db 9c bd 30 87 c6 bd
       -0.06503072 0.02394501 -0.07659004 -0.09693754
000390 4d a3 1c 3e f3 67 9c bc c7 87 a7 bd a9 0f b8 3d
       0.1529667 -0.019092536 -0.08180194 0.08987362
0003a0 3a e9 a1 bd 5b 51 d4 bd be 43 f4 3d 47 a3 22 bd
       -0.079058126 -0.1036708 0.11926983 -0.039706495
0003b0 99 5c 30 bc 69 17 d0 bc 5a d0 1a be 0d 01 c7 bc
       -0.0107642645 -0.025401788 -0.15118542 -0.024292493
0003c0 79 99 09 3e 9c 7d 79 bd 54 19 a5 bc a4 36 6f 3c
       0.13437451 -0.060910806 -0.020153679 0.01460043
0003d0 b0 62 0c 3e ea 51 94 bd e1 3b f9 bd cc 54 8c 3d
       0.13709521 -0.07242186 -0.12169624 0.06852111
0003e0 bc 3c 80 3d 8f 4f 82 bd 3a b0 03 3e c4 10 01 3e
       0.06261584 -0.06362831 0.12860194 0.12604052
0003f0 96 93 e2 bd 14 db b9 bd 1f 29 61 3d dc 40 2d bd
       -0.11063306 -0.09074989 0.054970857 -0.042298183

fc2_val.weight f4 [128, 256]
000000 e8 c5 ad 3d 97 27 8a bd 14 19 67 bc 55 e9 2d bd
       0.08485013 -0.067458324 -0.0141051 -0.04245885
000010 89 ea 12 bd 64 2f d0 bc 0a 69 98 3d 1d f8 31 3d
       -0.0358682 -0.025413223 0.074419096 0.04344951
000020 4c ff aa bc 10 21 84 3d 81 9d da 3b 53 41 2f 3d
       -0.020873688 0.06451619 0.006671608 0.042786907
000030 ac 45 15 3d b1 68 83 bd a7 a3 0b 3d 32 eb f2 3c
       0.036443397 -0.06416453 0.034091618 0.029653165
000040 99 a5 0a 3d b2 ac 80 3c cd 4d ca bd 98 b7 92 3d
       0.033849332 0.015707348 -0.098781206 0.07163924
000050 b7 62 ba bc 5a e9 80 3d 3b 17 1c 3d f0 cb 66 3d
       -0.022752149 0.06294508 0.03810809 0.056346834
000060 24 d6 e8 bc 8d 5e 87 3d 9a 2b b9 3c 4e 24 f4 3c
       -0.028422423 0.06609831 0.022603799 0.029802468
000070 93 c0 14 bd f7 7a 8d 3d ac 68 e0 3c d3 85 bf 3d
       -0.036316466 0.06908219 0.027393661 0.09351697
000080 b5 8b 81 bc db ae 5f bd 9b 03 90 3b 45 97 89 bb
       -0.015813688 -0.054610115 0.004394961 -0.004198941
000090 dd 53 23 be 59 6c 14 3e a8 72 f7 bb ef 66 c3 3d
       -0.1594996 0.14494456 -0.00755151 0.095411174
0000a0 fb aa 48 3d ef 25 81 3d d9 8b bf bc e5 5c 07 3d
       0.048991185 0.063060634 -0.023382114 0.033047576
0000b0 b0 6d 55 3d 11 31 0b 3e f2 5b 08 bd 6c 01 82 bc
       0.05210656 0.13592936 -0.03329081 -0.015869819
0000c0 bf 61 e5 3d 1f 24 88 3d ee 20 0a 3d a0 ed 43 3c
       0.11200284 0.066475146 0.03372281 0.01195851
0000d0 aa ae 76 3d a5 18 32 bd d3 5f b7 3c e8 c9 29 3c
       0.060225166 -0.043480534 0.02238456 0.01036308
0000e0 ce 79 1d 3b 6d 04 44 bd a8 03 b0 3d ab 65 19 3c
       0.00240289 -0.047855783 0.085944474 0.009362618
0000f0 39 ab ed bc c2 d0 cf 3c 2a 39 0c 3a 9e 89 80 3c
       -0.02901231 0.025368098 0.0005349094 0.015690621
000100 6e 49 8d 3d 1c 83 e7 3c 98 39 cd bc fa 5c 99 bc
       0.06898771 0.02826076 -0.025051877 -0.018721092
000110 e7 6d 15 3d 7b 0d a7 3d 48 eb 2e 3c 95 9a 33 3d
       0.036481764 0.08156868 0.010676213 0.043848593
000120 a7 6e b8 bd 25 21 c4 bc 82 94 40 bd 69 7c 33 3d
       -0.0900548 -0.023941586 -0.047016628 0.04381982
000130 fa 81 6f 3a 53 c4 d2 3c ce 36 17 3c 48 ef 85 3b
       0.00091364945 0.02572838 0.009229375 0.0040873624
000140 16 86 8f 3d 21 72 81 3d dd 63 67 3d 9e 43 c6 bc
       0.07007997 0.063205965 0.05649172 -0.024202164
000150 b4 10 88 3d 15 e9 2d bc 7c 59 82 bc fb ec 96 3d
       0.06643811 -0.010614653 -0.01591181 0.07369419
000160 9c 0d 6f bc 23 0a a3 3c b8 85 0a bb 1d 18 20 bd
       -0.014590647 0.019902295 -0.0021136831 -0.039085496
000170 bc 05 17 3d e2 a6 86 bb 93 4a 23 3c 4c 89 2e 3d
       0.036870703 -0.0041092495 0.00996651 0.042611405
000180 44 7e ef bd 28 5a 30 3d 63 ea b1 3c 38 5f d3 3b
       -0.11694005 0.04305473 0.02171821 0.00645056
000190 9e 3e 5c 3d d5 7f e2 bc 2c 77 06 bc da 7e 69 3d
       0.053770654 -0.027648846 -0.008207124 0.05700574
0001a0 97 6a dd bd 5e 21 f3 3c 68 cf 77 3c 8e 0c 3d 3d
       -0.10811346 0.029678997 0.015125133 0.04615455
0001b0 36 b0 96 3d eb e6 9b bc e9 d4 b4 3c 01 30 58 bc
       0.07357828 -0.019031009 0.02207418 -0.013195039
0001c0 7d 50 f5 3d c6 1f 87 bd 4a 48 0c bd 24 48 20 3d
       0.119782425 -0.06597857 -0.034248628 0.0391313
0001d0 33 52 b7 ba d8 47 5e bd 15 88 af 3b 6a 45 ff bc
       -0.0013986289 -0.054267734 0.0053567984 -0.031161029
0001e0 6e 58 a2 3d 96 47 77 bd 1a 57 de b9 01 97 a8 3b
       0.07927023 -0.060371004 -0.00042408035 0.005144954
0001f0 6a ae e0 bb 01 85 a9 3c 87 96 ca 3d 4b ad 29 3d
       -0.0068567293 0.020693304 0.09891992 0.04142503
000200 f8 f2 69 3d 1a 9c 44 3d b0 85 68 3d 16 2f 04 3d
       0.05711648 0.048000433 0.05676812 0.032271467
000210 1e 12 25 3d 4d e3 fe 3b 28 54 82 bd 37 eb 74 3d
       0.04030048 0.007778561 -0.06363708 0.05979463
000220 e8 4f ab 3c 17 4f 3a 3d ba b1 56 3d b3 77 8f bb
       0.020912126 0.045485582 0.052415587 -0.004378283
000230 37 44 d3 3c d3 31 11 3e 4d 8a 98 3d 31 30 a7 3d
       0.025789363 0.14179163 0.07448254 0.08163489
000240 d1 72 56 3d 57 4f cb b8 6a b6 20 bd c8 8b 85 3d
       0.05235559 -9.6945725e-05 -0.039236464 0.06520802
000250 ed 34 d7 3c 1f 7b db bb ac 59 87 3c 22 4c 94 3b
       0.026270354 -0.006698027 0.016522251 0.0045256773
000260 60 eb 1b bd f4 11 e9 3d f8 ad b8 3a 86 34 48 3d
       -0.038066268 0.113803774 0.0014089933 0.048878215
000270 5d 74 6d bc 89 69 5c bb db 5c e9 bc ef ac 43 3c
       -0.014493075 -0.003363224 -0.02848666 0.011943086
000280 9a 2b 95 3c ce b4 b0 3d b3 8b 87 bd 52 9f 5d 3b
       0.018209267 0.08628236 -0.066184424 0.0033816886
000290 e8 08 0d 3d eb b8 98 3d 5c 5e f2 3d d7 fd 79 3d
       0.03443232 0.07457145 0.11834404 0.061033096
0002a0 2f 47 8c 3d 0c 60 06 bc a6 4b 18 be cf 19 07 3d
       0.06849515 -0.00820161 -0.14872608 0.032983597
0002b0 76 d7 56 3d aa b3 4e 3e b6 e2 2b 3d ec 3a 20 3c
       0.052451573 0.20185724 0.041964255 0.009779673
0002c0 8e a3 4f 3d 24 ce 02 3c 3d 79 8b 3d 0a dd 08 39
       0.050693087 0.007983718 0.06810234 0.00013052314
0002d0 44 9a 8a 3c 12 eb 75 3d 27 90 d6 bc b3 53 9d bc
       0.016919263 0.060038634 -0.026191784 -0.01920495
0002e0 59 e0 b0 bc 8c 2b 97 3c 8f 32 d2 3d 27 c6 33 3d
       -0.021591352 0.018453382 0.102635495 0.043890145
0002f0 6e 98 17 3c 7d bf 5d bc 16 99 9e 3d 37 d7 c4 3b
       0.009252651 -0.013534424 0.077440426 0.006007101
000300 58 84 b6 3d 9f cf 69 3d 0f c3 77 bd cc e5 a2 39
       0.08911961 0.05708277 -0.060488757 0.0003107026
000310 2a 9c 1f bc 06 20 22 bc 47 af 7a 3d b7 42 8d bd
       -0.009741822 -0.00989533 0.061202314 -0.068974905
000320 4d 33 d1 3d d9 aa 7c 3d 44 2a d7 3d 8a cb a8 3d
       0.10214863 0.06168637 0.105061084 0.08241947
000330 03 ef 79 3d ea 00 2a 3d 0a 5c 22 3d d3 88 0f bc
       0.061018955 0.041504778 0.039638557 -0.008760649
000340 0a f0 ff bc 40 18 97 3d d1 72 49 bc e3 2f 89 3d
       -0.03124239 0.07377672 -0.012295441 0.06698587
000350 85 58 81 b8 7d f5 36 3d 48 9a ae 3d b9 31 61 bc
       -6.1676874e-05 0.04466771 0.085255206 -0.013744765
000360 a8 bb c2 3d 39 00 f7 bd 29 e5 1c 3e 21 7a c7 3d
       0.09508449 -0.12060589 0.15321793 0.09740091
000370 f5 bb d2 bd 1c 6b 09 bd 9d 18 67 3c 62 19 33 3d
       -0.10289756 -0.033549413 0.014104989 0.04372538
000380 46 e1 54 3d c9 02 c6 bb e8 90 d0 3d a8 4e c5 bd
       0.05197265 -0.0060428125 0.10183889 -0.09634143
000390 e3 f5 28 3c 35 ca 9d 3d a9 23 10 3d 48 ca 87 bc
       0.01031253 0.077045836 0.03519026 -0.016575947
0003a0 a3 c7 8f 3d a7 f0 bd 3d ee 20 22 3d 9c 0e 83 bd
       0.070204996 0.092744164 0.039582185 -0.06399271
0003b0 5c 49 f3 bc 77 cd b3 3d 40 dc d6 bc 69 ba 25 3e
       -0.029698066 0.08779424 -0.02622807 0.16184391
0003c0 4d f7 68 3d 8b 81 e6 3d 8f 54 0c bd 8b ea 89 3d
       0.05687647 0.11255177 -0.03426033 0.06734189
0003d0 fd eb 95 bc 8e 07 c0 bc bc b9 6d 3c 92 ff 93 3d
       -0.018301005 -0.023441102 0.014509615 0.072264805
0003e0 ce 17 46 bc a3 d0 f7 3c cf 4a 07 3d 95 f8 86 3d
       -0.012090636 0.030250853 0.033030327 0.06590382
0003f0 9d d3 0e be 1c 14 ec ba a6 e6 2c bd 69 60 04 3d
       -0.13947912 -0.0018011364 -0.04221215 0.032318506

fc2_val.bias f4 [128]
000000 f1 66 8c bb 80 68 84 bd 03 22 3b bd be cd 5a 3c
       -0.0042847325 -0.06465244 -0.045686733 0.013354717
000010 8e b8 59 3d 12 57 12 3d af dd 14 3d 94 b2 c2 bc
       0.05315452 0.035727568 0.036344226 -0.023766793
000020 f6 f6 48 3d fe 41 5b bd b2 83 26 bd 6a 31 70 3d
       0.049063645 -0.053529732 -0.04065294 0.058640875
000030 4d d9 0e 3d 23 fa c8 bc 42 44 87 3d 68 5c 94 bc
       0.034875203 -0.024533337 0.06604816 -0.018110469
000040 1c 8f 7a 3d 80 c7 3a 3d 27 61 e3 3c f4 c9 d7 3b
       0.061171636 0.045600414 0.027756287 0.006585354
000050 17 e3 89 bd f3 46 01 3b d8 6f 86 3c e4 eb 4e bd
       -0.06732767 0.0019726127 0.016410753 -0.05051793
000060 8c 15 5d 3d 95 29 62 bd 84 1b 98 3c 6a a4 24 3b
       0.053975627 -0.055215437 0.018567808 0.0025122412
000070 d5 d3 b5 bd 03 dd 28 3d 5d fe fe 3c fd 16 c7 bc
       -0.088782944 0.0412264 0.03112715 -0.024302954
000080 45 51 c8 3b 8b c7 f0 bc 7e 42 b5 bb 44 80 0d 3c
       0.0061132037 -0.029392025 -0.005531608 0.008636538
000090 bb d9 46 3d a3 95 48 bd d0 b9 00 bd a7 ea b8 3c
       0.048547488 -0.04897083 -0.031427205 0.022572828
0000a0 2b 64 dd bc 34 6b 88 bc b2 86 8e 3c 60 73 a0 bb
       -0.027025303 -0.016652681 0.017398212 -0.0048965663
0000b0 91 41 8b bd c6 a8 4b bd 68 92 a7 bb 89 67 09 3d
       -0.06799615 -0.0497215 -0.0051138885 0.033546004
0000c0 1c b3 13 bc 95 8c 6a bd e6 d4 18 bd dd dc 74 3d
       -0.009014871 -0.057262976 -0.03731241 0.059780944
0000d0 0e bc b5 bc 85 1c 24 3d fe 64 f0 3b f2 86 89 3c
       -0.022184398 0.04006626 0.007336258 0.01678798
0000e0 53 0d 18 3d aa 3f 41 3d 76 52 66 bd 0a 3c a7 bc
       0.037122082 0.047179855 -0.056230985 -0.020414371
0000f0 09 d1 33 3d 0a 3c 10 bd be 98 e8 bc d3 5a 50 bd
       0.043900523 -0.035213508 -0.028393146 -0.050867867
000100 f2 a2 34 bd 22 f2 56 3d 51 e0 ea 3c e0 22 14 ba
       -0.04410071 0.05247701 0.028671416 -0.0005650949
000110 9f 9c e9 3c a4 5d 95 3d 1c d0 6d bd d0 a5 27 bc
       0.028517066 0.07293251 -0.058059797 -0.010232404
000120 62 41 21 3c 0e 11 d7 3c ec 40 86 bc 17 1f f8 3c
       0.009842249 0.02625325 -0.016388379 0.030288262
000130 9e 7d c0 bc df 5a 10 bd ee a3 3e bb ca 3b a7 bd
       -0.023497399 -0.03524291 -0.002908941 -0.08165701
000140 58 2e 00 3d 2d 5a 25 bd 8c 66 84 3d e0 9b ca bb
       0.031294197 -0.0403692 0.06464872 -0.0061831325
000150 0c 49 99 3d 66 c1 98 bd 2b 29 16 3c 6e f3 40 3d
       0.07484636 -0.07458763 0.009165089 0.047107153
000160 54 aa 7a 3d 38 a6 95 3c 0f 78 0a bd 9d 0a 9a 3c
       0.061197594 0.018267736 -0.033805903 0.018803889
000170 fd 44 78 bd e2 c2 4c bd 56 f3 d5 bc 88 87 b6 3b
       -0.060612667 -0.049990542 -0.026117008 0.005570356
000180 2a 1b 88 bc ab 20 dc 3c 3c 7c 21 bd 5b 57 f6 bc
       -0.016614515 0.026871046 -0.03942512 -0.030070951
000190 91 bb 02 bd 1c fd 96 3b 7a 90 55 bd d0 ba 49 bc
       -0.03191716 0.0046078097 -0.052139737 -0.012312606
0001a0 3b 8d 84 3b c8 bd 42 3d 5c fc bf 3c c5 2a 9d 3b
       0.0040451563 0.04754427 0.023435764 0.0047963583
0001b0 6f b1 93 bd 1b 1f 79 3c 76 85 46 3d 03 25 9f 3d
       -0.07211577 0.01520517 0.048467122 0.07770731
0001c0 77 b3 39 3d e7 ce 09 bd 3e dd 0b 3d c0 94 db bc
       0.045337167 -0.033644583 0.03414654 -0.026804328
0001d0 d1 db a8 bc 3a ff c2 bb 2e fa b2 bb 74 3f 9a 3c
       -0.02061263 -0.0059508355 -0.0054619526 0.018829085
0001e0 e4 d4 02 bd 4b f8 ac bd 26 67 5d bc 8b a4 6d 3d
       -0.03194131 -0.084457956 -0.013513362 0.05801825
0001f0 68 a6 99 3d 29 31 87 bc fa 58 3a 3d 31 c8 1f 3c
       0.075024426 -0.016502934 0.04549501 0.009752319

fc3_val.weight f4 [1, 128]
000000 df 97 e0 bd 55 61 68 3e 01 ae 59 3e 6d 8d 24 3e
       -0.10966467 0.22693379 0.21257783 0.16069575
000010 02 f3 fd 3d fe 35 a4 bd 86 3f d7 bd a7 04 42 3e
       0.12399866 -0.08018111 -0.10510163 0.18947087
000020 1d f2 93 bd 41 94 12 3e 9c 3c 94 3d cb e0 8b bd
       -0.07223914 0.14314367 0.07238123 -0.06829985
000030 15 0d 89 3d 71 85 9f bd 08 6d 3e bd 21 c8 a0 bd
       0.06691948 -0.07789124 -0.0464907 -0.078506716
000040 97 f5 2c 3e c9 02 c5 bd b3 7c 29 3e 70 aa 41 bd
       0.1689056 -0.09619672 0.16551475 -0.047281682
000050 7e cc 79 3e 1c 1a 12 be e5 cd 59 bd 74 35 24 3e
       0.24394414 -0.14267772 -0.053174872 0.16036016
000060 0a 60 a7 bd 38 ba 0f 3e db f1 6b bd b6 a9 03 3d
       -0.08172615 0.1403588 -0.0576037 0.03214427
000070 33 91 29 3e 33 00 7b 3d 99 66 c3 bd 96 53 e5 3c
       0.16559295 0.061279487 -0.09541053 0.027993958
000080 cb 80 03 3e bb 00 a9 bd b6 7d dc 3d 1d 09 30 3e
       0.128421 -0.082520925 0.10766165 0.17190976
000090 ad f5 fb bd 25 99 6d 3d d5 d9 f7 bd df ce d9 3d
       -0.12302718 0.058007378 -0.12102095 0.10635161
0000a0 41 d1 13 3d e2 a0 2e 3e ea 73 7f bd 32 ac 76 3d
       0.036088232 0.1705356 -0.062366404 0.060222812
0000b0 b8 fb 58 be 31 ab 3d be 98 b8 dc bd 58 2e 49 3d
       -0.21189773 -0.18522336 -0.10777396 0.049116462
0000c0 d3 7e 8d bd 72 5f 4d 3e ca 00 04 3e bc 5c 60 3e
       -0.069089554 0.20055941 0.12890926 0.21910375
0000d0 cf de 76 be 65 7a e6 3d f4 eb 57 3d 99 67 d9 3d
       -0.24108432 0.11253814 0.052715257 0.10615463
0000e0 63 11 ff bd 8b 70 f2 bd 08 4f 36 3e ca 49 b9 bd
       -0.12454488 -0.11837872 0.17803586 -0.09047277
0000f0 a8 f4 da 3d 1d aa 73 bd 95 15 68 bd ed eb f0 bd
       0.10691196 -0.059488405 -0.056661207 -0.11763749
000100 2b 2d 25 3e 1c e2 e5 bd 76 3f ad bd 96 85 ca bd
       0.16130511 -0.112247676 -0.0845937 -0.09888761
000110 e7 83 5e bd e0 d5 f0 bd c6 0b 19 3e 79 33 06 3e
       -0.05432501 -0.117595434 0.14945897 0.13105573
000120 8e 49 17 be 88 ce eb 3d 08 e1 19 3e 3d 46 0d 3e
       -0.14774153 0.11514002 0.15027249 0.13796325
000130 64 e8 8c 3d 93 8a e6 bd c6 42 91 bd 33 bf 3e 3e
       0.068802625 -0.112569 -0.07092814 0.18627624
000140 1d 6f 34 bd 77 50 f9 3d 5e 78 e2 bd c4 38 15 3e
       -0.04405128 0.121735506 -0.110581145 0.14572436
000150 c7 e2 9d bd 4b 8d 6d 3e ce af 80 3d 95 77 ce 3d
       -0.0770927 0.2319843 0.06283532 0.10081402
000160 c5 40 f0 bd 81 24 06 3e 48 60 61 3e 63 fc ce 3d
       -0.11731104 0.13099863 0.22009385 0.10106733
000170 c4 9f 20 3e 0c ba 07 3e c2 ef 0d be cf 2d de bd
       0.15685946 0.13254565 -0.13860992 -0.10848581
000180 ac 46 19 be 43 1b b0 bd 36 c6 0a 3e 4f de 6b bd
       -0.14968365 -0.0859895 0.13552174 -0.057585057
000190 24 2a c3 3d 79 1f 7c 3d 4f 1f 1b 3e 97 48 01 be
       0.09529522 0.061553452 0.15148662 -0.12625347
0001a0 16 98 0a 3e 62 94 9d 3d 94 1f 19 3e bc 78 24 3e
       0.13534579 0.076943174 0.14953452 0.16061682
0001b0 ac bc 1c 3e b4 42 02 be 85 1e a5 3d 4e a4 18 3e
       0.15306348 -0.12720758 0.08062462 0.14906427
0001c0 47 99 14 3e 88 a3 08 be 67 1e e6 3d 97 08 eb bc
       0.14511596 -0.13343632 0.112362675 -0.02869062
0001d0 2f 21 8b be d1 4f 94 bd 16 f3 23 3e 9b 39 c9 bd
       -0.27173755 -0.07241786 0.16010699 -0.098254405
0001e0 9d 9e da 3d a9 7f 30 3e 59 2b 3f be 30 14 27 3e
       0.10674784 0.17236198 -0.1866888 0.16316295
0001f0 08 21 31 bd e2 6d 94 3d 7c 92 86 3d c0 2b 5b bd
       -0.04324439 0.07247521 0.065709084 -0.05350852

fc1_adv.weight f4 [256, 43]
000000 99 9f 0c be 97 98 05 bc cc f6 07 3e 93 4d cf 3d
       -0.13732757 -0.008154056 0.1327774 0.10122218
000010 56 64 05 3e 5d 67 5d 3d 19 be bc 3d 5e 99 07 be
       0.13026556 0.054053653 0.09215946 -0.13242099
000020 a9 95 c9 3d 66 5e d8 bd 75 4b 1b be 13 b2 7d bd
       0.098429985 -0.1056488 -0.15165503 -0.061937403
000030 77 5d 10 bc fe 7c 01 3e 50 91 ec 3d ec 91 95 bc
       -0.008811346 0.12645337 0.11551154 -0.018258058
000040 d7 a9 eb bd 0f e5 0d bd 56 86 03 3e 56 1f c9 bd
       -0.11507004 -0.034642275 0.12844214 -0.0982043
000050 e3 ef ed bd 48 95 f3 3c be 17 e9 3c 4d 86 ec 3d
       -0.116180204 0.029734269 0.028453704 0.11549053
000060 cc f6 0b be 09 06 c3 bd 20 27 bb 3d 5d 9b bf 3b
       -0.13668364 -0.095226355 0.09138322 0.005847378
000070 59 9c 63 bc db 3e 50 bd a8 dc 60 bd 6f d7 06 bd
       -0.013892257 -0.050841194 -0.054897934 -0.032920297
000080 69 c4 b9 3d ba 8e ae 3d b7 4a 89 bd 78 e2 02 3e
       0.090706654 0.08523317 -0.06703704 0.12781703
000090 9b f3 ac bd ea da 0e be d3 31 a4 bd f1 1c b4 3d
       -0.084449016 -0.13950697 -0.08017316 0.08794583
0000a0 5a 33 27 3e 3f 65 2b be 09 5e d1 3d a9 3c af bd
       0.16328183 -0.16737841 0.10223014 -0.08556492
0000b0 08 3c 1d be 0a 05 b5 bd f6 f3 68 bc c5 07 a3 bd
       -0.15354931 -0.08838852 -0.014218321 -0.07960466
0000c0 7b 60 7c 3d 51 f3 63 bc ad f9 f9 3d 2e b1 10 3e
       0.06161545 -0.013912992 0.12205825 0.14130089
0000d0 70 47 1a be 69 ef a2 bd 50 05 04 be 9f dd 5b 3c
       -0.15066314 -0.0795582 -0.12892652 0.013419538
0000e0 88 7f 70 3b e1 60 b5 3c b6 44 d2 3d bc 9f 9e 3d
       0.0036697108 0.022140922 0.10267012 0.07745311
0000f0 30 a4 fc 3d e9 e1 00 3e f0 77 cc bd 9c b0 52 bc
       0.12336004 0.12586178 -0.09983814 -0.01285949
000100 1b 95 cb bd 20 ef 92 bd 57 40 06 be 14 4c b3 3d
       -0.09940549 -0.07174516 -0.13110481 0.08754745
000110 f7 1a 03 bd 36 36 02 be f4 cb 93 bd 02 d6 0d 3e
       -0.032008138 -0.12715992 -0.07216635 0.13851169
000120 9e 65 50 3d 5b 71 b0 bd 61 5a cf 3d ac 72 c8 3d
       0.05087816 -0.08615371 0.1012466 0.09787497
000130 62 d2 2e 3d 6c eb 01 3e b8 0c d7 bd a7 ff 22 be
       0.042681105 0.12687463 -0.10500473 -0.15917836
000140 38 50 fd 3d 2e 6a 80 3d 48 2f 1c bd 45 22 23 be
       0.12368816 0.06270252 -0.03813103 -0.15931042
000150 1b 85 4d be da 04 1c 3e 96 b8 a1 3d b1 ac 55 bd
       -0.20070307 0.15236226 0.07896535 -0.052166644
000160 8c ed 66 bb 1a 31 05 3d ce 5f 9d 3c 68 fb 15 3e
       -0.0035236804 0.03251753 0.019210722 0.14646685
000170 c3 f8 f9 3d 2a 59 46 3c 4e b7 ec bd 42 8e fe bd
       0.12205651 0.012106219 -0.115584 -0.12429477
000180 e8 88 77 3d 63 0e 91 3c 8b 06 e9 bd 1f 24 3b 3d
       0.0604333 0.017707055 -0.11378201 0.045688745
000190 cb d7 d6 bc 75 93 ed 3d 74 0c a4 bd 62 53 06 be
       -0.026225945 0.11600391 -0.08010188 -0.13117746
0001a0 76 25 05 be 0b e4 f0 3d eb 2f af bc 74 bd 30 bd
       -0.13002571 0.11762246 -0.021385154 -0.043149427
0001b0 23 22 46 bc f7 66 8f 3d fd 70 0c be e3 19 ac 3c
       -0.0120931 0.07002061 -0.13714977 0.021008437
0001c0 b7 be b9 bd 1e ea 80 3d ed 59 98 bd 67 20 1c 3e
       -0.09069579 0.06294654 -0.07439027 0.15246736
0001d0 93 5c 07 3e 60 28 13 3e 53 cd 42 bd 75 60 03 be
       0.13218908 0.1437087 -0.047559094 -0.12829764
0001e0 ec 54 8d bc 99 c5 0a 3e 73 72 8b 3c c2 f5 1e 3e
       -0.017252408 0.1355194 0.017022347 0.15523437
0001f0 81 0b c6 bd 93 70 02 be 8a 42 91 3d 31 fa 69 bd
       -0.09670163 -0.12738256 0.070927694 -0.057123367
000200 cf 05 94 3c ec 64 8a 3c 39 c5 ed 3d 08 ae 90 3d
       0.018069176 0.016893826 0.11609883 0.07064444
000210 d7 db df 3d 56 40 ef 3d 83 86 a3 bd 4a 24 f0 3d
       0.10930603 0.11682193 -0.079846404 0.117256716
000220 ab bb c4 b9 7b 9d a3 bd a0 12 db 3d b4 63 f9 3d
       -0.00037523857 -0.079890214 0.10696912 0.1217722
000230 1c 05 f7 3d 8b 6d 94 bd ac 7c 74 3d 1b 03 d8 3b
       0.120615214 -0.07247456 0.05968921 0.006592167
000240 4a c2 c0 bc ea 9a 2d be be c9 fc bd fe 45 05 3d
       -0.023530144 -0.16953626 -0.12343167 0.032537453
000250 3a 9b 33 3d 7a 97 5d 3c d9 81 34 bc 27 eb ef bd
       0.043849207 0.013524884 -0.011017286 -0.117147736
000260 d7 55 98 bc bb 72 28 3d 2c a1 1b 3c 52 33 bc 3d
       -0.01859562 0.04112504 0.009498876 0.09189476
000270 f6 de dc 3c 2d 79 b6 3c 39 03 40 bd 5b b2 d9 bd
       0.026961785 0.022274578 -0.046878073 -0.10629722
000280 d9 cf d6 3b 39 5e f8 3a 84 23 aa bd 5c da 78 3d
       0.006555539 0.0018948979 -0.08307555 0.06075512
000290 0b d1 a5 3d da bc ca 3c 29 cc 94 3d b5 22 d8 3c
       0.080965124 0.024748255 0.07265503 0.026383737
0002a0 9f 7a 95 bd b3 d7 87 3c 8e c9 a5 3d 74 e3 9d 3d
       -0.07298779 0.016582346 0.08095084 0.07709399
0002b0 1c c8 77 3c 08 c7 76 bd 63 2e e8 bd da f5 0a bd
       0.015123393 -0.060248405 -0.113369726 -0.03392587
0002c0 38 ae d8 bd 9a da 33 3c c6 2b 17 3e 2e 32 0e 3e
       -0.105801046 0.010977412 0.14762792 0.1388633
0002d0 f6 88 0e 3e 7f 55 4b bd a2 68 94 3c e1 65 77 bd
       0.13919434 -0.049642082 0.018116299 -0.060399894
0002e0 54 a2 bb bd 1a b5 13 be f6 ae 0a bd 04 e3 e0 3d
       -0.09161821 -0.14424554 -0.033858262 0.109808
0002f0 8c f8 fe 3d f8 ed 55 bd 22 75 f4 3d ac 33 75 b9
       0.1244975 -0.052228898 0.11936404 -0.0002338427
000300 a5 be 92 3d 01 99 bc bd 8c bf b9 3d 02 3e db 3d
       0.07165269 -0.09208871 0.09069738 0.107051864
000310 69 68 f7 bd 51 68 ca bd 44 c1 a4 bd 0a 5d 18 bd
       -0.120804615 -0.09883178 -0.08044675 -0.037198104
000320 96 19 8f 3d d8 5d db bc 88 12 13 3e 98 2d be 3c
       0.06987302 -0.026778147 0.14362538 0.0232151
000330 4b 47 79 bd 88 f2 4e 3d f1 b6 3f 3d 68 33 fa bd
       -0.060859006 0.050524265 0.046805326 -0.12216836
000340 08 c8 a2 3d 29 e3 54 3d eb bf ab bd fd d4 0c 3e
       0.07948309 0.05197445 -0.08386215 0.13753124
000350 28 8e 74 3d 8d 5f 77 3d d9 49 95 bd 7e f0 05 3e
       0.059705883 0.06039386 -0.07289476 0.13080022
000360 fc 65 58 3d f6 fd d7 3d ad e7 76 bd 2b db 0c bd
       0.052831635 0.10546486 -0.060279537 -0.034388702
000370 ab d8 bf bd 9a 04 d2 bb ca 9d 80 bd bc bb fb 3d
       -0.09367498 -0.00640924 -0.06280096 0.12291667
000380 36 36 bb 3d c4 4d ab bd 30 e2 11 bd d4 b9 b7 bd
       0.09141199 -0.08364442 -0.0356161 -0.08970991
000390 e1 5c 61 bd 7d 92 2f 3c 85 37 d8 3d cd c3 8e bd
       -0.055020217 0.010716078 0.105574645 -0.0697094
0003a0 8a 5f ef bd 9b 67 aa 3d 90 6c 94 3d 03 23 06 be
       -0.116881445 0.083205424 0.07247269 -0.13099293
0003b0 27 6f b9 3c 52 95 4d 3d 7d ec 0c 3e 00 08 01 be
       0.02263601 0.05019123 0.13762088 -0.12600708
0003c0 aa 58 60 3d 5b 7c 59 bd 8a 56 22 3e 8f 25 c9 3d
       0.054772057 -0.05309711 0.15853325 0.09821617
0003d0 b9 46 bf 3c 4b 6d 42 3d f4 04 c3 3d 76 88 c8 3d
       0.023349153 0.04746751 0.09522429 0.09791653
0003e0 05 95 0c be 68 e7 c3 3b a0 fc 2c bd 41 89 8f bd
       -0.13728721 0.0059785135 -0.04223311 -0.07008601
0003f0 57 39 00 3e 0a 37 1a 3d 1b a6 04 3d 84 79 2d be
       0.12521873 0.037650146 0.032384973 -0.16940886

fc1_adv.bias f4 [256]
000000 53 64 f0 3b be c2 64 3d 02 7e b4 bd 39 d9 00 3d
       0.0073361783 0.055849783 -0.088130966 0.03145716
000010 69 bf ae 3d 7e 60 18 be ad f2 c5 3d fd 20 ba bd
       0.08532602 -0.14880559 0.09665427 -0.09088323
000020 92 7b 3d 3e 70 e7 e9 3d 36 b9 89 bd 6d 2a 7e bc
       0.1850417 0.11421096 -0.06724779 -0.015513045
000030 ab 7b c3 3d f0 55 65 bd 0e 0a 5c 3d 96 93 a4 bd
       0.09545072 -0.05599016 0.053720526 -0.08035962
000040 48 f8 a4 3d 3a b3 69 bd f8 57 df 3d 37 cc b0 bd
       0.080551684 -0.05705569 0.109054506 -0.08632701
000050 61 0b b8 bd 52 9e 47 bc 7e e0 07 be 17 e1 d8 3d
       -0.08986545 -0.012183743 -0.1326923 0.105898075
000060 a3 b8 1e be 67 c6 ba bd d1 1e 3d 3d 8c 88 d4 bd
       -0.15500121 -0.091198735 0.046171967 -0.10377607
000070 b4 00 52 3c 37 bf 02 be d5 26 f0 bd 95 80 8a 3c
       0.01281755 -0.12768255 -0.117261566 0.016907016
000080 d0 65 1b bc 24 0c 15 be fc 1c 66 bd d9 43 a1 3d
       -0.009484723 -0.14555413 -0.056179985 0.07874269
000090 1a bf 73 bd 99 e1 d1 3d 3b 0d 7f 3d df ab 71 bc
       -0.05950842 0.102481075 0.062268477 -0.01475045
0000a0 c6 6e 99 3c a5 8b 3d 3e c0 15 4c 3d d1 4b 64 bd
       0.018729579 0.18510301 0.04982543 -0.055736367
0000b0 7f 45 50 bd 7c fc 8d bd 23 b5 da 3d b4 06 03 be
       -0.050847527 -0.06932923 0.1067908 -0.12795526
0000c0 b3 82 e1 bd c9 d6 89 3d 24 a6 bf bd b0 c2 01 be
       -0.11011257 0.0673042 -0.09357861 -0.12671924
0000d0 36 b7 32 3d f8 ae 83 3d 78 a5 30 3d a5 ba 91 3d
       0.043631755 0.06429857 0.043126553 0.07115678
0000e0 af cc df bd 32 f9 bb bd 4b bc e6 3d 1a 31 5d bc
       -0.10927712 -0.091783896 0.11266383 -0.013500476
0000f0 eb f8 0e be 1a e2 6f 3d 75 e4 33 3e ef f0 bd bd
       -0.13962142 0.058565237 0.17567618 -0.0927447
000100 86 4b bc bd bc 9c a5 bb 1b 2c a2 bc b9 1b 5a bd
       -0.091940925 -0.0050540846 -0.019796422 -0.053249095
000110 31 31 70 3d 91 a7 84 3d ff 81 02 bd 9d 43 94 bc
       0.058640663 0.06477273 -0.031862255 -0.018098647
000120 9c 99 d0 3d 10 5f ee 3d 41 e5 a4 3d 8b 74 fe bd
       0.10185549 0.116392255 0.08051539 -0.124245726
000130 4c 12 b9 3d 86 ed 30 3d 22 6d c2 3d 31 5c fe 3c
       0.09036693 0.04319527 0.09493472 0.03104982
000140 09 7e 2b 3e 40 55 82 bd a7 31 02 be c4 f7 4f bd
       0.16747297 -0.063639164 -0.12714253 -0.050773397
000150 91 96 9a 3c e9 ca de 3d 8a a5 0e 3e cc 59 ec bd
       0.018870624 0.10878546 0.13930336 -0.11540565
000160 df 0a ec bd 20 c7 61 3c 87 52 2b 3e 3d 7d 2e 3e
       -0.11525511 0.013780385 0.167307 0.17039962
000170 77 e9 43 3e 02 fe c6 bb a7 87 cc bd 9a 01 62 3d
       0.19132029 -0.0060727606 -0.09986811 0.05517731
000180 ba d9 86 bc fd 9e 0b be 7d 2a 23 3e 1f 4e 39 bd
       -0.016461242 -0.13634868 0.15934177 -0.045240518
000190 7f fe 65 bd 7f 06 5e bd 30 a5 c7 bd f7 ec bc bc
       -0.05615091 -0.054205414 -0.09748304 -0.023062212
0001a0 92 38 1b 3e f0 60 cf 3d 1c 79 a7 3d 2c 9f 02 3e
       0.15158299 0.10125911 0.08177397 0.12756032
0001b0 20 27 38 3d de 7c f5 bc 00 ba 74 bd 09 e6 4e 3d
       0.044959188 -0.029966768 -0.059747696 0.050512347
0001c0 a6 ca 8a 3c d5 5e 0c bc fb 87 42 3d 1e 3c 38 3e
       0.016942333 -0.008567532 0.047492962 0.17991683
0001d0 46 5a e5 3d c6 8d bf bd 50 92 2e be ab 26 e4 3d
       0.11198859 -0.09353213 -0.17048001 0.11140188
0001e0 3b 7f 1f 3e a4 8d 78 bd 2b 75 e7 3d ea c1 02 bd
       0.15575878 -0.060681954 0.11301645 -0.031923212
0001f0 e5 96 e7 3d 09 99 af 3d 96 42 fa 3d 9e ee 36 3d
       0.11308078 0.08574111 0.122197315 0.044661157
000200 0e 62 ad 3d f7 c5 28 be 3f 09 00 be c9 64 ca bc
       0.08465968 -0.16481768 -0.12503527 -0.024706261
000210 40 dd 79 bc 02 9b 79 3c 53 ec f0 bd 5b db a2 bc
       -0.015250504 0.015234711 -0.11763825 -0.019879987
000220 43 69 34 3e 38 50 75 3c 85 45 d2 bd 9e 73 ac 3d
       0.17618279 0.014972739 -0.10267166 0.0842049
000230 14 fb 3a 3e 58 12 60 3d 0a 0d b0 bd 67 d1 21 be
       0.18259841 0.054704994 -0.08596237 -0.15802537
000240 c2 97 9b 3d 6a 32 30 3e 1d a8 a6 bd 26 1c 9c bc
       0.07597305 0.17206731 -0.08137534 -0.019056391
000250 a3 85 33 bc 32 fb 0c bd 8c ba 32 3e d8 7d 16 3e
       -0.010957154 -0.034419246 0.17453974 0.14696443
000260 f2 af 2d bd 1b db 70 3d 38 0d 08 3e 23 28 f0 bd
       -0.042404123 0.058802705 0.13286293 -0.117264055
000270 f0 74 2f 3d 6c 37 0c 3d c6 8f 03 be 51 5f fd 3c
       0.04283613 0.034232542 -0.12847814 0.03092924
000280 08 1a 8c 3d 59 51 5f 3e 3f 2e 2b 3e c1 fd 5c 3e
       0.068409026 0.21808375 0.1671686 0.21581174
000290 83 4b c8 3d ac 58 a1 3c 4f 67 bb 3c 5e a9 88 bd
       0.09780028 0.019695602 0.02287641 -0.06672929
0002a0 29 39 2a 3e bb 9a 13 be f9 d6 02 be ed 59 63 3e
       0.16623367 -0.14414494 -0.12777318 0.22202273
0002b0 f0 3d d3 3c af f8 12 be 15 a2 04 be d1 e5 c8 3d
       0.02578637 -0.14352678 -0.12952454 0.09809459
0002c0 59 d2 63 bc c1 ac 3f 3c a5 4f 2b be 15 b1 2a 3e
       -0.013905131 0.011698903 -0.167296 0.16669114
0002d0 b7 0f 43 3e 9d 04 40 bd 0e e2 b9 3c 98 9e 72 bd
       0.19048963 -0.0468794 0.0226908 -0.059233278
0002e0 7c 52 0a be 71 2e 6e 3d f6 ba 4f 3e a0 ac ee 3d
       -0.13508028 0.05814976 0.20286164 0.11654019
0002f0 b1 66 3d 3e df 6f 33 3d 47 d8 1e 3e 4b 5f 3f 3d
       0.18496205 0.04380786 0.15512191 0.046721738
000300 21 64 81 bd 9e 42 89 bd e1 b4 33 bd e8 da 5f 3d
       -0.06317926 -0.06702159 -0.04387367 0.054652125
000310 c7 17 da 3d 3a 30 17 3e c9 bd 1a 3e bc 58 9f bc
       0.106490664 0.1476449 0.1511146 -0.019451492
000320 a2 84 ac 3d be 69 58 3d f9 69 98 bd 78 e7 d6 bd
       0.08423735 0.05283522 -0.07442088 -0.10493368
000330 f4 74 16 3d 96 c0 d6 bd 60 6b d6 bd 11 17 77 3d
       0.03673263 -0.104859516 -0.10469699 0.060324732
000340 81 84 99 3d 94 38 b7 bd 55 12 aa 3d 65 d0 89 3d
       0.07495976 -0.08946338 0.08304278 0.06729201
000350 11 76 58 3d 6d 12 ea bd 86 b5 07 be f1 39 c4 3d
       0.052846972 -0.11429296 -0.1325284 0.09581364
000360 2f be 16 3e 38 f4 5d 3e 79 9e be bc 51 36 2d bc
       0.14720987 0.21675193 -0.023268925 -0.010572032
000370 9e b1 e8 3d 2b 1d 38 be 23 13 3b 3d 89 17 3b 3e
       0.11362003 -0.17979877 0.045672547 0.18270697
000380 8e 58 51 bc ea e3 35 3d 6f 61 1f be 45 24 fb bd
       -0.012777461 0.04440681 -0.15564512 -0.12262777
000390 ea 26 f4 bd 60 fe 2d be 43 ee 31 3e 01 58 10 bd
       -0.11921485 -0.16991568 0.17376046 -0.035240177
0003a0 41 80 36 be f8 64 82 bd a6 c3 3b 3e c5 b4 99 3d
       -0.17822362 -0.063669145 0.18336353 0.07505182
0003b0 59 5d 59 bc b1 4a 51 3d 32 a8 8c 3b 87 76 28 3d
       -0.013266885 0.051096622 0.0042925114 0.04112866
0003c0 64 a4 e1 3d a3 f5 70 3d 75 fe 87 bd 62 c8 fc 3d
       0.11017683 0.058828007 -0.06640331 0.123429075
0003d0 60 4c 2f 3d 3d e9 11 be 47 9f cf bc 69 a2 6f 3d
       0.042797446 -0.1424913 -0.025344504 0.058504496
0003e0 40 3d 2e 3e 98 86 01 3e a8 02 a7 3c bd 1f 09 be
       0.17015553 0.12649 0.020387009 -0.13391013
0003f0 59 48 03 be 8b 4b 8f bd 62 a1 bb bd 81 a1 03 be
       -0.12820567 -0.069968306 -0.09161641 -0.12854578

fc2_adv.weight f4 [128, 256]
000000 73 29 61 3c 1e c2 d5 bd 61 46 ec 3c b4 f2 25 3d
       0.013742792 -0.104374155 0.028842153 0.040514663
000010 3b f0 51 bc e2 6c ec bc 1f 35 f6 bb 1c a1 2e 3c
       -0.012813623 -0.028860513 -0.0075136567 0.010658529
000020 75 90 2d 3c de 0f 8e bd 79 9c d9 3c b0 6d 30 bc
       0.010593523 -0.0693662 0.02656387 -0.010768339
000030 25 eb da bc cc 04 ae bc e7 21 69 bb e6 ff 81 bd
       -0.026723454 -0.021242522 -0.0035573186 -0.06347637
000040 9b 05 96 3d 6b 9c fd b9 e4 43 ff bc 01 ca ee bd
       0.07325288 -0.0004837246 -0.031160302 -0.11659623
000050 b5 78 9a bc 9b d8 84 bd 0f ee 3e 3d e1 df 00 bd
       -0.018856386 -0.06486627 0.04661375 -0.031463508
000060 bf ea 48 3c 49 17 ac 3d b0 22 c7 bb 27 65 66 3c
       0.012262999 0.08402879 -0.006077133 0.014062203
000070 a0 ec 5d bd 82 64 43 39 7c 91 2d bd 44 46 c3 bd
       -0.05418074 0.00018634091 -0.042375073 -0.095348865
000080 56 15 e7 bb 1c a5 e5 bc 36 73 45 bc 89 f6 e8 3b
       -0.007052104 -0.028032832 -0.012051394 0.0071094674
000090 ee 9a 30 bd 04 f0 37 3d 4b 37 98 3b 8b fd 77 bc
       -0.043116502 0.04490663 0.0046452633 -0.015136133
0000a0 c3 1b c5 3c 7b 71 7f 3d 65 d3 e6 3c 2e 1f b6 bd
       0.02406109 0.062364083 0.028176973 -0.08892666
0000b0 f5 68 ae 3c ef 44 58 3d 75 c5 61 bd 2f df 86 3c
       0.021290282 0.052800115 -0.05511995 0.016463844
0000c0 fb 8c 49 3d e5 23 6c bd 6c 42 8a bd f2 c3 e0 bd
       0.049206715 -0.05765142 -0.0675095 -0.109748736
0000d0 3b 6a 6e bd b4 ae dd bd 93 95 8f 3c 24 c1 45 bd
       -0.058206778 -0.108243376 0.017527377 -0.048279896
0000e0 75 3d 28 39 00 74 7b bd f8 17 6a 3d 7a 92 0e be
       0.00016044623 -0.061389923 0.057151765 -0.13923064
0000f0 70 ab 5e 3c 72 9e 5d 3c 0d b4 21 3d 19 ee 85 3d
       0.013590679 0.013526546 0.03947835 0.06539554
000100 b7 66 1f 3c 63 5b a7 bd a5 4c 46 3d 8b 81 c3 bc
       0.009729079 -0.081717275 0.048412938 -0.023865482
000110 e3 4f a5 bd d9 5d b1 3c 87 2c 38 3d 2c 69 16 bd
       -0.08071878 0.021651195 0.04496434 -0.036721393
000120 cf 21 40 bd 41 8d 60 bd 5d 54 82 bc c1 f1 22 3d
       -0.046907242 -0.05482221 -0.015909368 0.039781336
000130 c3 41 73 3d 76 17 38 3d b6 5c 50 3c 5d bf 7c bd
       0.059388887 0.04494425 0.0127174165 -0.061705936
000140 04 cb 16 bc 6e 3e f0 bc d7 4e 7f 3d ba 4a 0c 3d
       -0.009203676 -0.029326644 0.062331047 0.034250952
000150 88 73 80 bc 4b 89 9c 3d d3 7d 07 3d f5 bc fd 3c
       -0.01568009 0.07643374 0.03307898 0.03097389
000160 df 46 4d bc 41 48 31 bc ac 96 70 3d 8a 0e 4b 3d
       -0.012529104 -0.010820449 0.058737442 0.049574412
000170 3b 34 ba 3c 14 b3 2e bd c6 db 4c bc b7 68 52 3d
       0.022729984 -0.04265125 -0.01250357 0.051369395
000180 af 63 1b 3c 34 44 37 bc 70 df 35 3d 44 e4 29 bd
       0.009484216 -0.0111856945 0.04440254 -0.041477457
000190 71 fc ab 3d ba 2f e7 bc b7 42 05 be 61 3a b0 3d
       0.08397759 -0.028221 -0.13013731 0.08604885
0001a0 01 0a 24 3d 66 57 0c 3d 10 c6 5f bd 43 b3 a0 bd
       0.040048603 0.034263037 -0.054632246 -0.078466915
0001b0 38 78 ac bd bb 6e c3 3c 98 a5 28 bd ae 94 fc ba
       -0.084213674 0.023856511 -0.041173548 -0.0019270384
0001c0 95 3c 50 3d e5 fb cb 3b 2a d1 7c bd 4e 12 aa 3d
       0.050839026 0.0062250965 -0.061722912 0.083042726
0001d0 38 06 2b 3d fc dc 25 3d e4 c6 8b b9 dc b0 e4 3c
       0.041753978 0.04049395 -0.0002666033 0.027916364
0001e0 f8 da c6 3b d3 19 19 bc 2e b8 02 3c 89 c3 b2 b9
       0.0060685836 -0.009344536 0.007978482 -0.0003409649
0001f0 0f ae 8d 3d 42 4d d1 bd 9a c7 8f bb 64 44 ca 3c
       0.06917965 -0.10219814 -0.004387808 0.024690814
000200 69 50 01 3e 16 96 81 3c 89 7d 90 3c a2 3d 2b bd
       0.1262833 0.015818637 0.017637985 -0.041806825
000210 30 c4 bb bc ab 19 74 bc 11 1b 87 bd eb cc a9 bd
       -0.022920698 -0.014898698 -0.065969594 -0.08291038
000220 f2 53 8c 3d 1c bf a4 3c 71 31 25 bc fe 01 08 3e
       0.06851949 0.02011066 -0.0100825885 0.1328201
000230 83 d2 11 3d ce 7c ff 3c 93 f6 ee bc f4 44 2e bd
       0.03560115 0.031187441 -0.02917031 -0.042546228
000240 40 31 6d bd 72 14 a1 bb 72 02 52 3d 6a d6 a7 bc
       -0.057908297 -0.0049157673 0.051271863 -0.020487983
000250 44 a0 3e 3d 43 3e a6 bd 2a 2d 0d 3d 0b ff 37 3c
       0.04653956 -0.08117344 0.0344669 0.011230241
000260 b1 28 1a bd 05 1c ca bd 4f 5f 19 bd 78 be cf bd
       -0.037636463 -0.098686256 -0.03744441 -0.10143751
000270 7f ff 38 bc 9f 48 c0 3c 1e 08 2e bd 22 4e 75 3d
       -0.011291384 0.023472128 -0.04248821 0.059888966
000280 c0 b9 ac bc f4 bd 01 bc 59 2f f8 3c cb 6d 0f 3d
       -0.021084666 -0.0079188235 0.030296015 0.035016816
000290 fd eb 5d bd 65 08 92 bd 7e 2c 7e bd 64 50 89 bc
       -0.054180134 -0.071305074 -0.06205415 -0.016761966
0002a0 89 74 8b 3d 6b 7d 48 3d 65 eb 3d 3c af fc fe 3c
       0.06809337 0.048947733 0.011591767 0.031126348
0002b0 b1 46 3a 3c 64 ae 05 3b b5 aa ff 3b b1 3b 0b bd
       0.011369393 0.0020398134 0.0078023323 -0.033992473
0002c0 a7 8a 1a 3d d0 36 cf bc 2b 1c 9e bd 8b 28 f2 3b
       0.037729885 -0.025294691 -0.07720216 0.007390087
0002d0 7b 88 0c 3d ad 15 08 3b 7b b5 52 bd 4a 9b b2 bc
       0.034309845 0.0020764873 -0.051442605 -0.021802563
0002e0 32 9e 8e bd df bc 04 bd 12 d2 fb 3c 78 fd 69 bc
       -0.06963767 -0.032406684 0.030739818 -0.014281623
0002f0 67 f1 71 3d 45 fb 87 3d f3 6f 21 3d 79 22 50 3d
       0.05906811 0.06639723 0.039413404 0.050814126
000300 62 8c ed 3c 33 5f 93 3d e1 d1 3f bd a0 2a 81 bd
       0.028997604 0.07195892 -0.046831015 -0.06306958
000310 64 0f 2e bd ee fe f6 ba 0e 80 4a 3d 0f 84 cf 3c
       -0.042495146 -0.0018844286 0.04943853 0.025331525
000320 99 90 98 bc 18 ea 0f 3d aa 35 e6 3c 1c 2c 0e bd
       -0.018623637 0.03513536 0.02810176 -0.034710035
000330 08 a9 40 3d 88 38 2b bd 3a de ff 3c 00 a3 62 bd
       0.0470362 -0.04180196 0.031233896 -0.05533123
000340 61 d0 67 bc 99 e3 84 bd 33 5b d0 3d 57 e3 a2 bc
       -0.0141488025 -0.06488723 0.10173645 -0.019883795
000350 ec e8 6f bd dd 95 4c 3c 45 2d 09 bc 9f a9 aa 3c
       -0.05857174 0.012486902 -0.0083726095 0.020832835
000360 97 5b 64 bd 1e 48 86 3d fb a6 ae bd 92 d7 01 bb
       -0.05575141 0.06556724 -0.08527943 -0.0019812328
000370 b7 3f 0b 3d 6c ec 8f 3a f6 ce 3a 3d 8a f5 d1 3c
       0.03399631 0.0010980493 0.04560753 0.025629777
000380 7c c4 95 bd 39 e9 33 bd 08 0b e2 bd 5c c9 45 bd
       -0.07312867 -0.04392359 -0.1103726 -0.048287734
000390 63 cd 3a bd 83 a0 0f bc 0b 80 59 bd f9 84 1e 3d
       -0.04560603 -0.008766296 -0.053100627 0.03870103
0003a0 02 f9 a1 bd 77 2b 0c 3d c7 a7 7c bd b1 7c c1 3c
       -0.079088226 0.03422114 -0.061683442 0.023619028
0003b0 67 cc 94 bd 27 cb 12 3d ad 9d 7f b9 45 3c ec bc
       -0.07265549 0.035838272 -0.00024377434 -0.028837333
0003c0 45 b2 2c bd d8 e2 d5 bd 4b f7 93 bd a7 be 1b 3d
       -0.0421622 -0.10443658 -0.07224902 0.038023617
0003d0 ab a2 08 bd bd 91 4b bd 2c 44 a1 bd 8d fb 98 bd
       -0.033358257 -0.049699534 -0.07874331 -0.074698545
0003e0 b4 25 4f 3b 7e 64 86 bc b6 98 10 3c 5e 59 a3 bd
       0.0031608166 -0.01640534 0.008825472 -0.0797603
0003f0 9d 2b 10 bd b9 d5 02 bd 20 05 80 bc 4d 6e 52 bd
       -0.035197843 -0.031942103 -0.015627444 -0.051374722
