src/nets/exp_graph_obs_4_agents300.pth (torch_old, 356653 bytes, 11 tensors)

fc1_val.weight f4 [256, 43]
000000 7a 4a 08 3e b0 4e c7 bd 03 0a 31 bd 85 83 a2 3d
       0.1330966 -0.09731805 -0.04322244 0.079352416
000010 84 68 61 3d 09 2f 58 3d cb eb 05 3c dc 6e 96 bd
       0.055031314 0.05277923 0.008173893 -0.073453635
000020 38 bf 8e 3d 02 cc ce bd f2 bc 1d 3e e6 6b 0e 3e
       0.06970066 -0.10097505 0.15404108 0.13908347
000030 a5 2d 91 3d 78 fe 9c 3d 8e 75 b8 bd 3d 5c b3 bd
       0.07088784 0.076657236 -0.09006797 -0.087578274
000040 12 bd 28 3d 4d e6 5f bd 4a 1d f3 3d 27 fc 23 be
       0.041195937 -0.05466299 0.11870821 -0.16014157
000050 20 ef 7e bd e5 9e 19 be 13 97 55 bd 28 b5 0b be
       -0.062239766 -0.1500202 -0.05214603 -0.13643324
000060 9c 83 f2 3d 55 5c 39 bd 2e 7d 99 bd cd dd 7c 3c
       0.11841509 -0.04525407 -0.07494579 0.015433741
000070 22 f0 1b be e6 06 7b 3d fb b9 d8 bc d7 8d 0f be
       -0.15228322 0.061285876 -0.02645587 -0.14018951
000080 01 23 b7 bc 37 d2 a6 3c d9 fc a3 bd 54 58 11 3e
       -0.022355558 0.02036391 -0.08007211 0.14193851
000090 3b 9f 94 3d 86 14 be 3d 91 b4 43 bd b8 fb b8 3c
       0.07256933 0.09281258 -0.047779623 0.022580966
0000a0 cf 4b 58 3d d8 e7 6f bd 05 19 48 3d 82 e1 87 3d
       0.05280667 -0.058570713 0.048851985 0.06634809
0000b0 b9 79 d2 bb 0f 20 ee bc 8b 80 06 bd e1 8c 10 be
       -0.006423202 -0.029068021 -0.032837432 -0.14116241
0000c0 b8 9a 06 be 40 6d 44 bc 42 61 20 be 83 7c f6 bd
       -0.13144958 -0.011988938 -0.15662101 -0.120354675
0000d0 6b a3 3f 39 46 c3 8e bd bc f8 8e bc 1b 65 d2 3c
       0.00018276057 -0.06970839 -0.01745259 0.025682976
0000e0 0a 39 7d bd 88 67 dd 3d 49 2e 8c ba 92 14 16 bd
       -0.061821975 0.10810763 -0.0010694946 -0.03664071
0000f0 fe 8f a5 bd 95 57 16 3d 0a 1f 6f bc f5 c4 c5 3b
       -0.08084105 0.03670462 -0.014594803 0.006035442
000100 79 b1 70 3d 2b 64 f3 bc 3a bc 3a be 15 3a ff bd
       0.058763 -0.02971085 -0.18235865 -0.1246225
000110 03 d2 41 3d b5 97 df 3d c0 ce 0a bb 2c 5f 2c bd
       0.047319423 0.10917608 -0.0021180362 -0.04208295
000120 38 d3 70 3d e1 99 ec 3d 5c 16 6b bd 48 66 de 3d
       0.058795184 0.115527876 -0.05739437 0.10859352
000130 cf 33 fe 3c ea 23 4c bd da d2 e7 3d 0a 63 fa bd
       0.031030564 -0.049838938 0.113195136 -0.122259215
000140 46 2f 34 be 3c 12 12 be d5 27 7c 3c 74 28 24 be
       -0.17596158 -0.14264768 0.015390356 -0.16031057
000150 e5 79 27 be ac a4 0f 3e d1 63 64 bd 98 71 14 3d
       -0.16355093 0.14027661 -0.055759255 0.036241144
000160 55 b4 85 bd 6e 0d 05 3d b2 58 9c bd 63 72 a8 3d
       -0.06528536 0.03248351 -0.07634105 0.082249425
000170 d0 86 23 3d de 63 f1 3d c8 90 24 bd 0c 2a a8 3d
       0.03992349 0.11786626 -0.040177137 0.08211145
000180 76 d3 4f 3c 9c a4 21 bd 49 64 c2 b9 92 ef 0f 3e
       0.012684694 -0.039463624 -0.00037077282 0.14056233
000190 cb 94 a0 3d 09 18 0e be e0 26 ae bc 82 80 53 bd
       0.0784088 -0.13876356 -0.021258771 -0.051636226
0001a0 89 bd f7 3c 8e 76 05 be f1 f2 0c bd 28 b6 76 3d
       0.030241745 -0.13033506 -0.034411374 0.06023231
0001b0 56 a3 cc 3d aa ae 9d bc 46 8b 11 3e e4 18 62 ba
       0.09992091 -0.019248325 0.14213285 -0.0008624925
0001c0 f4 e9 07 3e 6c 85 08 3d 0d b3 e6 3d 3c b7 55 bd
       0.1327284 0.033330366 0.1126462 -0.0521767
0001d0 20 a6 bb 3d 8d ef c0 3d 95 ec 43 bb 70 9d 04 be
       0.09162545 0.09420691 -0.0029895653 -0.12950683
0001e0 2e fe e7 bd 87 6f 58 bc ff 32 6e bd 17 1e 9f 3d
       -0.11327778 -0.013210184 -0.058154102 0.07769411
0001f0 1e 83 e5 3d 10 dc f4 3d 7a af 08 3e 90 0f 9a 3d
       0.11206649 0.11956036 0.13348189 0.075224996
000200 5d 9d 33 3e f6 7a 00 be 49 29 92 bd 8a 3e 07 be
       0.17540498 -0.12546906 -0.07136781 -0.1320745
000210 07 ea e8 bc 26 05 31 3d de c8 ea 3c 24 e5 c6 bd
       -0.028431905 0.0432178 0.028660234 -0.09711674
000220 8f d4 d8 3c 35 4e 05 bc 47 0c 75 bd f0 25 e7 bc
       0.026468543 -0.008136322 -0.05982616 -0.028216332
000230 ba e5 f6 3d 80 70 ab 3d f6 6d 19 3e 81 1b 21 3c
       0.120555356 0.08371067 0.14983353 0.009833218
000240 5c e0 93 3d 95 e2 a6 3b b5 de 05 3c 24 db 4a 3a
       0.072205275 0.0050929287 0.008170773 0.0007738343
000250 1b 3f 95 bd fe e9 a8 3d de 89 19 bd c2 e9 96 3d
       -0.07287427 0.082477555 -0.037484996 0.073688045
000260 4d 36 9e 3c 85 a8 29 bd 6e 70 93 3d 55 46 22 3e
       0.019313002 -0.04142048 0.07199179 0.15847142
000270 3b ae ed 3b dd 3f f1 bd 08 7b 81 bd a1 57 ab bc
       0.007253436 -0.11779759 -0.063222945 -0.020915808
000280 70 95 13 3e bd 5e a7 3c 47 bc 83 bb e8 14 60 bd
       0.14412475 0.020430917 -0.004020247 -0.054707438
000290 01 e9 dd 3c 97 07 4d be 1a aa 36 be 47 8a 0d be
       0.027088644 -0.20022427 -0.17838326 -0.1382228
0002a0 59 c9 21 be e7 8f 85 3d 2c 0a 51 3e 16 ce e0 bd
       -0.15799464 0.06521588 0.20414037 -0.10976808
0002b0 99 b0 16 3e e0 3e 0c 3e 1e 8c 05 3c 32 93 c1 bd
       0.14715804 0.1369586 0.008151082 -0.094519034
0002c0 0f b8 17 bc 9a 52 81 3d 60 f3 88 3c 1d 96 6d 3d
       -0.009260192 0.06314583 0.016717613 0.058004487
0002d0 56 81 de bd b6 22 cf bd 36 00 20 3d 9a b4 f9 3d
       -0.108645126 -0.101140425 0.0390627 0.1219265
0002e0 2d fc 0a be 72 2b ac bd 40 d5 0f 3e 1e f6 28 3d
       -0.1357276 -0.08406724 0.14046192 0.04125034
0002f0 df 59 03 3e 8b 58 fd bc a6 9f 1e bd 5f 4c 57 bd
       0.12827252 -0.03092601 -0.03872647 -0.052563068
000300 9b 81 31 3d 0c 1e 08 3e b6 2b 32 bd 16 8d 2e bd
       0.043336492 0.13292712 -0.043498717 -0.04261502
000310 ce b9 05 3d 73 d3 5f bd 48 ce 2f bd b2 ac 62 bc
       0.0326479 -0.054645013 -0.042921335 -0.013835119
000320 e5 5c 05 be 06 bf ba 3d df a3 c1 bd d9 9e 8b 3d
       -0.13023718 0.09118466 -0.09455084 0.06817407
000330 11 ba 0c 3e 25 83 fb 3d 61 e0 3e 3d f4 77 aa bd
       0.13742854 0.12280873 0.046600703 -0.083236605
000340 a1 d3 69 bc a4 7e c8 bd 4a fc b1 3d d2 5f ff 3d
       -0.014271648 -0.0978978 0.086906984 0.12469448
000350 cf 86 5b 3d 82 4c c1 3d d9 59 d8 3d 7f 66 98 3d
       0.05359536 0.09438421 0.10564012 0.074414246
000360 e8 bf 3a bc e5 63 70 3d 01 35 d3 bd aa 27 e8 3d
       -0.011398293 0.058689017 -0.10312844 0.1133569
000370 92 5e 05 be 9b 55 0c bc 43 d6 12 3e ce 97 1f be
       -0.13024357 -0.008565332 0.14339547 -0.15585253
000380 fc 95 02 3d cd a8 db 3d 38 62 02 3e e0 1c 38 bc
       0.031881317 0.107255556 0.1273278 -0.011237353
000390 3e 67 be 3d 51 ec d5 bd bf b8 9f 3d e3 49 7d bd
       0.09297036 -0.104454644 0.077989094 -0.061838042
0003a0 07 c3 40 bd 26 3f 75 bd 56 74 e6 3d 09 59 21 3b
       -0.047060993 -0.059874676 0.11252658 0.002461972
0003b0 32 36 c8 bd 3b a3 b8 bc fa 07 14 3d 34 c3 16 bd
       -0.09775962 -0.022538772 0.03614042 -0.036807254
0003c0 9c bb 4e bd e5 c1 13 be 13 76 ec 3d ad 85 15 3e
       -0.050471887 -0.14429434 0.11545958 0.14601775
0003d0 92 f8 15 be e2 c5 ff bd 7f cd d3 3c c8 50 00 3e
       -0.14645603 -0.12488915 0.025854824 0.12530816
0003e0 f4 1d ff 3d d9 69 c4 bd cc dc 49 3d c8 6e 63 3d
       0.12456885 -0.09590501 0.049282834 0.05552557
0003f0 b9 41 5e 3c 04 3d 9b bc 1f de 21 3e a6 5f b6 bc
       0.013565474 -0.018949993 0.15807389 -0.022262406

fc1_val.bias f4 [256]
000000 17 fb 65 bd 81 fd f6 bd ca 2f 24 be fe a3 56 bd
       -0.05614766 -0.12060071 -0.16033855 -0.05240249
000010 35 f6 8b 3d 1f 92 7d bd e4 e7 37 bd b7 59 0a 3e
       0.0683407 -0.06190693 -0.044898883 0.13510786
000020 2c 24 0f 3d 6a bd 10 3e cd b2 20 3e 3d 51 82 bd
       0.034946606 0.14134756 0.15693207 -0.06363151
000030 ad eb 5c 3c f7 e0 13 3d c5 23 14 bd 1a f8 bc 3d
       0.013483924 0.036103215 -0.036166925 0.09227009
000040 44 5b 01 be f3 2e ac 3d 08 e2 ee bd f7 db 5b bc
       -0.12632471 0.08407392 -0.11664206 -0.013419143
000050 2d a1 4d bd e3 fd 15 be be 73 70 3d 1b a0 06 3d
       -0.050202537 -0.14647631 0.05870413 0.032867532
000060 ca 66 14 bd b2 5e c4 bc 9e 35 a6 bd 53 08 7b bd
       -0.03623084 -0.023970935 -0.081156954 -0.061287235
000070 28 3a 8e bd 35 b7 dc 3c 05 e3 11 bd 60 72 1f bd
       -0.06944686 0.026942829 -0.035616893 -0.038927436
000080 7e 2e fe 3d f4 df c6 bd c9 bb 0a 3e f9 11 20 3d
       0.124112114 -0.097106844 0.13548197 0.03907964
000090 a2 c2 0b be e4 af ca bd 2e e3 89 3d 6a 95 07 3d
       -0.13648465 -0.0989683 0.06732784 0.033101477
0000a0 30 a5 4b bd 6c 76 a8 3d 65 ef fb 3b bb ee 05 bd
       -0.049718082 0.08225712 0.00768845 -0.032698374
0000b0 32 db 1a 3e 17 c8 5a 3c 23 d9 62 bd ad 5f dd bc
       0.15122679 0.013353369 -0.05538286 -0.02702316
0000c0 48 be 04 be ce ae 41 3d b5 82 fd 3d 1e c5 fa 3d
       -0.12963212 0.047285847 0.12378446 0.12244628
0000d0 79 ff 7d 3d 60 83 2e 3e 1b 21 50 3d d9 de 06 bd
       0.062011216 0.17042303 0.05081282 -0.032927368
0000e0 a5 fd 49 bd ab d0 f6 bd e7 48 04 3e dc 1c 8d 3d
       -0.04931416 -0.12051519 0.12918435 0.0689027
0000f0 61 dd 9d 3c e5 87 ad 3d 74 70 43 be 37 c7 34 3d
       0.0192706 0.084731854 -0.19085866 0.0441353
000100 a0 5c ff 3c 48 7d df bd bd b2 f4 3d eb 20 2d bd
       0.031172097 -0.109125674 0.11948154 -0.04226772
000110 86 d8 9f bd c1 ce 19 bd 23 fd c5 3d 56 c7 14 3e
       -0.078049704 -0.03755069 0.096674226 0.14529166
000120 e8 e3 ff bd 9f 9c 36 3e 13 84 09 3e 91 8d 0c 3c
       -0.124946415 0.17833184 0.13429289 0.008578674
000130 b4 8d 9e 3d 1e 06 0b be 87 58 15 3e 30 1e ab bd
       0.077418715 -0.13576552 0.14584552 -0.08355367
000140 34 9f bb 3d 9b fc 2b 3d 7e 14 fd 3d a9 88 39 be
       0.09161225 0.04198895 0.12357424 -0.18118538
000150 0a d8 0c 3e b4 02 a7 3d a1 dc 82 3d 7d d5 51 bd
       0.13754287 0.081548125 0.06389738 -0.05122899
000160 dd 5b fb bd 9d 30 27 3e c8 54 1b bc cf e8 5e 3e
       -0.12273381 0.16327138 -0.009480663 0.21768497
000170 01 0f 32 3e b7 77 90 3a 04 5f 23 3e 16 55 e4 bd
       0.17388536 0.0011022006 0.15954214 -0.11149041
000180 b2 4b 0d 3d 35 2a b0 bd f4 8d 13 3e e9 fe 8c 3d
       0.034496017 -0.086018 0.1440962 0.06884558
000190 bd fc 69 bd 4c 82 0d 3e ae e6 06 3e 5b 53 91 bc
       -0.057125796 0.13819236 0.13173935 -0.017739942
0001a0 0d 81 4f bc 52 0c ac 3d 25 83 ec bd e2 82 98 bd
       -0.012665045 0.084007874 -0.11548451 -0.07446839
0001b0 7d 36 5c bd ed 70 d5 bd 57 fe d2 bd d0 a0 cb 3d
       -0.0537629 -0.104219295 -0.10302418 0.09942782
0001c0 55 3e e5 3d 4c 2a 52 3d 85 8e 0f 3d c5 af af bc
       0.111935295 0.05130987 0.035048027 -0.021446118
0001d0 e1 8a 2d 3d 9e c6 16 be cc 27 2c be 34 14 08 3e
       0.042368773 -0.14724204 -0.16812056 0.13288957
0001e0 19 ad af bd 05 1e 1e 3e cd 0c 94 bd d6 6b 73 bd
       -0.08577938 0.15441139 -0.07229004 -0.059429012
0001f0 3a 10 a3 3c 1d 01 e9 3c 32 0e 75 bd be d3 13 3c
       0.019905198 0.028442914 -0.05982799 0.009022651
000200 8c 3c ef bd 51 71 4a bd 92 d7 c4 3d 60 24 c9 3d
       -0.1168147 -0.049424473 0.09611429 0.09821391
000210 d8 26 43 bd 8d d8 a9 bc 58 d3 79 bd 95 09 1a 3d
       -0.047644466 -0.020733142 -0.06099257 0.037606794
000220 66 00 24 3e 4d 41 e8 3d 3c ba 37 3e 63 83 3e 3c
       0.16015777 0.1134058 0.17942137 0.011628005
000230 09 00 ac bc 1a 56 ff 3d d4 b5 95 bd 5e 62 e4 3d
       -0.02099611 0.124675944 -0.073100716 0.111515746
000240 a3 30 c9 3d 9a b1 c2 bd 50 e8 b4 bd 1b 14 83 bd
       0.0982373 -0.09506531 -0.088333726 -0.06400319
000250 99 53 cd 3d f8 78 63 3d 3c 1f dd bd ac 9b e0 3d
       0.100257106 0.055535287 -0.10796973 0.10967192
000260 a5 5f 58 bd 4c cf 11 be be f3 89 3d 45 0b 05 3e
       -0.05282559 -0.14239234 0.06735943 0.1299258
000270 5a 61 40 3d 55 33 37 bd e0 ea 54 3c d2 11 4d 3d
       0.04696784 -0.04472669 0.012995452 0.050065823
000280 05 b5 bd 3d 37 74 8d bd 92 75 aa bc cd bd 0b 3e
       0.09263042 -0.06906932 -0.020808015 0.13646622
000290 be 81 4b bd 47 e5 93 3c c3 ff 16 be a7 82 cf 3d
       -0.04968428 0.018053664 -0.14746003 0.10132342
0002a0 cb 56 98 3d 18 1d 1b 3c 02 b9 98 bc 9d 8f a6 3d
       0.074384294 0.009467386 -0.018642906 0.08132861
0002b0 c2 e3 b9 bd 30 43 17 bd 7d 6d b3 bd 85 31 46 3d
       -0.090766445 -0.03692931 -0.087611176 0.04838707
0002c0 21 65 b6 bd 12 f5 20 bb 3b eb 29 3e ae ab 21 3e
       -0.089060076 -0.0024560136 0.1659364 0.15788147
0002d0 3f 15 4b bd ad 48 89 bd 71 69 98 3c 37 86 1e 3e
       -0.04958081 -0.06703315 0.018604966 0.15480886
0002e0 f3 70 61 3d f9 f8 26 3e df a1 1f 3e 0a b9 af 3d
       0.055039357 0.16305913 0.15589093 0.08580215
0002f0 4c cd 0d 3e 40 e9 92 bd f9 b4 27 3c 05 23 e1 bd
       0.13847846 -0.07173395 0.010236018 -0.109930076
000300 69 3f 7f bd 70 a8 1e 3e aa 1d 47 be b0 a0 05 3d
       -0.062316332 0.15493941 -0.1944491 0.032623947
000310 c6 58 00 3e 87 59 76 ba 9f 6a ca bd b5 eb 03 be
       0.12533864 -0.0009397496 -0.098836176 -0.12882884
000320 aa 59 b5 3d a2 51 ac 3c e4 7a bc bd e5 7d 98 bd
       0.08854993 0.02103502 -0.09203127 -0.074458875
000330 88 0e 73 3d 64 26 07 3e 87 3b af bd f0 7d aa bd
       0.05934003 0.13198239 -0.08556276 -0.08324802
000340 26 52 13 3e 53 b1 2f 3e ab 2d 34 be 63 f8 52 3d
       0.14386806 0.17157488 -0.17595546 0.05150641
000350 6d 88 c1 bd a6 14 70 3d ca d8 b4 bd 89 bc 36 be
       -0.09449849 0.058613442 -0.08830412 -0.17845358
000360 8a ba 9d bd 32 c5 cb bd 56 70 da 3d ba c3 bc bd
       -0.07701595 -0.099497214 0.10665958 -0.092170194
000370 22 5e bc bd d6 90 20 bd 29 da ec 3c b2 9d 92 bd
       -0.09197642 -0.039200626 0.02891262 -0.07158984
000380 33 b9 96 bd 67 f4 c3 3c 89 0c 9e bd 44 8f b9 bd
       -0.07359543 0.023920251 -0.07717235 -0.09060529
000390 08 c9 23 3e 7a 33 88 bc 48 f8 92 bd 34 16 c2 3d
       0.15994656 -0.016626108 -0.07176262 0.09476891
0003a0 33 f8 b0 bd b2 1a d4 bd 16 ed 00 3e 55 64 fd bc
       -0.0864109 -0.10356654 0.12590441 -0.030931631
0003b0 aa ab 2b bc 84 13 e2 bc f5 44 1a be b6 a3 9d bc
       -0.01047794 -0.027597196 -0.15065368 -0.019243103
0003c0 b9 f1 11 3e 28 1d 77 bd 61 13 b9 bc 82 be 13 3c
       0.14252366 -0.06033054 -0.022592248 0.009017589
0003d0 82 38 1d 3e 7b 47 89 bd a0 cb 00 be c9 8a 9a 3d
       0.15353587 -0.06703087 -0.12577677 0.075460024
0003e0 9d 0e 87 3d 52 16 90 bd 22 e9 0c 3e 1a 86 06 3e
       0.06594584 -0.07035507 0.13760808 0.13137093
0003f0 fd 41 d6 bd 83 6f be bd ea 0a 7e 3d 68 ef f1 bc
       -0.10461805 -0.09298613 0.062022127 -0.029533103

fc2_val.weight f4 [128, 256]
000000 dc e1 bd 3d d9 bb a2 bd 25 84 eb bb b5 37 73 bd
       0.09271595 -0.07945985 -0.0071873837 -0.0593793
000010 38 eb 01 bd a2 36 c3 ba fc a0 9e 3d b4 e8 38 3d
       -0.031718463 -0.0014893601 0.07745549 0.045143798
000020 a7 ed 8c bc f6 98 8a 3d cf 24 fb 3b f0 22 34 3d
       -0.017203165 0.06767456 0.0076643 0.04397863
000030 e8 ee 24 3d 08 0e 81 bd 64 0f c0 3c 75 75 09 3d
       0.0402669 -0.063015044 0.023444839 0.03355928
000040 57 9e 2e 3d 1a 0d c4 3c 8f 1a ff bd 2e 08 8f 3d
       0.042631473 0.023932029 -0.124562375 0.06983982
000050 e7 69 a4 bc c7 eb 95 3d b8 8b 14 3d e9 ac 88 3d
       -0.02007003 0.073203616 0.03626606 0.06673605
000060 98 7c 1c bd 10 79 92 3d 95 eb ea 3c 68 a1 0e 3d
       -0.03820476 0.07151997 0.028676787 0.034821898
000070 d9 54 fd bc f4 6a 8d 3d fa 80 fd 3c 2e a8 fe 3d
       -0.030924248 0.06905165 0.03094529 0.124344215
000080 a9 2c 3d bc 7f bc 78 bd d8 a8 e0 3b dd 8c 5f bb
       -0.011546292 -0.06072664 0.0068560652 -0.003411106
000090 3b 9f 2b be d5 21 26 3e 2c b9 28 bc 0e 9e d0 3d
       -0.1675996 0.16223843 -0.010298055 0.101863965
0000a0 68 63 51 3d 98 cc 8f 3d 65 31 d1 bc 2a b8 19 3d
       0.05112019 0.07021445 -0.025536248 0.03752915
0000b0 d4 8e 64 3d 57 dc 0d 3e d0 58 02 bd 29 06 f4 bc
       0.055800274 0.13853584 -0.03182298 -0.029788094
0000c0 4d 8d f6 3d 96 71 8c 3d 31 70 2a 3d eb 56 68 3c
       0.1203867 0.06857602 0.0416109 0.014180879
0000d0 d3 dc 7a 3d d8 27 2a bd a6 5c ca 3c 05 4c 82 3c
       0.06124575 -0.041541904 0.024702381 0.01590539
0000e0 28 c3 d7 3b f8 fb 3f bd ac 09 bb 3d 1c 2b 4b 3c
       0.0065845437 -0.046871156 0.09132704 0.012400415
0000f0 b3 cd e0 bc e9 3f 01 3d 49 b9 1d 3c c6 e4 a6 3c
       -0.027441835 0.03155509 0.009626695 0.02037276
000100 38 10 96 3d d2 00 09 3d 16 1d c3 bc ea 2c 85 bc
       0.07327312 0.033448048 -0.02381758 -0.016256768
000110 ea 0e 6b 3d 14 3b b2 3d 6a 07 c1 3c 8b 49 44 3d
       0.05738727 0.087026745 0.023563106 0.0479217
000120 3a 03 d3 bd 5a 53 b3 bc 45 a2 3a bd 6f 3d 4e 3d
       -0.1030335 -0.021890331 -0.04556491 0.050351556
000130 91 59 c0 3b de 7b 13 3d 2e be 44 3c bf 1c 13 3c
       0.005870052 0.0360068 0.012008233 0.008979022
000140 1d a1 90 3d e8 d0 75 3d 6f c0 76 3d b0 67 29 bd
       0.0706198 0.06001368 0.060242113 -0.04135865
000150 2d e9 90 3d 94 13 22 bc 93 99 21 bc 6e ee 9d 3d
       0.07075725 -0.009892363 -0.009863275 0.077114925
000160 4c b3 1e bc 83 f3 ac 3c 67 dc 8e bc 81 ff 1e bd
       -0.009686302 0.02111221 -0.01743908 -0.038817886
000170 93 f7 1f 3d 21 2c 36 3a 1e f1 70 3c 2c 60 47 3d
       0.039054465 0.0006949325 0.014705924 0.0486757
000180 0c a7 ec bd f6 92 2d 3d 1a 39 d1 3c 0f 05 5d 3c
       -0.11555299 0.04237648 0.025539923 0.013489976
000190 f2 4a 6e 3d 42 27 bb bc 52 9a 22 bc ed 86 8b 3d
       0.058176942 -0.022845868 -0.009924488 0.068128444
0001a0 0a bc 01 be 89 77 0a 3d 4b 51 b5 3c f7 c0 53 3d
       -0.12669387 0.033805404 0.02213349 0.051697697
0001b0 17 5e 9f 3d 2b 64 3a bc 55 eb dc 3c 5c 02 76 ba
       0.07781618 -0.011376421 0.026967684 -0.0009384507
0001c0 dc 1d 04 3e 37 d2 8d bd 05 ff eb bc 22 c6 3d 3d
       0.12902015 -0.06924861 -0.028808126 0.046331532
0001d0 ff 96 7d bb 0e 16 53 bd 56 a3 b6 ba 0c 2f f9 bc
       -0.0038694737 -0.051534705 -0.0013934176 -0.030417942
0001e0 b2 d4 ae 3d 6e 81 8b bd 5b d1 d8 3b 9b f3 23 3c
       0.08536662 -0.06811796 0.006616754 0.010006811
0001f0 72 e8 fb ba 9f 27 ac 3c b2 ee d6 3d 78 6f 23 3d
       -0.0019219054 0.021014987 0.10494746 0.039901227
000200 d5 75 89 3d 74 0d 5b 3d 44 5f 5d 3d 7b 21 09 3d
       0.06711928 0.053479627 0.05404593 0.033479195
000210 b6 ab 35 3d dc aa e3 3b ce c7 87 bd 74 6b 70 3d
       0.04435321 0.0069478583 -0.066299066 0.058696225
000220 6a 6c c4 3c dd 39 4f 3d 41 37 5f 3d 2b d7 72 39
       0.023977477 0.050592292 0.054496054 0.00023159075
000230 51 3b d9 3c 61 68 1c 3e 5a 3e 9f 3d 21 1b ae 3d
       0.026517542 0.15274192 0.077755645 0.08501268
000240 c8 aa 81 3d 7d 87 6c 3b 8f 62 45 bd 23 1c 91 3d
       0.06331402 0.00360915 -0.048189696 0.07085445
000250 82 3a f1 3c 0f 7f 97 ba 18 e3 32 3c 9c fd eb 3b
       0.029446844 -0.0011558252 0.010918401 0.0072018635
000260 57 fb 2f bd fc bc 05 3e 9e 8a b0 3b 1d 19 54 3d
       -0.042964306 0.13060373 0.005387618 0.051781762
000270 2d ca 24 bc 45 ed 8d 3b 02 90 bc bc 7e a0 62 3c
       -0.010057968 0.0043312632 -0.023017887 0.01383221
000280 91 f6 af 3c f2 a0 bc 3d 75 52 94 bd d0 5c 01 3c
       0.021479877 0.092103854 -0.0724229 0.007895663
000290 0f 83 1f 3d 2c fa 9f 3d 5e 4d 04 3e 02 2b 85 3d
       0.038943347 0.078113884 0.12920138 0.06502344
0002a0 4c 7a 92 3d 6d aa 62 3b 01 5c 0e be 13 16 07 3d
       0.071522325 0.0034586445 -0.13902284 0.032980036
0002b0 fb bb 71 3d cc df 52 3e 03 84 49 3d 07 00 57 3c
       0.059017163 0.20593184 0.04919816 0.013122565
0002c0 fd b1 72 3d 02 5b ef 3c a4 84 90 3d 1b 17 95 3b
       0.059251774 0.0292182 0.07056549 0.0045498735
0002d0 ab 77 c4 3c 50 c6 88 3d 4c 1a 40 bc 2f 7f 85 bc
       0.023982843 0.0667845 -0.01172502 -0.016295997
0002e0 06 f3 8e bc 86 74 97 3c d4 9c e7 3d 76 8d 44 3d
       -0.017449867 0.01848818 0.113092095 0.04798647
0002f0 24 c3 db 3b d7 49 c7 bc 06 0b a7 3d 82 87 49 3c
       0.006706612 -0.024327202 0.081563994 0.012300374
000300 fa 34 c4 3d 19 26 6d 3d b3 e6 99 bd cc f2 83 3b
       0.09580417 0.05789766 -0.075147055 0.0040267464
000310 76 79 a0 bb df ee e7 bb 26 b9 8c 3d a4 c3 ad bd
       -0.004897292 -0.007078036 0.06871252 -0.08484581
000320 58 b6 f8 3d 99 5e 89 3d a6 e0 e4 3d 3d f6 b3 3d
       0.12144154 0.06707496 0.11175661 0.087872006
000330 22 02 88 3d 83 fa 3a 3d f0 e3 2b 3d c9 ef df bc
       0.06641032 0.045649063 0.041965425 -0.027336018
000340 4a b7 27 bd fa 14 9a 3d 78 ba 2d bb 23 94 95 3d
       -0.040946282 0.07523532 -0.002650885 0.073036455
000350 7f 6a 98 39 62 d9 60 3d 7b 12 b8 3d 43 95 a0 bc
       0.00029071045 0.054894812 0.089879 -0.019602424
000360 4b 77 d0 3d a9 6a 05 be 5f f4 37 3e ab 07 d5 3d
       0.10179003 -0.13028969 0.17964314 0.10401853
000370 4c d5 e8 bd 90 22 1f bd 81 2b 3d 3c ac 84 31 3d
       -0.11368808 -0.03885132 0.011546017 0.043339416
000380 6a b5 7b 3d f9 10 4f ba c8 23 e0 3d 22 a7 e5 bd
       0.061452307 -0.00078989525 0.10944325 -0.11213519
000390 56 e4 74 3c 23 b6 a1 3d 48 6b 18 3d 93 09 59 bc
       0.014947018 0.07896068 0.037211686 -0.013246912
0003a0 66 7d 96 3d 16 6b a8 3d 40 a7 4d 3d 79 dc ab bd
       0.073481366 0.0822355 0.05020833 -0.08391661
0003b0 d2 15 ec bc 75 80 c0 3d 84 b8 de bc 3b 05 21 3e
       -0.028818998 0.09399501 -0.027187593 0.15724652
0003c0 e1 a7 77 3d db 48 f8 3d ed 74 24 bd 18 6e fd 3d
       0.060462836 0.12123271 -0.04015057 0.12374514
0003d0 10 ec 89 bc 33 aa b1 bc d9 d6 8a 3c c7 3c 9d 3d
       -0.016836196 -0.021687603 0.01694815 0.07677608
0003e0 db 1a 28 bc 6c b7 04 3d 4e 1a 45 3d b5 71 95 3d
       -0.010260309 0.032401487 0.04812079 0.072970785
0003f0 a9 2e 00 be da 8a c1 3b bf 83 1a bd 15 0d 90 3c
       -0.125178 0.005906445 -0.0377233 0.017584363

fc2_val.bias f4 [128]
000000 88 3b 11 bb db d3 98 bd 47 ca 65 bd 55 df 96 3c
       -0.0022160728 -0.07462283 -0.05610111 0.01841704
000010 ca 5f 56 3d 2d c5 1a 3d 11 55 1d 3d fd 05 07 bd
       0.052337445 0.037785698 0.038411204 -0.032964695
000020 90 5b 51 3d 21 0a 52 bd 3c e0 24 bd 92 9a 78 3d
       0.05111271 -0.05127919 -0.04025291 0.060694285
000030 ab 9b 11 3d 83 1f b8 bc 2a 6e 8b 3d dd 78 83 bc
       0.035548847 -0.022475963 0.068081215 -0.016048843
000040 3b c6 8a 3d 32 39 43 3d eb 52 d6 3c 73 2d 0d 3c
       0.06776091 0.047661968 0.026162585 0.008616793
000050 c9 e3 9e bd 59 98 84 3b 76 25 97 3c 8e 95 71 bd
       -0.0775829 0.0040464816 0.01845048 -0.058980517
000060 cf 87 65 3d 78 4a 5f bd 83 db a8 3c 3a 38 1c 3c
       0.05603772 -0.05451438 0.020612484 0.00953489
000070 07 92 c8 bd 48 a6 41 3d 03 f4 07 3d fd 16 c7 bc
       -0.097934775 0.04727772 0.033191692 -0.024302954
000080 f4 24 22 3c ee e4 df bc b2 83 09 bb c4 4b 2a 3c
       0.009896506 -0.027330842 -0.0020983038 0.0103940405
000090 23 56 4f 3d b9 ab 47 bd 24 7b f0 bc e6 95 b2 3c
       0.050619256 -0.04874775 -0.029355593 0.021799993
0000a0 0f 61 ea bc f7 b3 70 bc 1f 49 9f 3c 60 73 a0 bb
       -0.028610734 -0.014691344 0.019444047 -0.0048965663
0000b0 0f 52 90 bd d2 6b 40 bd 60 7a 47 bb 86 1f 07 3d
       -0.070469014 -0.046977825 -0.0030437931 0.032989047
0000c0 57 24 e4 bb 94 28 61 bd 71 d6 15 bd a6 51 86 3d
       -0.00696234 -0.05497034 -0.03658146 0.06558542
0000d0 44 e1 c7 bc b3 1e 24 3d b7 7b 20 3c ae 26 97 3c
       -0.024399407 0.04006834 0.009795121 0.018451061
0000e0 09 8a 20 3d cb b5 49 3d 0a d4 88 bd 47 57 96 bc
       0.03919414 0.049245637 -0.06681068 -0.018352164
0000f0 d1 b5 40 3d 6d d9 07 bd 1d da d7 bc 45 ee 5c bd
       0.047048394 -0.033166338 -0.026349122 -0.05393817
000100 d9 df 24 bd bd 6b 5f 3d 7e be fb 3c bc a5 c4 3a
       -0.04025254 0.054546107 0.030730482 0.0015003006
000110 72 5f fa 3c 9d 9a 99 3d 8c b8 8b bd 7f 93 8d bb
       0.03056309 0.07500193 -0.06822309 -0.0043205614
000120 70 a8 fb 3b 1a 65 11 3d 0f be 80 bc c5 d0 fe 3c
       0.0076799914 0.03549681 -0.015715627 0.031105408
000130 e4 d3 aa bc d6 dd 07 bd 17 b2 5f ba a8 8c bc bd
       -0.02085299 -0.033170544 -0.00085333124 -0.092065156
000140 36 7d 08 3d cd d4 4a bd 62 a2 88 3d 5c 4e aa bb
       0.033322535 -0.04951935 0.06671597 -0.0051973294
000150 28 80 9d 3d a2 79 ac bd eb cf 21 3c c7 0d 3e 3d
       0.076904595 -0.08421637 0.009876232 0.046399858
000160 f1 93 81 3d 0a f4 bb 3c 9c 39 eb bc e5 d4 ae 3c
       0.06327046 0.022943515 -0.028713994 0.02134175
000170 4f 6c 88 bd 16 4a 51 bd 3d f6 c4 bc 41 37 fa 3b
       -0.06661283 -0.051096044 -0.024043197 0.0076359813
000180 c3 35 6e bc de 07 ed 3c f4 65 30 bd 2f 94 e5 bc
       -0.014539185 0.028934415 -0.04306598 -0.028024761
000190 b9 37 fa bc 1c fd 96 3b 2c 5b 49 bd 84 cf 5b bc
       -0.030544149 0.0046078097 -0.049159214 -0.013416175
0001a0 0a 80 1c 3b 24 67 5b 3d 41 05 d6 3c e3 2a 90 38
       0.0023880028 0.05356516 0.026125552 6.874443e-05
0001b0 bb 2f a4 bd 1e 8a 8d 3c 6a 18 50 3d 4f 29 aa 3d
       -0.08016916 0.017277773 0.050804533 0.0830866
0001c0 4b 52 53 3d f7 c5 04 bd bd 78 d2 3c c0 94 db bc
       0.051592153 -0.032415356 0.025692338 -0.026804328
0001d0 f4 b3 b5 bc e4 1e 7f bb 4e ce a1 bb ee 2b ab 3c
       -0.022180535 -0.0038928324 -0.0049379235 0.02089497
0001e0 44 b6 2a bd dc d7 c1 bd e2 89 71 bc f6 90 7d 3d
       -0.04167773 -0.09465 -0.0147423465 0.061905824
0001f0 9f cb 9d 3d 42 76 74 bc fa 58 3a 3d c6 2d 41 3c
       0.07704853 -0.014920773 0.04549501 0.011790698

fc3_val.weight f4 [1, 128]
000000 f6 11 f0 bd ef b1 82 3e c9 b9 75 3e 78 31 45 3e
       -0.11722176 0.25526378 0.23996653 0.19257152
000010 ba 4a 11 3e 1c 8f b3 bd d6 0d e7 bd 46 da 64 3e
       0.14188662 -0.0876753 -0.11281936 0.2234889
000020 ed 71 a2 bd 96 b7 33 3e fc f0 c4 3d 21 eb 9b bd
       -0.07931886 0.17550501 0.096162766 -0.07613207
000030 ec bd 87 3d 98 49 af bd c7 68 5d bd 94 88 b1 bd
       0.066280216 -0.08558959 -0.054055 -0.08668628
000040 a9 c2 4a 3e 9d 87 d3 bd 2e 75 3a 3e 94 82 60 bd
       0.1980082 -0.103286006 0.18208763 -0.05481203
000050 77 a8 89 3e 7d 37 1a be b3 49 79 bd 27 94 3b 3e
       0.2688634 -0.1506023 -0.0608613 0.18318234
000060 e7 d2 b7 bd 47 6c 26 3e 11 92 85 bd f8 34 8f 3d
       -0.08975773 0.16252242 -0.065220006 0.06992525
000070 90 1c 43 3e 20 90 a0 3d 81 5b d3 bd 96 53 e5 3c
       0.19053864 0.0783999 -0.10320187 0.027993958
000080 9f 66 11 3e 40 ab b8 bd 45 f1 12 3e 65 0a 3c 3e
       0.14199303 -0.09017038 0.1434985 0.1836334
000090 33 dd 05 be 13 a4 96 3d 71 1a 04 be 79 91 00 3e
       -0.13072662 0.073555134 -0.12900712 0.12555493
0000a0 59 55 0d 3d c4 4c 54 3e 73 1f 8f bd 32 ac 76 3d
       0.034505222 0.20732409 -0.0698842 0.060222812
0000b0 f3 81 6a be 3c 47 4e be b9 a9 ed bd 54 40 75 3d
       -0.22901134 -0.20144361 -0.11604638 0.0598758
0000c0 59 78 9d bd b5 70 58 3e 53 ed 16 3e 5d 93 80 3e
       -0.0768897 0.21136744 0.1473897 0.2511243
0000d0 53 6f 89 be 29 e9 0e 3e b0 33 76 3d 14 d8 06 3e
       -0.26842746 0.13956131 0.060107887 0.13168365
0000e0 0f 9c 07 be ff 10 00 be 71 49 50 3e 05 0b c8 bd
       -0.13243125 -0.12506483 0.20340516 -0.09767727
0000f0 5e c7 00 3e 34 c6 89 bd 84 77 83 bd af 9b 12 be
       0.12576053 -0.06727257 -0.0641928 -0.14317201
000100 28 a2 42 3e e1 df f5 bd c4 a4 bc bd 07 57 da bd
       0.1900717 -0.12005592 -0.09211114 -0.106611304
000110 11 fd 7f bd d9 53 00 be 26 f1 33 3e c0 fc 21 3e
       -0.062497202 -0.12531985 0.1757246 0.15819073
000120 bf b7 23 be 56 a9 19 3e 7e df 45 3e 04 cc 22 3e
       -0.15988062 0.15006003 0.19323537 0.15898138
000130 39 e9 a2 3d 41 a3 f7 bd ce b6 a1 bd e3 42 5a 3e
       0.0795464 -0.12091685 -0.07896195 0.21314578
000140 75 e2 52 bd d0 1a 13 3e eb 72 f1 bd e5 92 30 3e
       -0.051485498 0.14365697 -0.11789497 0.17243536
000150 70 a1 ae bd 0f b7 83 3e 4a 89 b1 3d f8 76 06 3e
       -0.085268855 0.257256 0.08668764 0.1313132
000160 ae e2 00 be 21 73 23 3e 87 67 81 3e 9b 19 02 3e
       -0.12586471 0.15961887 0.25274298 0.1270508
000170 78 09 3c 3e f1 a5 1d 3e 2f 73 15 be 66 93 ed bd
       0.18362987 0.15395333 -0.1459472 -0.1160038
000180 51 42 21 be 13 ab c0 bd f9 4b 23 3e 7f 55 85 bd
       -0.15747954 -0.0940763 0.1594695 -0.06510448
000190 ec 70 d1 3d 79 1f 7c 3d 14 67 2b 3e 33 70 0a be
       0.10226616 0.061553452 0.1673854 -0.13519363
0001a0 1a a5 23 3e b3 10 d6 3d 97 36 30 3e 62 86 22 3e
       0.1598095 0.10452404 0.17208324 0.15871575
0001b0 e1 f5 36 3e 7e 99 0a be c1 da c6 3d 73 97 37 3e
       0.17867233 -0.13535115 0.09709693 0.17928867
0001c0 d9 c3 36 3e d0 f1 14 be 7c 77 0e 3e 97 08 eb bc
       0.17848147 -0.14545369 0.13912767 -0.02869062
0001d0 5f 01 b5 be 3f 90 a4 bd bd e5 5d 3e a1 ba d8 bd
       -0.3535261 -0.08035325 0.2166967 -0.10582472
0001e0 49 05 06 3e c1 69 4a 3e 54 af 4a be 1f 3f 41 3e
       0.13087954 0.19766904 -0.19793445 0.18871735
0001f0 03 6f 4f bd 95 9a b2 3d 7c 92 86 3d 3e 32 7a bd
       -0.05064298 0.087208904 0.065709084 -0.06108307

fc1_adv.weight f4 [256, 43]
000000 17 dc 09 be ca 2e 12 bc bd 63 09 3e e8 62 ce 3d
       -0.13462864 -0.008922288 0.13416953 0.100774586
000010 e7 01 06 3e 90 52 5a 3d 06 dd c1 3d b8 5a 06 be
       0.13086663 0.053301394 0.09465985 -0.13120544
000020 3e 0d c8 3d 5a 18 d8 bd ad 30 1c be 5c 6e 7a bd
       0.09768151 -0.1055152 -0.15252943 -0.061140403
000030 aa 6f 02 bc b8 3e 02 3e 6c 74 e9 3d 32 f7 89 bc
       -0.007961193 0.12719238 0.11399159 -0.016841505
000040 7d 7e ef bd 9c bf 07 bd 5e e7 05 3e 6c b1 cb bd
       -0.116940476 -0.033141717 0.13076541 -0.0994595
000050 fa b3 ec bd 77 8f ed 3c ae 35 ee 3c 75 7a ee 3d
       -0.11557765 0.028999073 0.02907833 0.116444506
000060 8e 6b 0b be 10 f1 c0 bd 08 ad bb 3d be 4f d1 3b
       -0.13615248 -0.09420979 0.091638625 0.00638768
000070 c8 66 61 bc 6a 26 51 bd 97 af 63 bd e7 84 0c bd
       -0.013757415 -0.051062025 -0.055587377 -0.034306433
000080 7d cc b7 3d 86 dc b1 3d 42 81 8e bd 2a 6a 01 3e
       0.0897455 0.0868464 -0.06958248 0.12638155
000090 20 b1 ab bd a8 c7 0c be 1f df 9d bd ae a6 b9 3d
       -0.08383393 -0.13748038 -0.077085726 0.09064995
0000a0 6b 4b 34 3e 83 e3 28 be de 1a e1 3d 8c a6 a4 bd
       0.17606895 -0.16493039 0.10991453 -0.08039579
0000b0 8b 9e 16 be d6 ad b5 bd 7a de 92 bc 1c dd a7 bd
       -0.14708917 -0.08871047 -0.01792835 -0.0819647
0000c0 a9 04 76 3d 1f 31 70 bc ad ec f5 3d a1 25 0e 3e
       0.060063038 -0.014660149 0.12008033 0.13881542
0000d0 54 9a 1f be 4d dd a9 bd fc 07 07 be 5a 38 32 3c
       -0.15586215 -0.08294163 -0.1318664 0.010877693
0000e0 75 c7 18 ba fa 6f 96 3c 58 6a cd 3d d1 40 a1 3d
       -0.0005828061 0.018363941 0.10030049 0.07873691
0000f0 0e ee f6 3d 3b fa fc 3d b4 83 cd bd c4 5a 62 bc
       0.12057124 0.12352415 -0.10034886 -0.0138155855
000100 03 cf cc bd c5 4d 94 bd 6b b6 06 be 2f c3 b1 3d
       -0.10000422 -0.07241396 -0.13155524 0.086798064
000110 05 2b 01 bd ef e2 00 be 98 4a 90 bd 29 0b 0f 3e
       -0.031535167 -0.12586568 -0.07045478 0.13969101
000120 35 c1 58 3d c2 5b ab bd 07 76 d4 3d 97 b8 cd 3d
       0.05291863 -0.08367111 0.103740744 0.10044973
000130 63 1f 30 3d 7a 7b 02 3e 55 83 d9 bd 40 ae 26 be
       0.042998683 0.12742415 -0.10620753 -0.16277409
000140 ff 33 f8 3d 5f e6 73 3d c7 f4 28 bd 6f 52 27 be
       0.121192925 0.05954587 -0.041249063 -0.1634004
000150 96 11 4d be d5 d0 1f 3e 53 e4 ac 3d fd 42 4f bd
       -0.2002624 0.15607007 0.08441987 -0.050600994
000160 93 c0 ea 3a 78 51 14 3d 56 16 bf 3c 01 b9 17 3e
       0.0017910175 0.036210507 0.02332608 0.14816667
000170 e5 33 ff 3d e5 e3 3a 3c b9 f8 ee bd 54 7b ff bd
       0.1246107 0.011406873 -0.11668534 -0.12474695
000180 89 2e 7d 3d c9 80 96 3c fa 39 eb bd 88 58 3c 3d
       0.061811958 0.018371956 -0.114856675 0.045982867
000190 9a 50 e0 bc bb e9 f1 3d ff e7 a5 bd 1d 27 08 be
       -0.027382184 0.11812159 -0.0810089 -0.1329617
0001a0 18 6b 06 be 4d fd ef 3d 75 40 b1 bc 11 c8 30 bd
       -0.1312679 0.11718235 -0.02163718 -0.04315955
0001b0 cd 42 36 bc ca 40 8f 3d a8 f9 0b be 46 96 a2 3c
       -0.011124325 0.069947794 -0.13669455 0.019847047
0001c0 20 c4 bc bd c2 a4 80 3d 3e 04 99 bd 90 81 1c 3e
       -0.092170954 0.06281425 -0.07471512 0.15283799
0001d0 84 88 07 3e fa da 12 3e b9 0e 46 bd 12 f3 00 be
       0.1323567 0.14341345 -0.048353884 -0.12592724
0001e0 ff 92 9b bc ae 11 09 3e 1c c9 81 3c 63 45 1d 3e
       -0.018990992 0.1338565 0.015842967 0.153585
0001f0 f5 6f c6 bd 29 28 02 be 91 21 95 3d 55 d2 70 bd
       -0.09689323 -0.12710632 0.07281793 -0.05879434
000200 49 11 8e 3c 72 5c 9a 3c 37 89 e8 3d 67 65 96 3d
       0.017342227 0.01884291 0.11354297 0.0734356
000210 2e ca d3 3d c9 49 e8 3d b6 6c aa bd 60 b0 ea 3d
       0.10341297 0.113421984 -0.08321516 0.11459422
000220 ea 51 01 bc 50 7b b6 bd cf 5c c6 3d c8 0a eb 3d
       -0.007893065 -0.08910239 0.096856706 0.11476666
000230 47 de ea 3d e1 d7 9b bd 97 f1 67 3d 2c b8 02 3a
       0.11468177 -0.07609535 0.056626882 0.000498655
000240 f0 5d d3 bc 55 4e 35 be 4a 8a 05 be 39 74 e9 3c
       -0.025801629 -0.17705663 -0.13041034 0.028497802
000250 43 46 14 3d 35 da ee 3b f3 79 73 bc 6f ef f9 bd
       0.03619982 0.007289196 -0.014860618 -0.122038715
000260 a1 78 d7 bc 09 7d 0c 3d 27 2d be 3a 7a 8c b1 3d
       -0.026302638 0.03429893 0.0014509306 0.08669372
000270 1a d7 ad 3c 14 8d 8c 3c 56 5f 56 bd 33 db e2 bd
       0.021220732 0.017157115 -0.052337013 -0.11076965
000280 2e a7 9a 3a 80 78 88 bb e0 99 ad bd 21 ac 5e 3d
       0.0011799091 -0.0041647553 -0.08476615 0.054363374
000290 51 c9 96 3d ed 9a a3 3c 34 c3 8a 3d d1 2a bd 3c
       0.07362617 0.019971335 0.06775513 0.023091706
0002a0 f3 2c 9c bd e2 8f bf 3c 8f 84 91 3d c5 fc aa 3d
       -0.07625761 0.023384038 0.07105362 0.08348993
0002b0 62 32 1e 3c 6f e2 7e bd b4 42 ec bd bc 7c 1c bd
       0.009655567 -0.062227663 -0.1153616 -0.038204893
0002c0 e2 4a df bd 2a f7 02 3c de b7 14 3e e2 83 0b 3e
       -0.10902955 0.007993499 0.14523265 0.13624528
0002d0 13 bf 0a 3e 59 5a 5a bd 5e fa 77 3c 13 95 7b bd
       0.13549452 -0.05330882 0.015135376 -0.061421465
0002e0 84 0d c1 bd 29 9e 16 be b5 9f 1b bd 7b eb d6 3d
       -0.09426406 -0.14708771 -0.037994105 0.10494133
0002f0 4c 6e fb 3d df fc 65 bd 5f 05 ec 3d f0 4a 1f ba
       0.12276897 -0.05614936 0.11524462 -0.0006076535
000300 e6 14 8a 3d 92 2f c4 bd 6a 4f b3 3d 32 43 d6 3d
       0.06742267 -0.09579386 0.087553814 0.10462035
000310 81 b8 f5 bd 3a a9 cb bd a3 80 a6 bd 0b 9f 21 bd
       -0.11998082 -0.09944387 -0.08130004 -0.039458316
000320 c0 8b 8a 3d 25 73 e7 bc cc 7a 10 3e bd c9 b7 3c
       0.067649364 -0.028253147 0.14109343 0.022435063
000330 ec 07 7d bd 71 c6 42 3d 65 b5 3b 3d 89 ca fa bd
       -0.061775133 0.04755253 0.04582729 -0.12245662
000340 b1 c0 9e 3d a0 62 4c 3d d5 08 b3 bd 6c 98 09 3e
       0.07751597 0.049898744 -0.08741919 0.1343705
000350 14 e7 73 3d 56 3f 72 3d 64 88 a3 bd 33 16 06 3e
       0.059546545 0.059142433 -0.07984999 0.13094406
000360 31 ed 5d 3d 26 2c d5 3d 8f 52 72 bd 65 32 0c bd
       0.05418128 0.10408811 -0.059160765 -0.034227747
000370 b5 34 bc bd 55 36 ec bb 51 67 82 bd 06 0c f6 3d
       -0.091897406 -0.0072086253 -0.06367362 0.12014012
000380 5b 12 b4 3d fa 7c af bd 8e 20 0f bd 69 58 b8 bd
       0.087925635 -0.08568759 -0.034943156 -0.09001238
000390 5f 69 63 bd aa 4c 27 3c 95 29 d2 3d 7f da 8e bd
       -0.05552041 0.010211149 0.102618374 -0.069752686
0003a0 74 a7 f2 bd 6b 81 a6 3d 11 7a 91 3d 19 56 09 be
       -0.118483454 0.08130153 0.071033604 -0.1341175
0003b0 c8 16 97 3c 4d 9f 3f 3d 71 44 09 3e fa ec 02 be
       0.01844348 0.04678278 0.13405015 -0.12785712
0003c0 4b 49 5c 3d f7 3b 58 bd bc 62 22 3e 4a e0 c8 3d
       0.053780835 -0.052791562 0.15857977 0.09808405
0003d0 3a 33 c0 3c c5 e1 43 3d be fa c2 3d 64 bc c8 3d
       0.023461927 0.047822732 0.095204815 0.09801558
0003e0 a0 5c 0d be 51 5b da 3b 67 db 2c bd da b7 8e bd
       -0.13804865 0.006663718 -0.042201426 -0.06968661
0003f0 94 0f 00 3e a9 c5 15 3d be 7f f6 3c 5a 34 32 be
       0.12505943 0.036565457 0.03009021 -0.17402783

fc1_adv.bias f4 [256]
000000 b4 9d 39 3c d3 d3 70 3d 9f 93 b7 bd 42 2c e3 3c
       0.011329103 0.05879576 -0.08963703 0.027731065
000010 6f f8 cd 3d 4e 67 1d be ba 2a b9 3d 80 ae c9 bd
       0.100571506 -0.15371439 0.090413526 -0.09847736
000020 63 4a 3d 3e ee b1 ed 3d 96 9f 75 bd e7 d8 6e bc
       0.18485408 0.11606203 -0.059966646 -0.014578081
000030 b7 ba cd 3d 3f ab 7e bd 5e df 6a 3d fc 87 a6 bd
       0.10045379 -0.06217503 0.057341926 -0.08131406
000040 ba 26 b5 3d 2e 47 49 bd cc 2c d5 3d f9 82 85 bd
       0.08845277 -0.049140148 0.10408935 -0.06519122
000050 20 de ba bd 5d a5 95 bc 99 fd 03 be d5 bb dd 3d
       -0.09124398 -0.018267328 -0.12889709 0.10826842
000060 c6 fa 1a be 12 66 b5 bd fa 1f 5d 3d d1 37 d8 bd
       -0.15134725 -0.08857359 0.053985573 -0.10557521
000070 65 93 00 3c 12 54 04 be dd e7 e5 bd 91 e9 c6 3c
       0.007847642 -0.12922695 -0.11225865 0.024281295
000080 be 7f 77 bb f3 3e 11 be 0c be 76 bd 06 28 b1 3d
       -0.003776535 -0.1418417 -0.060239837 0.08650212
000090 b1 50 5f bd b3 73 d2 3d 8f bf 5c 3d c3 2b 56 bc
       -0.054520313 0.10275974 0.053893622 -0.013071957
0000a0 5e 1c dc 3c ca f8 52 3e 34 a5 3a 3d 0a 19 57 bd
       0.026868995 0.20602718 0.045567706 -0.052514113
0000b0 df ef 39 bd 34 68 96 bd 36 72 dd 3d ab de 0a be
       -0.045394775 -0.07344094 0.108128 -0.13561504
0000c0 7a a0 f2 bd b5 f9 80 3d 3e 46 bd bd f5 54 05 be
       -0.11847015 0.06297628 -0.09241913 -0.1302069
0000d0 5d 9b 4c 3d 77 68 74 3d 89 76 3f 3d 11 a3 96 3d
       0.049952853 0.059669938 0.046743903 0.07355321
0000e0 a8 bb d7 bd bc 6b bb bd 57 e3 ff 3d 68 9c a0 bc
       -0.105338395 -0.09151408 0.124945335 -0.01960583
0000f0 74 fe 13 be f5 c5 67 3d 7a f9 33 3e 01 47 a7 bd
       -0.14452535 0.05658527 0.17575637 -0.0816784
000100 40 b8 b6 bd 97 78 f0 bb 92 24 ab bc 40 86 63 bd
       -0.08921862 -0.007338594 -0.020891462 -0.055547953
000110 1b 13 6d 3d df b3 84 3d 12 04 0e bd 8c 9e a8 bc
       0.05787955 0.0647962 -0.03467185 -0.020583414
000120 55 1d d5 3d 18 a4 06 3e 1d 69 a8 3d 6e 92 fe bd
       0.10405985 0.13148534 0.08223174 -0.12430273
000130 c4 79 b9 3d 65 8a 2c 3d 91 ba cd 3d 61 59 dd 3c
       0.09056428 0.04212417 0.1004535 0.027020158
000140 04 19 28 3e 4a 15 80 bd 99 2d 04 be db 2d 5e bd
       0.16415793 -0.062540606 -0.12908019 -0.05424295
000150 60 0a dd 3c 82 94 f1 3d 12 74 20 3e 6b 2f c6 bd
       0.026982486 0.11795904 0.15669277 -0.09677013
000160 3c a5 ee bd 92 f0 bc 3c e8 8f 2a 3e a0 8f 32 3e
       -0.1165261 0.023063932 0.16656458 0.17437601
000170 f5 6d 4b 3e 46 5f df bb 09 6c c9 bd 9f 5d 53 3d
       0.19866164 -0.0068167774 -0.09835059 0.051602956
000180 41 47 79 bc 87 5b 0d be e0 4a 23 3e c0 18 41 bd
       -0.015214742 -0.13804446 0.15946531 -0.047142744
000190 c6 3a 72 bd 01 9e 86 bd 75 4d d3 bd d2 0c a6 bc
       -0.059138082 -0.065731056 -0.10317508 -0.020269785
0001a0 9c b0 1e 3e b7 66 df 3d 78 d9 ad 3d 7b b1 01 3e
       0.15497059 0.10908263 0.084887445 0.1266536
0001b0 e9 13 2d 3d 29 9d cb bc 8e d5 af bd fa f9 62 3d
       0.042255316 -0.024855213 -0.08585654 0.055414177
0001c0 b0 ef 01 3d 4b b4 c1 bb 12 f2 46 3d d3 5c 3b 3e
       0.031722724 -0.005911385 0.0485707 0.18297128
0001d0 5f a2 ed 3d 5f 05 c0 bd a8 29 2f be 9a 5d 00 3e
       0.116032355 -0.093760245 -0.17105734 0.12535706
0001e0 69 6a 24 3e f3 21 7f bd c0 08 e8 3d e1 10 06 bd
       0.16056217 -0.062288236 0.11329794 -0.03273094
0001f0 c7 61 eb 3d 8a 41 af 3d 5b 6a f0 3d 35 73 4f 3d
       0.11493259 0.085574225 0.11739036 0.05064698
000200 50 8c b4 3d 54 15 2f be 7d aa fb bd 25 b6 87 bc
       0.08815825 -0.1709798 -0.122883774 -0.016566345
000210 35 62 f1 bb 22 c4 6c 3c 28 e4 e5 bd 8d b1 9c bc
       -0.0073664435 0.014451059 -0.11225158 -0.019127632
000220 1c 91 40 3e 12 88 ad 3c 6c 3b dd bd 91 76 a6 3d
       0.18805355 0.021183047 -0.108023494 0.081280835
000230 ae f0 4e 3e 9a 3c 4c 3d fe 87 bc bd 81 4c 27 be
       0.20209 0.04986248 -0.09205626 -0.16337778
000240 e4 a8 93 3d 65 c2 3d 3e a4 d1 b2 bd 19 8e af bc
       0.07209948 0.18531187 -0.08731392 -0.021430062
000250 fe dd 3f bc 65 90 1e bd 9e 70 31 3e 00 36 26 3e
       -0.011710642 -0.038711924 0.17328116 0.16231537
000260 d8 9f 07 bd 71 a5 64 3d e3 1c 07 3e 8e 9a e3 bd
       -0.033111423 0.05582184 0.13194613 -0.11113463
000270 a0 db 33 3d 00 40 10 3d 26 59 01 be df 9e 18 3d
       0.043910623 0.035217285 -0.12631664 0.037260886
000280 96 cf 8d 3d 89 5a 66 3e 9b cb 25 3e c0 19 65 3e
       0.069243595 0.22495474 0.1619095 0.22373104
000290 62 d7 cd 3d 43 bb b7 3c 3d 39 c8 3c f1 76 62 bd
       0.10050847 0.02242816 0.024441356 -0.055289213
0002a0 9c 77 38 3e b7 76 18 be 54 be 07 be 7f 3e 6f 3e
       0.18014377 -0.14889036 -0.13256198 0.23363684
0002b0 56 39 c5 3c cc 36 14 be 1d 86 ff bd d9 13 dc 3d
       0.024075191 -0.14474028 -0.12476752 0.10745973
0002c0 e7 b5 2d bc 1a fb 42 3c ad 6d 32 be e5 5f 2c 3e
       -0.010602451 0.011900688 -0.1742465 0.16833456
0002d0 cf c9 52 3e 6b 40 40 bd bf d4 ec 3c 07 c0 5d bd
       0.20584796 -0.046936434 0.028910039 -0.05413821
0002e0 a7 0f 09 be 3d 4c 83 3d 29 99 61 3e d7 6a 08 3e
       -0.13384877 0.06411026 0.22031082 0.13322006
0002f0 86 8d 50 3e ab e3 5c 3d 5e c0 24 3e 5c 43 5c 3d
       0.20366487 0.05392806 0.16089007 0.053775176
000300 de ad 86 bd ab 8c 9e bd cb e4 3e bd e3 52 68 3d
       -0.06576131 -0.07741674 -0.046604913 0.056719672
000310 b5 76 e7 3d a3 f6 17 3e 64 5d 1e 3e 76 9e df bc
       0.113019384 0.14840178 0.15465313 -0.02729724
000320 69 86 b1 3d 2a 0e 55 3d 5f 5f 9a bd 15 a2 cd bd
       0.08668215 0.05201546 -0.07537722 -0.1004068
000330 69 63 cd 3c 0f 7a da bd 82 ab e4 bd 45 8b 53 3d
       0.025071817 -0.10667812 -0.11165525 0.05164649
000340 ef 3d 9c 3d 20 ed c0 bd f3 b3 bb 3d 7b f3 87 3d
       0.076290004 -0.09420228 0.09165182 0.06638237
000350 35 e8 62 3d 4a bd fd bd 14 ed 08 be 5c 4a c7 3d
       0.05539723 -0.1238962 -0.13371688 0.0973098
000360 e8 05 18 3e 4d 57 6d 3e a0 3b a4 bc 3c ad 43 bc
       0.14846003 0.23177834 -0.020047963 -0.011943158
000370 ca d0 ea 3d 57 2c 3f be 08 14 41 3d e1 38 50 3e
       0.114656046 -0.18669258 0.047138244 0.20334198
000380 5a 0b 7e bc 57 64 28 3d 8d b3 25 be 0e 9c 02 be
       -0.015505636 0.041111317 -0.16181774 -0.12754843
000390 37 4d f4 bd c8 05 36 be fd b9 32 3e 3c b0 13 bd
       -0.1192879 -0.17775643 0.17453761 -0.036056742
0003a0 fc e9 3e be 07 d1 73 bd fa 84 4e 3e 70 63 b8 3d
       -0.18643945 -0.059525516 0.20167914 0.09003341
0003b0 bd c8 9f bb ae 2a 4d 3d f9 c8 71 3b 3c 11 23 3d
       -0.004876225 0.05008953 0.003689347 0.039811358
0003c0 5d 36 e1 3d 71 c6 65 3d 74 f8 87 bd bd 78 f8 3d
       0.10996697 0.05609745 -0.066391855 0.12132404
0003d0 81 11 44 3d c4 08 1d be e1 a4 02 bd a8 05 6b 3d
       0.047868256 -0.15335375 -0.031895522 0.05737844
0003e0 4d e0 30 3e e1 ff 01 3e af ba d2 3c 00 f4 10 be
       0.17273064 0.12695266 0.025723783 -0.14155579
0003f0 b5 b0 06 be 8f f8 9a bd a3 70 b5 bd 67 0d 07 be
       -0.13153346 -0.0756694 -0.088593744 -0.13188706

fc2_adv.weight f4 [128, 256]
000000 29 be 77 3c d9 99 fe bd cd a3 56 3d d6 45 28 3d
       0.015121021 -0.12431688 0.052402306 0.041082226
000010 65 90 2b bc 69 5f c7 bc 9e c3 10 bc df 9b c2 3b
       -0.010471438 -0.024337487 -0.008835701 0.0059389914
000020 1e 97 42 3c cb a5 8c bd d2 c4 e5 3c 0f 29 27 bc
       0.011876849 -0.0686756 0.028047953 -0.01020266
000030 33 6f f4 bc 8c 68 a3 bc a2 5e 55 bb 73 91 80 bd
       -0.02983818 -0.019947313 -0.0032557626 -0.06277742
000040 1a b2 8c 3d 2b 93 04 3c 43 41 07 bd d5 bf b3 bd
       0.06869908 0.008091728 -0.033021223 -0.087768234
000050 d0 af 9f bc c2 39 87 bd ee 6c 4b 3d 82 78 fc bc
       -0.019493014 -0.06602813 0.04966443 -0.030819181
000060 3b 79 ae 3c 1b 13 8d 3d 4b c0 0a bd 9a ed 58 3c
       0.021298042 0.0688841 -0.03387479 0.013240242
000070 a5 53 0a bd 62 5b 03 3b 0b d8 3a bd 10 74 a4 bd
       -0.033771176 0.0020043482 -0.04561619 -0.0802995
000080 67 94 4c bc 26 a6 ae bc 73 62 43 bc 4b 08 a6 3b
       -0.012486554 -0.02131946 -0.011925328 0.0050669066
000090 51 83 74 bd 56 ef 46 3d de d8 25 3c 42 ff b9 bc
       -0.059695546 0.048568092 0.010122506 -0.022704724
0000a0 62 da b6 3c 1d 00 89 3d 1f 34 e9 3c a0 71 e1 bd
       0.02232093 0.06689475 0.028467236 -0.110080004
0000b0 d7 1a 9a 3c 29 d2 66 3d b4 da 4d bd 1e 67 84 3c
       0.018811626 0.056352768 -0.0502574 0.016162451
0000c0 df a5 57 3d 9d 9d 60 bd 61 e3 58 bd f6 0c f2 bd
       0.05264842 -0.05483781 -0.05295122 -0.11818878
0000d0 42 08 77 bd 6d 88 00 be ab 7a 80 3c 2f e8 46 bd
       -0.06031061 -0.12552042 0.015683493 -0.04856127
0000e0 0d 65 9e bb ab 35 84 bd ac 56 78 3d a5 ae 0b be
       -0.0048338235 -0.06455549 0.06062953 -0.1364084
0000f0 7f 15 f8 3c 10 97 7e 3c 68 8f 2d 3d 58 28 8d 3d
       0.030283688 0.015538946 0.04237309 0.068924606
000100 18 18 41 3c 47 88 ae bd 4a c4 4c 3d 1d 5d 48 bc
       0.01178553 -0.085220866 0.049991883 -0.012229231
000110 39 14 ab bd 75 bc b4 3c 84 7c 4d 3d 4a a9 13 bd
       -0.083534665 0.02206252 0.050167575 -0.03605012
000120 f3 d6 49 bd fd d9 58 bd 6d 5c 77 bc 91 46 2a 3d
       -0.049277257 -0.052942265 -0.01509772 0.041571204
000130 ab 12 75 3d d8 20 3d 3d 17 73 37 3c 52 15 95 bd
       0.059832256 0.0461739 0.011196873 -0.07279457
000140 d5 0f f8 bb ac 0d ff bc b8 d7 81 3d d5 3f 1f 3d
       -0.0075702467 -0.031134449 0.06339973 0.038879234
000150 df fd 97 bc d0 81 9d 3d f6 2f 11 3d fb 55 1d 3d
       -0.018553672 0.076907754 0.03544613 0.038412075
000160 a7 cd b2 bc ed 5d c4 3a 5e 14 6b 3d 7b b9 4c 3d
       -0.021826578 0.0014981605 0.05739247 0.049981575
000170 3d 35 b7 3c c4 3e 2a bd af a4 1a bc 71 61 4f 3d
       0.022364253 -0.041563764 -0.009438678 0.050630037
000180 1f 21 8f 3c 9a 79 28 bc af b4 3d 3d 42 23 2a bd
       0.017471848 -0.010282898 0.04631489 -0.04153753
000190 d3 d8 c3 3d f3 c4 dc bc cb d3 06 be 39 62 ad 3d
       0.0956284 -0.026949381 -0.1316673 0.08466
0001a0 54 ae 22 3d fd d4 0e 3d bb 4f 48 bd 00 ec b4 bd
       0.039717034 0.03487109 -0.048904162 -0.08834076
0001b0 a0 25 bd bd 3b 7a bb 3c ad bb 4f bd 02 91 bd bc
       -0.09235692 0.022885432 -0.05071609 -0.023140434
0001c0 80 49 c6 3d 8a 18 84 3b 95 99 69 bd 3d a9 b4 3d
       0.09681988 0.0040312456 -0.057031233 0.08821342
0001d0 02 70 29 3d 79 a4 2b 3d 00 13 84 3a d9 e6 ee 3c
       0.041366585 0.0419049 0.0010076463 0.029162811
0001e0 b1 61 0b 3c d0 87 7f bb 2c 40 a2 3b ed f1 5d 3a
       0.008507178 -0.0038990863 0.0049514975 0.00084665307
0001f0 4b ba 94 3d a6 0b f2 bd 91 47 67 bb d0 c7 b8 3c
       0.07262095 -0.11818628 -0.003529046 0.022556216
000200 75 53 08 3e 7d ff 84 3c 7f 2b 13 3d e1 29 f9 bc
       0.13313086 0.016235108 0.035930153 -0.030415477
000210 29 fa 2a bd 36 8d 76 bc eb ee ba bd 02 1c bc bd
       -0.041742478 -0.015048316 -0.09127601 -0.091850296
000220 c0 a2 8c 3d 1f d0 a4 3c db d5 ba bb 9a d3 0f 3e
       0.068669796 0.020118771 -0.005701763 0.14045563
000230 a5 dd 17 3d ca 87 02 3d 69 07 a5 bc c4 14 31 bd
       0.03707661 0.03186778 -0.020145135 -0.043232694
000240 37 02 6d bd bb 41 2b 3a 5e 78 78 3d a2 45 c6 bc
       -0.05786344 0.0006532927 0.060661666 -0.024203125
000250 50 00 4f 3d 62 d3 a5 bd 14 1e e8 3c 62 a8 6a 3c
       0.050537407 -0.08096959 0.028334655 0.014322372
000260 85 23 22 bd 96 5a d2 bd 36 ed 20 bd 68 13 d6 bd
       -0.039584655 -0.10271184 -0.039288722 -0.1045292
000270 18 29 15 bc f5 b7 d3 3c c3 28 1e bd 12 96 70 3d
       -0.009104036 0.025844553 -0.038613092 0.05873687
000280 90 5f 9b bc 47 bb d8 bb a5 89 e0 3c 7e a2 13 3d
       -0.018966466 -0.006614122 0.027409384 0.036043637
000290 cb 5d 5f bd 0c 73 b8 bd b2 a6 86 bd bb 3b 86 bc
       -0.054532807 -0.090063184 -0.06574763 -0.016385904
0002a0 8e 45 8f 3d c6 ae 64 3d 4b 83 35 3c ac f0 13 3d
       0.069956884 0.05583074 0.011078666 0.036118194
0002b0 6a 3b cb bb 47 e2 c2 3b a2 77 02 3d 1e 0d 2f bd
       -0.006202151 0.0059473845 0.031852372 -0.04273712
0002c0 4d b5 0b 3d d8 f6 dc bc 3c 5f a0 bd 07 f5 0c 3c
       0.03410845 -0.026973173 -0.078306645 0.008603341
0002d0 68 1a 23 3d 31 63 2d 3c 13 49 78 bd 7e 7c 14 3c
       0.039820105 0.010582731 -0.060616564 0.009062884
0002e0 db 4e b4 bd 8e a3 06 bd 73 56 0e 3d 92 4b 63 bc
       -0.08804103 -0.03287082 0.034750413 -0.013872998
0002f0 f1 f3 73 3d 87 ae 99 3d c5 51 1b 3d cd 02 5a 3d
       0.059558813 0.075039916 0.03791978 0.053225327
000300 b2 c3 d1 3c e2 83 9f 3d 55 04 dd bc e8 b1 8f bd
       0.02560601 0.077888265 -0.026979605 -0.07016355
000310 52 3b 2d bd a0 cf 58 3b 9b 51 47 3d 2b bf 03 3d
       -0.0422929 0.0033082739 0.04866181 0.032164734
000320 df e6 b0 bc 2c 19 17 3d d1 25 e1 3c 43 39 a4 bc
       -0.021594463 0.03688924 0.027483853 -0.020046836
000330 0c 89 3d 3d 9c dc 40 bd 42 90 b7 3c c6 44 62 bd
       0.046273276 -0.04708539 0.022407655 -0.05524137
000340 66 26 3f bc 62 be b8 bd 56 89 ea 3d 79 c8 06 bd
       -0.01166687 -0.09020688 0.11451976 -0.03290603
000350 45 e7 86 bd a6 b2 a9 3c f4 d9 87 bc f1 b4 b6 3c
       -0.0658708 0.020715069 -0.01658342 0.022303076
000360 9e 89 64 bd 44 a8 8f 3d 51 2c c7 bd 35 32 a4 bb
       -0.055795304 0.07014516 -0.097252496 -0.005010868
000370 6c 24 00 3d 79 a7 0c bc 77 24 53 3d 81 c5 eb 3c
       0.031284735 -0.0085848505 0.051548447 0.0287807
000380 9b c6 b3 bd 68 b7 37 bd bb 40 fc bd 40 44 75 bd
       -0.08778115 -0.044852644 -0.12317034 -0.05987954
000390 e0 fe 6d bd a9 6a 87 bb a0 f2 53 bd fb 98 23 3d
       -0.058104396 -0.004132588 -0.051745057 0.039940815
0003a0 47 7a c8 bd 8e e0 f0 3c fd 18 72 bd 28 b8 d0 3c
       -0.097889476 0.029403951 -0.059105862 0.025478438
0003b0 8e a0 91 bd 31 01 18 3d 97 dc 11 3b a0 58 be bc
       -0.071107015 0.03711051 0.0022256726 -0.023235619
0003c0 96 53 28 bd 57 1b ee bd 26 23 a1 bd a9 37 11 3d
       -0.04109534 -0.116263084 -0.07868032 0.035453472
0003d0 fe 9b 05 bd 17 ea 4b bd 4d 01 96 bd ac e0 a1 bd
       -0.03261947 -0.049783792 -0.07324467 -0.07904181
0003e0 e5 31 1f 3c 02 dd 68 bc 37 34 37 3c 64 7e a0 bd
       0.009716486 -0.014212849 0.011181883 -0.07836607
0003f0 04 8f ff bc eb b4 e1 bc 86 60 91 bc d3 e9 53 bd
       -0.031196125 -0.027552089 -0.017746221 -0.051736664
