src/nets/exp_graph_obs_4_prio100.pth (torch_old, 360749 bytes, 11 tensors)

fc1_val.weight f4 [256, 45]
00000000: 6aa4 0e3e fdbe 793d 39a9 e2bd 58b7 0e3e
00000010: 1ce1 9ebc 9177 c6bd b233 4dbd 7474 8cbd
00000020: 2a39 b53d 9a9d 0b3a eea9 8f3c afb0 af3c
00000030: a952 9b3d 198c 593d c61f b83d 334b 433d
00000040: 1103 30bd 57cb edbd 2510 fdbd 7565 b63c
00000050: 4f91 ba3d 1cf7 543d 9767 403c 9a81 c4bd
00000060: 5afe acbd 68cb 38bd 5dcb 1a3d 61d4 77bd
00000070: 8547 c1bd 183c eabd 7108 aebd 1c7d 563d
00000080: a371 7f3d a875 e6bd 1710 ea3d 4d81 663d
00000090: 89ed a43d 89f9 dfbc 67e4 3b3b cb7d 333d
000000a0: be19 0e3e e9a3 333e 12bf b7bd e5a8 1c3e
000000b0: 2b31 2b3c d778 f5bc c753 733c ebf0 d43d
000000c0: 9473 27bc ce0b 113e 22a4 e03d 319b 7f3d
000000d0: f1cf 41bd 0e0e 0e3e 8279 83bb 64f1 793d
000000e0: 6814 ec3c d004 723d 9838 a9bd 5bfb cbbd
000000f0: e3ae 8ebd a105 7c3c a21d 00bd b26a d43d
00000100: dd59 04be 66f7 073e 3a85 99bd ccda 733d
00000110: bb2a a5bc c4e9 d83c f460 cdbd 439f 7cbd
00000120: 66f3 d9bd 3dd5 b9bd ccb7 64bc ddf4 9ebd
00000130: 0684 0cbe eaf2 8b3d 1548 233d 8b69 90bd
00000140: c839 0cbe 0323 8039 f7dd 86bb f2b4 babc
00000150: 06be 033d be32 ec3d 8c94 093e 0c66 213e
00000160: 2fe7 babc 785d 063e bf05 cf3d cfdd 2cbd
00000170: 3c36 dd3d 6ef9 2fbe d310 10be 089a cbbd
00000180: 6d45 02be e056 cebd ad26 e93d 972c c03d
00000190: 2bb9 b5bd 4b0a 0bbe 16cc 0bbe 7f76 c83d
000001a0: 3d70 b53c c004 823d 0e92 cabd 009d e33d
000001b0: 6a72 e8bd 93a2 103e 80fd 1e3e 3b29 bfbd
000001c0: 3884 85bd af3f 953d 2877 cdbd d9f7 b7bd
000001d0: e0ae 62bd 21e6 c5bc f5eb 89bd 8c27 033d
000001e0: fb28 9bbd 4dc9 a23d a9e1 df3c 5fa4 9ebd
000001f0: f17b 22be 1ccb da3d 3e14 ef3d 83d5 ba3d
00000200: 3e24 b03d 3069 a3bd a803 04be 9625 ffbc
00000210: 02ee d4bd 19c1 a9bd 2adf b7bc 5d83 6e3d
00000220: 59a6 38bd ae4e f33d 00a4 223d 47e6 073e
00000230: 9126 ad3d 3318 f2bd f177 183d 6ead 113d
00000240: 2b8c 09be 6203 2dbc c0bb a23d 8505 163d
00000250: b809 cfbd e3aa 07bc 091a 8b3d 7afe 6d3c
00000260: b40f 1d3e 1962 edbb fc73 103d ae94 39bb
00000270: c93e dbbc 2ad7 bd3d 98d9 ffbd 6d73 0a3c
00000280: 6212 f2bc 24b1 c83d 3685 07bd 2519 0abe
00000290: eb9d aabd 663f 403d 0d61 053e a9e0 68ba
000002a0: d8f2 073d 9c86 30bd 9ae8 d4bd f20f 0f3d
000002b0: 8dd5 e33d 53ed d73d 3493 8abd 9da2 3a3c
000002c0: 1c34 c13d 0fff 7b3d 7343 27bd 3cd4 143e
000002d0: 633f 21bb 5fd6 2fbe de41 89bd e0bb cdbd
000002e0: 3ebc 31bd fd0e 14bd f92c 1c3d 486b 413d
000002f0: 30f9 8b3d 3202 03be 5d92 71bd ce31 40bd
00000300: 41a6 b8bc 81fc c6bd 9686 0c3e 742a 033d
00000310: 7041 cd3d 97e9 bbbd 1a01 123d 5a98 25bc
00000320: 6fcc a8bd f5f2 0fbe 8c3d aa3d 9158 093d
00000330: a9a8 013e 5eab 013d a731 b33d 72d2 a3bd
00000340: def9 403c 212f b7bb b4be 8b3d 6763 93bd
00000350: 1bd6 053e 7fd7 ff3d 7f20 093e 8d10 8abd
00000360: baf3 97bd 8757 dabc af10 c33d 4cbb 92bc
00000370: 779c 103e a8fd 20bd 83cd 06be 6956 8e3d
00000380: 50d7 09be f914 a83d 9e91 94bb 0e43 b3bd
00000390: 295c 923d c787 e8bd 3285 ba3d a1e6 debd
000003a0: cf36 983a c3b4 8a3d 2e16 973d da15 a63d
000003b0: 4f6b 003d 0c33 ff3c eab5 e23b a6f6 a03c
000003c0: 02de 273d 4c82 ba3d 17a2 c7bd a0dc 6b3d
000003d0: fc1d 8b3d 88c4 adbd d031 053e de29 463d
000003e0: f980 92bd 16f9 113d fdea 82bc 134c 7f3d
000003f0: 4967 01bd 5e7d c0bd 3b4c 56bd 2760 07be
0.13929906 0.060973156 -0.11067433 0.13937128 -0.01939445 -0.09690774 -0.05009813 -0.06858149
0.08848794 0.00053259137 0.017537083 0.021446554 0.075841255 0.053112123 0.08990435 0.047679137
-0.042971674 -0.116110496 -0.12356595 0.022265175 0.09109747 0.051993474 0.011743448 -0.09595032
-0.08446951 -0.04511586 0.0377916 -0.060505275 -0.094374694 -0.11437243 -0.08497704 0.052365407
0.06236423 -0.1125291 0.1142885 0.056275655 0.08053119 -0.027340667 0.0028670074 0.043821137
0.13877007 0.17542996 -0.08971991 0.15298803 0.010448734 -0.029964847 0.014851517 0.10397514
-0.010220427 0.1416466 0.10968806 0.06240386 -0.04731745 0.13872549 -0.0040122876 0.061021224
0.028818324 0.05908662 -0.082627475 -0.099600516 -0.06966951 0.015382201 -0.03127826 0.10371913
-0.12924905 0.13277969 -0.07496114 0.059534833 -0.020161977 0.026478656 -0.10028258 -0.06167532
-0.10642128 -0.09073875 -0.013959836 -0.07761548 -0.13722238 0.068334416 0.039863665 -0.07051381
-0.13693917 0.00024440148 -0.0041158157 -0.02279136 0.032163642 0.11533116 0.13435572 0.15761584
-0.022815315 0.13121593 0.10108518 -0.04220372 0.1080136 -0.17184994 -0.14068918 -0.099414885
-0.12721796 -0.10075164 0.1138433 0.09383505 -0.088732086 -0.13578145 -0.13652071 0.09788226
0.022148246 0.06348562 -0.09891139 0.1111393 -0.11349948 0.14124517 0.1552639 -0.09334036
-0.06519359 0.07287537 -0.10032493 -0.0898282 -0.055342555 -0.024157586 -0.06734458 0.032020137
-0.07576176 0.07948551 0.027329283 -0.07746195 -0.15867592 0.10683271 0.11673783 0.091227554
0.08600663 -0.07979047 -0.1289202 -0.031145852 -0.10396959 -0.082887836 -0.02244528 0.058230747
-0.045080516 0.11880241 0.039707184 0.13271438 0.084546216 -0.11821022 0.03722376 0.035565786
-0.13432376 -0.010559889 0.07945967 0.036626358 -0.101092756 -0.008280489 0.06792075 0.014526004
0.15338022 -0.00724436 0.03526686 -0.002831738 -0.026763337 0.09269555 -0.124926746 0.008450371
-0.029549781 0.09799412 -0.033086024 -0.13486154 -0.08330902 0.04693546 0.13025303 -0.00088835746
0.03319058 -0.043097124 -0.10395928 0.034927316 0.11124716 0.10543313 -0.06766358 0.011391309
0.09433767 0.06152254 -0.04083581 0.14534086 -0.0024604432 -0.1717162 -0.06702016 -0.100456
-0.043392412 -0.036147106 0.038128827 0.047221452 0.06834638 -0.12793806 -0.058977474 -0.046922497
-0.022540214 -0.0971613 0.13723215 0.03202291 0.10022247 -0.09175413 0.03564558 -0.010107124
-0.082421176 -0.14057525 0.083125204 0.03353173 0.12661995 0.03165757 0.08749705 -0.07999124
0.011778323 -0.005590335 0.06823483 -0.07196694 0.13069956 0.124922745 0.13391303 -0.06741438
-0.07419534 -0.026653064 0.095246665 -0.017911576 0.14122187 -0.039304405 -0.13164334 0.06950075
-0.13461041 0.08207125 -0.0045339605 -0.08753024 0.071464844 -0.113540225 0.09107436 -0.10883833
0.0011613014 0.06772759 0.07377277 0.081096366 0.031352337 0.03115227 0.0069186585 0.019648861
0.040983208 0.091068834 -0.09747713 0.05758345 0.067928284 -0.08484751 0.13007283 0.04837977
-0.07153506 0.035637937 -0.015981192 0.06232841 -0.03159264 -0.09398912 -0.052318793 -0.13220273

fc1_val.bias f4 [256]
00000000: 2eb4 e5bc 3211 a83d 8289 0c3e 7da0 23be
00000010: bc4a e9bd f1a7 ddbd c7b4 00bd 6dd7 57bd
00000020: 3413 b43c e1ab b23d 972e 7abd e91b 22bd
00000030: 868c 64bd e046 fd3c ddf3 d73d 9547 08bd
00000040: 5b5b 173d 9a39 08be 5c95 623d 1948 333d
00000050: 2310 573c 101c e9bd f1de c7bd 9a9a 713d
00000060: 8eea d03d e177 96bd 944e f53d 34ce 48bd
00000070: cad8 663d ef7a 103e 906c e93b 8efa dc3c
00000080: ed07 1f3e 22b5 88bd 2a98 bcbd 96fc 903d
00000090: 7662 84bd dd7a e63c ba6a 203e 0f3c 13be
000000a0: 3ee5 1d3c dc76 0b3e 486f 89bd 5820 10be
000000b0: 322b 3fbd 75b9 d1bc 3588 b33d 9213 bb3d
000000c0: 1fd6 d6bb 1ccf 683d 2fc4 bdbd 9790 003e
000000d0: 5fbc 9d3d 8f6e babd 15d4 153c 4ed8 13bd
000000e0: 3fab 063e d389 023e c57f 1bbd b721 d83d
000000f0: 33bc 95bd 9f35 d43d 3d8f de3d 013d 00be
00000100: 43ef 123e bb6e f7bc d460 bcbc 7826 9cbd
00000110: 0735 123e df9a 70bb 0f8f b1bd 5120 f4bd
00000120: a8f6 b63c 0b3e 993d 4c78 993c ccef 0ebd
00000130: 5d89 d3bd 738b dfbd c832 343d b12b 973d
00000140: 944b 87bd 1459 8cbd a083 bdbd 4094 833c
00000150: 9761 813c 1088 c3bd 8671 e5bd af37 473d
00000160: 9f4c 2abd a77f 3b3d d352 ffbd 25e7 243e
00000170: 8b46 973d 9fa8 f7bd d63d 42bd 3098 76bd
00000180: fe7d c3bd 2c42 dcbd 03a7 cb3d d6e9 ddbd
00000190: 4214 973d 1754 1c3e 537e efbd a4d4 91bd
000001a0: 7b98 d13d 7cb1 f7bd 83ea d7bd 4056 5f3d
000001b0: 1a77 253e 686b 59bd b4f6 c83d 2365 993d
000001c0: a1ae e4bd 54a0 c53d d72f 40bc c70f 033e
000001d0: 3895 b5bc 8ee2 1bbe 651c 0d3e ef72 01be
000001e0: 4567 313b bc6e d63d b640 873d 984a 1abd
000001f0: 4ead e8bd 4a1c c6bc 4ab7 12be f111 163e
00000200: 6ff6 d7bd d9ae e6bd 8e96 ccbd 087f 8ebd
00000210: ea53 a63d 29a7 b63d bbef f03d 3be7 98bd
00000220: 5e6e 11be e966 d43c c554 e53d 7062 b83d
00000230: f274 0e3e 887a be3c c1d4 cdbd c255 e83d
00000240: ddc3 023d c957 05be dc74 313c b0b1 11be
00000250: 26ee 71bd 4c1f 46bd 6298 d23d e592 ecbd
00000260: d6b9 03be c2b4 ec3d ec46 d3bd d3b2 263e
00000270: 8242 133e 6da7 fbbd fca2 ad3d 4d7e 50bc
00000280: d6b2 e4bd 7f65 07be 3421 c0bc b0e4 263e
00000290: 457d 41bd 2e5d fabd f935 97bd 18ac a3bd
000002a0: 516a f03d ecf5 2f3e 8c06 d93d c0de ec3c
000002b0: f8da b93c 4ee3 5f3d 164e 05bc 7d12 85bd
000002c0: 9d35 513d daac 673d 6d79 29be 51a3 6639
000002d0: 179b 4bbe fc28 5c3d 89e0 b7bd 16aa f7bd
000002e0: 1f42 1abe 1c8b c2bd 5dbe c03d 09da 943d
000002f0: f005 9b3d 58b8 dd3d 437f 293e a1fc 153d
00000300: 7cd1 b2bd 9470 ff3d a833 10be 2734 d13d
00000310: 507b f33d 8780 4c3d 9014 c6bd 436c 8abd
00000320: ac38 52bd 0c66 cc3d 2320 91bb 86cf 223e
00000330: 992c ae3d f9f8 053e 4eb7 a4bd db70 7ebd
00000340: 23f3 f33d 7e51 c63d 9e9a 5abb 4397 123d
00000350: 57b8 b23c e69f aabd eee6 17bd 9f6e 873d
00000360: d8c1 ef3d 0e38 ebbd a4ca 90bd 4686 f6bd
00000370: e536 9c3d cbdd d33d a815 b33d 25bd 093e
00000380: 229b 323d 5f56 b23d f27f b03d 0704 0b3e
00000390: 7647 21bd 1854 2c3e be4e 303d 9251 623c
000003a0: 46df b8bd a963 c6bd 84c7 d2bd 182a c73c
000003b0: 12c9 49bc 5ef1 213e af29 293e 22b6 5cbd
000003c0: 2b79 c93d 9a9c dfbd c2af 01be 70f3 e93d
000003d0: 5d2d a5bd be9a 0d3d 25d3 30bd dacc 74bd
000003e0: 76dd 223e 474f dabd 5048 c43d efe8 56bd
000003f0: 3557 08be 282f cc3d c867 b33d d305 8bbd
-0.028040018 0.08206405 0.1372433 -0.1597919 -0.113912076 -0.10823048 -0.031422403 -0.05269568
0.021981813 0.087241895 -0.061079588 -0.0395774 -0.055798076 0.030917585 0.1054456 -0.03327139
0.036952358 -0.13303223 0.05531822 0.04376993 0.013126406 -0.113823056 -0.097593196 0.05898533
0.10200988 -0.07347084 0.11977878 -0.049024776 0.05635909 0.14109395 0.0071235374 0.026974943
0.15530367 -0.06675173 -0.092087105 0.07079427 -0.064640924 0.028134758 0.15665713 -0.1437838
0.009637175 0.1361956 -0.06710678 -0.14074838 -0.046672054 -0.025601128 0.08766214 0.09134592
-0.006556287 0.05683814 -0.09265935 0.12555157 0.077019446 -0.09103119 0.009144803 -0.036094956
0.13151263 0.12747888 -0.037963647 0.105533056 -0.07311287 0.1036179 0.10867164 -0.12523271
0.14349084 -0.030204168 -0.02299539 -0.07624525 0.14278041 -0.0036713404 -0.086698644 -0.11920226
0.022334412 0.07482537 0.01873412 -0.034896657 -0.10328934 -0.1091527 0.04399374 0.0738138
-0.06606212 -0.06852928 -0.09253621 0.016061902 0.015793605 -0.09547436 -0.112032935 0.04863709
-0.041576978 0.045776036 -0.12466969 0.161038 0.07386502 -0.12092709 -0.047422253 -0.06020373
-0.095455155 -0.10754809 0.09943964 -0.10835616 0.07376911 0.15266453 -0.11694016 -0.07120636
0.102341615 -0.12094399 -0.105427764 0.054525614 0.16158715 -0.053080946 0.0981268 0.074899934
-0.1116612 0.09649721 -0.011730156 0.12798987 -0.02216588 -0.15223143 0.13780363 -0.126415
0.002706961 0.1047034 0.066041395 -0.037668794 -0.1136118 -0.024183411 -0.14327732 0.14655282
-0.1054505 -0.11263818 -0.099896535 -0.06957823 0.08121474 0.08918602 0.11764475 -0.07465979
-0.14202258 0.025927978 0.11197809 0.090031505 0.13911799 0.023251787 -0.10050345 0.11344482
0.03192507 -0.13021769 0.010831084 -0.14227939 -0.059065007 -0.04836969 0.10282971 -0.115514554
-0.1286386 0.11557914 -0.10316262 0.16279154 0.1438084 -0.12287793 0.084783524 -0.012725425
-0.11166923 -0.13222311 -0.023453332 0.16298175 -0.047238607 -0.12224804 -0.07383341 -0.07991809
0.11739028 0.17183656 0.10596952 0.02891481 0.02268742 0.054660134 -0.008136293 -0.06497667
0.05107652 0.05656133 -0.16550227 0.0002199535 -0.19883381 0.053750023 -0.089783736 -0.12092988
-0.15064286 -0.09499189 0.09411309 0.072681494 0.07569492 0.108261764 0.16552453 0.03661788
-0.08731362 0.124726444 -0.14082205 0.102150254 0.11888754 0.04992726 -0.09671891 -0.067589305
-0.051323578 0.099804014 -0.00442888 0.15899476 0.085046 0.13083257 -0.08042775 -0.062119346
0.11911609 0.09683512 -0.003335632 0.035788786 0.021816416 -0.083312795 -0.037085466 0.06612896
0.11706895 -0.11485301 -0.07069901 -0.120373294 0.07627658 0.10345038 0.08744365 0.13451059
0.043604977 0.0870788 0.08618154 0.13575755 -0.03937479 0.16828954 0.043043844 0.013813393
-0.09026961 -0.096869774 -0.10291961 0.024312064 -0.012316005 0.1581473 0.16519807 -0.053884633
0.09837564 -0.10918541 -0.12664703 0.11423385 -0.08065293 0.0345714 -0.043170113 -0.059765674
0.15904793 -0.10659652 0.09584105 -0.052468237 -0.13314517 0.09969932 0.08760029 -0.0678822

fc2_val.weight f4 [128, 256]
00000000: 149a a53d f3b5 01bd e332 99bc 8ed4 bc3d
00000010: bc45 393b 226f 6b3d 9f4b b6bd e62e e33b
00000020: 66af 073d 0864 843d 9a0d 113c 34cf d63b
00000030: e8a9 6f3d 2e4c 893c 2de6 ed3c 7e0c 71b7
00000040: 64c7 123d e919 e43d 05a9 a6bc db00 53bd
00000050: 9ee3 63bd 06f5 2abd 03f0 383c b759 923c
00000060: f9c7 e53c b6ad 053e c023 f23c e446 513d
00000070: 0299 653d a671 473d 75c9 5d3d 75d6 4f3d
00000080: 6eda 45bc ea87 0b3d b27d 0c3c db29 013c
00000090: 4600 b23d f9e0 833d eebc 943d 6754 223d
000000a0: aa73 44bb 0aec b43c 5135 abbc f67e 60be
000000b0: a3d2 233d 1c5e e53d 5160 04bb 4156 38bb
000000c0: a0fd 1c3d e986 9c3d b653 bb3d 2d22 0f3d
000000d0: cbdb 30bd ac69 37bd 8e63 1f3d 41ca 8a3d
000000e0: ffa2 363d 85f2 903d 2151 f7bc 8067 adbc
000000f0: 2b95 cb3c 4ece 1c3d aa65 063d 7180 5f3d
00000100: bd93 5ebc 13e7 e83c 8f2f 033d 1292 363d
00000110: ee65 3e3d 1ab2 01bc 5256 be3d a3ba e4bd
00000120: b926 87bc 11ba 9a3c 34f5 2e3d 9cc8 93bc
00000130: f413 8bbd f48a 71bc e0e7 9f3c 87ae b93d
00000140: 2edd fdbc aded a23d 82fc 3c3d b03e 31bd
00000150: fa20 373e ef49 3ebd 2cc9 363d 03ad 973d
00000160: 9cc8 0d3d 8bde 95bb 7b75 bbbd d195 1ebd
00000170: 2a72 b63d af98 18bc c816 3e3d 2a4e b63b
00000180: 0a64 8fbd 9e68 26bd f451 933d 260c 49bd
00000190: 46b0 08bb 1b9d 16bd af63 cd3c 32aa 14bd
000001a0: d54c 273d 721e b9bc 48eb 70bc 8276 ea3c
000001b0: 80df c63d bebf 183e 5e07 133d c714 513c
000001c0: bb98 983d 3530 b4bc 6453 78bd e098 bf3c
000001d0: 94df 8e3d b5e1 1cbd c227 e33c d20a 333d
000001e0: 2724 603d 1b66 4b3d 7000 cd3d a077 2ebd
000001f0: 5180 a4bc b491 41bb c916 00be 000a 983d
00000200: 7742 083e ea5e d63c 2e43 a53d 9394 603c
00000210: 7746 24bc b606 15bc d3e7 3d3d b5c8 783c
00000220: 1aab cdbc d95e e9bc 5ddb 0b3d 4401 d73d
00000230: 6d78 993c 4ea7 9e3d 4b09 c03d 6551 c53c
00000240: 0dee fabc fdcc 29be 5d0e d53b dfea acbd
00000250: aa71 06be b7ad 88bd 56a8 1c3d 8898 64bc
00000260: 58af 703d f8c0 403d f839 953d 5946 bd3c
00000270: 69c6 803c 1b8f 42bd d193 00bd 5df0 c4bc
00000280: f5c3 c6b9 5441 34bd 8a39 eabc f699 6c3c
00000290: 8b6a 403d dcc7 f1bc 60eb 9b3d 2e1c a13d
000002a0: 3401 eabc f3a8 1cb9 fdf4 e2bc bfd1 a13d
000002b0: 5900 cfbc fc85 91bd bcd9 13bd cc38 973d
000002c0: 5062 143d 3391 66bd ce8f dabc 140d ab3d
000002d0: 926c 00bd 4787 e23c a61e 743c 0597 943d
000002e0: 40c0 cbbc 097e 9e3d 9393 85bb 6c8c 44bd
000002f0: 2447 dfbc e09e c1bc 13d1 a3bc b944 12bd
00000300: b37c 40bd 29ec 25bc 295b 2f3d b23f 533d
00000310: ae55 20bd 29b5 583d 77ad ffba 3eb8 143c
00000320: 4045 f5bc c0ad 99bc 3ba8 7e3c 1df0 03bd
00000330: c750 a03c fece 29bd ed63 84bc 4f70 003d
00000340: 7c48 63bd 3775 683d 2fc8 d7bc f94d 28bd
00000350: e8f1 7d3d 6db4 d5bc fcd7 88bc 9b11 6b3a
00000360: 42a6 c53a a24d 5dbd c23c d83c 3ecc 4cbd
00000370: 6cb6 5c3c a85a a33d 4228 f5bc 810e 9a3d
00000380: d97a 8dbc 40d7 3a3d e722 64bc 5d8e f83c
00000390: dd3c 55bc ca00 f73d 7e72 3b3d 62d3 5f3d
000003a0: 40f8 c0bc b8e4 96bd a342 e53d da1f e3bb
000003b0: 12e7 7dbd ba28 b23c d6a6 403d a38d b23b
000003c0: 84ec a6bd eb22 cabb 7a75 933c 849b 37bd
000003d0: 0c16 843d 1af3 a9bc 8166 a1bd 2204 5d3d
000003e0: 5fba 06bd cff8 573d 0bad bf3c 3fc9 0e3d
000003f0: b7f2 553d 6e9e 983d 927c 19bd 2ad1 4b3d
0.08086029 -0.03166766 -0.018701022 0.09220229 0.0028270325 0.05747903 -0.08901142 0.006933081
0.033126257 0.06464392 0.0088533405 0.0065554623 0.058511645 0.016759958 0.02904042 -1.4367628e-05
0.035834685 0.111377545 -0.020344267 -0.051514488 -0.055636995 -0.04173758 0.011287692 0.017865045
0.028049456 0.13054547 0.029558063 0.051092997 0.056054123 0.048692368 0.054147203 0.05074163
-0.0120760035 0.034065165 0.00857489 0.007883514 0.086914584 0.064393945 0.07262598 0.039631274
-0.0029976168 0.022085208 -0.020899447 -0.21923432 0.0399958 0.111995906 -0.002019901 -0.0028127583
0.038327813 0.076429196 0.09146826 0.034944702 -0.04317836 -0.04477851 0.038913302 0.06776858
0.04458904 0.07077507 -0.030190052 -0.021167517 0.024851402 0.038282685 0.0328118 0.05456585
-0.013585028 0.028430497 0.032027777 0.044572897 0.046483926 -0.007915998 0.09293808 -0.11168411
-0.016497957 0.018887552 0.042714313 -0.018039994 -0.06790915 -0.014742602 0.019519746 0.090664916
-0.030989256 0.07955489 0.046139248 -0.043272674 0.17883673 -0.046457227 0.044625446 0.07406046
0.034615144 -0.0045736483 -0.09153267 -0.038717095 0.08908494 -0.009313746 0.046408445 0.005563517
-0.07001503 -0.040627114 0.07193366 -0.04908385 -0.002085702 -0.03677092 0.025071947 -0.036295123
0.040844757 -0.022597525 -0.014704533 0.028620962 0.09710598 0.14916894 0.035895698 0.012761301
0.07451006 -0.021995643 -0.060626402 0.023388326 0.06976238 -0.03830119 0.027728919 0.04371149
0.054721978 0.049657922 0.10009849 -0.042594552 -0.020080717 -0.0029536309 -0.12508692 0.07423782
0.13306604 0.026168305 0.08069454 0.013707298 -0.010026566 -0.009095838 0.046363663 0.015184571
-0.025106002 -0.02848761 0.034144748 0.10498288 0.018734181 0.077467546 0.093767725 0.024086663
-0.03063109 -0.16582103 0.0065019564 -0.084432356 -0.13129297 -0.066737585 0.038246475 -0.013952382
0.05876097 0.04705903 0.07286447 0.023104833 0.01571961 -0.047499757 -0.03139097 -0.024040395
-0.00037911502 -0.044007614 -0.02859189 0.014441004 0.046976607 -0.029514246 0.076132536 0.07866703
-0.028565027 -0.00014940258 -0.02770471 0.07901334 -0.02526872 -0.071056336 -0.03609632 0.0738388
0.03622657 -0.056290817 -0.0266799 0.08352104 -0.03135354 0.027652396 0.014899885 0.07255367
-0.024871945 0.07738883 -0.00407643 -0.04798548 -0.027255602 -0.023635328 -0.019997155 -0.03571007
-0.046993922 -0.010127106 0.042811546 0.051574416 -0.03914421 0.052907143 -0.0019506653 0.00907713
-0.029940248 -0.018759608 0.015543039 -0.03221141 0.019569768 -0.04145717 -0.01616093 0.031357106
-0.05548905 0.05675241 -0.026340572 -0.041089986 0.061998278 -0.02608701 -0.016704552 0.0008967162
0.0015079456 -0.054029115 0.02639616 -0.049999468 0.013471227 0.07976276 -0.029926423 0.07522298
-0.017270492 0.045615435 -0.013924337 0.030341322 -0.013014999 0.120606974 0.045763485 0.05464495
-0.023555875 -0.073678434 0.111943506 -0.0069312872 -0.061987944 0.021747936 0.047034107 0.0054490133
-0.081505805 -0.0061687133 0.018000353 -0.044826046 0.064495176 -0.020745803 -0.07880879 0.05395902
-0.03289258 0.052727517 0.023397943 0.034859892 0.052233424 0.07452093 -0.037472315 0.04976002

fc2_val.bias f4 [128]
00000000: ce89 2e3d 6d55 3bbd eb6e 22bc 9799 bebd
00000010: 94d6 f6bc 4a2b 56bd 1cff 493d d186 8f3c
00000020: f7ea c43c 52ec 24bd efaf 01bd d49d 553d
00000030: 7dca 81bc 9b59 df3c 00a7 64bd a7d2 133d
00000040: c323 96bd d05f c53c 14cb 8dbb 7d22 103d
00000050: 6788 213d 9196 703d 6e38 763d c47d 353d
00000060: 1bdc d539 1eb7 64bd fb44 5fbd a708 98bd
00000070: 1ced 453d 5f7c 0fbd 05e7 bcbc d0b3 6d3d
00000080: 6ed6 39bc 0939 03bd 128d 813d bb27 75bc
00000090: f07a 843d d2d7 683c 2834 6c3d 8250 99bc
000000a0: df5d 3dbc be63 35bd 518e 34bd 81c5 683c
000000b0: fe6f 023d aa60 d8bc 0c21 dabb 4c65 613d
000000c0: 17ee 01bb 5090 14bd 42df eebc 5c92 8e3d
000000d0: 0ffc 0c3d 63ac 1ebd 00de 803d 0d54 8bbc
000000e0: d311 b83c 6c4b 1d3d 98f1 383d e955 70bd
000000f0: b084 4fbd 309d 1ebd b418 073d 2197 643c
00000100: 37ff 3c3d 9a82 4e3d 6831 da3c 815a 48bb
00000110: f4e2 e8bc 6357 583d b5e6 773d 6a8a 823b
00000120: 9121 293d 2bb4 a13c 1c44 08bd 62d6 1b3d
00000130: 3ca3 42ba 60e4 513d 5923 d23c fb24 533d
00000140: f5bf 8f3b b439 683d 3dd0 5dbd 792f 45bd
00000150: 8587 373d f83b 8abd 8c48 8f3d 65ed 4b3d
00000160: 4496 c43b 1aef 96bc aac7 70bc bfd3 d6bc
00000170: c1de 4fbd 28ab 49bd 62e0 7cbd 9c7f 8ebc
00000180: 3db5 513d 64d9 e5bc a265 093d 040a 823d
00000190: b35f 8cbc af80 04bd e83b 2dbc 2be5 40bc
000001a0: da2d 123c 8082 633d ae6c 24bc c84e 703d
000001b0: aae0 4b3d 7baf fa3c 6542 8a3d 97f4 01bd
000001c0: 75b7 76bc b65f 3dbb fad9 a53c d317 a23d
000001d0: 59f4 8c3a 5f2e 323d 6d14 78bc 69ff 813d
000001e0: 9390 3dbd 9ef4 903c 98be dbbb 08e7 3c3d
000001f0: 3a03 3cbd a7a8 d5bc 0806 f2bc 7652 af3c
0.04261189 -0.045735765 -0.00991414 -0.09306639 -0.030131616 -0.052287377 0.049315557 0.01752034
0.024037821 -0.040264435 -0.031661924 0.05215247 -0.015843624 0.027264407 -0.055823326 0.036089566
-0.0733104 0.024093539 -0.0043271873 0.03518914 0.039436724 0.05873734 0.06011241 0.044309393
0.00040790517 -0.055838697 -0.054509144 -0.07423525 0.04832183 -0.03503072 -0.023059377 0.05803281
-0.011342628 -0.032036815 0.06325735 -0.014963086 0.06468761 0.014211612 0.057666928 -0.018715147
-0.011558025 -0.044284575 -0.044081036 0.014207245 0.031845085 -0.02641328 -0.0066567715 0.055028245
-0.001982575 -0.03627044 -0.029159192 0.069615096 0.03442007 -0.03873862 0.06292343 -0.017007852
0.022469437 0.038402006 0.045152277 -0.05867568 -0.05066365 -0.038724124 0.032982543 0.013952048
0.04614183 0.05041752 0.026634887 -0.0030571523 -0.028428532 0.052817713 0.060522754 0.0039837854
0.041291777 0.019739231 -0.03326808 0.03804625 -0.00074248365 0.051243186 0.02565162 0.05154894
0.0043868967 0.056695655 -0.05415367 -0.048140977 0.044806976 -0.067497194 0.06996259 0.049786944
0.0059993584 -0.01842456 -0.014696041 -0.026224015 -0.050749544 -0.049235493 -0.061737426 -0.017394833
0.051198233 -0.028057761 0.03354419 0.063495666 -0.017135477 -0.032349285 -0.010573365 -0.011773388
0.008922065 0.055544376 -0.010035677 0.05866888 0.049774803 0.030601254 0.06750945 -0.0317274
-0.015058388 -0.002889616 0.02024554 0.079147 0.0010753974 0.043501254 -0.015141589 0.06347544
-0.046280455 0.017694768 -0.00670607 0.046118766 -0.045901515 -0.026081396 -0.029543892 0.021401625

fc3_val.weight f4 [1, 128]
00000000: aff7 1cbd a96a 8cbd 495a dabd 13f1 6f3e
00000010: c2bb 0c3e 2403 263d fb2c 233d df5c b83d
00000020: d748 b2bd 2c85 95bd 7493 213e e4bb e5bc
00000030: 9e86 013e 3c03 9f3d dfb6 9d3d d96e 03be
00000040: aaf0 d63d ff82 0abd f18e bcbd e51e 3c3d
00000050: e70d 25bd 0d94 e7bc 2294 a3bd 4da8 7b3d
00000060: a7d5 053e 2f4d 963d 79e4 be3d 16f8 003e
00000070: 8ec1 64bd c818 13bd 8fd1 d9bd dcb9 ae3d
00000080: c1b5 1cbd a0a9 0e3e 858b 91bd 6ce0 8c3d
00000090: a229 aa3d 0b28 24bd 9ae1 763d c420 d6bd
000000a0: 773a e63d 7678 cb3d 00f8 ab3d a45e 3c3c
000000b0: a119 223e 4187 7fbd 62d8 3f3c f5ec 4bbd
000000c0: bf64 04be d49a c2bd 5109 cbbd 4f4c 9cbd
000000d0: 709b 063e b9d0 97bd 35db 083e c0c7 8dbd
000000e0: 7002 3c3d c9f6 09bd ad9e b63d 6c32 6f3d
000000f0: 4bc1 323d 9a96 fc3d 52ed fdbc 3ca9 54bd
00000100: ba68 01be e8f7 84bd 36cc a8bd bc94 02be
00000110: 04ca 2d3d aa3d eb3d 410e ad3d 60d2 be3d
00000120: 97fc 0d3e 81e0 cbbd b8b3 b33d 1270 52bd
00000130: 7d0d 263e bae4 033e b09e 4fbd ebf8 7fbd
00000140: 1aed 7cbd 990d b93d 12f2 393d e37d dbbd
00000150: 0fdf 9d3d d774 ea3d cf70 84bd 4b06 763c
00000160: 974a 96bd 7963 21be 19dc 093e b654 dbbd
00000170: ba5c 803d d8d0 233e 1a3a d33d 344c 02bd
00000180: a2de 7abd 2d4c e9bd f945 383d 50cc f43d
00000190: 8530 89bd e6f8 d43d 499f 2bbe 3ecd 9a3c
000001a0: 1ada 88bd f364 053e 224c 583d 4997 e0bc
000001b0: 434f 28bd 45cc 193e f342 853d 6882 d0bd
000001c0: 6919 87bd e837 da3d 1680 b83d 0cdf 223e
000001d0: 7747 d2bd c3af 13bd 7fc5 00be bdf5 babc
000001e0: 7f47 fc3d 0dc4 bebd 5a2d 783d 9c14 fa3c
000001f0: d8ff 67bd 575d 69bd 7562 68bd 26d5 80bd
-0.038322147 -0.06856281 -0.10661752 0.23431806 0.13743499 0.04053034 0.03983782 0.09002089
-0.08705299 -0.07300791 0.15778905 -0.028043695 0.12649009 0.07764289 0.077008955 -0.12835254
0.10495122 -0.033816334 -0.092069514 0.0459279 -0.04029646 -0.028268838 -0.079872385 0.0614398
0.13069783 0.0733894 0.093209215 0.12594637 -0.05584865 -0.035912305 -0.10635673 0.085315436
-0.03825927 0.13931894 -0.07106689 0.068787426 0.08308722 -0.04007725 0.060273744 -0.10455468
0.1124162 0.099350855 0.083969116 0.011497173 0.15830089 -0.062384848 0.0117093045 -0.049786527
-0.12929057 -0.09502187 -0.09913886 -0.07631742 0.13145232 -0.074128576 0.13364871 -0.06922865
0.045900762 -0.03368262 0.08916984 0.058397695 0.04364137 0.123334125 -0.030996952 -0.051919207
-0.12637606 -0.06492597 -0.08242075 -0.1275205 0.042428985 0.11486371 0.08449984 0.093174696
0.13865887 -0.0995493 0.08774513 -0.05137641 0.16216083 0.12880221 -0.050688446 -0.062493246
-0.061749555 0.09035797 0.045396872 -0.1071737 0.07708561 0.11448067 -0.06466829 0.015016149
-0.07338446 -0.15760602 0.13462867 -0.10709517 0.06267686 0.15997636 0.10313816 -0.031810954
-0.061247475 -0.113914825 0.044988606 0.11953032 -0.066987075 0.10399036 -0.16759981 0.018896695
-0.066822246 0.1302679 0.05280698 -0.027415888 -0.041091215 0.15019329 0.0650691 -0.10181123
-0.065966435 0.106551945 0.090088055 0.15905398 -0.10267537 -0.03605629 -0.12575339 -0.022822255
0.12318324 -0.093147375 0.060590126 0.030527405 -0.056640476 -0.05697378 -0.05673452 -0.06290655

fc1_adv.weight f4 [256, 45]
00000000: 78db 07be e071 2b3d 3bad cc3c ea9c cebd
00000010: 332f 9abd 96ea b0bd 069d 193d 28b8 4dbd
00000020: 3c60 b13d 7653 4c3d e47e e63c abeb 213e
00000030: 6ea6 033d 887e 04be 5a9c bdbd 53e3 2e3c
00000040: 95a1 06bd e200 5abd b325 b53d 9d73 ccbd
00000050: ebdc 10bc 00f7 f13c 493e b3bb 5541 c4bd
00000060: 0386 093e fab3 743d a013 083e ac57 d13d
00000070: 6fa7 4ebd b43d fdbd 4ba1 363d 527e d63d
00000080: 123d d33d b822 e03d f4c4 edbb 0d2c 6b3d
00000090: 0fe3 ffbc de70 a5bd d622 7b3c 4b12 f93d
000000a0: 83ac 893d f369 01be 1f55 183e e7be 44bd
000000b0: 0e05 0b3e 1643 f93c 5b92 5dbd 2f9f 8e3d
000000c0: 88de 0a3d 69c6 02be 5bba 0dbe ac60 e73d
000000d0: edf2 2f3d fd72 10bd bf84 a13d b8de 57bd
000000e0: 11f2 943d b548 543d 88fc b53d 1ce0 da3d
000000f0: 7d67 543c 4ed7 763d 8bfd 00be da9b 00bd
00000100: e29e d63c 5872 dabd 0ef5 7dbd f1bb 803d
00000110: 0e49 7fbd 64ec a4bc 32e5 333d cc4b 16bd
00000120: 7895 a7bd 0f86 173d 47b1 e23d d39c 75bd
00000130: 33d7 3e3d 26db ba3c f949 0a3d 68f0 14be
00000140: 259d 6dbc 8b87 08be b71a f23d 8282 e2bd
00000150: 4096 de3d d2ce 0e3e d5be 993d 35b0 afbc
00000160: ea8e 743d 7a4b 5d3d 29b9 89bc 7719 e6ba
00000170: 6791 ce3d 55de ab3d a602 07be e9d8 073e
00000180: 656e b3bd 94e4 d9bd 06fe 8ebd e2b9 fb3d
00000190: f460 1bbc 6f77 05be 2bef 90bd e353 0fbe
000001a0: 2ebd c33d 6a49 2b3d ec2c 323d 50d9 45bb
000001b0: 9811 eabd 939c 04bb d39e babd 58c1 b2bb
000001c0: ade5 dfbc 96c3 043e 75b5 e3bd e2a4 9f3d
000001d0: 90c5 93bd 6911 093e b4a9 443d 9e3f ccbb
000001e0: b61d 113d 4272 053d ce06 b23d fa4f 9d3b
000001f0: 3565 93bd c016 063d 11f9 05bd 2c02 ad3c
00000200: 3eff c03d da68 00bd e38e 0cbe e668 863d
00000210: 5f18 26be 9b86 cfbd 2126 a9bc 188f 0dbe
00000220: 8709 93bd 8710 a0bd 4d23 a138 42d3 05be
00000230: c5a3 26bd 20e1 a6bd f768 183d 97b8 27bd
00000240: 689a 0dbe 44af 853c cbc5 30bd b05a f33d
00000250: ae13 e3bc ccda d83d 478d d4bc 1ef6 e6bd
00000260: f19b 133c 743b e03d c9fa 063e b2fd 523a
00000270: 8d64 b93d 1229 263d 2c67 0f3e ce16 81bd
00000280: e263 853d 6014 c0bd e101 c7bd d888 42bd
00000290: 4b01 bebd dc27 393e be1e dbbb 2eb7 2a3e
000002a0: 2836 afbd 0354 123e f52e b63d 33d8 a93d
000002b0: fe7e bf3c 2314 e1bd 6021 a23b 7de7 a7bd
000002c0: eae5 76bd 3549 f63d 5151 0abe 723d 48be
000002d0: a231 943b 94b0 093e a551 753d 0530 b4bd
000002e0: f9a6 783c 895c e13d 17c4 c5bd a8bf 41bd
000002f0: f1c5 f93d 3ccd bdbd 3741 023d 0695 bfbd
00000300: 946f 793c ee24 11bd 6983 903d 9bb2 58bd
00000310: 3870 f2bd 96f1 c9bd f1e9 bdbd a458 043e
00000320: 82c4 893c cee8 7c3d 880e 873d 94b1 0a3e
00000330: ebd0 24bd c24a bd3c 2daf 313d e9a2 203d
00000340: 25d9 873d 912f e33d 730b dabd a481 163e
00000350: 5b11 ac3d f60f 8bbd 6995 29bd f12c b2bd
00000360: b932 04be b2d6 d63d 66f9 9d3c 73d1 fabd
00000370: 2afd adbd 3f52 e7bc bdee de3d 0004 39b9
00000380: b790 993d 0706 b9bd 4669 09be d9a5 083e
00000390: 92d8 15be a890 bebd 10d7 0e3e 0d17 3b3d
000003a0: b51a 843d d14c 0abe 3c45 4f3d f5e4 043e
000003b0: 694b 87bd ef09 e93d b607 e93d 0b44 e4bd
000003c0: db1a 033d b81b 0cbe 2b2d 1e3d 76f0 adbd
000003d0: c161 de3d 73b1 8e3d 7f0d c13d df29 2c3d
000003e0: c05d 66bb b344 063e 3e0c 1d3e cdb1 bb3d
000003f0: 3678 0bbe 0624 9c3c 9bc9 cfbd 1302 efbd
-0.13267314 0.041856647 0.024984946 -0.10088523 -0.07528534 -0.08638494 0.037503265 -0.050224453
0.086609334 0.049884282 0.028136678 0.15812556 0.03214114 -0.12938893 -0.09258337 0.0106743155
-0.03286894 -0.0532235 0.08845081 -0.09982989 -0.008841733 0.029536724 -0.0054700715 -0.095827736
0.13430028 0.05974195 0.13288736 0.102218 -0.050452646 -0.123652846 0.044587415 0.104733124
0.103143826 0.10944122 -0.0072561447 0.057415057 -0.0312362 -0.08078168 0.01532813 0.12161692
0.06722357 -0.12638073 0.14876221 -0.04803362 0.13576147 0.030427497 -0.054094654 0.069639556
0.03390363 -0.12771 -0.1384062 0.112977356 0.04295628 -0.03526591 0.078866474 -0.052702636
0.07272733 0.05182715 0.08886057 0.10687277 0.012964127 0.060263924 -0.12596719 -0.03139863
0.026198808 -0.106663406 -0.06200128 0.06285847 -0.06232553 -0.020132251 0.04391975 -0.03669338
-0.08182806 0.036993083 0.11068969 -0.059964012 0.04659195 0.022809576 0.033761952 -0.14544833
-0.014502798 -0.13332956 0.11821502 -0.11060049 0.10868502 0.13946083 0.075071014 -0.021446327
0.059706606 0.05402706 -0.016811924 -0.0017555197 0.10086327 0.08392016 -0.13184604 0.13266338
-0.087612905 -0.10639301 -0.06982045 0.12291314 -0.009483565 -0.13033842 -0.07076868 -0.13996844
0.095575675 0.04181806 0.043499872 -0.0030189343 -0.11429137 -0.0020234927 -0.091123246 -0.0054551773
-0.027331198 0.12965235 -0.111185946 0.07795121 -0.072154164 0.13385548 0.048013404 -0.0062331697
0.035428725 0.032579668 0.08692704 0.0048007937 -0.07197038 0.03273654 -0.03270823 0.0211192
0.094236836 -0.031349994 -0.13726382 0.065629765 -0.16220234 -0.10133096 -0.020648064 -0.13824117
-0.071795516 -0.07815652 7.6836535e-05 -0.1306887 -0.040683527 -0.08148408 0.037209477 -0.040947523
-0.13828433 0.016318925 -0.04315738 0.11882532 -0.027719345 0.10588607 -0.025946273 -0.11277412
0.009009347 0.1094884 0.13181604 0.0008048668 0.09052382 0.04056651 0.140042 -0.06303178
0.06513192 -0.09378886 -0.09717155 -0.047493786 -0.0927759 0.18081611 -0.0066870144 0.1667144
-0.08555251 0.1428986 0.08895675 0.0829319 0.023375984 -0.10990169 0.0049478263 -0.0819845
-0.060277857 0.12025682 -0.13507582 -0.1955469 0.0045225183 0.13446265 0.059892315 -0.087982215
0.015176528 0.11003978 -0.09656542 -0.04730192 0.121959575 -0.09267661 0.031800475 -0.09354596
0.015224356 -0.03543561 0.070563145 -0.052904706 -0.1183781 -0.09860532 -0.092731364 0.12924439
0.016817335 0.061745457 0.065945685 0.13544303 -0.040238302 0.023106936 0.04337995 0.039217863
0.06633214 0.11093057 -0.10646715 0.14697891 0.08401748 -0.06790154 -0.041402254 -0.08699978
-0.12909974 0.10490169 0.019283962 -0.122469805 -0.08495553 -0.02823746 0.108853795 -0.00017644465
0.07498305 -0.09034353 -0.13419065 0.13344516 -0.14633396 -0.09304935 0.13949227 0.04567628
0.064504065 -0.13505866 0.050603136 0.12977965 -0.0660618 0.11378848 0.11378424 -0.11145791
0.032008033 -0.13682449 0.038617294 -0.0849313 0.10858489 0.069674395 0.09426402 0.04203212
-0.0035151094 0.13112144 0.15336701 0.09164772 -0.13620076 0.019060146 -0.10145875 -0.116703175

fc1_adv.bias f4 [256]
00000000: 5d44 14be 2255 eb3d 2830 4b3e 25ad a5bd
00000010: 2768 fabd 1745 91bd d887 063e 8e7d 903d
00000020: db6e c8bd c728 b03d 95d7 15be b355 853d
00000030: 2b16 6bbd 1f4a 0cbe 3777 243e 6569 b7bd
00000040: d02c 1c3e a2e9 1e3e 4330 8a3c 7b03 3b3c
00000050: e730 03be 2bd9 b93d d43f 9cbd af89 bfbd
00000060: 0594 0c3e a43e 06bd 26f4 0d3e e2d0 1c3e
00000070: e542 803d cb88 0b3e 51f1 5b3e 45db 6abd
00000080: 86bd f33d d8ae 083e d518 6e3e 1fc2 44bd
00000090: 8df5 a73c 595f f43d 0778 4abe f191 1d3e
000000a0: abfd 2bbe d059 aebd 2437 e4bb c210 19be
000000b0: efcf 883d 3126 293e 621a 13bd a716 d6bd
000000c0: 55e2 04be be7c 88bd 6e56 023d 224b 0f3e
000000d0: 9b24 603b 783f 4ebe a2bc 033e 3d61 41bd
000000e0: 224c fb3c 9bca ebbd e8d8 7cbc 523a b0ba
000000f0: f688 17bd 0b36 063e da2b 0fbe 21ce 00be
00000100: 6a73 d0bc 8456 2a3e 845d e7bd 8bf6 9f3d
00000110: 8373 dbbd 7582 76bd 4369 053e 28d8 243e
00000120: 4013 423e a591 b8bd e5d4 f93d 7b15 01be
00000130: 4a4d 1d3d 7622 15be b846 b83d 2211 1fbe
00000140: ed06 febd dcb6 313e 94c4 6d3b f982 07be
00000150: 8d06 883d b737 763d 04f6 fb3d 01aa 273d
00000160: aeb5 2d3e ff3b bcbd d6df 043e 6655 4cbc
00000170: 393a ff3c df88 a6bc c9d4 4d3d 54e8 53be
00000180: a901 8fbc 50ba bf3d 5cc0 213e 41b9 f2bd
00000190: 8426 fe3d 4a84 0e3d e807 09be 82dd 6f3d
000001a0: 5cef 583c 11ab 843d a53e f63d 8b63 03be
000001b0: 9ca1 b8bd 54ba 923d 562f 4cbd bfa5 123e
000001c0: 81e1 7c3d 1d49 ba3d 2785 37bc 4fd0 a2bd
000001d0: 1388 d8ba 8271 493d dc59 9b3d 55df 993d
000001e0: 7505 8ebd 4f35 3fbd c368 0f3e c8eb 333c
000001f0: f176 1f3e 98cb b43d 10f4 71bd c2d8 b5bc
00000200: 5638 0bbe 1c59 793d fc93 c4bd 6f8c 223e
00000210: 3777 69bd a897 0cbe 1407 fd3c 8ed3 bebd
00000220: 87c9 e13d 5adc bbbc ab10 a1bd a511 863d
00000230: 1e14 0cbe b4e7 81bd 53f5 213d dfbb 1bbe
00000240: ecef 8fbd 5665 383d bccc babd 2d43 463d
00000250: ad61 dcbd 54e6 66bd 6d27 a83d ae14 3b3d
00000260: dd72 073b d4a8 f63c e019 c73d e41c 26be
00000270: 8ee3 1ebe 19dd e83d 6b2e d3bd e99c c3bb
00000280: ba98 ec3d c7b5 e33c c3f2 0a3e 9b26 363e
00000290: b67c 053e 1d34 9bbd 3f1b 3b3e c914 03be
000002a0: 4d54 0abe e5c3 6e3e 987e b7bc 1ca7 943c
000002b0: 942d b53c 4a49 ad3d 7ea3 18be 984d 233e
000002c0: 5687 d7bd f68e 90bd bf86 733b e0d7 9c3d
000002d0: 728c a53d d26b 9b3c dfac e23d 7b41 c1bd
000002e0: 8cec debd 989d 843d b47d 07bd 3b2c b3bd
000002f0: 7559 83bc 0aa9 a7bd a564 2bbb 5d10 6fbd
00000300: 1107 c23d eca7 08be 70e8 a8bc f4aa a83d
00000310: 9636 473d 8394 35be 36ae 2e3e c017 26bd
00000320: 57bc c8bc 7c4f 063e 452a ffbc 0d82 0d3e
00000330: f386 09be abfd 9abd 38b6 96bd 827c f63d
00000340: b16a 903d 4992 343e d81a 373e c8dd 4bbd
00000350: 6525 d03d 5b06 fdbd 361a 64bb 5172 b23d
00000360: eb49 143d 16ea 4d3d 9d75 f1bd 2fe2 663d
00000370: 161e debd a4d9 d33d 845e 14bc 1b61 0d3e
00000380: a4f1 aabd 77b4 4f3e d27a b43d 1cf4 afbd
00000390: 74a4 a0bd 667f 00be ab07 1bbe 761a 283e
000003a0: 4a4c 0ebe 695c 7bbb 5fa2 1c3e 6582 f5bd
000003b0: 21f7 383c 5f81 70bd f6bb 543e e86f 8f3c
000003c0: f8a9 493e 0ecb 69bc 56b9 8f3d ac7b c03c
000003d0: e196 02bc 8532 02be 4405 7d3d c5b3 3f3e
000003e0: c0dd 3cbd 45a7 1abe 760d 27be 2aa7 49bc
000003f0: 5ebd fc3d 3627 8b3d 2180 b23d 304c 5abd
-0.14479204 0.11490847 0.19842589 -0.08089665 -0.12226897 -0.07093256 0.13137758 0.07055198
-0.09786769 0.08601528 -0.1463302 0.065104865 -0.057394188 -0.1370015 0.16061102 -0.08955649
0.1525147 0.15518811 0.016868716 0.011414404 -0.12811624 0.09074625 -0.07629362 -0.09352433
0.1372834 -0.032774583 0.13862666 0.15314057 0.06262759 0.13626401 0.21478774 -0.057338018
0.11901383 0.13347948 0.2325166 -0.04803669 0.02050283 0.119322486 -0.1977235 0.15387703
-0.16795985 -0.08513224 -0.006964581 -0.14947799 0.06680285 0.16518475 -0.035913832 -0.10453539
-0.12976964 -0.06664418 0.031820707 0.13993505 0.0034201506 -0.20141399 0.12864926 -0.047211874
0.030675951 -0.11513253 -0.015432574 -0.0013445115 -0.03699585 0.13106553 -0.13981572 -0.12578632
-0.025445659 0.16634566 -0.112971336 0.07810696 -0.107153915 -0.060183007 0.13028435 0.16098082
0.18952656 -0.090121545 0.121988095 -0.1260585 0.038403787 -0.14563927 0.089978635 -0.1553388
-0.12403665 0.17354912 0.00362805 -0.13233556 0.066418745 0.060111728 0.12302783 0.040933613
0.16963837 -0.09191131 0.12976012 -0.012471532 0.031155692 -0.020328937 0.050251756 -0.20694095
-0.017456846 0.09361708 0.15796036 -0.11851741 0.1240969 0.03479413 -0.13381922 0.058560856
0.0132406615 0.06477941 0.12023667 -0.12830941 -0.090151995 0.071644455 -0.04984983 0.1432104
0.061738495 0.090959765 -0.01120118 -0.07949888 -0.0016520045 0.049180515 0.07585499 0.075133
-0.069346346 -0.0466817 0.14004807 0.010981508 0.15572716 0.08827895 -0.059070647 -0.022198085
-0.13595709 0.060875997 -0.09598538 0.15873884 -0.056998458 -0.13729727 0.030887164 -0.093176946
0.110247664 -0.02293222 -0.07864507 0.06546334 -0.13679549 -0.06343022 0.0395406 -0.15208386
-0.07028183 0.045018516 -0.09121081 0.048403908 -0.10760818 -0.056372 0.08210645 0.04567402
0.002066783 0.0301098 0.09721732 -0.16221958 -0.15516493 0.11370296 -0.10311588 -0.005969633
0.11552568 0.02779664 0.13569169 0.17788164 0.13035855 -0.07578299 0.18272112 -0.12800898
-0.1350872 0.23316915 -0.022399232 0.01814609 0.02211646 0.084612444 -0.14906117 0.15947568
-0.1052386 -0.07058518 0.0037159172 0.076583624 0.080834284 0.018972311 0.11068129 -0.094363175
-0.108849615 0.06475371 -0.033078864 -0.08748671 -0.016033867 -0.081865385 -0.0026152518 -0.058365215
0.09474004 -0.13345307 -0.020618647 0.08235732 0.04863604 -0.17732434 0.17058644 -0.040549994
-0.02450387 0.13116258 -0.031148085 0.13819142 -0.13430385 -0.075679146 -0.07358974 0.12035467
0.070516 0.17633928 0.17881334 -0.049772054 0.101633824 -0.12354728 -0.0034805662 0.087132104
0.036203306 0.05027207 -0.11790011 0.05636805 -0.10845582 0.10344246 -0.009055737 0.13806574
-0.083468705 0.20283686 0.088124886 -0.08591482 -0.07843867 -0.12548599 -0.15139644 0.16416344
-0.1389629 -0.0038354641 0.15296315 -0.119877614 0.011289389 -0.058717128 0.20774826 0.017509416
0.19693744 -0.014269603 0.07017772 0.023496471 -0.007970543 -0.12714584 0.0617726 0.1872092
-0.046109915 -0.15102871 -0.16313729 -0.012307921 0.123408064 0.06794588 0.08715845 -0.053295314

fc2_adv.weight f4 [128, 256]
00000000: c3aa 81bd 9926 4bbb 7b93 4cbc 5fb6 403c
00000010: 815c bdbc 1a6b 443a a5a1 a1bc 8785 1a3d
00000020: a43f b73d 8b70 4d3d f983 27bc 4b71 1cbc
00000030: b23c a93c 467f adbd 7c72 b4bd 5db1 7837
00000040: 4f1f dabd d250 3ebb 95e7 a5bd f9b3 6cbd
00000050: 615d 023d a391 76bd 10b4 b83c 7820 2b3d
00000060: 2243 4abd 5f79 9abc 9260 34bd cf0e dbbd
00000070: aec6 f33c d147 e53c 389c 7fbd e156 8e3d
00000080: 3e00 9d3c 1ee7 15be 5b0a 02bd f778 49bb
00000090: 5ed0 3dbd 8ec5 17bd 3ac9 cf3d 1dff 81bd
000000a0: 5148 c43d 15ef cd3d 1690 ad3b db5f 163d
000000b0: e3e5 ec3c fe62 95bc 62bb 91bd 7b39 053d
000000c0: 4292 dd3c 69ee 59bd 4f5a 80bb 42e2 afbd
000000d0: 12ed 1a3c a873 0abe 728f 2fbe 6baa 903d
000000e0: 46d0 58bd c2c4 f13c 5fb0 9d3d 4d5f fa3c
000000f0: a603 31bd ce33 3abd e3e3 48bc 7527 f13d
00000100: 76bb 393d 5bd7 94bd 9587 17be d9c8 d9bd
00000110: 44ed bd3d 7faf 71bd a308 a13c 949a 1c3d
00000120: 31b7 b3bd 56b9 28bd 5df1 4bbd 9e3b 90bd
00000130: c427 2ebd 92d0 9bbb 09c1 23bd f494 3fbe
00000140: 2173 0bbb 58e6 a2bd 1198 55bd 7c28 9dbd
00000150: 726f a5bd 9e9e 953d da7d 2d3c 432c 433b
00000160: 0329 00bd 9e07 393d 2192 243d d8dd 103d
00000170: 5405 d8bd 7042 1bbe a303 52bd 812d cbbd
00000180: b348 3f3d 9f80 a13c d72b 7fbc 4903 993b
00000190: cbac cabd a6a2 593d a063 913d 15c7 a23d
000001a0: 152f 9d3d dd54 29bc 7e01 31bc 813c 3b3d
000001b0: 2b8c 5dbc 5fcc 033d 1c6f fbbd 6ffa 46bd
000001c0: f836 c93c 6512 903d c159 28bc 78be b53c
000001d0: 9cbb 753d 7af6 173d 4a4a 7c3c ffd2 2d3d
000001e0: 55c1 9d3d d8e6 e63c e9e8 793c ae3e 293d
000001f0: 181b a53d 6e82 6abd 2945 51bd 5bcb b03d
00000200: 6ef3 10bd b221 77bc 65ba ca3c 9774 93bd
00000210: d140 a9bd 767e 04bd 048f 973d 9fb3 ddbd
00000220: cd5c 7dbd 09a5 e7bc 8315 583d 0732 fdbd
00000230: 2629 953d 377a d0bc 3943 f1bc c8fa d0bd
00000240: 03a4 973d dd06 7cbd e081 82bc a5f4 22bd
00000250: 2596 15be 6b34 643d cd81 92bc 63fe 80bc
00000260: b86e 263d 28c7 503d efa0 29bd 46f9 463d
00000270: 379d fbbb 3b8b 4fbd e190 b3bb 063a 043d
00000280: 8cc0 3a3d 1ccb 653d b853 f83c 97e0 88bc
00000290: a7dc b0bc 001c 443d 4a2f e03c 8950 93bc
000002a0: f56a b7bc 84f8 26bd e40b 73bd 9512 fe3b
000002b0: de2c c8b9 756d d03b aa72 23be 73b8 7bbd
000002c0: 0689 f5bc 15c6 07be 64c5 22bc 7da7 c43b
000002d0: 2a4c 2e3d 49dd 1fbc 6e98 3cbc 3644 e83a
000002e0: c3a1 7f3d 8c15 66bd 0a5c 20bd c6c8 233d
000002f0: 80a9 543d 7a29 aa3d d0b3 e7bd 03c7 ee3c
00000300: 578e f6bd 4b2f 183d 11e5 e6bc fe65 3c3d
00000310: bd56 863b 5c52 2cbe 458d 10be 0d01 acbd
00000320: 8cde 2b3d fdd6 5d3b 5b65 3dbd aa09 a83a
00000330: 54b8 9b3c 7782 e63c 736c 8ebd 3ba5 213b
00000340: b84f 1e3d 6b94 0b3c 65c3 0abd 2187 173d
00000350: bfdf 7abd eece 743b 21bb 713c d543 a83c
00000360: 5a5c 5f3c 2293 85bc 5870 663c 6f1b a53c
00000370: 42eb 813d 7527 c53c f67b a23d ad63 dbbd
00000380: 46e3 853d cad3 e83c 1b87 36bd ef9b 53bc
00000390: d607 453d ab3e 873d 9b38 163e 0843 93bd
000003a0: 0dec bf3c c3f4 003d 065b 3e3d ed74 c83d
000003b0: 8f47 bcbc 1f65 edbb 59e0 91bd bcd3 71bb
000003c0: b59a dabd 81ac 8c3d a8c4 0bbd 3686 60bc
000003d0: 540d efbc 16e1 47bc 084a 233d 83e7 c0bc
000003e0: d073 3e3c 0019 3b3c ed49 d03d 04bd eebd
000003f0: 4f3b 1d3b 9e3d 253c d2f8 d3bc 3686 cabc
-0.06331398 -0.0030998348 -0.012486334 0.011762231 -0.023115398 0.0007492766 -0.019730398 0.037724998
0.08947685 0.050156157 -0.010224336 -0.0095484955 0.020658825 -0.08471541 -0.08810899 1.48232475e-05
-0.10650503 -0.0029039872 -0.081008114 -0.057788823 0.031827334 -0.060197484 0.022546798 0.04177901
-0.04938043 -0.018856702 -0.04403741 -0.10696184 0.029757824 0.027988346 -0.06240484 0.069501646
0.019165155 -0.14638945 -0.031748157 -0.0030742267 -0.046341293 -0.037053637 0.10145803 -0.06347487
0.09584106 0.10055367 0.0052967174 0.03671251 0.028918212 -0.01823568 -0.071158186 0.03252552
0.02704728 -0.05320588 -0.0039170156 -0.08588077 0.009455936 -0.13520682 -0.17144564 0.07063755
-0.052933 0.029512767 0.07699656 0.030563021 -0.04321637 -0.04545956 -0.012261364 0.11775104
0.045344792 -0.07267638 -0.14797814 -0.10634012 0.092737705 -0.059005257 0.019657439 0.038233355
-0.08775175 -0.041192375 -0.04979073 -0.07042621 -0.042518392 -0.004755088 -0.039979015 -0.18709165
-0.002127834 -0.07954091 -0.052146975 -0.076737374 -0.08077897 0.073056445 0.010589087 0.002978102
-0.03128911 0.04517328 0.040178422 0.035367817 -0.10547891 -0.15162063 -0.051273 -0.099207886
0.04670019 0.019714652 -0.015574417 0.004669581 -0.09896239 0.05313363 0.0709908 0.07948128
0.07674996 -0.010335174 -0.010803578 0.045711998 -0.013522188 0.032177325 -0.12277052 -0.048578676
0.024562344 0.070347585 -0.010275305 0.02218555 0.05999337 0.037100293 0.015398571 0.04243755
0.07702891 0.028186247 0.015253284 0.04131954 0.08061808 -0.057253294 -0.051091347 0.08632537
-0.035388403 -0.015083717 0.024747083 -0.07199972 -0.08264316 -0.032347165 0.07400325 -0.10825276
-0.06185608 -0.028276937 0.05275489 -0.123630576 0.07283239 -0.025448902 -0.029451 -0.10204083
0.0740433 -0.061529983 -0.01593107 -0.039784092 -0.14608057 0.055714052 -0.01788416 -0.015746301
0.040632933 0.05097118 -0.041413244 0.04857757 -0.0076786536 -0.05066989 -0.0054799174 0.032281898
0.045593783 0.056101903 0.030313358 -0.016708655 -0.02158959 0.047878265 0.0273663 -0.017982738
-0.022389868 -0.040764347 -0.05933751 0.00775368 -0.000381804 0.0063607045 -0.1596171 -0.0614552
-0.029972564 -0.13259156 -0.009934757 0.0060014115 0.042553104 -0.009757348 -0.011510951 0.0017720524
0.062410127 -0.056172892 -0.039150275 0.039986394 0.05191946 0.08308692 -0.113135934 0.02914763
-0.12038868 0.037154477 -0.0281854 0.045995705 0.0040996955 -0.16828293 -0.1411639 -0.08398638
0.041960284 0.0033850067 -0.04623924 0.0012820263 0.019008793 0.028138382 -0.06954279 0.0024665135
0.038650244 0.008519272 -0.03387775 0.036994103 -0.061248537 0.0037354785 0.014754088 0.020540157
0.013632858 -0.01630551 0.014064871 0.020154683 0.063437 0.024066666 0.079338 -0.10712371
0.065374896 0.028421301 -0.04456244 -0.012915595 0.048103176 0.0660375 0.14670031 -0.071905196
0.023427987 0.031483423 0.046473525 0.09787927 -0.02298334 -0.0072447206 -0.07122869 -0.0036899885
-0.10674039 0.0686884 -0.034123093 -0.013703873 -0.02918116 -0.012199661 0.039865524 -0.023547893
0.011624292 0.011419535 0.1017035 -0.116571456 0.002399165 0.010085491 -0.025875483 -0.0247222

fc2_adv.bias f4 [128]
00000000: 0fd6 e13c af53 01bd bd86 183d 1e44 603d
00000010: 27f0 34bd d2fe d0bd c08c 2bbd 1fe6 633c
00000020: d11e bebb be49 323d 3252 603d c2b9 debc
00000030: 728d 893d b5bb 64bd 5113 6cbd 39b3 55bd
00000040: df45 4bbc 5c3a 86bd 45cf 35bd ca81 d2bc
00000050: 47e4 50bd 8eab 81bd 816d 623c bca5 48bd
00000060: ab7e 5bbc 665a 373d e8c7 7f3d f78c 32bd
00000070: 7775 0d3c 8aac 9e3d e108 27bd 47ab 67bb
00000080: 4ccc cbbc dc72 073d 4b2b 703d 36d6 803c
00000090: 9bfe e83c cc62 2dbd 3e06 6cbc 77c1 a3bc
000000a0: cec0 4dbd 69dd 52bd 5d19 3abd 63b9 2c3d
000000b0: add4 073b 0933 c23c 25fa 373d e098 f7ba
000000c0: b23c 1ebd 0b1c 7dbd 489e 24bd fc72 323c
000000d0: 2463 d2bb 0ccf 89bc 3ae7 b43c 46b6 ed3c
000000e0: 5ee1 d2bc f37a 073d 8111 f03c ade8 95ba
000000f0: 03e2 5d3c f5ca e53c 34af 07bd f5d3 3c3d
00000100: 560f 3bbd 8ea0 983d d84e d23c cbd7 703d
00000110: 8ce7 6cbd 9584 e0bc a8c4 dbbc f9db 733d
00000120: 3196 e4bb 89c4 3c3d 7e54 c7bc eac2 e63d
00000130: c4f3 a1bb 61cf 093d 4092 b5bc d78a 4c3d
00000140: 6335 453d 0010 153d 7f93 d0bc 2e9c 7e3a
00000150: fd9a 9f3d 05b6 29bd 597f 3cbc a8a4 2d3d
00000160: 03de 0bbd f668 c63c 4fed 9fbc d452 843c
00000170: 680c a2bc f34c 2cbd be53 933d d228 233d
00000180: bd33 55bb 0aa8 26bd 80f9 003c 14b6 d4bb
00000190: 65c0 823b 505a d93c bea4 14bd fcb5 8f3d
000001a0: cb74 013c 7a81 703c 79b3 05bd 3c51 cfbc
000001b0: 98a3 9cbc 1e8c 5a3d 5c17 ac3c 86c3 56bd
000001c0: 78b1 3f3c 4449 24bc d70f 003c 5a0b 43bd
000001d0: 2f5f 83bd 6751 9a3b 94ee 883d ba77 a23d
000001e0: 2223 bbbc e502 853d d09a a63c 1131 c13c
000001f0: 4c67 acbc 7143 40bd a9f7 09bd 5d2e 25bd
0.027567891 -0.031573948 0.03723787 0.05475246 -0.04417434 -0.10204853 -0.041882277 0.013909846
-0.0058020134 0.043527357 0.054765888 -0.027188186 0.06716432 -0.055843074 -0.05763561 -0.052172873
-0.012406795 -0.065541 -0.04438712 -0.025696654 -0.050998952 -0.063315496 0.013820053 -0.04898618
-0.013396899 0.044763945 0.062446505 -0.043591466 0.008633963 0.07747753 -0.040779952 -0.0035349892
-0.02487769 0.033068523 0.058635037 0.015727144 0.028441718 -0.04233055 -0.014405785 -0.019989712
-0.0502327 -0.051480684 -0.045434345 0.042168986 0.002072613 0.023705976 0.04491629 -0.0018890165
-0.038632102 -0.061794322 -0.04019001 0.010891672 -0.00642051 -0.01682236 0.022082914 0.029017579
-0.02574223 0.033076238 0.029305222 -0.0011437141 0.013542655 0.028050879 -0.03312607 0.046100575
-0.045668922 0.074524984 0.025672361 0.058799546 -0.057838008 -0.02740697 -0.026827171 0.059535954
-0.006975912 0.046085868 -0.024332281 0.11267646 -0.004942389 0.033645038 -0.022164464 0.049937095
0.048146617 0.036392212 -0.025460957 0.00097126036 0.077932335 -0.041433353 -0.011504971 0.042393357
-0.034147274 0.024219971 -0.019522337 0.016152777 -0.019781306 -0.042065572 0.07193707 0.03983385
-0.003253206 -0.0406876 0.007871985 -0.006491432 0.0039902204 0.026532322 -0.036289923 0.07017133
0.007901381 0.014679307 -0.03264186 -0.02530729 -0.019120976 0.053356282 0.021007232 -0.05243256
0.011700027 -0.0100272335 0.0078162765 -0.047618248 -0.06414639 0.004709411 0.0668613 0.07932992
-0.022843901 0.06494693 0.020337492 0.023582967 -0.02104535 -0.046939317 -0.033683453 -0.04032742
